results/MyRun1/Pong/checkpoint.pt (torch, 447314 bytes, 41 tensors)

network_body.observation_encoder.processors.0.normalizer.running_mean f4 [8]
0	0x3d9e76ba	0.07737489
1	0xbdbe0d67	-0.092799
2	0x3e10986e	0.14120647
3	0xbce49f7e	-0.027908083
4	0xbed47fcd	-0.41503754
5	0xbe25ba49	-0.16184343
6	0xbed85a23	-0.4225627
7	0x00000000	0.0

network_body.observation_encoder.processors.0.normalizer.running_variance f4 [8]
0	0x4b60eb53	1.4740307e+07
1	0x4a15f0b5	2.4566212e+06
2	0x4c79142f	6.5294524e+07
3	0x4b61ca93	1.4797459e+07
4	0x49feb9ce	2.0867138e+06
5	0x4bdbc509	2.880565e+07
6	0x4a0389c0	2.15512e+06
7	0x3f800000	1.0

network_body.processors.0.normalizer.running_mean f4 [8]
0	0x3d9e76ba	0.07737489
1	0xbdbe0d67	-0.092799
2	0x3e10986e	0.14120647
3	0xbce49f7e	-0.027908083
4	0xbed47fcd	-0.41503754
5	0xbe25ba49	-0.16184343
6	0xbed85a23	-0.4225627
7	0x00000000	0.0

network_body.processors.0.normalizer.running_variance f4 [8]
0	0x4b60eb53	1.4740307e+07
1	0x4a15f0b5	2.4566212e+06
2	0x4c79142f	6.5294524e+07
3	0x4b61ca93	1.4797459e+07
4	0x49feb9ce	2.0867138e+06
5	0x4bdbc509	2.880565e+07
6	0x4a0389c0	2.15512e+06
7	0x3f800000	1.0

network_body._body_endoder.seq_layers.0.weight f4 [128, 8]
0	0x3e52d8c5	0.20590504
1	0x3dc32ed9	0.0953042
2	0x3e077077	0.13226496
3	0x3f260b78	0.6486125
4	0xbeb34251	-0.35011533
5	0xbcd6bd4b	-0.026213309
6	0x3e9949c5	0.29939094
7	0x3edeedf5	0.43540922
8	0xbd53ad57	-0.05167898
9	0xbb5c2907	-0.003359379
10	0x3ea15294	0.31508315
11	0xbf086d9c	-0.5329225
12	0xbf5eeb31	-0.87077624
13	0xbf8bcec3	-1.0922474
14	0xbef36c37	-0.475435
15	0x3db3afb5	0.08773748
16	0x3e38fe35	0.18065722
17	0x3dfd2d2d	0.12362132
18	0xbeb0bdc7	-0.3451979
19	0xbec3e50b	-0.38260683
20	0xbe613917	-0.21994434
21	0xbed9043c	-0.42386043
22	0x3eca08f0	0.39459944
23	0xbf2caf46	-0.67454946
24	0xbceaf9bc	-0.028683536
25	0xbe116704	-0.14199454
26	0xbf2d2976	-0.6764139
27	0x3dd44916	0.103655025
28	0x3dbf1bcd	0.093314745
29	0xbc57955c	-0.013158169
30	0x3ef3692c	0.47541177
31	0x3e1fdbe2	0.15611222
32	0x3f1b6868	0.60706186
33	0x3efcfff0	0.49414015
34	0x3c8b8e34	0.017035581
35	0x3edd78d0	0.43256235
36	0xbe8f18d8	-0.27948642
37	0x3e2560eb	0.16150253
38	0xbe79985b	-0.24374525
39	0xbe9449bd	-0.28962508
40	0x3f2cbbc5	0.67474014
41	0xbe1f8364	-0.15577465
42	0xbed40803	-0.41412362
43	0x3ea594a5	0.3233997
44	0x3e15d953	0.14633684
45	0x3eaa9e4f	0.33323905
46	0x3f292482	0.6607133
47	0xbd830f69	-0.06399424
48	0x3d050397	0.032474127
49	0x3e1bfc5e	0.15232989
50	0xbf1d9819	-0.6156021
51	0x3d11bca7	0.035580304
52	0x3ea27615	0.31730714
53	0xbeb9350e	-0.3617329
54	0x3e868632	0.26274258
55	0xbe29c2e9	-0.16578259
56	0x3ef6b1e8	0.48182607
57	0x3f21aab2	0.63151085
58	0x3f0eba12	0.5575267
59	0xbe50bef1	-0.20385338
60	0xbecd0a4c	-0.40046918
61	0x3f253670	0.6453619
62	0xbc6e9b68	-0.014563419
63	0xbeeb5599	-0.45963743
64	0xbda5cae1	-0.08095337
65	0x3cf725fb	0.030169478
66	0xbc2a4cd1	-0.010394291
67	0xbebb255d	-0.36551943
68	0xbe08c5fd	-0.13356777
69	0xbd953bf5	-0.072868265
70	0xbefcb126	-0.49353904
71	0xbdd772e0	-0.105199575
72	0xbdf16d36	-0.117884085
73	0xbbe122d0	-0.006870605
74	0xbe13f343	-0.14448266
75	0x3d453fcc	0.048156545
76	0x3ea6de8b	0.32591662
77	0x3f232c93	0.6373989
78	0x3e7c808d	0.24658413
79	0xbf5be9f5	-0.85903865
80	0xbd9beb4c	-0.07613239
81	0x3cc03df1	0.023467036
82	0xbef97b1f	-0.48726746
83	0xbe5cee43	-0.21575265
84	0xbe85a2e1	-0.2610083
85	0xbf07f645	-0.5311015
86	0xbea32a70	-0.31868315
87	0xbe2be7a7	-0.16787587
88	0x3ec38e9c	0.3819474
89	0x3d39fb61	0.04540575
90	0x3f2c714f	0.67360395
91	0x3ee55cae	0.4479727
92	0xbe0729a6	-0.13199481
93	0xbd91a98a	-0.07112415
94	0xbf2345e7	-0.6377854
95	0x3e213f49	0.15746798
96	0x3dc54232	0.096317664
97	0xbef2684d	-0.473452
98	0xbe1c3cb8	-0.15257537
99	0x3d1a03e0	0.03760135
100	0x3f1d1a33	0.613681
101	0x3e9c1afd	0.3048934
102	0x3e5f92ad	0.21833296
103	0xbf03dde9	-0.51510483
104	0xbe8d238a	-0.27566177
105	0xbeddc317	-0.43312904
106	0x3f413e65	0.7548583
107	0x3e2baa15	0.167641
108	0x3e668baf	0.22514223
109	0xbee3f6b7	-0.44524166
110	0xbddb4dc8	-0.10708195
111	0xbecfaae4	-0.40560067
112	0x3e82711f	0.2547693
113	0x3e718185	0.23584564
114	0x3db4177a	0.0879354
115	0x3e203756	0.15646109
116	0x3f1c11c9	0.6096464
117	0xbec3e2dd	-0.3825902
118	0x3e7a1f1a	0.24425927
119	0x3e269e61	0.16271354
120	0xbe355245	-0.17707165
121	0xbe313352	-0.17304733
122	0xbcec5965	-0.02885122
123	0xbe9dfdce	-0.308577
124	0xbde1ce92	-0.11025728
125	0xbf2267f7	-0.6343989
126	0xbe3221c1	-0.17395689
127	0xbd8210c0	-0.06350851
128	0x3eb7727a	0.35829526
129	0x3eb451aa	0.35218555
130	0x3d775ae1	0.060389403
131	0x3de0fcbb	0.109857045
132	0xbd876681	-0.06611348
133	0x3c3cd5b6	0.011525562
134	0x3f244bc2	0.641781
135	0xbf3b867a	-0.7325207
136	0x3c1e5f25	0.009666239
137	0xbdb02833	-0.086014174
138	0x3d495d56	0.049161278
139	0xbe835f1f	-0.2565851
140	0xbe1fff9d	-0.15624852
141	0xbf95e79d	-1.1711308
142	0x3f068e4c	0.5256088
143	0x3ebd3235	0.36952367
144	0xbecd18b4	-0.4005791
145	0xbecd0d31	-0.40049127
146	0x3df921ee	0.12164675
147	0xbeeeeae7	-0.4666359
148	0xbe2ec4e4	-0.17067295
149	0xbf2a9003	-0.66625994
150	0x3eebfb15	0.46089998
151	0xbdb38709	-0.0876599
152	0x3eaf77e9	0.34271172
153	0xbdb9d848	-0.090744555
154	0xbf0175c9	-0.5057035
155	0x3e65f615	0.22457154
156	0x3e94b82b	0.2904676
157	0xbf36b311	-0.71366984
158	0xbe2c9133	-0.16852264
159	0xbefbe067	-0.49194643
160	0xbdb68ded	-0.08913789
161	0x3ed079ce	0.4071793
162	0xbdcdae74	-0.1004304
163	0x3f090e4b	0.53537434
164	0xbd01338f	-0.03154331
165	0xbe6879fa	-0.2270278
166	0x3d645abd	0.055750597
167	0x3da6d60d	0.08146296
168	0x3f0a0dc9	0.53927284
169	0xbef3ed9f	-0.47642228
170	0xbddddff9	-0.10833735
171	0x3eb5ffbe	0.35546678
172	0xbebcc57f	-0.36869428
173	0xbf522a27	-0.8209557
174	0x3ef658d8	0.48114657
175	0xbddc0c60	-0.10744548
176	0xbf1d799c	-0.61513686
177	0xbec0a30f	-0.37624404
178	0x3dee6cc6	0.11641841
179	0x3d5fc98b	0.054635566
180	0x3e9c11a2	0.30482203
181	0xbecbc65d	-0.39799777
182	0xbea72082	-0.3264199
183	0xbdd976d2	-0.10618366
184	0x3e94f5cf	0.29093787
185	0x3e998da0	0.29990864
186	0xbd9fe997	-0.078082256
187	0x3eaecd0c	0.34140813
188	0x3ef11374	0.47085154
189	0xbe1b4255	-0.15162022
190	0xbc456362	-0.0120476205
191	0xbc89cae1	-0.016820373
192	0xbebb757f	-0.3661308
193	0xbf5f9eb8	-0.8735156
194	0xbe08119c	-0.13287967
195	0x3dfbe205	0.12298969
196	0x3ec6a55e	0.3879804
197	0x3e6eed51	0.23332717
198	0x3e1d84c2	0.15382674
199	0x3e101623	0.14070944
200	0xbdcdaaab	-0.10042318
201	0xbf623ded	-0.8837574
202	0x3ef1d023	0.47229108
203	0xbf644ed2	-0.8918277
204	0xbe75c756	-0.24001822
205	0x3ac5d25c	0.0015092599
206	0x3db8cf9c	0.09023973
207	0x3ef54a28	0.4790814
208	0x3e6ffc6c	0.23436135
209	0x3f35d318	0.7102523
210	0x3db6ee67	0.089321904
211	0x3e0ebc81	0.13939096
212	0x3d830c57	0.06398838
213	0x3f371a63	0.7152464
214	0xbe14d6a8	-0.1453501
215	0xbd9a89df	-0.07545828
216	0x3e328686	0.17434129
217	0x3eba4874	0.36383402
218	0x3ccef8b9	0.025265085
219	0x3d9b18be	0.075730786
220	0xbd143572	-0.036183782
221	0xbefd8b64	-0.4952041
222	0x3db5190a	0.088426664
223	0xbd0dfe3e	-0.034666292
224	0xbb5638e2	-0.0032687713
225	0x3d4ceedb	0.050032478
226	0xbef30591	-0.47465184
227	0xbd874727	-0.06605368
228	0xbef14f00	-0.47130585
229	0xbe9fadbd	-0.3118724
230	0xbea95e27	-0.33079645
231	0xbec56219	-0.38551405
232	0xbec7a960	-0.3899641
233	0xbe2f16c9	-0.17098536
234	0xbee3c9cf	-0.44489905
235	0x3e99cb20	0.30037785
236	0xbb4de69f	-0.0031417978
237	0xbeb0a04e	-0.34497303
238	0x3a862e16	0.0010237123
239	0xbe864b55	-0.2622935
240	0x3f6cf618	0.9256301
241	0xbe6aa3ff	-0.22914122
242	0x3e45bc60	0.1931014
243	0x3eabdfc4	0.33569157
244	0x3eaeb285	0.34120575
245	0x3d918800	0.07106018
246	0x3f476db7	0.77901787
247	0xbe86b403	-0.26309213
248	0x3e8c54e0	0.27408504
249	0x3f25e9ad	0.64809686
250	0x3e1f76b4	0.15572625
251	0x3ef080a2	0.4697314
252	0xbeb13322	-0.34609324
253	0xbea6246d	-0.32449666
254	0xbdff458d	-0.12464438
255	0x3c96e3b6	0.018419128

network_body._body_endoder.seq_layers.0.bias f4 [128]
0	0x3cb29d17	0.021803422
1	0x3bb83ec8	0.0056227185
2	0x3a643d37	0.00087066315
3	0xbc480bd6	-0.012209853
4	0x3c91f845	0.01781858
5	0x3c78f1dc	0.0151943825
6	0x3bb4fbfb	0.0055232025
7	0xbaf55862	-0.0018718357
8	0xbc3dfe07	-0.011596209
9	0x3bc7094a	0.0060741054
10	0x3b4e67f1	0.003149506
11	0x3c52f5c1	0.012875975
12	0x3cc2c3e4	0.023775049
13	0x3d1f981d	0.038963426
14	0x3d0f3692	0.03496415
15	0x3bf4c7e8	0.0074701197
16	0x3bd64042	0.006538422
17	0x3c3e34d4	0.011609275
18	0x3c8f5a8b	0.017499229
19	0x3a15e59b	0.0005718113
20	0x3cf02b1e	0.029317435
21	0xbc0df519	-0.008664393
22	0x3bfab44c	0.0076508876
23	0x3c5e0279	0.013550394
24	0x3bdc0b48	0.006715212
25	0x3cfa5961	0.030560197
26	0x3b4bb910	0.0031085648
27	0x3c9ed66e	0.019389357
28	0xbc4bb7ad	-0.012433928
29	0x3c142ebe	0.009044347
30	0xbc36f5d5	-0.011167009
31	0x3ce31854	0.027721561
32	0x3cbfb482	0.023401503
33	0x3bd00763	0.006348537
34	0xbcd53749	-0.026027339
35	0x3c063a6d	0.008192641
36	0x3ca43332	0.020043943
37	0xbc663838	-0.0140514895
38	0x3ca689ba	0.020329345
39	0x3cc94cd8	0.024572775
40	0x3d0f9076	0.035049878
41	0x3d303034	0.04301472
42	0x3c072b5f	0.008250087
43	0xbcb00772	-0.021487925
44	0x3d0e3159	0.03471503
45	0x3cc842f5	0.02444599
46	0x3ce1626a	0.027512748
47	0x3d237bef	0.039913114
48	0xbc2bdc39	-0.010489517
49	0x3c1592d8	0.009129249
50	0x3c6678ed	0.014066917
51	0x3c49f8cc	0.012327384
52	0x3c407082	0.011745574
53	0x3bf3e8a9	0.0074435067
54	0xbbeea27d	-0.0072825537
55	0x3bddb71f	0.0067662145
56	0x3c9bfbc9	0.019040959
57	0xbb008cb4	-0.0019615116
58	0x3b29eaa4	0.002592721
59	0x3c9ac7b1	0.018894048
60	0xbc834963	-0.016026204
61	0x3cade176	0.021225672
62	0xbb4cd6a9	-0.0031255877
63	0x3ca9e9f6	0.020741444
64	0x3cce0467	0.025148584
65	0x3b925b94	0.0044664834
66	0xbc8fb6ae	-0.017543163
67	0x3c89bcf4	0.016813733
68	0x3c23ec51	0.010005073
69	0x3cf0439f	0.02932912
70	0x3ca444af	0.020052282
71	0xbb958441	-0.004562885
72	0xbb76fd8d	-0.003768775
73	0x3c1aee09	0.009456166
74	0x3cbb2840	0.022846341
75	0x3c0bf0c5	0.008541291
76	0x3ba7c874	0.0051203314
77	0x3bcacfdd	0.00618933
78	0x3cc9cad4	0.024632849
79	0x3ce7a9e5	0.028279254
80	0x3cb5e1dc	0.022202425
81	0x3ca2e1e1	0.019883098
82	0x3b497766	0.0030741333
83	0x3bf34746	0.007424268
84	0x3ca912d3	0.020638859
85	0x3cf6879e	0.030093964
86	0xbb887898	-0.0041647665
87	0x3cbcd6de	0.023051675
88	0x3cd6df54	0.026229538
89	0xbcad88af	-0.02118334
90	0xbcfce564	-0.0308711
91	0xbc45f4f8	-0.012082331
92	0x3c831ca4	0.016004868
93	0x3cbff468	0.023431972
94	0x3c12dcaf	0.008963748
95	0x3ad641cb	0.0016346512
96	0x3c2b84d5	0.010468681
97	0xbc998624	-0.018740721
98	0x3d11d8b1	0.035607044
99	0xbc005be2	-0.007834407
100	0x3bb5e2b6	0.0055507077
101	0x3cc2e922	0.023792807
102	0x3cdf05fa	0.02722453
103	0xbad40624	-0.0016176146
104	0x3b84b82e	0.0040502762
105	0x3c553849	0.013013908
106	0x3b61e9bd	0.0034471594
107	0xbc643040	-0.013927519
108	0x3c0a688f	0.00844778
109	0x3bc128da	0.0058947625
110	0x3b85cc1d	0.00408317
111	0xb982ef5a	-0.00024973863
112	0x3b59341d	0.0033142634
113	0xbc3be3d8	-0.011467896
114	0xbc85ea62	-0.016347114
115	0xbc935dfd	-0.017989153
116	0x3c4f4ace	0.012652112
117	0x3ce1014d	0.02746644
118	0x3c6c9b34	0.0144413
119	0x3cb0db0f	0.02158883
120	0x3c94b7df	0.018154083
121	0xbc10c5e2	-0.008836241
122	0x3cf67e87	0.03008963
123	0x3cef81b7	0.029236658
124	0xbb14a449	-0.002268093
125	0x3cd26667	0.025683595
126	0xbbd7cb85	-0.0065855407
127	0x3ca8b1b3	0.020592546

network_body._body_endoder.seq_layers.2.weight f4 [128, 128]
0	0x3d48c24a	0.049013413
1	0xb9c2e37e	-0.00037172058
2	0xbc7a7b52	-0.015288191
3	0xbe23a3f2	-0.15980509
4	0x3d440406	0.0478554
5	0xbdb9a6d9	-0.09065027
6	0xbcdf1de6	-0.027235936
7	0xbe3033fd	-0.17207332
8	0xbcd31db0	-0.025770992
9	0x3dc846eb	0.097791515
10	0xbd845c68	-0.064629376
11	0x3d8d79ed	0.06908021
12	0x3c99046c	0.018678866
13	0x3e83567b	0.25651917
14	0x3c0f8dc6	0.008761829
15	0xbc7f3e43	-0.015578809
16	0x3dae5d9e	0.0851395
17	0xbc93b8a2	-0.018032376
18	0x3c42847f	0.01187241
19	0xbcbc5af3	-0.022992587
20	0xbc912d64	-0.01772184
21	0xbd61c604	-0.055120483
22	0x3d16d040	0.036819696
23	0x3d67d982	0.056603916
24	0x3e0e3b72	0.13889864
25	0x3d8367b0	0.06416261
26	0xbe06c77d	-0.13162036
27	0xbca2991a	-0.019848395
28	0xbd8295d9	-0.063762374
29	0x3cac4019	0.021026658
30	0x3d08645e	0.033298843
31	0x3d0af38a	0.033923663
32	0xbd226471	-0.03964657
33	0xbe44fb01	-0.19236375
34	0xbdcbcc07	-0.099510245
35	0xbe48e77e	-0.19619557
36	0xbd894468	-0.067025006
37	0xbe0aa6bc	-0.13540167
38	0x3cc4e294	0.024033822
39	0x3da509ff	0.08058547
40	0xbe0aa845	-0.13540752
41	0xbe33cea1	-0.17559291
42	0x3d181248	0.03712681
43	0x3d21af14	0.039473608
44	0x3da81d4f	0.08208715
45	0xbcffbcd9	-0.03121798
46	0xbc798812	-0.015230196
47	0x3bc354b4	0.005961025
48	0xbd02fd11	-0.031979624
49	0xbd214710	-0.03937441
50	0x3cdabe42	0.02670205
51	0x3dc90966	0.09816246
52	0x3d3a760f	0.045522746
53	0xbd22aae3	-0.03971375
54	0x3dd4872f	0.10377347
55	0x3e26543d	0.16243072
56	0xbdc32000	-0.09527588
57	0x3d5a0ac4	0.053232923
58	0xbdba02a4	-0.09082535
59	0xbc8f522d	-0.01749524
60	0xbc85ca46	-0.016331803
61	0xbd76c641	-0.060247663
62	0x3ca661ee	0.020310368
63	0x3e15d3fe	0.1463165
64	0x3dab97cd	0.08378563
65	0xbddf8220	-0.10913491
66	0xbc8a3ad8	-0.016873762
67	0x3dfec70f	0.12440311
68	0xbda3d31d	-0.07999251
69	0xbdb8d505	-0.09025005
70	0xbd8ecd09	-0.06972701
71	0xbd98306e	-0.07431112
72	0xbe5b8763	-0.21438365
73	0x3daa48a1	0.08314634
74	0x3d8963d4	0.06708494
75	0x3acd8f21	0.0015682915
76	0x3db5f961	0.08885456
77	0x3d4d643f	0.05014443
78	0x3c915e28	0.017745093
79	0x3cc0c53c	0.023531549
80	0x3e2dce17	0.16973148
81	0x3ced7cb6	0.02899013
82	0xbd8e77e9	-0.06956465
83	0x3d42b27b	0.047533493
84	0x3d847f99	0.0646965
85	0x3e161323	0.14655738
86	0xbc95a96d	-0.018269265
87	0xbe25c5e3	-0.16188769
88	0xbd37f51b	-0.044911485
89	0xbdd55307	-0.10416227
90	0xbe43f57c	-0.19136614
91	0x3d5a2f92	0.053268023
92	0xbda04f47	-0.07827621
93	0xbdd7b554	-0.105326325
94	0x3d00e428	0.031467587
95	0xbd9bb18a	-0.07602222
96	0x3e07570f	0.13216804
97	0x3dece17b	0.115664445
98	0x3d35faae	0.04442852
99	0x3d15e230	0.036592662
100	0x3c12325b	0.0089231385
101	0xbd84b0ed	-0.064790584
102	0x3d7b175b	0.06130157
103	0xbdd5eb74	-0.104453
104	0x3e03d355	0.12873586
105	0x3e0371aa	0.12836328
106	0x3d0e3b55	0.034724552
107	0x3d3f6a9b	0.046732526
108	0x3df5ba8c	0.119984716
109	0x3dc0952f	0.094034545
110	0xbd3e9b35	-0.046534736
111	0x3e12e87f	0.14346503
112	0xbe0d10fe	-0.13776013
113	0x3d930b65	0.07179908
114	0xbd20cfc1	-0.03926063
115	0x3e2c61ca	0.16834179
116	0x3dc9fe9b	0.09863015
117	0xbd41659a	-0.047216035
118	0x3dc8a8f5	0.09797851
119	0xbdc37265	-0.095433034
120	0xbcb4e85d	-0.022083456
121	0xbd1af7bc	-0.037833914
122	0x3dadcc3d	0.08486221
123	0xbd22a9c6	-0.03971269
124	0x3e4459d1	0.19174887
125	0xbc0fdcab	-0.008780639
126	0xbc7d3fac	-0.015457075
127	0x3c2ac036	0.010421803
128	0xbdd3f50a	-0.10349472
129	0xbc64d2fa	-0.013966316
130	0xbd1b7133	-0.037949752
131	0x3d1ab47c	0.03776978
132	0x3db11e19	0.08648319
133	0xbda0b0bb	-0.07846209
134	0x3c9a0dac	0.018805347
135	0xbe08f469	-0.13374485
136	0xbd90bcc3	-0.070672534
137	0x3e46c31a	0.19410363
138	0xbbbce78c	-0.005764907
139	0x3d69ce34	0.057081416
140	0x3d1b20db	0.03787313
141	0xbd5a8bde	-0.053356044
142	0xbdeb85a7	-0.115001015
143	0x3b9734c2	0.0046144435
144	0x3c1ba832	0.00950055
145	0x3b50dea6	0.003187099
146	0x3d29711f	0.041367646
147	0x3d93d222	0.07217814
148	0x3c060a87	0.008181221
149	0x3c690102	0.014221432
150	0x3d23bead	0.039976764
151	0xbd0a4709	-0.03375915
152	0xbe1a7e3f	-0.15087222
153	0x3e0bcefa	0.13653174
154	0xbd4daacb	-0.05021171
155	0x3c909425	0.017648766
156	0xbd3e752a	-0.046498455
157	0xbd8e36a2	-0.06944014
158	0xbc325da0	-0.01088658
159	0xbca557dc	-0.020183496
160	0x3d32f4dc	0.043690547
161	0xbd39f3b6	-0.045398436
162	0x3dc370bc	0.09542987
163	0xbc960ae5	-0.018315742
164	0x3c53c6bb	0.012925799
165	0x3d9ba49c	0.07599756
166	0x3cd0f216	0.02550606
167	0xbd57bd91	-0.05267102
168	0x3d53a5e1	0.051671866
169	0xbe18d962	-0.14926675
170	0x3e0f2ffd	0.1398315
171	0xbb18789f	-0.0023265255
172	0x3e20b074	0.15692312
173	0x3e047458	0.12935007
174	0xbd8f7856	-0.07005374
175	0x3d5bd0ec	0.05366604
176	0xbd7adfea	-0.061248697
177	0xbe48d264	-0.19611508
178	0xbcaacb59	-0.020848917
179	0x3d264f85	0.04060318
180	0xbcbef72e	-0.023311224
181	0x3dc37234	0.09543267
182	0xbdacc0d6	-0.08435218
183	0x3df0cc1b	0.1175768
184	0x3cc4b736	0.024013143
185	0x3dcf2526	0.101145074
186	0x3c2a8fd9	0.0104102725
187	0xbdfd4843	-0.123672985
188	0xbdd11f53	-0.10211053
189	0x3cc9366a	0.02456208
190	0x3c30c9b6	0.010790279
191	0x3d6c0810	0.057624876
192	0xbd89bd3b	-0.06725546
193	0xbdf1eab7	-0.118123464
194	0x3e1ee39e	0.15516517
195	0xbd114425	-0.03546538
196	0x3d8543f0	0.06507099
197	0xbca12e82	-0.019675497
198	0xbddea34d	-0.10870991
199	0x3d80c00b	0.06286629
200	0xbe0be3f8	-0.13661182
201	0x3dfefd99	0.12450714
202	0xbc8168b3	-0.015796995
203	0xbe99673f	-0.29961583
204	0x3d4d8b7d	0.050181855
205	0xbd7aea7f	-0.06125879
206	0xbcf42195	-0.02980117
207	0xbd18dafd	-0.03731822
208	0x3a0fc113	0.00054837874
209	0xbdd51847	-0.10405021
210	0x3d053a32	0.032526202
211	0x3cc97f5f	0.024596868
212	0x3cee0fb0	0.029060215
213	0xbdfce011	-0.12347425
214	0x3d4f456c	0.050603315
215	0x3d0f5f7d	0.035003174
216	0x3da5df4b	0.080992304
217	0x3d38b259	0.04509196
218	0xbced8a0e	-0.028996494
219	0x3df51a23	0.11967876
220	0xbd8c3d8c	-0.06847677
221	0x3d8ec2a4	0.069707185
222	0xbd3067b7	-0.04306766
223	0x3d7e6b21	0.062113885
224	0x3dc440fa	0.09582706
225	0x3d769a90	0.060205996
226	0xbcc8e2cf	-0.024522213
227	0x3c163ab8	0.009169273
228	0x3bb4142d	0.005495569
229	0xbc83119e	-0.015999611
230	0x3dc80d61	0.09768177
231	0xbccc5682	-0.024943594
232	0x3dddda18	0.10832614
233	0xbdad9d30	-0.08477247
234	0xbd4343ee	-0.047672205
235	0xbd98775c	-0.07444641
236	0xbe029dfc	-0.12755579
237	0xbdcd362e	-0.100200996
238	0x3de5d287	0.112217955
239	0x3d67c33c	0.056582674
240	0x3e078f5f	0.13238285
241	0x3d070b73	0.032969903
242	0x3cf7a4b8	0.030229911
243	0x3d5b1a07	0.05349162
244	0x3c6f9558	0.014623009
245	0x3ac1afb2	0.0014777093
246	0x3d25c5f6	0.040471993
247	0xbd79d44a	-0.06099347
248	0x3c423e5f	0.011855691
249	0x3cf54f5f	0.029945074
250	0x3c341d38	0.010993294
251	0xbd201ef5	-0.039092023
252	0xbcfb1c4d	-0.030653143
253	0xbdb4e29e	-0.08832286
254	0xbd217bfd	-0.039424885
255	0x3d84251d	0.06452391

network_body._body_endoder.seq_layers.2.bias f4 [128]
0	0x3c8940f2	0.016754601
1	0xbb0d240b	-0.0021536376
2	0x3c83959d	0.016062552
3	0x3c9c95cf	0.019114403
4	0x3c5f1381	0.01361549
5	0x3c9ceee1	0.019156875
6	0x3cc91012	0.024543796
7	0x3c08fb8f	0.0083607575
8	0x3c44ddee	0.012015803
9	0xbae860da	-0.0017729059
10	0x39c635d6	0.00037805614
11	0x3c0f7f1f	0.008758335
12	0x3cc03a0b	0.023465177
13	0x3c47a7c1	0.012185992
14	0x3b888c47	0.004167113
15	0x3cca4eae	0.02469572
16	0x3c376064	0.011192415
17	0x3ca35eea	0.01994272
18	0x3b356d07	0.0027683394
19	0xb9ca4aa5	-0.00038584057
20	0x3c13224f	0.008980348
21	0xbc1f29ef	-0.009714588
22	0x3cb9c568	0.022677138
23	0x3c9e86a2	0.019351307
24	0x3bdf9d54	0.006824175
25	0xbb916d5c	-0.0044380855
26	0x3bed79b7	0.0072471756
27	0x3c36cb35	0.011156847
28	0xb961353d	-0.00021477505
29	0x3b436f2d	0.0029820905
30	0x3b839c40	0.004016429
31	0x39a01cc1	0.00030539
32	0x3c5bf629	0.013425388
33	0x3ba205f4	0.0049445573
34	0x3c5b158a	0.0133718345
35	0x3ba59ada	0.00505386
36	0x3ced5050	0.02896896
37	0x3cbab936	0.022793394
38	0x3c619dfa	0.013770575
39	0x3b874685	0.0041282796
40	0x3c4152e9	0.0117995525
41	0x3c1e8239	0.009674602
42	0x3c45fedc	0.012084689
43	0x3b2e49d5	0.00265943
44	0x3c28ce0d	0.010303033
45	0x3c48b4ab	0.012250106
46	0x3b8ceaf7	0.004300471
47	0x3be49e13	0.0069768517
48	0x39211b2a	0.00015364276
49	0x3bd4a6aa	0.0064895945
50	0x3c03e48b	0.008050094
51	0x3cc658ad	0.024212206
52	0x3c25004d	0.0100708725
53	0x3c9052c7	0.017617596
54	0x3c737659	0.014859759
55	0x3c0e2b68	0.008677341
56	0x3cd2ec48	0.025747433
57	0x3ca85b58	0.020551369
58	0xbbcbde4a	-0.0062215673
59	0x3c70a75d	0.01468834
60	0xbbeb6741	-0.0071839397
61	0x3ba42c18	0.005010139
62	0x3cd7d8a8	0.026348427
63	0x3ca51811	0.020153077
64	0x3bc430e3	0.005987273
65	0x3c37a3ae	0.011208458
66	0x3c706325	0.014672075
67	0x3cbc998f	0.023022441
68	0x3c0add7c	0.008475658
69	0x3cbaa0bd	0.022781724
70	0x3bf434cf	0.0074525843
71	0x3c9aab37	0.01888047
72	0x3b3b13c5	0.002854572
73	0x3c2cd9f3	0.01055001
74	0x3cbd8cca	0.023138423
75	0x3aac9a29	0.0013168502
76	0x3b89afef	0.004201881
77	0x3c6e37c2	0.014539661
78	0x3c954f46	0.018226277
79	0x3c0d687c	0.008630868
80	0x3b966e7b	0.004590807
81	0x3bcc2b7e	0.0062307706
82	0x3c7baf9b	0.015361692
83	0x3c2fb2d2	0.010723786
84	0x3a6ec197	0.00091078266
85	0x3bee8190	0.0072786286
86	0x3a89ad54	0.0010503926
87	0x3c9f00fa	0.019409645
88	0x3b59dbe6	0.0033242642
89	0x3c67d099	0.014148855
90	0x3c10e60e	0.008843912
91	0x3c67f464	0.014157388
92	0x3cb82f18	0.022483394
93	0x3c8a2c70	0.016866893
94	0xbb62dea6	-0.0034617572
95	0x3c233c85	0.009963159
96	0x3c0e0a3c	0.008669432
97	0x3c09a04b	0.008400033
98	0x3c908d00	0.017645359
99	0x3c40a55f	0.011758178
100	0x3bdd5254	0.006754199
101	0x3bf8d70b	0.0075939945
102	0x3a459164	0.00075366185
103	0x3c897f0e	0.016784217
104	0x3c2e6e43	0.010646406
105	0xba8c7b39	-0.0010717876
106	0x3999a59c	0.00029305823
107	0x3c804967	0.015660001
108	0x3b17817d	0.0023117953
109	0x3b3fb6aa	0.0029253163
110	0xbb3b4d1e	-0.00285799
111	0x3b9245da	0.0044638934
112	0x3c37a363	0.011208388
113	0x3b98910d	0.0046559633
114	0x3c46fea5	0.012145673
115	0x3c24f997	0.0100692725
116	0x3bf6817c	0.00752276
117	0x3c82c447	0.015962733
118	0x3c8d9a06	0.017285358
119	0x3bd1bcdd	0.006400688
120	0x3b870fea	0.00412177
121	0xbbd2efd9	-0.0064372835
122	0xba9ef068	-0.001212609
123	0xbc5070a8	-0.012722172
124	0xba1feb9c	-0.0006100477
125	0x3c7fe813	0.015619296
126	0x3a11a423	0.00055557693
127	0x3b80d716	0.0039318902

action_model._discrete_distribution.branches.0.weight f4 [3, 128]
0	0xbb838220	-0.004013315
1	0xbc54df87	-0.012992746
2	0xbc153759	-0.009107434
3	0x3b7245a4	0.0036967779
4	0x3b72d752	0.003705461
5	0xbc3c6c39	-0.011500412
6	0x3c3d09c1	0.01153797
7	0xbcc2c036	-0.023773294
8	0x3bb1387a	0.005408344
9	0x3c9874b7	0.018610341
10	0x3c006e56	0.007838806
11	0xbc48d2b5	-0.012257268
12	0xba055f16	-0.0005087716
13	0xbcbf7c14	-0.023374595
14	0x3b1d85de	0.002403609
15	0xbbbfe5a3	-0.0058562323
16	0xbc17f5d8	-0.009274922
17	0x3b7a3dd3	0.0038183823
18	0xbc88b9a7	-0.016690088
19	0xbb4ca0da	-0.0031223805
20	0x3c987e31	0.01861486
21	0xbbb4e71c	-0.0055207144
22	0xbacf1395	-0.0015798683
23	0xbba30f00	-0.0049761534
24	0x3c3b4597	0.011430166
25	0x3cdc3911	0.02688268
26	0x3a0bfb63	0.0005339889
27	0x3b88d45d	0.0041757063
28	0x3b412d0a	0.0029476308
29	0xbbc5e7be	-0.0060395887
30	0x3c19d504	0.009389166
31	0x3c91b491	0.017786296
32	0xbc00199a	-0.007818604
33	0xbae0fbfc	-0.0017164941
34	0x3cbf2d8c	0.023337148
35	0xbc3959a6	-0.011312878
36	0xba53a803	-0.0008074047
37	0x3b4aafbd	0.0030927502
38	0xbc8bad1d	-0.01705032
39	0xbbb59b65	-0.005542206
40	0xba4255d2	-0.0007413301
41	0xbbb1d30c	-0.00542677
42	0xbc9b93f8	-0.018991455
43	0xbb995d31	-0.0046802987
44	0xbc089ed9	-0.0083386535
45	0x38312af8	4.2240106e-05
46	0x3ca9e408	0.020738617
47	0xbb6e7b7c	-0.003638952
48	0x3c136717	0.0089967465
49	0xbc24b2d8	-0.010052405
50	0xbc049f21	-0.00809458
51	0x3c246053	0.010032731
52	0x3c64a5f3	0.013955581
53	0xbc1b1ea7	-0.009467757
54	0xbbcd5c1b	-0.0062670833
55	0x3c89445d	0.016756231
56	0x3bb78faf	0.005601845
57	0xbc9b6ef8	-0.018973812
58	0x3c3e9add	0.011633602
59	0x3bed5c74	0.0072436873
60	0x3be5b911	0.007010587
61	0xbcfc1b83	-0.030774837
62	0xbc11eae5	-0.008906101
63	0xbc6c8846	-0.014436787
64	0xbc927a61	-0.01788062
65	0x3b9c8a94	0.004777262
66	0xbac221f8	-0.0014811149
67	0x3c1ce0b0	0.009575054
68	0x395985ba	0.0002074455
69	0xbc2fc971	-0.01072918
70	0xbb95cd5f	-0.0045716013
71	0xbb126f03	-0.0022344
72	0x3c70597b	0.014669771
73	0xbc40f9a2	-0.011778267
74	0xbc78dbaf	-0.015189095
75	0xbc029368	-0.007969715
76	0xbc332d98	-0.010936163
77	0xbc3f736b	-0.011685233
78	0x3ccaf231	0.024773689
79	0xbb97c1f6	-0.0046312762
80	0x3c7af9ee	0.015318377
81	0x36f085de	7.1681416e-06
82	0x3c66f401	0.014096261
83	0x3c816249	0.015793936
84	0xbb5effc1	-0.0034026953
85	0x3ca3f98b	0.020016452
86	0x3bcc401e	0.0062332293
87	0xbc129363	-0.008946273
88	0xbb8c7bdc	-0.004287226
89	0x3c246cd8	0.010035716
90	0x3c4f6eda	0.012660706
91	0x3c9a8108	0.018860355
92	0x3c42b18e	0.011883153
93	0xbbf2ac1d	-0.0074057714
94	0x3c904b1e	0.017613944
95	0x3cd2cd88	0.02573277
96	0x3c92078d	0.017825866
97	0xba8390a3	-0.0010037612
98	0xbbafb326	-0.0053619323
99	0xbc2cefa4	-0.010555182
100	0x3c047dec	0.008086663
101	0x3bffa7ba	0.007801977
102	0xbc7f3b3c	-0.015578087
103	0xba83d5d3	-0.0010058231
104	0xbb307a34	-0.0026928307
105	0x3c40714c	0.011745762
106	0xbb95339e	-0.0045532724
107	0x3c1be711	0.00951554
108	0x3b9ee1a0	0.004848674
109	0x3ae95559	0.0017801925
110	0x3cb68d89	0.022284286
111	0x3c57577e	0.013143418
112	0xbc15b176	-0.009136548
113	0xbbb6cb78	-0.0055784546
114	0xbc2fb73f	-0.010724842
115	0xbb97d293	-0.0046332567
116	0x3bf83648	0.00757483
117	0x3b73cf6a	0.0037202486
118	0xbbcc7006	-0.00623894
119	0xbc0a4fc2	-0.008441867
120	0xbc27914f	-0.010227515
121	0x3b420927	0.0029607506
122	0x3c386d31	0.011256502
123	0xbbc53110	-0.0060178116
124	0x3b76483c	0.0037579676
125	0x3a9223df	0.0011149606
126	0x3a82b49c	0.0009972039
127	0xbbba2f7b	-0.0056819296
128	0x3ca8e8f0	0.020618886
129	0x3c5ef887	0.013609058
130	0x3cddfd03	0.027098184
131	0xbcea91c1	-0.028633954
132	0xbc6334da	-0.013867581
133	0x3d0eb3cd	0.03483944
134	0x3d079d2d	0.03310888
135	0xbc6bdc8b	-0.014395843
136	0x3c4f5da6	0.012656605
137	0xb968e8fa	-0.00022212035
138	0xbb7708a2	-0.0037694355
139	0xbc3fc5dd	-0.011704889
140	0xbd063d90	-0.032773554
141	0xbcd510ae	-0.02600893
142	0xbc78e3d9	-0.015191042
143	0x3cd7c800	0.026340485
144	0xbc0107a2	-0.007875355
145	0xbc839bea	-0.016065557
146	0xbca39ec4	-0.019973166
147	0xbc182b62	-0.009287687
148	0xbcbe0702	-0.023196701
149	0xbc10e1ee	-0.008842928
150	0x3c9232cd	0.01784649
151	0x3bd489d1	0.0064861556
152	0xbd0cd512	-0.034382887
153	0xbbe4846b	-0.0069737933
154	0x3bf1c4cc	0.0073781963
155	0xbcd9bfed	-0.026580775
156	0xba957b33	-0.0011404514
157	0x3c0a6ef5	0.008449306
158	0x3b85b0c8	0.004079912
159	0xbc57d3b0	-0.013173029
160	0x3d1e8d6f	0.0387091
161	0xbcbe9f9a	-0.023269463
162	0xbd2df23d	-0.042467345
163	0xbbb369f5	-0.0054752775
164	0x3d01891b	0.031624895
165	0xbcea0219	-0.028565453
166	0xbc680878	-0.014162175
167	0x3bb41edc	0.005496843
168	0x3bae2d35	0.0053154477
169	0x3caea73f	0.021319984
170	0xbb73d87f	-0.00372079
171	0x3c7ee48e	0.015557421
172	0xbc9ed9f2	-0.019391034
173	0x3ca84b43	0.0205437
174	0xbd1da796	-0.0384899
175	0x3c867cfc	0.01641702
176	0xbcf01409	-0.029306429
177	0x3c9ff871	0.019527646
178	0xbc064093	-0.008194107
179	0x3ca11e5a	0.019667793
180	0x3c625efe	0.013816593
181	0x3cf7254c	0.030169152
182	0x3c71348d	0.014722002
183	0xbcde1056	-0.027107399
184	0x3cff189a	0.03113966
185	0xbcc58736	-0.024112325
186	0xbbb76987	-0.0055972966
187	0xbccf0ea9	-0.025275545
188	0xbc94057f	-0.018069027
189	0xba8f88fb	-0.0010950858
190	0x3cdafb53	0.026731169
191	0xbd001fcc	-0.031280324
192	0xbc916c57	-0.017751856
193	0xbd0f54fd	-0.03499316
194	0x3c7da6d3	0.0154816685
195	0x3d0bce6c	0.034132406
196	0x3d049d77	0.032376733
197	0xbd086393	-0.033298086
198	0xbb3ce477	-0.00288227
199	0xbcda54a2	-0.026651684
200	0xbcd0209d	-0.025406176
201	0x3c6e0627	0.014527834
202	0xbd1e2a78	-0.03861472
203	0x3acb5282	0.001551226
204	0xbc403753	-0.01173194
205	0xbca98f4b	-0.02069821
206	0x3d1bf5cd	0.03807621
207	0xbc72964b	-0.01480634
208	0x3b980824	0.0046396423
209	0x3c8848c3	0.016636258
210	0x3c89b9a6	0.016812157
211	0x3a52c44d	0.00080401154
212	0xbbd293a5	-0.006426292
213	0xbcbb40fc	-0.022858135
214	0xbbdda94e	-0.0067645675
215	0xbc7a6ea5	-0.015285169
216	0x3bacdc16	0.0052752597
217	0x3c6fb69a	0.014630938
218	0x3c154c65	0.009112452
219	0xbcdd96ff	-0.02704954
220	0x3d14cf80	0.0363307
221	0x3d4acfc9	0.049514566
222	0xbc0a492e	-0.008440299
223	0xbb9fe284	-0.0048792977
224	0x3bddb990	0.0067665055
225	0xbd264951	-0.040597264
226	0xbcccf812	-0.025020633
227	0x3c17a991	0.009256736
228	0xbc8c5e54	-0.017134823
229	0x3b47f15e	0.0030508856
230	0xba635211	-0.00086715916
231	0x3d10b2b4	0.035326675
232	0xbcc286ab	-0.023745855
233	0xbc29b45e	-0.010357944
234	0xba1c51ad	-0.00059630984
235	0x3c1ea4d2	0.009682851
236	0xbc51ca27	-0.0128045445
237	0xbb4d627f	-0.0031339226
238	0xbb5bb553	-0.0033524826
239	0xbcc506eb	-0.02405115
240	0x3cbcd129	0.023048954
241	0xbc51b799	-0.012800121
242	0x3c490ea6	0.012271559
243	0x3c2e1eaa	0.010627428
244	0x3c4d9f7c	0.012550231
245	0xbd141b54	-0.036158875
246	0xbccf842d	-0.025331581
247	0xbcd63b31	-0.026151272
248	0x3c6a4bfe	0.0143003445
249	0xbc9b55bf	-0.018961785
250	0xbc886684	-0.016650446
251	0xbc076bc1	-0.008265437
252	0xbce32e39	-0.027732002
253	0x3c89123a	0.016732324
254	0xbb372f45	-0.0027951759
255	0xbca8e373	-0.020616269

action_model._discrete_distribution.branches.0.bias f4 [3]
0	0xbab97d67	-0.0014151753
1	0xb988d60a	-0.00026099413
2	0x3ac67036	0.0015139643

exp_avg f4 [128, 8]
0	0xb80ddb4e	-3.3821263e-05
1	0xb8ae35f0	-8.307013e-05
2	0xb917cd46	-0.00014476952
3	0xb90aef92	-0.00013249952
4	0x389d573c	7.502592e-05
5	0x3876b3ba	5.8818354e-05
6	0x38f54ccb	0.00011696814
7	0x00000000	0.0
8	0x389fd7d6	7.6219134e-05
9	0x38808780	6.1287545e-05
10	0x3829bf8e	4.047114e-05
11	0x38f37292	0.00011608483
12	0xb7a7794c	-1.9964435e-05
13	0xb8ce62b6	-9.841232e-05
14	0x36a49920	4.905407e-06
15	0x00000000	0.0
16	0x37e0f8bc	2.6818707e-05
17	0x386bd8aa	5.623015e-05
18	0x37ce0b5d	2.4562405e-05
19	0x386765e5	5.516959e-05
20	0xb7bae309	-2.227865e-05
21	0xb8ac512e	-8.21672e-05
22	0xb888bac0	-6.51977e-05
23	0x00000000	0.0
24	0xb8af1af9	-8.349674e-05
25	0xb74d5cc2	-1.2240549e-05
26	0xb890407a	-6.878465e-05
27	0xb86f43c9	-5.704517e-05
28	0xb84fb657	-4.9522463e-05
29	0x385dca34	5.2878822e-05
30	0x389018be	6.871064e-05
31	0x00000000	0.0
32	0xb883ef71	-6.291166e-05
33	0xb897f361	-7.245574e-05
34	0xb8513d84	-4.9886774e-05
35	0xb78d1aab	-1.6820928e-05
36	0x38b0d625	8.4322215e-05
37	0x3907842d	0.00012923843
38	0x388eee70	6.8155e-05
39	0x00000000	0.0
40	0xb7cd1611	-2.444818e-05
41	0xb85f1b34	-5.3192678e-05
42	0xb7aec680	-2.083485e-05
43	0x38168f66	3.5896337e-05
44	0xb7b1ee48	-2.1211003e-05
45	0xb800dc27	-3.072261e-05
46	0xb8505502	-4.9670234e-05
47	0x00000000	0.0
48	0xb8258462	-3.9462357e-05
49	0x36c4498e	5.849818e-06
50	0xb8a4d9a5	-7.860669e-05
51	0xb61dc668	-2.351031e-06
52	0x38a3dc22	7.8134486e-05
53	0x38627f2d	5.400104e-05
54	0x389e4181	7.546228e-05
55	0x00000000	0.0
56	0xb8b20711	-8.489018e-05
57	0xb91771be	-0.00014442854
58	0xb8c5ee2e	-9.4380564e-05
59	0xb905ff91	-0.00012779074
60	0x37dd0fac	2.635255e-05
61	0x38edbfad	0.00011336743
62	0x38be77bd	9.082209e-05
63	0x00000000	0.0
64	0x389ef331	7.579325e-05
65	0x38d575b4	0.000101785554
66	0x38257c3e	3.9454775e-05
67	0x38cb41e7	9.6920696e-05
68	0xb738053f	-1.0968476e-05
69	0xb91e9ad2	-0.00015125729
70	0xb897d85e	-7.2405426e-05
71	0x00000000	0.0
72	0x38559992	5.092618e-05
73	0xb77a7082	-1.49273565e-05
74	0x384b33fd	4.844739e-05
75	0x3886b0c2	6.4225416e-05
76	0xb78a5067	-1.6488322e-05
77	0xb890cd22	-6.904664e-05
78	0xb7b84c24	-2.1969965e-05
79	0x00000000	0.0
80	0xb62c2b92	-2.5655359e-06
81	0xb7e2c8e0	-2.703484e-05
82	0x36a6d4ff	4.9719815e-06
83	0xb784f1bf	-1.5848198e-05
84	0x381a12aa	3.6733843e-05
85	0x3810c42a	3.4514967e-05
86	0x373667d8	1.0872223e-05
87	0x00000000	0.0
88	0xb6a3135e	-4.860033e-06
89	0xb9253ec2	-0.00015759005
90	0xb7e4daef	-2.7281667e-05
91	0xb87a5952	-5.968783e-05
92	0x391035ff	0.00013753025
93	0x38dc7c3f	0.0001051356
94	0x3921c05d	0.00015425817
95	0x00000000	0.0
96	0x38231465	3.8881222e-05
97	0x3732929c	1.0643762e-05
98	0x37ca73f4	2.4134271e-05
99	0x391b2c20	0.0001479839
100	0xb8cd1471	-9.778969e-05
101	0xb92e2cd0	-0.00016610627
102	0xb963cd98	-0.00021724997
103	0x00000000	0.0
104	0x37ae7b80	2.0799926e-05
105	0x37c3e5f9	2.33529e-05
106	0xb82ba7c6	-4.092583e-05
107	0x3971c502	0.00023056942
108	0xb7dc8cb6	-2.6291567e-05
109	0xb9218a59	-0.00015405695
110	0xb875dfed	-5.86211e-05
111	0x00000000	0.0
112	0x364fcd30	3.0964839e-06
113	0xb7c9925c	-2.4029221e-05
114	0xb838ef52	-4.4091903e-05
115	0x38c017f0	9.159732e-05
116	0x38b01253	8.395747e-05
117	0xb829cf0d	-4.048557e-05
118	0x3887a518	6.468053e-05
119	0x00000000	0.0
120	0x3867c8fe	5.526188e-05
121	0x38ae4d6c	8.3113875e-05
122	0x38594540	5.1801326e-05
123	0x38c3a71e	9.3294526e-05
124	0xb82ac86c	-4.0717816e-05
125	0xb8bec3c8	-9.096373e-05
126	0xb8a08db9	-7.6557924e-05
127	0x00000000	0.0
128	0x376b3894	1.4020265e-05
129	0xb92b2c93	-0.00016324436
130	0xb85b6639	-5.230887e-05
131	0xb9373114	-0.00017470523
132	0x39141741	0.00014123043
133	0x384cefb6	4.886064e-05
134	0x3910a1da	0.00013793205
135	0x00000000	0.0
136	0x37d40450	2.5274378e-05
137	0x378a7f6e	1.6510221e-05
138	0x3737b6c2	1.0950202e-05
139	0x36cef22c	6.167471e-06
140	0x3759c74a	1.29806085e-05
141	0x37a466fd	1.9598281e-05
142	0xb660e2b0	-3.351055e-06
143	0x00000000	0.0
144	0x383cb134	4.4987726e-05
145	0x38f52d04	0.00011690895
146	0x37b4fc26	2.1575088e-05
147	0x397657e3	0.00023493129
148	0xb8b2c6a6	-8.5247026e-05
149	0xb92ae38d	-0.00016297233
150	0xb9244335	-0.00015665295
151	0x00000000	0.0
152	0x3609da60	2.0541702e-06
153	0xb8a523d4	-7.8744866e-05
154	0xb835e56e	-4.3367436e-05
155	0xb8793c6b	-5.9422495e-05
156	0x3902664a	0.00012435872
157	0x38cd5852	9.791613e-05
158	0x38f2b753	0.00011573606
159	0x00000000	0.0
160	0xb964954e	-0.00021799395
161	0xb909573c	-0.00013097835
162	0xb9bcde30	-0.00036023697
163	0xb88910ba	-6.5357846e-05
164	0x398643c4	0.0002560896
165	0x3989b8e3	0.00026268428
166	0x393b79a4	0.00017879024
167	0x00000000	0.0
168	0x383d37ea	4.5113185e-05
169	0x387f42b9	6.0858878e-05
170	0x380165ee	3.0850926e-05
171	0x35ff2c18	1.9011813e-06
172	0xb86747a9	-5.514143e-05
173	0xb8851a6f	-6.346858e-05
174	0xb88b6ee0	-6.6486886e-05
175	0x00000000	0.0
176	0x3902b3f0	0.00012464798
177	0x38811681	6.155391e-05
178	0x38aff025	8.389381e-05
179	0x38d57762	0.00010178868
180	0xb8a26188	-7.7429286e-05
181	0xb932f3ab	-0.00017066176
182	0xb8a6bba9	-7.950451e-05
183	0x00000000	0.0
184	0xb7da2ab4	-2.600751e-05
185	0xb8a039b6	-7.640144e-05
186	0xb8d96574	-0.000103662635
187	0x375131f0	1.2468998e-05
188	0x398f82df	0.00027372592
189	0x390eab30	0.00013605948
190	0x398068e2	0.00024492206
191	0x00000000	0.0
192	0x39200b0e	0.00015262907
193	0xb7621f0f	-1.3477881e-05
194	0x39253515	0.00015755401
195	0x386ecf42	5.6936646e-05
196	0xb637c5d0	-2.7384267e-06
197	0xb90693d4	-0.00012834306
198	0x35c7ac0c	1.4876728e-06
199	0x00000000	0.0
200	0x36920ac0	4.3523905e-06
201	0x3911d5ec	0.0001390797
202	0xb8bf77f2	-9.129931e-05
203	0x39d56559	0.00040702036
204	0x385d630e	5.2782758e-05
205	0xb96f1102	-0.00022799152
206	0xb9085abb	-0.0001300377
207	0x00000000	0.0
208	0xb8f323c8	-0.00011593808
209	0xb8c56818	-9.413081e-05
210	0xb8b71b95	-8.7312575e-05
211	0xb907e3a6	-0.00012959409
212	0x38133bab	3.51031e-05
213	0x38f52da6	0.00011691013
214	0x386679e0	5.4949778e-05
215	0x00000000	0.0
216	0xb69dd920	-4.7042413e-06
217	0xb9390da0	-0.0001764805
218	0xb8371cf0	-4.365755e-05
219	0xb84a0227	-4.8162558e-05
220	0x39a9f875	0.00032419307
221	0x3947dafe	0.000190597
222	0x3982ad95	0.0002492486
223	0x00000000	0.0
224	0x387534d3	5.846175e-05
225	0x36f3b61d	7.263165e-06
226	0x37fc2326	3.0057108e-05
227	0x36fb8b29	7.4965833e-06
228	0xb8752cf7	-5.845443e-05
229	0xb8a88e0a	-8.037321e-05
230	0x36d46064	6.3293137e-06
231	0x00000000	0.0
232	0xb8d04a30	-9.9320314e-05
233	0xb7291498	-1.007798e-05
234	0xb8e1996f	-0.00010757415
235	0xb7a67636	-1.9843788e-05
236	0x3820ebf3	3.8366717e-05
237	0x38fb40a2	0.000119806515
238	0x36028e10	1.94542e-06
239	0x00000000	0.0
240	0xb899111e	-7.298797e-05
241	0xb7f1f535	-2.8843622e-05
242	0xb7d2a035	-2.5108553e-05
243	0xb80eb858	-3.402712e-05
244	0xb7b8a631	-2.2011898e-05
245	0x3780a7f8	1.5337006e-05
246	0x36e5820c	6.8398713e-06
247	0x00000000	0.0
248	0xb790596e	-1.7207782e-05
249	0xb96e32a2	-0.00022716311
250	0xb9088804	-0.0001302064
251	0xb8c44bf4	-9.360156e-05
252	0x398c7635	0.00026790952
253	0x39549614	0.00020273804
254	0x395e6f47	0.00021213024
255	0x00000000	0.0

exp_avg_sq f4 [128, 8]
0	0x332a05c8	3.9586467e-08
1	0x32ef4549	2.785477e-08
2	0x3316a7e2	3.5077285e-08
3	0x32ab5f06	1.9950232e-08
4	0x331b83c3	3.6208586e-08
5	0x3327f0e7	3.9101817e-08
6	0x3337ccf8	4.2794426e-08
7	0x00000000	0.0
8	0x331d4acf	3.662245e-08
9	0x32c3ed48	2.280889e-08
10	0x32eed679	2.7804377e-08
11	0x3278c980	1.4481316e-08
12	0x32efd073	2.7918054e-08
13	0x32ecec00	2.7581336e-08
14	0x330575fc	3.107378e-08
15	0x00000000	0.0
16	0x325e46f6	1.2938235e-08
17	0x323e72d9	1.1085569e-08
18	0x323a7733	1.0853728e-08
19	0x31eeb15f	6.9468764e-09
20	0x3256a40b	1.24937385e-08
21	0x3222d079	9.477042e-09
22	0x3269864e	1.3592922e-08
23	0x00000000	0.0
24	0x333433de	4.195669e-08
25	0x33232542	3.798528e-08
26	0x3313446c	3.4288334e-08
27	0x32b7a7c2	2.1380291e-08
28	0x333ff019	4.468902e-08
29	0x331f51f0	3.7094594e-08
30	0x3334b57b	4.207457e-08
31	0x00000000	0.0
32	0x3381e4af	6.048628e-08
33	0x3330c0ad	4.115343e-08
34	0x33614878	5.2452805e-08
35	0x32f6dab7	2.873763e-08
36	0x335f8b6a	5.204803e-08
37	0x337431ab	5.685585e-08
38	0x334b1f8c	4.7293312e-08
39	0x00000000	0.0
40	0x3248044f	1.1642512e-08
41	0x3234a8d7	1.0515769e-08
42	0x32104794	8.398178e-09
43	0x31ca9838	5.896279e-09
44	0x32a5bd5a	1.9294635e-08
45	0x321f4e17	9.272774e-09
46	0x32872a64	1.5735345e-08
47	0x00000000	0.0
48	0x32f8406c	2.8900295e-08
49	0x329d4465	1.8308308e-08
50	0x32e25849	2.635001e-08
51	0x32592823	1.26401885e-08
52	0x32b8198b	2.1432035e-08
53	0x32cadfa5	2.3617597e-08
54	0x32c10b69	2.2473346e-08
55	0x00000000	0.0
56	0x329148ed	1.6913384e-08
57	0x32828cd1	1.5198028e-08
58	0x3262e393	1.3206676e-08
59	0x320cd138	8.196643e-09
60	0x32b6266c	2.120506e-08
61	0x328cfbb5	1.6412608e-08
62	0x3295d572	1.7442947e-08
63	0x00000000	0.0
64	0x327211a1	1.4090262e-08
65	0x323f88e2	1.1148787e-08
66	0x322e644d	1.0150939e-08
67	0x31dc98dc	6.420221e-09
68	0x3262c6f0	1.32001645e-08
69	0x3251e4d3	1.221743e-08
70	0x326ece54	1.3900337e-08
71	0x00000000	0.0
72	0x321f2153	9.262595e-09
73	0x320145f6	7.5246955e-09
74	0x31fe7a3a	7.4062685e-09
75	0x3192ae96	4.2690074e-09
76	0x3227c6d4	9.765888e-09
77	0x320885b2	7.946641e-09
78	0x3233fce2	1.047667e-08
79	0x00000000	0.0
80	0x31b957b3	5.394179e-09
81	0x319f3130	4.633101e-09
82	0x31828a2b	3.799206e-09
83	0x31251781	2.402402e-09
84	0x318ba8de	4.0646304e-09
85	0x318ab2ec	4.0366697e-09
86	0x31869754	3.9171173e-09
87	0x00000000	0.0
88	0x339e54de	7.3728856e-08
89	0x33847157	6.1673454e-08
90	0x33786cc3	5.7840918e-08
91	0x33100c1e	3.3538633e-08
92	0x339054f8	6.720978e-08
93	0x3390a539	6.7355764e-08
94	0x3392608e	6.816218e-08
95	0x00000000	0.0
96	0x34146247	1.3819327e-07
97	0x33df1ce6	1.0389503e-07
98	0x33e0dddd	1.04711695e-07
99	0x33937c4d	6.867831e-08
100	0x341d3d14	1.4643985e-07
101	0x34035f97	1.2235101e-07
102	0x34193ead	1.4272037e-07
103	0x00000000	0.0
104	0x33a31b18	7.595207e-08
105	0x33947f0e	6.914898e-08
106	0x33830b60	6.102232e-08
107	0x3328680c	3.9210178e-08
108	0x33b92a46	8.622423e-08
109	0x33606d0b	5.2253238e-08
110	0x33b07153	8.216252e-08
111	0x00000000	0.0
112	0x331d1b90	3.657948e-08
113	0x3318065d	3.5396045e-08
114	0x330f232e	3.3326778e-08
115	0x32b7b8e4	2.1388082e-08
116	0x33068041	3.1315952e-08
117	0x330005fe	2.9807772e-08
118	0x331bc522	3.626804e-08
119	0x00000000	0.0
120	0x3234cee9	1.0524425e-08
121	0x3206f9a4	7.856588e-09
122	0x321ae5f7	9.016268e-09
123	0x31accd0e	5.029171e-09
124	0x320a59c3	8.053067e-09
125	0x321b6e25	9.047231e-09
126	0x32218647	9.4019645e-09
127	0x00000000	0.0
128	0x32f8cda5	2.8964516e-08
129	0x32b30553	2.0840764e-08
130	0x32d49051	2.4745676e-08
131	0x327a1a69	1.455792e-08
132	0x32ef4733	2.785564e-08
133	0x32f0bddc	2.8026015e-08
134	0x3312e07a	3.4197434e-08
135	0x00000000	0.0
136	0x315309d7	3.0710134e-09
137	0x3115678d	2.1741215e-09
138	0x312c70e8	2.5093474e-09
139	0x30de9768	1.6195658e-09
140	0x312ee404	2.5449944e-09
141	0x3137bb5d	2.6736509e-09
142	0x313877d0	2.684363e-09
143	0x00000000	0.0
144	0x33e51ab8	1.06685036e-07
145	0x339ef031	7.401139e-08
146	0x33bc635a	8.772504e-08
147	0x335d4643	5.1519475e-08
148	0x33b583d3	8.452448e-08
149	0x33a94bb0	7.883443e-08
150	0x33bf0040	8.894176e-08
151	0x00000000	0.0
152	0x33068d10	3.1327602e-08
153	0x32af818b	2.043159e-08
154	0x32e96813	2.7172097e-08
155	0x3264b8f2	1.3313398e-08
156	0x32d0cd94	2.4307873e-08
157	0x32f876ae	2.8924969e-08
158	0x33076edb	3.153296e-08
159	0x00000000	0.0
160	0x3414b128	1.3848023e-07
161	0x33e6ea1c	1.0752794e-07
162	0x3405974b	1.244163e-07
163	0x33981baf	7.083087e-08
164	0x340597fc	1.2441882e-07
165	0x3404cf8e	1.2368966e-07
166	0x3403b4c2	1.2266085e-07
167	0x00000000	0.0
168	0x32a0e939	1.8732509e-08
169	0x3274b19e	1.4243055e-08
170	0x328c161c	1.63082e-08
171	0x32177a9d	8.817236e-09
172	0x32885dc3	1.5875122e-08
173	0x3272573a	1.4106087e-08
174	0x32b44feb	2.09911e-08
175	0x00000000	0.0
176	0x331e801f	3.6903767e-08
177	0x32f766c0	2.880131e-08
178	0x33055cee	3.1050995e-08
179	0x32a0b3bd	1.8708187e-08
180	0x33038ed3	3.0630712e-08
181	0x331dfb2f	3.678286e-08
182	0x331f9d7a	3.7163296e-08
183	0x00000000	0.0
184	0x33eb4cf6	1.09570394e-07
185	0x33bf1e82	8.89968e-08
186	0x33bc6272	8.772339e-08
187	0x337be7c5	5.8651285e-08
188	0x33f38eca	1.13415425e-07
189	0x33eb6300	1.0961048e-07
190	0x33f522eb	1.1415053e-07
191	0x00000000	0.0
192	0x33535acc	4.9209845e-08
193	0x32d13738	2.4355913e-08
194	0x333a47be	4.337175e-08
195	0x32cbc1df	2.3720473e-08
196	0x333a44d0	4.3369084e-08
197	0x333a11ae	4.332258e-08
198	0x33210f59	3.7499692e-08
199	0x00000000	0.0
200	0x342ced6d	1.6105123e-07
201	0x33e7c7d0	1.07931214e-07
202	0x3416976f	1.402493e-07
203	0x33b56ea4	8.448595e-08
204	0x342c1813	1.6027506e-07
205	0x340fad6a	1.3381e-07
206	0x341f4bf9	1.4835668e-07
207	0x00000000	0.0
208	0x328aff20	1.6181332e-08
209	0x32416aac	1.1258333e-08
210	0x32611f71	1.3103873e-08
211	0x32064f40	7.817846e-09
212	0x329611fa	1.7470473e-08
213	0x32a0aece	1.8705943e-08
214	0x3276710c	1.43447885e-08
215	0x00000000	0.0
216	0x3411c35d	1.357525e-07
217	0x33ebd796	1.0982255e-07
218	0x33da74ac	1.01726386e-07
219	0x3369d80e	5.444604e-08
220	0x33eb2479	1.09496746e-07
221	0x33e7642f	1.0774999e-07
222	0x33ff6617	1.1892933e-07
223	0x00000000	0.0
224	0x322b7068	9.979068e-09
225	0x32152427	8.681162e-09
226	0x31e3a874	6.6257204e-09
227	0x318fe186	4.187487e-09
228	0x320f35b2	8.335904e-09
229	0x31f5e3cc	7.156336e-09
230	0x3211d221	8.487889e-09
231	0x00000000	0.0
232	0x32f38e75	2.8353705e-08
233	0x329a5e7a	1.7970923e-08
234	0x32c23fee	2.2613644e-08
235	0x32415a19	1.1254564e-08
236	0x32aa440b	1.9821547e-08
237	0x32ca1c8e	2.352888e-08
238	0x32accdfb	2.0117104e-08
239	0x00000000	0.0
240	0x327cb072	1.470845e-08
241	0x321cf318	9.135668e-09
242	0x326c0164	1.3737324e-08
243	0x31e99126	6.797694e-09
244	0x32647d3b	1.3299821e-08
245	0x3259157a	1.2635946e-08
246	0x323213b8	1.0365447e-08
247	0x00000000	0.0
248	0x342cb775	1.608549e-07
249	0x340651d7	1.2509496e-07
250	0x340d265c	1.3145603e-07
251	0x33974a7b	7.0450334e-08
252	0x34164337	1.3994291e-07
253	0x34140521	1.378544e-07
254	0x34241fd9	1.5285276e-07
255	0x00000000	0.0

exp_avg f4 [128]
0	0x38789be4	5.9272992e-05
1	0xb8982131	-7.254107e-05
2	0xb888f425	-6.530461e-05
3	0x38de26e0	0.00010593026
4	0x38b45725	8.599301e-05
5	0xb88cae80	-6.7082234e-05
6	0x39088faa	0.0001302349
7	0xb7b2e876	-2.1327502e-05
8	0xb7befc28	-2.2767184e-05
9	0xb908143e	-0.00012977512
10	0xb8072a3b	-3.222584e-05
11	0xb7bdb7e7	-2.2616192e-05
12	0xb9bfc9ea	-0.00036580797
13	0xb8f92604	-0.00011880326
14	0x383feac0	4.5756577e-05
15	0xb853c73d	-5.0491875e-05
16	0xb7af21cc	-2.0877364e-05
17	0xb793495e	-1.755793e-05
18	0xb98be0e6	-0.00026679708
19	0x384c2526	4.8671987e-05
20	0x391e38ec	0.00015089259
21	0x38aec422	8.333499e-05
22	0xb85a0938	-5.1983836e-05
23	0x3903f15d	0.00012583048
24	0xb9851882	-0.00025385997
25	0xb9c252c0	-0.00037064217
26	0x3829fcc6	4.0528153e-05
27	0x37f66fd0	2.9377552e-05
28	0xb70faaae	-8.563204e-06
29	0x38d5c549	0.00010193379
30	0xb7ffd690	-3.0498282e-05
31	0xb75abca8	-1.30377375e-05
32	0xb84da086	-4.9025308e-05
33	0x38e992f2	0.000111376765
34	0x381e0606	3.7675745e-05
35	0x3887814e	6.4613865e-05
36	0x37b4379d	2.1483569e-05
37	0x3836ef33	4.3614953e-05
38	0x36d1efbc	6.256594e-06
39	0x38b7323e	8.735478e-05
40	0x38d93bbc	0.00010358493
41	0xb8d75c51	-0.00010269194
42	0x39145315	0.0001414533
43	0xb5dc64c8	-1.6420609e-06
44	0xb8320e2c	-4.2451706e-05
45	0xb78b0c80	-1.6575912e-05
46	0xb96009c5	-0.00021365944
47	0xb8b8bdb3	-8.809138e-05
48	0x385b5abe	5.229818e-05
49	0x3959a53a	0.00020756284
50	0xb93b901b	-0.00017887393
51	0xb907f43d	-0.00012965589
52	0xb9377682	-0.00017496388
53	0xb8efc880	-0.00011433754
54	0xb877cb26	-5.9078586e-05
55	0x39173cc7	0.00014423124
56	0x39ab2442	0.00032642676
57	0xb919e9da	-0.00014678334
58	0x37804d13	1.529468e-05
59	0xb8bd00b4	-9.012353e-05
60	0xb80cdffc	-3.3587203e-05
61	0x391f5067	0.00015193374
62	0x39392bb9	0.00017659263
63	0xb9fca2ab	-0.00048186383
64	0x394068bc	0.00018349563
65	0x38e5fd98	0.000109668064
66	0x36b8ed9e	5.5112896e-06
67	0x388fa6f7	6.849871e-05
68	0xb80bf69b	-3.336985e-05
69	0x38948007	7.081037e-05
70	0xb860785d	-5.351786e-05
71	0x39379250	0.00017506746
72	0x37d0bcd8	2.488347e-05
73	0xb7386924	-1.0991735e-05
74	0xb9a0a5da	-0.00030641147
75	0xb88f81c9	-6.842946e-05
76	0xb84942c6	-4.7984322e-05
77	0xb831f21e	-4.2425578e-05
78	0xb8786297	-5.9219627e-05
79	0xb8aead73	-8.329274e-05
80	0xb901f710	-0.00012394437
81	0xb870c76b	-5.740618e-05
82	0x39083309	0.00012988983
83	0x39323a16	0.00016997042
84	0xb9c4d337	-0.000375414
85	0xb9b5b5f6	-0.00034658582
86	0x381fa15e	3.805884e-05
87	0x394549f3	0.00018814932
88	0x3882e80f	6.242107e-05
89	0x3940f203	0.00018400703
90	0x381d2246	3.7463637e-05
91	0x381dfeaf	3.766891e-05
92	0x38975d59	7.2176284e-05
93	0x397a89dd	0.00023893216
94	0xb88f3682	-6.828924e-05
95	0xb8ebdab5	-0.000112464106
96	0x38e3a23b	0.00010854421
97	0x36d71232	6.4096175e-06
98	0xb96dab9f	-0.00022666015
99	0xb8e6361a	-0.00010977332
100	0xb8545678	-5.062527e-05
101	0xb9ccf152	-0.0003908971
102	0xb9994bf7	-0.00029239032
103	0xb7ab2603	-2.040249e-05
104	0x378a3336	1.6474729e-05
105	0xb97a9ba5	-0.0002389984
106	0x385f5ae6	5.3252e-05
107	0x3825f298	3.9565e-05
108	0xb8f93abc	-0.000118841854
109	0x384b12dd	4.841654e-05
110	0x37cbf818	2.4315013e-05
111	0xb9333def	-0.00017093842
112	0x3941e6be	0.00018491872
113	0x38400332	4.5779343e-05
114	0x37f69055	2.9392695e-05
115	0x38273a84	3.98704e-05
116	0xb713cb74	-8.809253e-06
117	0x38cf5613	9.886562e-05
118	0xb8391341	-4.412537e-05
119	0xb90c4070	-0.00013375445
120	0xb9291b56	-0.0001612728
121	0x38651ca2	5.462452e-05
122	0xba0bac68	-0.000532812
123	0xb81c6f92	-3.7297206e-05
124	0x37c69c06	2.3676093e-05
125	0x391adfdc	0.00014769979
126	0x381a82ff	3.683846e-05
127	0x38adca5a	8.286974e-05

exp_avg_sq f4 [128]
0	0x33121751	3.401448e-08
1	0x32d06c6b	2.426369e-08
2	0x322e710f	1.01538395e-08
3	0x330a84b8	3.2251336e-08
4	0x334c598f	4.7578904e-08
5	0x32137822	8.583841e-09
6	0x32c2f489	2.2695774e-08
7	0x326e0821	1.3855272e-08
8	0x322bcca7	1.0000043e-08
9	0x31fe3e25	7.399438e-09
10	0x31632110	3.3051641e-09
11	0x335cd44a	5.1415817e-08
12	0x33eb3b23	1.0953797e-07
13	0x336ae8d6	5.4694134e-08
14	0x32ea5722	2.7280809e-08
15	0x321854ce	8.866847e-09
16	0x32cc5404	2.3786932e-08
17	0x3117fe44	2.2117925e-09
18	0x33a77f72	7.799726e-08
19	0x32c5c0d0	2.30215e-08
20	0x33f7d90d	1.1541315e-07
21	0x32596200	1.2653345e-08
22	0x33010458	3.0039104e-08
23	0x33b8c05d	8.6031584e-08
24	0x3328f267	3.9336012e-08
25	0x34186a03	1.419467e-07
26	0x3273d3b0	1.4192594e-08
27	0x33bc61ce	8.772223e-08
28	0x31b1625e	5.162561e-09
29	0x32b2fa28	2.0835685e-08
30	0x32435ae8	1.1371164e-08
31	0x340107dd	1.2016922e-07
32	0x328cb046	1.6378305e-08
33	0x3328012d	3.9116618e-08
34	0x32082fdc	7.927124e-09
35	0x3304d503	3.0927378e-08
36	0x334d2156	4.77606e-08
37	0x31bac2de	5.4354663e-09
38	0x3292f407	1.7107608e-08
39	0x340e3219	1.3243006e-07
40	0x3411a921	1.3565706e-07
41	0x325847b3	1.2589157e-08
42	0x32f61e0a	2.865183e-08
43	0x326eda6e	1.39030885e-08
44	0x333f683c	4.4565454e-08
45	0x3461f72d	2.104468e-07
46	0x33c95a20	9.3761855e-08
47	0x325a0b0a	1.269178e-08
48	0x328fb1f4	1.6728315e-08
49	0x338868d6	6.352063e-08
50	0x339bdec3	7.25827e-08
51	0x33adb2f0	8.088489e-08
52	0x330c4b7a	3.2664936e-08
53	0x32f46da4	2.8455197e-08
54	0x32610ff0	1.31003475e-08
55	0x330012d0	2.9819432e-08
56	0x3477c7b6	2.3076322e-07
57	0x32953f3e	1.7374642e-08
58	0x31a13218	4.6914117e-09
59	0x33029839	3.040643e-08
60	0x32396ab0	1.0792675e-08
61	0x3384486e	6.159904e-08
62	0x3345b3c9	4.603115e-08
63	0x348a3a28	2.5746817e-07
64	0x3415b37b	1.3942001e-07
65	0x33617129	5.2489813e-08
66	0x309e5c12	1.1522181e-09
67	0x33941545	6.895656e-08
68	0x318bdd79	4.070611e-09
69	0x33d35908	9.841648e-08
70	0x31fce9bd	7.3607382e-09
71	0x336a8b31	5.4608964e-08
72	0x329a2ecd	1.7949242e-08
73	0x32dbee33	2.5603276e-08
74	0x33c11170	8.990435e-08
75	0x329dd19f	1.837253e-08
76	0x328e911a	1.659696e-08
77	0x32967947	1.7517449e-08
78	0x331251fc	3.406784e-08
79	0x328b490e	1.6214951e-08
80	0x32d25e7d	2.4490186e-08
81	0x33382eeb	4.288351e-08
82	0x32984b34	1.7729327e-08
83	0x333344b6	4.1739177e-08
84	0x33cb422e	9.464962e-08
85	0x33759d6c	5.7186682e-08
86	0x31d82953	6.2911254e-09
87	0x33c3bbe0	9.1145694e-08
88	0x342e4cdd	1.6232975e-07
89	0x327b4299	1.4625265e-08
90	0x31bc76dd	5.4850333e-09
91	0x30ffec58	1.8620865e-09
92	0x331d67bf	3.6648768e-08
93	0x33fc172f	1.17388815e-07
94	0x31838c55	3.8285557e-09
95	0x3242a440	1.1329632e-08
96	0x32d4dd74	2.4780753e-08
97	0x319038b9	4.1974e-09
98	0x33462b93	4.6140098e-08
99	0x3280ca58	1.4993176e-08
100	0x3276cf9d	1.436629e-08
101	0x345097f0	1.9426784e-07
102	0x338a3183	6.435132e-08
103	0x32a0a7d7	1.8702776e-08
104	0x31a895c6	4.906471e-09
105	0x33a71bef	7.7816246e-08
106	0x32bb1d80	2.178308e-08
107	0x32930e60	1.711959e-08
108	0x3388e509	6.374655e-08
109	0x326e85e1	1.3883864e-08
110	0x31cf5d04	6.0350676e-09
111	0x333afe02	4.353752e-08
112	0x332b79ee	3.9924934e-08
113	0x31b1a38a	5.1699702e-09
114	0x3208a6d5	7.954175e-09
115	0x319941f2	4.460383e-09
116	0x3324f0a5	3.840309e-08
117	0x331f99ae	3.7159843e-08
118	0x3297b4c5	1.7660918e-08
119	0x325616c2	1.2461614e-08
120	0x3283b085	1.5330679e-08
121	0x32b5b565	2.1153662e-08
122	0x3439ca7c	1.7303131e-07
123	0x3119898d	2.2342619e-09
124	0x3280c14d	1.4989064e-08
125	0x342f3ea1	1.632093e-07
126	0x31e221ca	6.581307e-09
127	0x33c7d52f	9.3054375e-08
