results/MyRun1/Pong/Pong-60256.pt (torch, 447314 bytes, 41 tensors)

network_body.observation_encoder.processors.0.normalizer.running_mean f4 [8]
0.07480191 -0.051178135 0.14304388 0.04404383 -0.39585972 -0.24253757 -0.40287724 0.0
00000000: be31 993d 2aa0 51bd 187a 123e 4e67 343d
00000010: 20ae cabe c55b 78be ed45 cebe 0000 0000

network_body.observation_encoder.processors.0.normalizer.running_variance f4 [8]
4.418105e+06 787668.5 1.9922162e+07 4.2196895e+06 531977.75 8.402033e+06 545159.4 1.0
00000000: 72d4 864a 484d 4049 79fe 974b 53c6 804a
00000010: 9ce0 0149 7134 004b 7618 0549 0000 803f

network_body.processors.0.normalizer.running_mean f4 [8]
0.07480191 -0.051178135 0.14304388 0.04404383 -0.39585972 -0.24253757 -0.40287724 0.0
00000000: be31 993d 2aa0 51bd 187a 123e 4e67 343d
00000010: 20ae cabe c55b 78be ed45 cebe 0000 0000

network_body.processors.0.normalizer.running_variance f4 [8]
4.418105e+06 787668.5 1.9922162e+07 4.2196895e+06 531977.75 8.402033e+06 545159.4 1.0
00000000: 72d4 864a 484d 4049 79fe 974b 53c6 804a
00000010: 9ce0 0149 7134 004b 7618 0549 0000 803f

network_body._body_endoder.seq_layers.0.weight f4 [128, 8]
0.19824554 0.07387974 0.12917282 0.6263927 -0.3398489 -0.021498958 0.30247727 0.43540922
-0.04174575 0.002759597 0.32051244 -0.5230353 -0.86894727 -1.0897272 -0.46941322 0.08773748
0.180655 0.12723683 -0.34651726 -0.37057936 -0.22840558 -0.42463145 0.39900282 -0.67454946
-0.030432217 -0.15020265 -0.6793639 0.0873294 0.10428311 -0.0039113043 0.47853866 0.15611222
0.59903634 0.4862933 0.01263857 0.4199474 -0.286016 0.16399708 -0.24243985 -0.28962508
0.6724082 -0.13945344 -0.41935855 0.33931935 0.12905961 0.3181219 0.6485223 -0.06399424
0.021196973 0.14346948 -0.6258889 0.02378132 0.3159624 -0.3603672 0.26423886 -0.16578259
0.47828567 0.6190315 0.5590238 -0.21623424 -0.39273345 0.6478655 -0.011328449 -0.45963743
-0.072616816 0.03777148 -0.009300146 -0.3605668 -0.1372204 -0.07182004 -0.4952784 -0.105199575
-0.11714963 -0.0041797366 -0.1474829 0.05904626 0.32114634 0.62889475 0.24510568 -0.85903865
-0.08277172 0.02051519 -0.493698 -0.21770665 -0.2687256 -0.5345896 -0.32011375 -0.16787587
0.37375563 0.034173273 0.6678316 0.43448797 -0.13511458 -0.06910924 -0.63666576 0.15746798
0.09069926 -0.4576371 -0.1606541 0.06208272 0.59528565 0.29077417 0.20938267 -0.51510483
-0.28928015 -0.42155197 0.7332266 0.1855482 0.20950156 -0.45563096 -0.115916915 -0.40560067
0.24060585 0.22554706 0.072838746 0.1480458 0.60128653 -0.37849036 0.24681665 0.16271354
-0.17737666 -0.16842704 -0.030828116 -0.29356512 -0.116780795 -0.6382482 -0.16562285 -0.06350851
0.35675097 0.33930105 0.061372 0.09550111 -0.054447126 0.016364858 0.6371221 -0.7325207
0.005179599 -0.08664723 0.04374835 -0.2503966 -0.15865485 -1.167124 0.5247239 0.36952367
-0.39746726 -0.39326662 0.12104364 -0.44947237 -0.17405376 -0.66951853 0.46637633 -0.0876599
0.33096412 -0.09679796 -0.51532817 0.215272 0.2842714 -0.71612984 -0.1733552 -0.49194643
-0.1002171 0.39636183 -0.11115307 0.5212319 -0.033371806 -0.22582512 0.054365307 0.08146296
0.5388603 -0.47341123 -0.109750226 0.35588297 -0.37659007 -0.8258193 0.48139605 -0.10744548
-0.61243665 -0.373492 0.11568029 0.06716962 0.30821225 -0.39999032 -0.3218115 -0.10618366
0.28474203 0.28585827 -0.08319033 0.32367977 0.47738335 -0.14360867 -0.006254399 -0.016820373
-0.36784732 -0.85658306 -0.13461408 0.14455195 0.37716463 0.22380728 0.14831775 0.14070944
-0.09927273 -0.8690918 0.46778426 -0.8663221 -0.25676268 -0.007544 0.089244455 0.4790814
0.23068832 0.6968997 0.09056162 0.12521063 0.079746865 0.72381777 -0.14214587 -0.07545828
0.16273548 0.3572936 0.014633937 0.06709524 -0.042206742 -0.49381158 0.08663377 -0.034666292
-0.0030448355 0.046870317 -0.4740868 -0.061208095 -0.4643706 -0.31119397 -0.32785517 -0.38551405
-0.39909738 -0.17630556 -0.4530673 0.29148355 -0.008314741 -0.34611526 -0.0009446528 -0.2622935
0.9356027 -0.21813214 0.20229444 0.34603876 0.33852708 0.05733685 0.77469254 -0.26309213
0.2618131 0.6380335 0.14585468 0.4577463 -0.34685117 -0.32418096 -0.12679721 0.018419128
00000000: e100 4b3e 434e 973d e145 043e 465b 203f
00000010: ad00 aebe 951e b0bc 4dde 9a3e f5ed de3e
00000020: 97fd 2abd 5bda 343b 351a a43e a4e5 05bf
00000030: 5473 5ebf 2e7c 8bbf ee56 f0be b5af b33d
00000040: a0fd 383e 5f4a 023e b66a b1be 94bc bdbe
00000050: 27e3 69be 4b69 d9be 194a cc3e 46af 2cbf
00000060: fc4c f9bc b9ce 19be cbea 2dbf c2d9 b23d
00000070: 6292 d53d 662a 80bb 0503 f53e e2db 1f3e
00000080: 725a 193f 6ffb f83e 0112 4f3c 5803 d73e
00000090: b070 92be daee 273e 2742 78be bd49 94be
000000a0: f222 2c3f e2cc 0ebe 2ab6 d6be 44bb ad3e
000000b0: 3428 043e e0e0 a23e 8f05 263f 690f 83bd
000000c0: 46a5 ad3c aae9 123e 413a 20bf 0bd1 c23c
000000d0: d3c5 a13e 0d82 b8be 514a 873e e9c2 29be
000000e0: dce1 f43e d978 1e3f 2f1c 0f3f 826c 5dbe
000000f0: 5c14 c9be 83da 253f f59a 39bc 9955 ebbe
00000100: 20b8 94bd 44b6 1a3d a45f 18bc 369c b8be
00000110: 8183 0cbe 6316 93bd 2195 fdbe e072 d7bd
00000120: 25ec efbd 2cf6 88bb c205 17be 7eda 713d
00000130: 4b6d a43e 3fff 203f fcfc 7a3e f5e9 5bbf
00000140: 3884 a9bd 790f a83c fcc5 fcbe 7eee 5ebe
00000150: 6796 89be ddda 08bf f3e5 a3be a7e7 2bbe
00000160: e65c bf3e 46f9 0b3d 03f7 2a3f 3575 de3e
00000170: 7a5b 0abe 2589 8dbd 87fc 22bf 493f 213e
00000180: 89c0 b93d 694f eabe 8282 24be 734a 7e3d
00000190: a464 183f 5ae0 943e 6968 563e e9dd 03bf
000001a0: 871c 94be a9d5 d7be bdb4 3b3f 5900 3e3e
000001b0: 9487 563e 7648 e9be d965 edbd e4aa cfbe
000001c0: 6161 763e cff5 663e 7b2c 953d 5199 173e
000001d0: eaed 193f 7dc9 c1be 81bd 7c3e 619e 263e
000001e0: 3aa2 35be 2378 2cbe 3f8b fcbc 2b4e 96be
000001f0: c52a efbd 3c64 23bf 0999 29be c010 82bd
00000200: 10a8 b63e deb8 ad3e 3561 7b3d 1696 c33d
00000210: f303 5fbd 980f 863c 6f1a 233f 7a86 3bbf
00000220: a0b9 a93b 1a74 b1bd 7831 333d fc33 80be
00000230: 6b76 22be 5264 95bf 4e54 063f 3532 bd3e
00000240: d480 cbbe 3e5a c9be bae5 f73d 3e21 e6be
00000250: 263b 32be 9165 2bbf e1c8 ee3e 0987 b3bd
00000260: 2174 a93e 023e c6bd 8cec 03bf 4370 5c3e
00000270: 058c 913e 4954 37bf 0784 31be 67e0 fbbe
00000280: 9f3e cdbd f0ef ca3e 39a4 e3bd 746f 053f
00000290: e0b0 08bd b33e 67be 28ae 5e3d 0dd6 a63d
000002a0: c0f2 093f f562 f2be bac4 e0bd 4b36 b63e
000002b0: 6ad0 c0be e568 53bf 8b79 f63e 600c dcbd
000002c0: a6c8 1cbf 583a bfbe cae9 ec3d 3a90 893d
000002d0: ffcd 9d3e 88cb ccbe 7ac4 a4be d276 d9bd
000002e0: b5c9 913e 045c 923e b15f aabd 5bb9 a53e
000002f0: 976b f43e 270e 13be b4f1 ccbb e1ca 89bc
00000300: 7c56 bcbe 0749 5bbf 46d8 09be 6d05 143e
00000310: b91b c13e bc2d 653e 9ce0 173e 2316 103e
00000320: 804f cbbd cd7c 5ebf 6b81 ef3e 49c7 5dbf
00000330: 6676 83be a933 f7bb ccc5 b63d 284a f53e
00000340: 8f39 6c3e 0568 323f 5f78 b93d 3737 003e
00000350: 5352 a33d 1f4c 393f b08e 11be df89 9abd
00000360: 21a4 263e 30ef b63e 2ec3 6f3c 3b69 893d
00000370: fae0 2cbd dfd4 fcbe 0c6d b13d 3efe 0dbd
00000380: dd8b 47bb 17fb 3f3d 81bb f2be 57b5 7abd
00000390: fcc1 edbe d154 9fbe a2dc a7be 1962 c5be
000003a0: 7e56 ccbe 7289 34be 70f8 e7be 553d 953e
000003b0: 8d3a 08bc 0536 b1be 94a2 77ba 554b 86be
000003c0: a983 6f3f 085e 5fbe 4626 4f3e fe2b b13e
000003d0: 6c53 ad3e 0bda 6a3d 4052 463f 03b4 86be
000003e0: 5e0c 863e 2a56 233f ee5a 153e b95d ea3e
000003f0: 7a96 b1be 0cfb a5be 21d7 01be b6e3 963c

network_body._body_endoder.seq_layers.0.bias f4 [128]
0.017059082 -0.0002283066 -0.0067598536 -0.0001622168 0.01459981 0.0016432769 0.012676843 -0.001804907
-0.01083765 -0.0035148992 0.0042542517 0.009932538 0.0029010691 0.016716419 0.021615418 -0.00037120725
0.0006554296 0.0047879876 0.0027271132 0.0043265247 0.023860883 -0.0020531577 0.00076848216 0.011950409
-0.009674965 0.008640867 0.010477079 0.015539923 -0.014049292 0.014907903 -0.0050021275 0.018917536
0.011582973 0.003467047 -0.010886621 0.011107174 0.015615104 -0.0053041894 0.013515138 0.018349053
0.027425947 0.023326956 0.0075336434 -0.017084496 0.011809619 0.01929711 0.006845167 0.018212369
-0.0013660636 0.013305799 0.0022662124 0.00096281414 -0.0010111983 -0.0012153117 -0.0077145393 0.011851115
0.02230276 -0.007854655 0.004405989 0.0060419594 -0.00785566 0.020954179 -0.0029107514 0.0035128489
0.023227962 0.0050294027 -0.011421818 0.01293437 7.176807e-05 0.024993422 0.0069740345 -0.00086741813
-0.0015004972 0.012506346 0.008012617 0.003505379 0.00060084596 -0.0052199997 0.008643002 0.011263296
0.009781838 0.008693211 0.011498909 0.009241859 0.003739965 0.0048616654 -0.004044028 0.021780448
0.023156546 -0.0053359773 -0.018737644 -0.0050351853 0.01881518 0.026183069 -0.0024548273 -0.0054839435
0.011866813 -0.0072789723 0.015624461 -0.01558061 0.001870148 0.0074031963 0.010232172 -0.0035430056
0.0022654894 -0.0009740782 0.0077189 -0.008784667 -0.0017358068 0.0027567153 -4.7343903e-05 -0.006460928
0.0137217585 -0.009119422 -0.017554538 -0.007464093 0.004733645 0.026043177 0.0032913547 0.001204615
0.003959438 -0.0030849932 0.00578115 0.014053725 -0.0031075801 0.022370325 0.005257569 0.017542649
00000000: 7dbf 8b3c 9665 6fb9 c381 ddbb be18 2ab9
00000010: 0b34 6f3c 3963 d73a 89b2 4f3c a192 ecba
00000020: 6690 31bc 395a 66bb 4067 8b3b 15bc 223c
00000030: dd1f 3e3b dff0 883c d112 b13c 989e c2b9
00000040: 23d1 2b3a 8de4 9c3b 5eb9 323b 85c5 8d3b
00000050: e677 c33c 458e 06bb f773 493a a6cb 433c
00000060: bf83 1ebc 6c92 0d3c 0ea8 2b3c 299b 7e3c
00000070: 002f 66bc 4740 743c e3e8 a3bb f3f8 9a3c
00000080: 83c6 3d3c 6537 633b cc5d 32bc ddfa 353c
00000090: 7ed6 7f3c c4ce adbb 996e 5d3c c150 963c
000000a0: 61ac e03c 2c18 bf3c c8dc f63b c9f4 8bbc
000000b0: 227d 413c f914 9e3c 6c4d e03b 1b32 953c
000000c0: 7d0d b3ba 9100 5a3c bc84 143b 5d65 7c3a
000000d0: 2f8a 84ba 184b 9fba 3fca fcbb 2e2b 423c
000000e0: 47b4 b63c d0b0 00bc 1d60 903b a1fb c53b
000000f0: 07b5 00bc 19a8 ab3c 4ec2 3ebb d337 663b
00000100: 9148 be3c b0cd a43b 9422 3bbc aeea 533c
00000110: 3082 9638 01bf cc3c 7186 e43b 7263 63ba
00000120: 55ac c4ba 6be7 4c3c 5a47 033c 80ba 653b
00000130: 1782 1d3a 880c abbb 619b 0d3c b089 383c
00000140: 0144 203c f86d 0e3c ec65 3c3c 2b6b 173c
00000150: 331a 753b 9b4e 9f3b c483 84bb e96c b23c
00000160: ccb2 bd3c 6cd9 aebb b07f 99bc 32fe a4bb
00000170: 4b22 9a3c e07d d63c 2be1 20bb a7b2 b3bb
00000180: 056d 423c 7284 eebb bdfd 7f3c d145 7fbc
00000190: c11f f53a 8396 f23b d7a4 273c c531 68bb
000001a0: 9b78 143b 4859 7fba d4ee fc3b 90ed 0fbc
000001b0: 0384 e3ba 02aa 343b 2193 46b8 31b6 d3bb
000001c0: 3ad1 603c a169 15bc 89ce 8fbc 5a95 f4bb
000001d0: b11c 9b3b 8058 d53c c5b3 573b 2ce4 9d3a
000001e0: 2cbe 813b 992d 4abb cd6f bd3b 9841 663c
000001f0: 8ba8 4bbb f941 b73c af47 ac3b 9ab5 8f3c

network_body._body_endoder.seq_layers.2.weight f4 [128, 128]
0.066795155 0.00043597672 -0.010644445 -0.16250445 0.0647427 -0.09941613 -0.025154885 -0.17138292
-0.03045508 0.08208287 -0.06287418 0.07684837 0.0038074346 0.24929653 0.0071106046 -0.014789431
0.08978385 -0.015133262 0.008735793 -0.015746174 0.00391465 -0.048998646 0.035620365 0.063950025
0.12976639 0.04737216 -0.12784027 -0.0051767672 -0.05935987 0.024755236 0.02488588 0.050632894
-0.03850082 -0.17425403 -0.1034125 -0.18962657 -0.0530611 -0.1349902 0.022240601 0.09575901
-0.11357301 -0.17878167 0.038946982 0.04458021 0.07339758 -0.020461407 -0.029454732 0.0032806736
-0.028176699 -0.025872117 0.009708673 0.08778323 0.037903793 -0.036852032 0.09544239 0.14323175
-0.09341282 0.047722198 -0.09078608 -0.023820292 -0.03249531 -0.052922394 0.035355765 0.13166174
0.104395226 -0.11260816 -0.023198286 0.13305913 -0.09243934 -0.07407547 -0.07578196 -0.06198226
-0.21287425 0.077395506 0.063692786 0.009944572 0.092981614 0.059940502 0.005198219 0.017361004
0.15807423 0.022476671 -0.06747992 0.047963295 0.056496557 0.12801357 -0.02763892 -0.14818153
-0.038644247 -0.10123861 -0.1952668 0.05483598 -0.08066242 -0.110286415 0.02175089 -0.07767015
0.14836259 0.10975456 0.0388418 0.032252423 0.013815287 -0.07457595 0.05883547 -0.092562206
0.13276353 0.11794915 0.042483956 0.055405065 0.11657221 0.10568935 -0.045826152 0.12639432
-0.12989336 0.07948475 -0.02580889 0.16757326 0.11185086 -0.033735488 0.08474833 -0.10274949
-0.040079653 -0.040444326 0.06713329 -0.032023903 0.20535012 -0.00042059092 -0.018241065 0.025997784
-0.10169566 -0.009770085 -0.030543946 0.044993464 0.08644721 -0.074371986 0.023601562 -0.13107108
-0.06834301 0.19642073 0.0014625741 0.053856723 0.041103695 -0.05763595 -0.12216448 0.009520644
0.010586759 0.006583506 0.047450427 0.073590256 0.00626022 0.015230934 0.042826675 -0.041309673
-0.145488 0.13914295 -0.05160813 0.014937459 -0.03936879 -0.0630999 -0.012463797 -0.020261703
0.040871676 -0.04205633 0.09625792 -0.013956992 0.011865926 0.07457698 0.023561558 -0.047824897
0.053293407 -0.14786983 0.14988886 0.0052944534 0.15487947 0.12434813 -0.07708974 0.05952987
-0.065323696 -0.1914898 -0.022380535 0.037858 -0.020924553 0.10361846 -0.08677234 0.11444819
0.021291612 0.10795302 0.015477188 -0.1240678 -0.10522003 0.022750912 0.0061600627 0.06047761
-0.067262866 -0.11232689 0.1532358 -0.039279148 0.06369996 -0.022567037 -0.11433975 0.06938449
-0.13102223 0.12875675 -0.010814597 -0.29734665 0.050734043 -0.051313426 -0.03325081 -0.032029297
0.0045984504 -0.10603907 0.037911095 0.028574431 0.038298227 -0.11739342 0.047534723 0.036764506
0.08074364 0.041267954 -0.035874717 0.1220152 -0.068420604 0.066510156 -0.03931616 0.06949936
0.092009 0.054646038 -0.017610526 0.016203644 0.013034358 -0.014035344 0.10552264 -0.022733454
0.11106374 -0.07933596 -0.041177087 -0.0844823 -0.12152491 -0.10062042 0.11330574 0.0578285
0.13509738 0.0330822 0.026344419 0.05890605 0.01625649 0.0018932938 0.040874947 -0.053048614
0.016427323 0.031543456 0.012298263 -0.031721447 -0.027042164 -0.085727535 -0.033724308 0.06462329
00000000: e6cb 883d ce93 e439 0a66 2ebc 9167 26be
00000010: d297 843d af9a cbbd 9e11 cebc 017f 2fbe
00000020: ef7c f9bc 101b a83d 2ec4 80bd ae62 9d3d
00000030: 2786 793b 9747 7f3e 1300 e93b 5f4f 72bc
00000040: 98e0 b73d 80f1 77bc 9220 0f3c 1ffe 80bc
00000050: 7746 803b ceb2 48bd a9e6 113d 3bf8 823d
00000060: 7be1 043e 4f09 423d 8fe8 02be dfa1 a9bb
00000070: 5623 73bd 7ecb ca3c 79dd cb3c 7064 4f3d
00000080: 09b3 1dbd a66f 32be efc9 d3bd 782d 42be
00000090: 9956 59bd df3a 0abe ec31 b63c 4d1d c43d
000000a0: f798 e8bd 8b12 37be df86 1f3d bd99 363d
000000b0: 7851 963d ae9e a7bc 0d4b f1bc 9200 573b
000000c0: d2d2 e6bc c3f1 d3bc 2011 1f3c b2c7 b33d
000000d0: 0241 1b3d 28f2 16bd 4d77 c33d 58ab 123e
000000e0: 384f bfbd 5a78 433d 0dee b9bd c622 c3bc
000000f0: cd19 05bd 27c5 58bd 35d1 103d 56d2 063e
00000100: 2acd d53d 1b9f e6bd 550a bebc a740 083e
00000110: d650 bdbd e1b4 97bd 9233 9bbd 1ce1 7dbd
00000120: b5fb 59be 8981 9e3d 5d71 823d 8fee 223c
00000130: 256d be3d 2c84 753d d255 aa3b aa38 8e3c
00000140: 36de 213e ff20 b83c ea32 8abd 2975 443d
00000150: ef68 673d fd15 033e 046b e2bc e6bc 17be
00000160: 6e49 1ebd 3056 cfbd 05f4 47be b19b 603d
00000170: 5732 a5bd d8dd e1bd ec2e b23c 8711 9fbd
00000180: 5dec 173e 00c7 e03d 9418 1f3d 1e1b 043d
00000190: 8359 623c 47bb 98bd 76fd 703d 4191 bdbd
000001a0: 2af3 073e 538f f13d a803 2e3d 6cf0 623d
000001b0: 69bd ee3d a873 d83d 34b4 3bbd 836d 013e
000001c0: c402 05be e7c8 a23d 2a6d d3bc 5398 2b3e
000001d0: 1012 e53d 392e 0abd 8890 ad3d 536e d2bd
000001e0: 902a 24bd f3a8 25bd 2e7d 893d 7f2b 03bd
000001f0: 4d47 523e c282 dcb9 496e 95bc 4ef9 d43c
00000200: d045 d0bd b512 20bc 4c37 fabc 114b 383d
00000210: 3c0b b13d 5750 98bd 1058 c13c 7f37 06be
00000220: 6cf7 8bbd 8422 493e d8b3 bf3a de98 5c3d
00000230: 595c 283d ad13 6cbd 5f31 fabd 7afc 1b3c
00000240: 1674 2d3c 73ba d73b 615b 423d 7db6 963d
00000250: 8822 cd3b 2b8b 793c 066b 2f3d 5534 29bd
00000260: cefa 14be 7d7b 0e3e 0c63 53bd 3ebc 743c
00000270: 2b41 21bd 853a 81bd f434 4cbc dffb a5bc
00000280: 0f69 273d 4243 2cbd df22 c53d deab 64bc
00000290: 4d69 423c d1bb 983d 2b04 c13c 0ae4 43bd
000002a0: 304a 5a3d 306b 17be 777c 193e 187d ad3b
000002b0: b998 1e3e 3baa fe3d 3ae1 9dbd 98d5 733d
000002c0: 6ec8 85bd e715 44be 6257 b7bc fd10 1b3d
000002d0: f869 abbc ea35 d43d b2b5 b1bd d063 ea3d
000002e0: bf6b ae3c 7916 dd3d 0894 7d3c 4217 febd
000002f0: 997d d7bd 1f60 ba3c 5ada c93b 5fb7 773d
00000300: 1dc1 89bd a40b e6bd d8e9 1c3e 2ce3 20bd
00000310: 2075 823d 82de b8bc f52a eabd 7519 8e3d
00000320: b12a 06be cfd8 033e b52f 31bc d23d 98be
00000330: 80ce 4f3d 072e 52bd 0032 08bd 2731 03bd
00000340: 99ae 963b 032b d9bd aa48 1b3d ed14 ea3c
00000350: 9ade 1c3d f66b f0bd c5b3 423d 6196 163d
00000360: ec5c a53d 9608 293d 5ef1 12bd 1be3 f93d
00000370: 1a20 8cbd 7a36 883d fb09 21bd ae55 8e3d
00000380: 376f bc3d 86d4 5f3d f343 90bc 81bd 843c
00000390: 0f8e 553c 80f4 65bc 411c d83d 823b babc
000003a0: 6375 e33d e47a a2bd 4ea9 28bd 0e05 adbd
000003b0: 0de2 f8bd 1412 cebd d70c e83d 94dd 6c3d
000003c0: f856 0a3e 3381 073d 40d0 d73c 7847 713d
000003d0: 552c 853c 6628 f83a 7d6c 273d 8149 59bd
000003e0: 9892 863c b633 013d a77e 493c 59ee 01bd
000003f0: 8787 ddbc eb91 afbd 8022 0abd 3759 843d

network_body._body_endoder.seq_layers.2.bias f4 [128]
0.0022018708 0.0012139733 -0.0021818005 0.014139075 0.01488969 0.00502727 0.0013096592 0.008286405
0.0027021668 -0.008079956 -0.009242753 0.011369942 0.017833348 0.011048989 0.0067815785 0.003207804
0.016081046 0.019981222 0.00647199 0.0022287949 0.007037582 -0.007855889 0.0042852927 0.0043899203
0.007973959 -0.0022512942 0.009972844 0.009860432 0.007853171 0.0043409453 -0.0029350088 0.0021735365
-0.00047866715 0.0082599195 0.012601493 0.0083045475 0.0055478914 0.021425353 0.016490396 0.009235098
-0.0039427117 -0.0021905762 0.014101249 -0.0030166898 0.011748787 -0.0030642503 0.006023284 -0.00251924
0.0004634749 0.0036229887 0.012182682 0.00247125 0.0018588678 -0.0007768789 -0.00012575809 0.006983964
0.0019346435 0.018412974 -0.009681565 0.014836989 -0.002035644 0.008983077 0.0073155337 0.01856
0.006345486 0.012719541 -0.00042345145 0.004857201 0.00104201 0.021212012 0.004412596 0.02050638
-0.0007993736 0.006887289 0.020813005 0.0012584308 0.0096808085 0.01582437 0.0018222722 0.011668718
-0.0041029863 0.0016848086 -0.001136499 -0.0013545565 0.0055746087 0.0049644494 0.0017549801 0.021263523
0.006633349 -0.0032408237 0.0035964474 0.01318007 0.0016733962 0.005179892 -0.0040901103 -0.0021219342
-0.0040382636 0.009084923 0.015334884 0.0067236745 0.008540765 0.0029792825 0.0058747926 0.00030275757
0.012997536 0.004062452 0.0064728823 0.001646556 0.0040120343 0.0056781913 -0.0008340805 0.0059880204
0.005709637 0.0064051664 0.000490413 -0.0006055229 -0.0043327147 0.013746438 0.01968617 0.010541894
-0.0009340326 -0.007533463 0.0041235653 -0.011945644 0.00010090765 -0.0023302534 0.0052763657 0.0092314
00000000: 434d 103b 2f1e 9f3a 8afc 0ebb 94a7 673c
00000010: e3f3 733c ccbb a43b dfa8 ab3a b4c3 073c
00000020: d616 313b cb61 04bc ea6e 17bc fe48 3a3c
00000030: 3e17 923c d206 353c 0138 de3b 053a 523b
00000040: 66bc 833c a9af a33c fd12 d43b f910 123b
00000050: 849b e63b fdb5 00bc a46b 8c3b 52d9 8f3b
00000060: 35a5 023c 738a 13bb 2465 233c a68d 213c
00000070: 96aa 003c 7d3e 8e3b 4759 40bb e471 0e3b
00000080: 9ef5 fab9 9d54 073c 7e76 4e3c cc0f 083c
00000090: 16cb b53b 3984 af3c de16 873c cf4e 173c
000000a0: dd31 81bb c58f 0fbb ed08 673c a8b3 45bb
000000b0: fc7d 403c 97d1 48bb f85e c53b d519 25bb
000000c0: 8cfe f239 aa6f 6d3b df99 473c b2f4 213b
000000d0: 41a5 f33a 76a7 4bba eedd 03b9 bcd9 e43b
000000e0: dd93 fd3a ced6 963c 6d9f 1ebc d816 733c
000000f0: 7068 05bb c12d 133c 25b7 ef3b 240b 983c
00000100: cbed cf3b 9f65 503c b102 deb9 2829 9f3b
00000110: 0e94 883a d0c4 ad3c 8a97 903b fffc a73c
00000120: 0e8d 51ba c5ae e13b 0980 aa3c eef1 a43a
00000130: 419c 1e3c 1ca2 813c 4fd9 ee3a 272e 3f3c
00000140: 5872 86bb ccd4 dc3a 94f6 94ba 608b b1ba
00000150: 35ab b63b d2ac a23b 5c07 e63a d730 ae3c
00000160: 915c d93b 0064 54bb 60b2 6b3b 38f1 573c
00000170: dc55 db3a 15bc a93b 5506 86bb 2610 0bbb
00000180: 6953 84bb eed8 143c 2a3f 7b3c 4552 dc3b
00000190: 91ee 0b3c 1140 433b 5581 c03b 6fbb 9e39
000001a0: 9ef3 543c 511e 853b 791a d43b 40d1 d73a
000001b0: 6277 833b 1f10 ba3b 32a6 5aba 2837 c43b
000001c0: e817 bb3b 6ee2 d13b 0f8f 003a f4bb 1eba
000001d0: 72f9 8dbb bd38 613c e444 a13c e8b7 2c3c
000001e0: ded9 74ba 45db f6bb f91e 873b aab7 43bc
000001f0: 629e d338 2ab7 18bb 5de5 ac3b 4c3f 173c

action_model._discrete_distribution.branches.0.weight f4 [3, 128]
0.00083768787 -0.014688437 8.347958e-05 -0.0005966862 0.0025740387 -0.0084955925 0.011099004 -0.014730706
0.00974471 0.013167607 0.0030344813 -0.0070287213 -0.0013861813 -0.016029954 0.0060968325 -0.0010874292
-0.0083208 0.004982144 -0.019692082 -0.005047332 0.007568972 0.00088071433 -0.0029674717 0.0011395239
0.0079911295 0.02713225 0.0068395236 0.0028345115 0.0034971521 -0.007109291 0.013436282 0.011540438
-0.005508524 -0.00525135 0.019911768 -0.008543679 0.001898842 -0.0007944737 -0.01762535 -0.001188551
-0.005006351 -0.008073546 -0.017578155 -0.006753053 -0.012141669 -0.0017080458 0.019586412 -0.010233189
0.0034948685 -0.01103322 -0.0034546119 0.003816058 0.006666974 -0.0022874868 -0.0065399827 0.016408723
0.007989156 -0.013335636 0.005534536 0.004270497 0.011347208 -0.026857635 -0.0024452547 -0.011712268
-0.01453728 0.0031158037 0.0050108265 0.013061435 -0.0018239924 -0.010577437 -0.0013512704 -0.006823021
0.0045167767 -0.0097221 -0.015364277 -0.010977732 -0.004798612 -0.012180946 0.021702088 -0.005472436
0.008593437 -0.005468433 0.014142331 0.004691406 -0.00427572 0.01408573 0.0037554384 -0.004914231
-0.010891821 0.004266564 0.015289157 0.017118733 0.013677773 -0.005097898 0.01021433 0.016328145
0.010599476 -0.0039604995 -0.0069383853 -0.0114763295 0.008849269 0.014721794 -0.020053085 -0.0014780272
-0.00308212 0.013980056 -0.011763541 0.010619158 0.005047458 0.00022207598 0.014735422 0.009999921
-0.01180699 -0.006812518 -0.0044971914 -0.009439797 0.0044478723 0.0056263106 -0.004727802 -0.0022522022
-0.012381428 -0.001158071 0.017076671 -0.0024745914 0.0018140482 -0.001388835 -0.0002217359 -0.0029325553
0.010536572 0.012254892 0.008673936 -0.015703723 -0.0080308085 0.023557793 0.015204012 -0.013401849
0.008805204 0.0026709512 -0.0024956134 -0.007906114 -0.023912763 -0.017105982 -0.00811911 0.0070089945
-0.005294692 -0.010898112 -0.006305598 -0.0075010643 -0.011564184 0.0005125994 0.0072897174 -0.0048372005
-0.024595406 -0.0057029794 0.009258465 -0.020326003 -7.963212e-05 0.0042761397 -0.0066392045 -0.013870315
0.02590497 -0.013920847 -0.03316568 0.0015185236 0.014928399 -0.019514814 -0.011098669 0.0024890522
-0.0016090454 0.015142519 0.00015497027 0.016331045 -0.013532046 0.011792155 -0.032236677 0.014919524
-0.020870756 0.01590851 -0.0041325353 0.014074853 0.0072873286 0.013255495 0.00741733 -0.015276324
0.014823047 -0.015213872 0.0022251199 -0.015329329 -0.014897565 -0.0025840828 0.011146562 -0.020277267
-0.006310396 -0.029119894 0.0022724967 0.01974216 0.028770536 -0.024903625 -0.004827008 -0.021272292
-0.016118644 0.013088909 -0.031494074 0.004370783 -0.011678688 -0.015333608 0.032447103 -0.010734228
0.0058108466 0.015521487 0.0042855027 0.003939374 -0.0022202395 -0.01074874 -0.009531924 -0.010621253
0.007831646 0.00950717 0.0017113563 -0.013117294 0.019127335 0.038216524 -0.0027161601 -0.0032767118
0.0069883526 -0.03197645 -0.013526251 0.008425004 -0.011087266 -0.011424383 -0.00016381592 0.027415616
-0.014912283 -0.012837389 0.005398671 -0.0024144072 -0.0041014473 0.0029055516 0.0011303993 -0.020337906
0.02104436 -0.0063115023 0.0016486978 0.0068952586 0.006832745 -0.022470659 -0.018119793 -0.021947188
0.008218815 -0.005865561 -0.016025897 -0.003453718 -0.02668758 0.006141861 -0.0041064196 -0.020407252
00000000: 4898 5b3a c5a7 70bc c211 af38 ef6a 1cba
00000010: 34b1 283b 1931 0bbc 99d8 353c 0f59 71bc
00000020: 47a8 1f3c f2bc 573c 26de 463b 3051 e6bb
00000030: 87b0 b5ba 4051 83bc f0c7 c73b 1288 8eba
00000040: f753 08bc 4141 a33b 4a51 a1bc 1764 a5bb
00000050: 2405 f83b bddf 663a ea79 42bb 145c 953a
00000060: 3aed 023c 7444 de3c 151e e03b 36c3 393b
00000070: 7a30 653b 0ef5 e8bb da23 5c3c 1b14 3d3c
00000080: d980 b4bb 8413 acbb 011e a33c c9fa 0bbc
00000090: 91e2 f83a 3a44 50ba 0a63 90bc 27c9 9bba
000000a0: 510c a4bb e846 04bc 1000 90bc b748 ddbb
000000b0: daed 46bc 82e0 dfba af73 a03c 1ba9 27bc
000000c0: 2a0a 653b aec4 34bc c566 62bb d416 7a3b
000000d0: a276 da3b a9e9 15bb 5a4d d6bb 966b 863c
000000e0: f3e4 023c b67d 5abc 0e5b b53b 86ef 8b3b
000000f0: a4e9 393c 8b04 dcbc 9140 20bb d0e4 3fbc
00000100: c62d 6ebc 8332 4c3b dc31 a43b a1ff 553c
00000110: 0713 efba fc4c 2dbc 1c1d b1ba a693 dfbb
00000120: 7801 943b 7149 1fbc 73ba 7bbc f2db 33bc
00000130: ad3d 9dbb 9792 47bc 94c8 b13c 1f52 b3bb
00000140: 7dcb 0c3c 8a30 b3bb 3cb5 673c 5eba 993b
00000150: 571b 8cbb d5c7 663c cd1d 763b 8f07 a1bb
00000160: 9c73 32bc 88ce 8b3b 5f7f 7a3c 963c 8c3c
00000170: bd18 603c 450c a7bb 015a 273c 9ac2 853c
00000180: 6da9 2d3c 14c7 81bb 655b e3bb 3707 3cbc
00000190: 86fc 103c ae33 713c 5e46 a4bc 5dba c1ba
000001a0: 65fd 49bb 9b0c 653c debb 40bc fafb 2d3c
000001b0: 2665 a53b 11dd 6839 d76c 713c b5d6 233c
000001c0: 1b72 41bc 8b3b dfbb 2d5d 93bb 61a9 1abc
000001d0: 75bf 913b ea5c b83b adeb 9abb af99 13bb
000001e0: 79db 4abc 6aca 97ba 60e4 8b3c c12c 22bb
000001f0: 5bc5 ed3a 9209 b6ba c781 68b9 1d30 40bb
00000200: 96a1 2c3c bec8 483c 201d 0e3c 18a5 80bc
00000210: a793 03bc 46fc c03c 401a 793c 6e93 5bbc
00000220: b443 103c 200b 2f3b 728d 23bb a588 01bc
00000230: b3e4 c3bc d821 8cbc 0406 05bc b5ab e53b
00000240: 187f adbb ff8d 32bc 319f cebb 7dcb f5bb
00000250: b477 3dbc f75f 063a 95de ee3b 6181 9ebb
00000260: 4e7c c9bc 0fe0 babb d1b0 173c b882 a6bc
00000270: 2b00 a7b8 dc1e 8c3b af8d d9bb 5140 63bc
00000280: a936 d43c 4414 64bc bcd8 07bd 3209 c73a
00000290: 3e96 743c 88dd 9fbc 31d7 35bc 5e1f 233b
000002a0: 9be6 d2ba 5418 783c 847f 2239 afc8 853c
000002b0: 84b5 5dbc e233 413c 9b0a 04bd 0571 743c
000002c0: 26f9 aabc 9052 823c 386a 87bb 369a 663c
000002d0: 8bca ee3b 932d 593c 130d f33b 8c49 7abc
000002e0: 5edc 723c 9b43 79bc 51d3 113b de27 7bbc
000002f0: eb14 74bc b759 29bb 12a0 363c 831c a6bc
00000300: 70c7 cebb d88c eebc 2bee 143b 4fba a13c
00000310: 30b0 eb3c b002 ccbc e12b 9ebb 3b43 aebc
00000320: 3f0b 84bc dd72 563c eeff 00bd c938 8f3b
00000330: f857 3fbc d039 7bbc 41e7 043d 9ede 2fbc
00000340: ea68 be3b d64d 7e3c 676d 8c3b dd15 813b
00000350: 7081 11bb 7c1b 30bc c92b 1cbc c404 2ebc
00000360: 4e50 003c f6c3 1b3c 974f e03a ebe9 56bc
00000370: eeb0 9c3c ee88 1c3d 9b01 32bb 1abe 56bb
00000380: 8dfe e43b bdf9 02bd 359d 5dbc 0709 0a3c
00000390: 5da7 35bc 562d 3bbc 00c6 2bb9 b796 e03c
000003a0: a652 74bc e953 52bc 56e7 b03b 083b 1ebb
000003b0: 6f65 86bb 116b 3e3b e829 943a ae9b a6bc
000003c0: 3965 ac3c b8d0 cebb 1e19 d83a 9ff1 e13b
000003d0: 38e5 df3b 6314 b8bc f66f 94bc 97ca b3bc
000003e0: 35a8 063c e433 c0bb be48 83bc c657 62bb
000003f0: e99f dabc aa41 c93b 258f 86bb 1c2d a7bc

action_model._discrete_distribution.branches.0.bias f4 [3]
-0.0042993184 -0.004613149 0.008649803
00000000: 4ce1 8cbb e629 97bb e7b7 0d3c

exp_avg f4 [128, 8]
1.159204e-05 -2.4641027e-05 2.4736482e-06 1.2660989e-05 -1.9175304e-05 -9.954381e-06 -3.1527103e-05 0.0
8.7134846e-05 4.678405e-05 1.2279391e-05 4.221e-05 3.522676e-06 1.16857336e-07 8.835392e-05 0.0
3.8749233e-05 2.9985864e-05 -6.403501e-06 2.4562261e-05 -1.2576389e-05 5.6953544e-05 4.80864e-05 0.0
-4.5866625e-05 -0.00010439294 -1.5724043e-05 -4.5000743e-05 -1.9441068e-05 -4.079946e-05 9.592385e-06 0.0
1.7644674e-05 -3.9223745e-05 8.740136e-05 4.6393376e-05 -4.458436e-05 3.0633568e-05 -4.2963373e-05 0.0
-3.46941e-05 4.7477583e-06 -4.1823878e-05 8.301235e-06 -3.4253375e-05 -3.138355e-06 1.5354951e-06 0.0
-3.622502e-05 -1.4449821e-05 8.328065e-05 -2.1885888e-05 -1.4321694e-05 3.505429e-06 -8.173781e-05 0.0
5.2383435e-05 4.005737e-06 3.920685e-05 7.653576e-06 -8.094521e-05 -2.790995e-05 -3.4234447e-05 0.0
-2.774076e-05 -7.541466e-06 -2.5604375e-05 -6.700109e-06 4.0960476e-05 1.8163977e-05 4.7689457e-05 0.0
9.695823e-06 1.1063065e-05 7.4144277e-06 1.1791414e-05 -2.770909e-05 -6.911764e-06 1.336923e-05 0.0
-7.747551e-05 -2.61384e-06 -1.2684668e-06 1.1264454e-05 -4.149503e-05 -4.065721e-07 -4.631778e-05 0.0
5.372462e-05 -6.706569e-05 6.311975e-05 3.7554884e-05 -5.4333188e-05 -1.19430915e-05 -5.7832665e-05 0.0
-2.4708228e-05 9.481972e-05 -3.228376e-05 3.4157878e-05 -6.1219234e-06 8.082191e-05 -3.5988745e-05 0.0
-9.250423e-06 5.3976964e-05 -2.2807768e-05 2.9142808e-05 -3.6682795e-05 8.940064e-05 2.708524e-05 0.0
3.306281e-05 -8.065719e-06 4.3319975e-05 1.6439675e-05 -2.1540687e-05 4.4043783e-05 1.6189744e-05 0.0
4.392415e-05 3.2954857e-05 2.4507171e-05 2.3990335e-05 -9.130455e-06 4.2310538e-05 3.4464178e-05 0.0
-3.011895e-06 3.716032e-05 -3.209802e-05 -8.071811e-07 -5.5951157e-05 -5.5388642e-05 -4.048424e-05 0.0
-1.1614399e-05 -5.8949504e-06 1.8302993e-05 1.3209136e-06 2.231004e-05 6.846123e-05 1.3824338e-05 0.0
0.00012896632 0.00015188992 -8.621445e-06 9.351281e-05 -2.8528448e-05 0.00015548752 0.000112962894 0.0
-6.8769186e-05 -3.6642286e-05 4.0381634e-05 -2.4586876e-05 -3.2732234e-05 -3.9877235e-05 -7.679497e-05 0.0
-3.9734667e-05 -4.305036e-05 3.4729754e-05 2.9389157e-05 -0.00017969236 -4.152274e-05 -0.00015677021 0.0
-6.2060944e-06 5.2807223e-05 1.7879744e-05 -3.4818015e-05 -2.0685618e-05 2.9753377e-05 1.9062561e-05 0.0
5.7332498e-05 6.653756e-05 2.3617096e-05 9.783952e-06 5.612847e-05 0.0001234592 6.661322e-05 0.0
8.0929574e-05 -0.00011565634 9.582071e-05 8.29585e-06 5.231367e-06 -6.5385044e-05 -1.33172125e-05 0.0
-5.125873e-05 7.5314485e-05 -7.093126e-05 1.3499314e-05 6.785437e-05 6.7435074e-05 5.3525664e-06 0.0
-1.7457187e-05 0.00018132823 -5.2064497e-05 9.5583426e-05 -7.813265e-06 0.00012070868 6.945143e-05 0.0
3.7487483e-05 1.0501001e-05 5.9728145e-06 3.2485677e-06 -4.9431677e-05 -2.7413887e-05 -2.4575591e-05 0.0
-7.306035e-05 -9.123994e-05 2.9429899e-05 5.3869866e-05 -5.7335355e-06 2.339459e-05 -5.6735542e-05 0.0
-3.2550994e-05 7.941048e-06 -8.99526e-06 -1.17733525e-05 1.2580199e-05 -1.2765549e-06 -2.9846435e-05 0.0
-0.00010716194 -3.424853e-05 -6.846585e-06 3.659994e-06 -0.00013759684 -5.1173545e-05 -0.00011216897 0.0
-1.956298e-05 -6.65315e-06 -3.1638134e-05 2.0071164e-05 1.5837097e-05 -6.82373e-05 -1.5892268e-05 0.0
1.8202412e-05 -6.311319e-05 8.4403466e-05 2.0749905e-05 -0.00011397156 -1.1377666e-05 -0.00016567369 0.0
00000000: 6f7b 4237 34b4 ceb7 f400 2636 896a 5437
00000010: a7da a0b7 be01 27b7 f83b 04b8 0000 0000
00000020: 2abc b638 fe39 4438 9503 4e37 a40a 3138
00000030: 1d67 6c36 00f3 fa33 a64a b938 0000 0000
00000040: ac86 2238 278a fb37 a8dd d6b6 0e0b ce37
00000050: 2eff 52b7 67e1 6e38 61b0 4938 0000 0000
00000060: ea60 40b8 88ed dab8 20e7 83b7 2ebf 3cb8
00000070: 6015 a3b7 1620 2bb8 fbee 2037 0000 0000
00000080: a603 9437 2d84 24b8 3f4b b738 8296 4238
00000090: 1800 3bb8 8b7c 0038 9233 34b8 0000 0000
000000a0: 8284 11b8 ef4e 9f36 0c6c 2fb8 8845 0b37
000000b0: 48ab 0fb8 879c 52b6 3617 ce35 0000 0000
000000c0: 52f0 17b8 826d 72b7 f5a6 ae38 9697 b7b7
000000d0: 3547 70b7 d03e 6b36 a76a abb8 0000 0000
000000e0: 49b6 5b38 0569 8636 0972 2438 dc67 0037
000000f0: 21c1 a9b8 2920 eab7 f596 0fb8 0000 0000
00000100: d4b4 e8b7 b30c fdb6 fac8 d6b7 80d1 e0b6
00000110: facc 2b38 d85e 9837 2a06 4838 0000 0000
00000120: 3eab 2237 819b 3937 73c9 f836 bdd3 4537
00000130: d170 e8b7 9aeb e7b6 684c 6037 0000 0000
00000140: 597a a2b8 6e69 2fb6 3040 aab5 76fc 3c37
00000150: f30a 2eb8 d846 dab4 5645 42b8 0000 0000
00000160: 5f56 6138 9ea5 8cb8 285f 8438 4084 1d38
00000170: d1e3 63b8 305f 48b7 5a91 72b8 0000 0000
00000180: 8444 cfb7 f3d9 c638 6c68 07b8 be44 0f38
00000190: ec6a cdb6 ef7e a938 9ff2 16b8 0000 0000
000001a0: 4432 1bb7 5365 6238 4f53 bfb7 b477 f437
000001b0: dadb 19b8 9a7c bb38 1c35 e337 0000 0000
000001c0: ecac 0a38 0052 07b7 78b2 3538 efe7 8937
000001d0: 46b2 b4b7 a7bb 3838 36cf 8737 0000 0000
000001e0: 323b 3838 0239 0a38 c094 cd37 da3e c937
000001f0: 012f 19b7 9876 3138 a18d 1038 0000 0000
00000200: f61f 4ab6 97dc 1b38 fda0 06b8 10ad 58b5
00000210: 19ad 6ab8 1a51 68b8 9fcd 29b8 0000 0000
00000220: 77db 42b7 3dcd c5b6 6189 9937 3f4a b135
00000230: 7226 bb37 d892 8f38 14ef 6737 0000 0000
00000240: 223b 0739 a444 1f39 d3a4 10b7 4f1c c438
00000250: 6050 efb7 5d0a 2339 7ee6 ec38 0000 0000
00000260: 2d38 90b8 5bb0 19b8 735f 2938 ea3f ceb7
00000270: f849 09b8 db41 27b8 fc0c a1b8 0000 0000
00000280: c6a8 26b8 f990 34b8 caaa 1138 bc88 f637
00000290: cd6b 3cb9 b428 2eb8 af62 24b9 0000 0000
000002a0: f23d d0b6 537d 5d38 75fc 9537 8f09 12b8
000002b0: 0786 adb7 e496 f937 8ae8 9f37 0000 0000
000002c0: 4d78 7038 158a 8b38 541d c637 c125 2437
000002d0: 7c6b 6b38 d474 0139 b3b2 8b38 0000 0000
000002e0: bcb8 a938 868c f2b8 5af3 c838 682e 0b37
000002f0: 1a89 af36 541f 89b8 fe6c 5fb7 0000 0000
00000300: a4fe 56b8 28f2 9d38 eec0 94b8 1d7b 6237
00000310: 0a4d 8e38 ee6b 8d38 329a b336 0000 0000
00000320: 0671 92b7 ed22 3e39 d45f 5ab8 f673 c838
00000330: b815 03b7 fb24 fd38 74a6 9138 0000 0000
00000340: e13b 1d38 752d 3037 166a c836 f801 5a36
00000350: dc54 4fb8 e0f6 e5b7 ae27 ceb7 0000 0000
00000360: fa37 99b8 1258 bfb8 3ae0 f637 54f2 6138
00000370: b262 c0b6 803f c437 53f7 6db8 0000 0000
00000380: 5d87 08b8 8b3a 0537 59ea 16b7 2a86 45b7
00000390: 8b0f 5337 1856 abb5 bb5e fab7 0000 0000
000003a0: 21bc e0b8 14a6 0fb8 b8bb e5b6 389e 7536
000003b0: df47 10b9 2da3 56b8 423c ebb8 0000 0000
000003c0: 2e1b a4b7 203e dfb6 30b3 04b8 7f5e a837
000003d0: e8d9 8437 9f1a 8fb8 6350 85b7 0000 0000
000003e0: 62b1 9837 a35b 84b8 c401 b138 1510 ae37
000003f0: 0404 efb8 b4e2 3eb7 b1b8 2db9 0000 0000

exp_avg_sq f4 [128, 8]
1.0019852e-09 1.129876e-09 7.1464573e-10 5.379194e-10 7.6524526e-10 9.289409e-10 7.730603e-10 0.0
2.9591554e-09 2.5097062e-09 1.6499173e-09 1.2426025e-09 2.4561464e-09 2.2173074e-09 2.4883107e-09 0.0
2.1760387e-09 2.069604e-09 1.7549345e-09 1.1386824e-09 1.274183e-09 1.6472087e-09 1.8956274e-09 0.0
2.4553193e-09 2.7027112e-09 2.1159108e-09 1.3198218e-09 1.5716916e-09 3.037984e-09 1.6855174e-09 0.0
4.6977418e-09 4.3017274e-09 3.9090944e-09 2.7665759e-09 4.519373e-09 5.097728e-09 3.3358978e-09 0.0
5.723974e-10 4.4510265e-10 4.9623183e-10 2.6382224e-10 4.1926232e-10 4.384166e-10 3.9571682e-10 0.0
3.799443e-09 4.1457464e-09 3.328687e-09 1.9192758e-09 3.050223e-09 4.188783e-09 2.4433848e-09 0.0
1.845435e-09 1.4680444e-09 1.4477354e-09 1.1500726e-09 1.9362298e-09 1.6017915e-09 1.3418007e-09 0.0
6.8450146e-10 9.328662e-10 4.6871396e-10 5.6674354e-10 7.172147e-10 4.747455e-10 6.587571e-10 0.0
8.420159e-10 7.071744e-10 5.1712595e-10 4.5503096e-10 4.968602e-10 6.371346e-10 4.6590926e-10 0.0
2.3070916e-09 2.353635e-09 1.423386e-09 1.0654276e-09 1.8714317e-09 1.9667818e-09 1.4188031e-09 0.0
5.1703757e-09 6.1738143e-09 3.7927053e-09 3.6565502e-09 4.8913726e-09 5.5234937e-09 4.4889346e-09 0.0
2.8262657e-09 2.7340465e-09 2.3594497e-09 1.3797236e-09 1.612455e-09 3.6631074e-09 1.865961e-09 0.0
1.7634664e-09 2.0383104e-09 1.5739231e-09 8.377937e-10 9.676989e-10 1.7258625e-09 8.8494956e-10 0.0
2.0504527e-09 2.352033e-09 1.7916847e-09 1.325617e-09 1.9208026e-09 2.0945974e-09 1.2812796e-09 0.0
1.270326e-09 1.3222793e-09 9.2544783e-10 6.54799e-10 6.9317413e-10 9.0575214e-10 9.266053e-10 0.0
2.9017506e-09 1.6781416e-09 2.3144717e-09 1.1212299e-09 2.1944013e-09 2.0189777e-09 2.5585871e-09 0.0
1.139956e-09 9.604564e-10 8.931273e-10 5.5701094e-10 8.6726554e-10 1.1979565e-09 8.381032e-10 0.0
8.319404e-09 9.225608e-09 6.5030705e-09 4.137463e-09 4.977652e-09 7.1245805e-09 5.4199334e-09 0.0
2.6987035e-09 2.8858327e-09 2.2828925e-09 1.6705023e-09 2.0481552e-09 3.4639127e-09 2.0898479e-09 0.0
6.902738e-09 8.586937e-09 5.2158495e-09 4.1539736e-09 6.9795e-09 7.203353e-09 5.0040856e-09 0.0
4.702273e-09 4.2653836e-09 3.517506e-09 2.2411326e-09 3.0859486e-09 2.9234635e-09 2.8353044e-09 0.0
4.074581e-09 3.9664703e-09 3.0458267e-09 1.73925e-09 2.348096e-09 3.551137e-09 2.6758638e-09 0.0
6.10348e-09 8.55832e-09 4.941827e-09 3.6743089e-09 5.9390124e-09 7.2910513e-09 4.7541966e-09 0.0
3.0598037e-09 2.8519136e-09 3.1301464e-09 1.6020992e-09 2.6632567e-09 3.1975227e-09 1.7136642e-09 0.0
4.451191e-09 5.015069e-09 4.3295754e-09 2.932811e-09 2.0663913e-09 5.0657696e-09 4.2274513e-09 0.0
1.8076208e-09 1.2943793e-09 1.2092467e-09 8.869436e-10 1.5377164e-09 1.428257e-09 1.1747886e-09 0.0
9.130121e-09 1.1039357e-08 5.9044236e-09 4.678326e-09 6.3475474e-09 8.46866e-09 5.718623e-09 0.0
2.9935407e-10 2.800719e-10 2.1120056e-10 1.5419375e-10 2.7374564e-10 2.0919884e-10 2.4620816e-10 0.0
3.7864423e-09 3.9447476e-09 2.577162e-09 1.5654535e-09 3.145297e-09 3.934257e-09 2.293359e-09 0.0
2.1925757e-09 2.1439637e-09 1.7862164e-09 1.2046428e-09 1.4330753e-09 1.6392522e-09 1.2090553e-09 0.0
9.979306e-09 1.2103405e-08 7.354354e-09 6.4142798e-09 8.930311e-09 8.813028e-09 8.899032e-09 0.0
00000000: 38b6 8930 fa49 9b30 b970 4430 b6dc 1330
00000010: 5959 5230 6858 7f30 487f 5430 0000 0000
00000020: 035a 4b31 3877 2c31 4ec3 e230 30c8 aa30
00000030: fcc8 2831 495f 1831 d3fe 2a31 0000 0000
00000040: 4789 1531 dc38 0e31 4532 f130 d37f 9c30
00000050: 541f af30 0164 e230 3b44 0231 0000 0000
00000060: 6fba 2831 99ba 3931 7f67 1131 1a65 b530
00000070: fb02 d830 c8c4 5031 dfa7 e730 0000 0000
00000080: c669 a131 65ce 9331 c250 8631 1e1e 3e31
00000090: d348 9b31 1728 af31 bc3d 6531 0000 0000
000000a0: e356 1d30 a1b2 f42f 3667 0830 ae09 912f
000000b0: ed7d e62f a705 f12f 318c d92f 0000 0000
000000c0: 418c 8231 5f72 8e31 e2be 6431 42e4 0331
000000d0: 179c 5131 edec 8f31 7be8 2731 0000 0000
000000e0: 79a2 fd30 38c4 c930 a9f9 c630 9510 9e30
000000f0: 840e 0531 0726 dc30 6a6a b830 0000 0000
00000100: 8227 3c30 5036 8030 d0d6 0030 08c9 1b30
00000110: 7f25 4530 3f7f 0230 e913 3530 0000 0000
00000120: 9a73 6730 f962 4230 8125 0e30 ea27 fa2f
00000130: 6e93 0830 5d22 2f30 7311 0030 0000 0000
00000140: c98a 1e31 96bd 2131 f1a0 c330 676e 9230
00000150: 939a 0031 fe27 0731 b2ff c230 0000 0000
00000160: 1ba7 b131 7221 d431 fd50 8231 b646 7b31
00000170: f810 a831 2ac9 bd31 163d 9a31 0000 0000
00000180: 3138 4231 dbe1 3b31 e123 2231 b5a0 bd30
00000190: 379d dd30 11ba 7b31 553a 0031 0000 0000
000001a0: 755e f230 5612 0c31 7f51 d830 7e4a 6630
000001b0: e1ff 8430 6333 ed30 ca40 7330 0000 0000
000001c0: f2e7 0c31 67a1 2131 4d3f f630 0031 b630
000001d0: 1eff 0331 8cf0 0f31 0519 b030 0000 0000
000001e0: 9f97 ae30 91bb b530 9a62 7e30 62fd 3330
000001f0: cb89 3e30 a4f8 7830 0db4 7e30 0000 0000
00000200: 2368 4731 5ca4 e630 9e0c 1f31 c519 9a30
00000210: 51cc 1631 3bbe 0a31 24d3 2f31 0000 0000
00000220: a3ac 9c30 0e01 8430 3f80 7530 291c 1930
00000230: 6364 6e30 59a5 a430 4560 6630 0000 0000
00000240: 20ed 0e32 a77e 1e32 9d71 df31 8229 8e31
00000250: e407 ab31 79cc f431 3d3a ba31 0000 0000
00000260: 1874 3931 1b50 4631 12e1 1c31 9397 e530
00000270: 87bf 0c31 cc09 6e31 fe9c 0f31 0000 0000
00000280: 202d ed31 c085 1332 1937 b331 bdba 8e31
00000290: 55d0 ef31 5d81 f731 67f0 ab31 0000 0000
000002a0: a191 a131 b68e 9231 9fb8 7131 6c02 1a31
000002b0: 9510 5431 1de6 4831 34d7 4231 0000 0000
000002c0: 6500 8c31 7149 8831 c04e 5131 6b0a ef30
000002d0: 245c 2131 4308 7431 4be2 3731 0000 0000
000002e0: c7b6 d131 e407 1332 c5cc a931 207f 7c31
000002f0: 1b10 cc31 c484 fa31 5b5a a331 0000 0000
00000300: a344 5231 65fb 4331 1e1a 5731 db30 dc30
00000310: 8204 3731 6abb 5b31 3386 eb30 0000 0000
00000320: 17f1 9831 0351 ac31 59c3 9431 8f8a 4931
00000330: 5700 0e31 fb0e ae31 0e41 9131 0000 0000
00000340: 0170 f830 ece5 b130 9632 a630 1bcd 7330
00000350: 9657 d330 534c c430 3376 a130 0000 0000
00000360: b2da 1c32 9ba7 3d32 dcdf ca31 febe a031
00000370: 9e19 da31 907d 1132 8a7d c431 0000 0000
00000380: 5792 a42f 9ef8 992f ac37 682f af89 292f
00000390: 467e 962f 3d04 662f b85a 872f 0000 0000
000003a0: e619 8231 5e8a 8731 ea19 3131 8027 d730
000003b0: a624 5831 172e 8731 3399 1d31 0000 0000
000003c0: 33ac 1631 0255 1331 e77e f530 9a90 a530
000003d0: dbf5 c430 0f4c e130 da2b a630 0000 0000
000003e0: 7471 2b32 57ef 4f32 95b1 fc31 9a64 dc31
000003f0: ec6b 1932 1b68 1732 5be2 1832 0000 0000

exp_avg f4 [128]
2.6254664e-05 -5.768757e-05 -5.9574842e-05 2.9163824e-05 3.422328e-05 1.8862638e-05 -4.8109378e-05 4.1713272e-05
-2.8972134e-05 -1.848342e-05 -1.117786e-05 0.00010440473 -3.5653e-05 -7.9404184e-05 -5.102552e-05 -6.211582e-05
3.154153e-05 -7.195445e-05 -0.00017248373 3.2316497e-05 3.2806463e-05 -9.963877e-05 -0.00011804156 2.8211447e-05
-3.351961e-07 -0.00019812069 6.515287e-06 2.3349301e-05 7.1240897e-06 4.093083e-05 1.444923e-05 0.000112905545
1.570693e-05 2.1249394e-05 1.2265182e-06 8.6646505e-05 6.791983e-05 -1.4580787e-06 4.024145e-05 4.0838004e-05
-9.930132e-06 -3.558334e-05 2.6793923e-05 -6.355183e-05 -4.0846808e-05 3.3524135e-05 -9.17225e-05 -2.8021172e-05
3.8992664e-05 4.789428e-05 -9.57518e-05 -4.8913615e-05 -5.530926e-05 -0.00011137349 -3.1610147e-05 -4.812996e-05
5.5549866e-05 -3.4485332e-05 -5.1685965e-05 -0.00013999373 1.4784398e-05 3.79202e-05 4.914138e-06 -0.0002183253
8.033916e-05 3.618245e-05 1.8217805e-05 5.2035073e-05 1.6874144e-05 9.835194e-06 1.0252438e-05 1.189921e-05
-9.7571705e-05 1.1179451e-05 -0.00014253327 5.7247118e-05 -8.643268e-05 -1.2458351e-05 8.00528e-06 -2.3889861e-05
-2.991581e-05 -0.00010657011 -1.4079107e-05 -2.0913312e-05 -9.639372e-05 -2.4495188e-05 -2.6171994e-05 -1.26588e-05
0.00014761594 2.5349382e-05 3.6569418e-07 3.4544423e-06 7.4155825e-05 7.1512623e-06 -7.4015134e-06 -1.555133e-05
-2.2921875e-05 9.5052746e-07 -5.697912e-05 2.3297403e-05 -0.00012713858 -0.00023484905 -0.00016218841 -4.9467653e-06
-2.0688798e-05 -0.00011464432 8.07512e-05 3.4027682e-05 -0.00017798797 7.496156e-05 2.4650235e-05 -4.9303533e-05
3.0928633e-05 -4.4608394e-05 1.0908083e-05 5.402633e-05 3.217863e-05 3.3584747e-06 3.7354416e-06 -6.874121e-06
-1.2441126e-05 3.1957148e-05 -5.799654e-05 -1.41797755e-05 5.9154274e-05 4.2601027e-05 1.95722e-05 7.5943695e-05
00000000: 763d dc37 8ef5 71b8 00e0 79b8 d6a4 f437
00000010: f88a 0f38 353b 9e37 0dc9 49b8 49f5 2e38
00000020: 2f09 f3b7 d80c 9bb7 8b88 3bb7 ddf3 da38
00000030: 1e8a 15b8 cc85 a6b8 3c04 56b8 2d44 82b8
00000040: 764b 0438 40e6 96b8 c0dc 34b9 938b 0738
00000050: ac99 0938 28f5 d0b8 148d f7b8 9fa7 ec37
00000060: 00f5 b3b4 9ebe 4fb9 e49d da36 3ede c337
00000070: 770b ef36 25ad 2b38 f86a 7237 b4c7 ec38
00000080: 60c2 8337 ba40 b237 d89e a435 fdb5 b538
00000090: 2e70 8e38 34b3 c3b5 eec8 2838 7949 2b38
000000a0: 9899 26b7 523f 15b8 83c3 e037 2147 85b8
000000b0: ed52 2bb8 449c 0c38 245b c0b8 020f ebb7
000000c0: 0e8c 2338 17e2 4838 5bce c8b8 9828 4db8
000000d0: defb 67b8 3091 e9b8 2395 04b8 27df 49b8
000000e0: 37fe 6838 58a4 10b8 62c9 58b8 48cb 12b9
000000f0: 820a 7837 810c 1f38 20e4 a436 40ee 64b9
00000100: c27b a838 9cc2 1738 70d2 9837 3c40 5a38
00000110: f38c 8d37 d601 2537 e301 2c37 b8a2 4737
00000120: 699f ccb8 608f 3b37 fc74 15b9 a01c 7038
00000130: 3143 b5b8 3604 51b7 6a4e 0637 1667 c8b7
00000140: b6f3 fab7 647e dfb8 4e35 6cb7 ff6e afb7
00000150: fc26 cab8 047b cdb7 ee8b dbb7 2261 54b7
00000160: 5ac9 1a39 62a5 d437 a054 c434 ded2 6736
00000170: 1b84 9b38 e0f4 ef36 845a f8b6 3a74 82b7
00000180: 5a48 c0b7 c027 7f35 ddfc 6eb8 cb6e c337
00000190: 8150 05b9 d041 76b9 1f11 2ab9 64fc a5b6
000001a0: db8c adb7 336d f0b8 f858 a938 f2b8 0e38
000001b0: 48a2 3ab9 ae34 9d38 fac7 ce37 44cb 4eb8
000001c0: 5eb9 0138 e619 3bb8 dc01 3737 559a 6238
000001d0: 8af7 0638 2862 6136 66ae 7a36 40a8 e6b6
000001e0: 3bba 50b7 ba09 0638 5041 73b8 ace5 6db7
000001f0: 6b1c 7838 81ae 3238 fb2e a437 f643 9f38

exp_avg_sq f4 [128]
8.549176e-10 1.8892503e-09 1.7728882e-09 1.95708e-09 4.042224e-09 3.3078693e-10 2.8567166e-09 1.2211099e-09
4.666894e-10 5.02713e-10 1.3413195e-09 3.8546e-09 2.2506845e-09 1.4331623e-09 1.6712078e-09 8.943942e-10
1.7412933e-09 8.7311636e-10 7.1486563e-09 2.0831905e-09 5.7824785e-09 3.0148146e-09 2.3798121e-09 4.2310715e-09
2.3441844e-09 5.4452025e-09 1.0118004e-09 6.1086762e-09 2.08148e-10 2.5349105e-09 1.4228124e-09 7.931084e-09
1.9496087e-09 2.0317412e-09 9.1086516e-10 3.2161709e-09 2.9549587e-09 8.508912e-10 2.0328235e-09 5.4896137e-09
9.556465e-09 9.137909e-10 1.8084524e-09 1.7620282e-09 6.785181e-10 1.3095416e-08 3.0603728e-09 7.6479945e-10
1.7412365e-09 3.7152148e-09 1.9757866e-09 1.953155e-09 1.7906661e-09 2.6700233e-09 1.395319e-09 7.670504e-09
1.5319083e-08 1.6174626e-09 1.7324351e-09 1.907415e-09 6.1174105e-10 6.0140755e-09 1.8310373e-09 1.42409045e-08
1.04974385e-08 4.0655346e-09 4.058517e-10 3.0482352e-09 5.15289e-10 6.3737198e-09 1.1258947e-09 2.6743454e-09
3.8250074e-09 5.38215e-09 6.9824138e-09 1.4980889e-09 3.3875385e-09 1.1868408e-09 3.3218344e-09 7.4686834e-10
5.224254e-10 2.7190226e-09 3.4898666e-09 3.0895309e-09 6.8286865e-09 1.1997281e-09 7.9096407e-10 8.9357535e-09
1.507144e-08 1.5151996e-09 6.29795e-10 1.2247253e-10 4.469035e-09 8.0607645e-09 3.2795533e-10 1.5203824e-09
9.700096e-10 3.2204514e-10 3.3014214e-09 2.2510935e-09 2.9139897e-09 1.3022904e-08 4.4015906e-09 2.03572e-09
1.9860862e-09 5.8360734e-09 1.8623375e-09 3.8025905e-10 7.37458e-09 1.1674465e-09 1.2250969e-09 1.6827925e-09
2.4258382e-09 1.9361461e-09 3.107149e-10 7.832281e-10 1.2785145e-09 2.6529474e-09 8.804792e-10 3.7898817e-10
6.1868366e-10 2.85501e-09 4.6403965e-09 3.610493e-10 5.990728e-10 1.7560888e-08 6.5295486e-10 6.283226e-09
00000000: 7aff 6a30 0bd4 0131 f5a9 f330 517d 0631
00000010: c7e3 8a31 1fda b52f e44f 4431 fcd3 a730
00000020: 5948 0030 482f 0a30 7c59 b830 6c71 8431
00000030: 76aa 1a31 eaf8 c430 66b0 e530 66d9 7530
00000040: 5052 ef30 1a00 7030 3fa0 f531 e027 0f31
00000050: 38af c631 2e2d 4f31 198a 2331 e660 9131
00000060: 5417 2131 8218 bb31 900f 8b30 7ce4 d131
00000070: 74dc 642f 9e32 2e31 c38c c330 4741 0832
00000080: e1f9 0531 c59e 0b31 7060 7a30 7a03 5d31
00000090: 2f10 4b31 25e4 6930 cfb1 0b31 279f bc31
000000a0: c72d 2432 512e 7b30 438d f830 db2b f230
000000b0: 7782 3a30 40fa 6032 a64e 5231 fa39 5230
000000c0: 5050 ef30 c04e 7f31 68c6 0731 4438 0631
000000d0: 761b f630 8c7b 3731 6cc5 bf30 3cc7 0332
000000e0: 0597 8332 684d de30 a41a ee30 9913 0331
000000f0: 7327 2830 5ea4 ce31 e6a7 fb30 29a8 7432
00000100: 3958 3432 d2b0 8b31 8d1e df2f 1f79 5131
00000110: 3da4 0d30 d5ff da31 e6bd 9a30 95c7 3731
00000120: 1f6d 8331 e4ed b831 f6e9 ef31 51e5 cd30
00000130: 35ca 6831 401e a330 5446 6431 304c 4d30
00000140: 6b9a 0f30 8dd9 3a31 62d2 6f31 9a4f 5431
00000150: c3a1 ea31 aee3 a430 266b 5930 dc83 1932
00000160: 7276 8132 593f d030 e21d 2d30 f4a8 062f
00000170: 0c8e 9931 9e7b 0a32 9c4b b42f b3f5 d030
00000180: 2e51 8530 d30b b12f 38df 6231 a8b1 1a31
00000190: 733f 4831 56bb 5f32 cd3c 9731 c4e4 0b31
000001a0: 997b 0831 a586 c831 2df5 ff30 b40c d12f
000001b0: 7e63 fd31 df73 a030 4460 a830 ff47 e730
000001c0: ccb3 2631 0b0d 0531 3cd1 aa2f c74a 5730
000001d0: bbb7 af30 254f 3631 3706 7230 d859 d02f
000001e0: fe0f 2a30 de31 4431 5c71 9f31 2c7d c62f
000001f0: 00ac 2430 cdd8 9632 9d7b 3330 d7e3 d731
