results/MyRun1/Pong/Pong-60256.onnx (onnx, 74911 bytes, 8 tensors)

network_body.observation_encoder.processors.0.normalizer.running_mean f4 [8]
0	0x3d9931be	0.07480191
1	0xbd51a02a	-0.051178135
2	0x3e127a18	0.14304388
3	0x3d34674e	0.04404383
4	0xbecaae20	-0.39585972
5	0xbe785bc5	-0.24253757
6	0xbece45ed	-0.40287724
7	0x00000000	0.0

network_body._body_endoder.seq_layers.0.weight f4 [128, 8]
0	0x3e4b00e1	0.19824554
1	0x3d974e43	0.07387974
2	0x3e0445e1	0.12917282
3	0x3f205b46	0.6263927
4	0xbeae00ad	-0.3398489
5	0xbcb01e95	-0.021498958
6	0x3e9ade4d	0.30247727
7	0x3edeedf5	0.43540922
8	0xbd2afd97	-0.04174575
9	0x3b34da5b	0.002759597
10	0x3ea41a35	0.32051244
11	0xbf05e5a4	-0.5230353
12	0xbf5e7354	-0.86894727
13	0xbf8b7c2e	-1.0897272
14	0xbef056ee	-0.46941322
15	0x3db3afb5	0.08773748
16	0x3e38fda0	0.180655
17	0x3e024a5f	0.12723683
18	0xbeb16ab6	-0.34651726
19	0xbebdbc94	-0.37057936
20	0xbe69e327	-0.22840558
21	0xbed9694b	-0.42463145
22	0x3ecc4a19	0.39900282
23	0xbf2caf46	-0.67454946
24	0xbcf94cfc	-0.030432217
25	0xbe19ceb9	-0.15020265
26	0xbf2deacb	-0.6793639
27	0x3db2d9c2	0.0873294
28	0x3dd59262	0.10428311
29	0xbb802a66	-0.0039113043
30	0x3ef50305	0.47853866
31	0x3e1fdbe2	0.15611222
32	0x3f195a72	0.59903634
33	0x3ef8fb6f	0.4862933
34	0x3c4f1201	0.01263857
35	0x3ed70358	0.4199474
36	0xbe9270b0	-0.286016
37	0x3e27eeda	0.16399708
38	0xbe784227	-0.24243985
39	0xbe9449bd	-0.28962508
40	0x3f2c22f2	0.6724082
41	0xbe0ecce2	-0.13945344
42	0xbed6b62a	-0.41935855
43	0x3eadbb44	0.33931935
44	0x3e042834	0.12905961
45	0x3ea2e0e0	0.3181219
46	0x3f26058f	0.6485223
47	0xbd830f69	-0.06399424
48	0x3cada546	0.021196973
49	0x3e12e9aa	0.14346948
50	0xbf203a41	-0.6258889
51	0x3cc2d10b	0.02378132
52	0x3ea1c5d3	0.3159624
53	0xbeb8820d	-0.3603672
54	0x3e874a51	0.26423886
55	0xbe29c2e9	-0.16578259
56	0x3ef4e1dc	0.47828567
57	0x3f1e78d9	0.6190315
58	0x3f0f1c2f	0.5590238
59	0xbe5d6c82	-0.21623424
60	0xbec9145c	-0.39273345
61	0x3f25da83	0.6478655
62	0xbc399af5	-0.011328449
63	0xbeeb5599	-0.45963743
64	0xbd94b820	-0.072616816
65	0x3d1ab644	0.03777148
66	0xbc185fa4	-0.009300146
67	0xbeb89c36	-0.3605668
68	0xbe0c8381	-0.1372204
69	0xbd931663	-0.07182004
70	0xbefd9521	-0.4952784
71	0xbdd772e0	-0.105199575
72	0xbdefec25	-0.11714963
73	0xbb88f62c	-0.0041797366
74	0xbe1705c2	-0.1474829
75	0x3d71da7e	0.05904626
76	0x3ea46d4b	0.32114634
77	0x3f20ff3f	0.62889475
78	0x3e7afcfc	0.24510568
79	0xbf5be9f5	-0.85903865
80	0xbda98438	-0.08277172
81	0x3ca80f79	0.02051519
82	0xbefcc5fc	-0.493698
83	0xbe5eee7e	-0.21770665
84	0xbe899667	-0.2687256
85	0xbf08dadd	-0.5345896
86	0xbea3e5f3	-0.32011375
87	0xbe2be7a7	-0.16787587
88	0x3ebf5ce6	0.37375563
89	0x3d0bf946	0.034173273
90	0x3f2af703	0.6678316
91	0x3ede7535	0.43448797
92	0xbe0a5b7a	-0.13511458
93	0xbd8d8925	-0.06910924
94	0xbf22fc87	-0.63666576
95	0x3e213f49	0.15746798
96	0x3db9c089	0.09069926
97	0xbeea4f69	-0.4576371
98	0xbe248282	-0.1606541
99	0x3d7e4a73	0.06208272
100	0x3f1864a4	0.59528565
101	0x3e94e05a	0.29077417
102	0x3e566869	0.20938267
103	0xbf03dde9	-0.51510483
104	0xbe941c87	-0.28928015
105	0xbed7d5a9	-0.42155197
106	0x3f3bb4bd	0.7332266
107	0x3e3e0059	0.1855482
108	0x3e568794	0.20950156
109	0xbee94876	-0.45563096
110	0xbded65d9	-0.115916915
111	0xbecfaae4	-0.40560067
112	0x3e766161	0.24060585
113	0x3e66f5cf	0.22554706
114	0x3d952c7b	0.072838746
115	0x3e179951	0.1480458
116	0x3f19edea	0.60128653
117	0xbec1c97d	-0.37849036
118	0x3e7cbd81	0.24681665
119	0x3e269e61	0.16271354
120	0xbe35a23a	-0.17737666
121	0xbe2c7823	-0.16842704
122	0xbcfc8b3f	-0.030828116
123	0xbe964e2b	-0.29356512
124	0xbdef2ac5	-0.116780795
125	0xbf23643c	-0.6382482
126	0xbe299909	-0.16562285
127	0xbd8210c0	-0.06350851
128	0x3eb6a810	0.35675097
129	0x3eadb8de	0.33930105
130	0x3d7b6135	0.061372
131	0x3dc39616	0.09550111
132	0xbd5f03f3	-0.054447126
133	0x3c860f98	0.016364858
134	0x3f231a6f	0.6371221
135	0xbf3b867a	-0.7325207
136	0x3ba9b9a0	0.005179599
137	0xbdb1741a	-0.08664723
138	0x3d333178	0.04374835
139	0xbe8033fc	-0.2503966
140	0xbe22766b	-0.15865485
141	0xbf956452	-1.167124
142	0x3f06544e	0.5247239
143	0x3ebd3235	0.36952367
144	0xbecb80d4	-0.39746726
145	0xbec95a3e	-0.39326662
146	0x3df7e5ba	0.12104364
147	0xbee6213e	-0.44947237
148	0xbe323b26	-0.17405376
149	0xbf2b6591	-0.66951853
150	0x3eeec8e1	0.46637633
151	0xbdb38709	-0.0876599
152	0x3ea97421	0.33096412
153	0xbdc63e02	-0.09679796
154	0xbf03ec8c	-0.51532817
155	0x3e5c7043	0.215272
156	0x3e918c05	0.2842714
157	0xbf375449	-0.71612984
158	0xbe318407	-0.1733552
159	0xbefbe067	-0.49194643
160	0xbdcd3e9f	-0.1002171
161	0x3ecaeff0	0.39636183
162	0xbde3a439	-0.11115307
163	0x3f056f74	0.5212319
164	0xbd08b0e0	-0.033371806
165	0xbe673eb3	-0.22582512
166	0x3d5eae28	0.054365307
167	0x3da6d60d	0.08146296
168	0x3f09f2c0	0.5388603
169	0xbef262f5	-0.47341123
170	0xbde0c4ba	-0.109750226
171	0x3eb6364b	0.35588297
172	0xbec0d06a	-0.37659007
173	0xbf5368e5	-0.8258193
174	0x3ef6798b	0.48139605
175	0xbddc0c60	-0.10744548
176	0xbf1cc8a6	-0.61243665
177	0xbebf3a58	-0.373492
178	0x3dece9ca	0.11568029
179	0x3d89903a	0.06716962
180	0x3e9dcdff	0.30821225
181	0xbecccb88	-0.39999032
182	0xbea4c47a	-0.3218115
183	0xbdd976d2	-0.10618366
184	0x3e91c9b5	0.28474203
185	0x3e925c04	0.28585827
186	0xbdaa5fb1	-0.08319033
187	0x3ea5b95b	0.32367977
188	0x3ef46b97	0.47738335
189	0xbe130e27	-0.14360867
190	0xbbccf1b4	-0.006254399
191	0xbc89cae1	-0.016820373
192	0xbebc567c	-0.36784732
193	0xbf5b4907	-0.85658306
194	0xbe09d846	-0.13461408
195	0x3e14056d	0.14455195
196	0x3ec11bb9	0.37716463
197	0x3e652dbc	0.22380728
198	0x3e17e09c	0.14831775
199	0x3e101623	0.14070944
200	0xbdcb4f80	-0.09927273
201	0xbf5e7ccd	-0.8690918
202	0x3eef816b	0.46778426
203	0xbf5dc749	-0.8663221
204	0xbe837666	-0.25676268
205	0xbbf733a9	-0.007544
206	0x3db6c5cc	0.089244455
207	0x3ef54a28	0.4790814
208	0x3e6c398f	0.23068832
209	0x3f326805	0.6968997
210	0x3db9785f	0.09056162
211	0x3e003737	0.12521063
212	0x3da35253	0.079746865
213	0x3f394c1f	0.72381777
214	0xbe118eb0	-0.14214587
215	0xbd9a89df	-0.07545828
216	0x3e26a421	0.16273548
217	0x3eb6ef30	0.3572936
218	0x3c6fc32e	0.014633937
219	0x3d89693b	0.06709524
220	0xbd2ce0fa	-0.042206742
221	0xbefcd4df	-0.49381158
222	0x3db16d0c	0.08663377
223	0xbd0dfe3e	-0.034666292
224	0xbb478bdd	-0.0030448355
225	0x3d3ffb17	0.046870317
226	0xbef2bb81	-0.4740868
227	0xbd7ab557	-0.061208095
228	0xbeedc1fc	-0.4643706
229	0xbe9f54d1	-0.31119397
230	0xbea7dca2	-0.32785517
231	0xbec56219	-0.38551405
232	0xbecc567e	-0.39909738
233	0xbe348972	-0.17630556
234	0xbee7f870	-0.4530673
235	0x3e953d55	0.29148355
236	0xbc083a8d	-0.008314741
237	0xbeb13605	-0.34611526
238	0xba77a294	-0.0009446528
239	0xbe864b55	-0.2622935
240	0x3f6f83a9	0.9356027
241	0xbe5f5e08	-0.21813214
242	0x3e4f2646	0.20229444
243	0x3eb12bfe	0.34603876
244	0x3ead536c	0.33852708
245	0x3d6ada0b	0.05733685
246	0x3f465240	0.77469254
247	0xbe86b403	-0.26309213
248	0x3e860c5e	0.2618131
249	0x3f23562a	0.6380335
250	0x3e155aee	0.14585468
251	0x3eea5db9	0.4577463
252	0xbeb1967a	-0.34685117
253	0xbea5fb0c	-0.32418096
254	0xbe01d721	-0.12679721
255	0x3c96e3b6	0.018419128

network_body._body_endoder.seq_layers.0.bias f4 [128]
0	0x3c8bbf7d	0.017059082
1	0xb96f6596	-0.0002283066
2	0xbbdd81c3	-0.0067598536
3	0xb92a18be	-0.0001622168
4	0x3c6f340b	0.01459981
5	0x3ad76339	0.0016432769
6	0x3c4fb289	0.012676843
7	0xbaec92a1	-0.001804907
8	0xbc319066	-0.01083765
9	0xbb665a39	-0.0035148992
10	0x3b8b6740	0.0042542517
11	0x3c22bc15	0.009932538
12	0x3b3e1fdd	0.0029010691
13	0x3c88f0df	0.016716419
14	0x3cb112d1	0.021615418
15	0xb9c29e98	-0.00037120725
16	0x3a2bd123	0.0006554296
17	0x3b9ce48d	0.0047879876
18	0x3b32b95e	0.0027271132
19	0x3b8dc585	0.0043265247
20	0x3cc377e6	0.023860883
21	0xbb068e45	-0.0020531577
22	0x3a4973f7	0.00076848216
23	0x3c43cba6	0.011950409
24	0xbc1e83bf	-0.009674965
25	0x3c0d926c	0.008640867
26	0x3c2ba80e	0.010477079
27	0x3c7e9b29	0.015539923
28	0xbc662f00	-0.014049292
29	0x3c744047	0.014907903
30	0xbba3e8e3	-0.0050021275
31	0x3c9af8f3	0.018917536
32	0x3c3dc683	0.011582973
33	0x3b633765	0.003467047
34	0xbc325dcc	-0.010886621
35	0x3c35fadd	0.011107174
36	0x3c7fd67e	0.015615104
37	0xbbadcec4	-0.0053041894
38	0x3c5d6e99	0.013515138
39	0x3c9650c1	0.018349053
40	0x3ce0ac61	0.027425947
41	0x3cbf182c	0.023326956
42	0x3bf6dcc8	0.0075336434
43	0xbc8bf4c9	-0.017084496
44	0x3c417d22	0.011809619
45	0x3c9e14f9	0.01929711
46	0x3be04d6c	0.006845167
47	0x3c95321b	0.018212369
48	0xbab30d7d	-0.0013660636
49	0x3c5a0091	0.013305799
50	0x3b1484bc	0.0022662124
51	0x3a7c655d	0.00096281414
52	0xba848a2f	-0.0010111983
53	0xba9f4b18	-0.0012153117
54	0xbbfcca3f	-0.0077145393
55	0x3c422b2e	0.011851115
56	0x3cb6b447	0.02230276
57	0xbc00b0d0	-0.007854655
58	0x3b90601d	0.004405989
59	0x3bc5fba1	0.0060419594
60	0xbc00b507	-0.00785566
61	0x3caba819	0.020954179
62	0xbb3ec24e	-0.0029107514
63	0x3b6637d3	0.0035128489
64	0x3cbe4891	0.023227962
65	0x3ba4cdb0	0.0050294027
66	0xbc3b2294	-0.011421818
67	0x3c53eaae	0.01293437
68	0x38968230	7.176807e-05
69	0x3cccbf01	0.024993422
70	0x3be48671	0.0069740345
71	0xba636372	-0.00086741813
72	0xbac4ac55	-0.0015004972
73	0x3c4ce76b	0.012506346
74	0x3c03475a	0.008012617
75	0x3b65ba80	0.003505379
76	0x3a1d8217	0.00060084596
77	0xbbab0c88	-0.0052199997
78	0x3c0d9b61	0.008643002
79	0x3c3889b0	0.011263296
80	0x3c204401	0.009781838
81	0x3c0e6df8	0.008693211
82	0x3c3c65ec	0.011498909
83	0x3c176b2b	0.009241859
84	0x3b751a33	0.003739965
85	0x3b9f4e9b	0.0048616654
86	0xbb8483c4	-0.004044028
87	0x3cb26ce9	0.021780448
88	0x3cbdb2cc	0.023156546
89	0xbbaed96c	-0.0053359773
90	0xbc997fb0	-0.018737644
91	0xbba4fe32	-0.0050351853
92	0x3c9a224b	0.01881518
93	0x3cd67de0	0.026183069
94	0xbb20e12b	-0.0024548273
95	0xbbb3b2a7	-0.0054839435
96	0x3c426d05	0.011866813
97	0xbbee8472	-0.0072789723
98	0x3c7ffdbd	0.015624461
99	0xbc7f45d1	-0.01558061
100	0x3af51fc1	0.001870148
101	0x3bf29683	0.0074031963
102	0x3c27a4d7	0.010232172
103	0xbb6831c5	-0.0035430056
104	0x3b14789b	0.0022654894
105	0xba7f5948	-0.0009740782
106	0x3bfceed4	0.0077189
107	0xbc0fed90	-0.008784667
108	0xbae38403	-0.0017358068
109	0x3b34aa02	0.0027567153
110	0xb8469321	-4.7343903e-05
111	0xbbd3b631	-0.006460928
112	0x3c60d13a	0.0137217585
113	0xbc1569a1	-0.009119422
114	0xbc8fce89	-0.017554538
115	0xbbf4955a	-0.007464093
116	0x3b9b1cb1	0.004733645
117	0x3cd55880	0.026043177
118	0x3b57b3c5	0.0032913547
119	0x3a9de42c	0.001204615
120	0x3b81be2c	0.003959438
121	0xbb4a2d99	-0.0030849932
122	0x3bbd6fcd	0.00578115
123	0x3c664198	0.014053725
124	0xbb4ba88b	-0.0031075801
125	0x3cb741f9	0.022370325
126	0x3bac47af	0.005257569
127	0x3c8fb59a	0.017542649

network_body._body_endoder.seq_layers.2.weight f4 [128, 128]
0	0x3d88cbe6	0.066795155
1	0x39e493ce	0.00043597672
2	0xbc2e660a	-0.010644445
3	0xbe266791	-0.16250445
4	0x3d8497d2	0.0647427
5	0xbdcb9aaf	-0.09941613
6	0xbcce119e	-0.025154885
7	0xbe2f7f01	-0.17138292
8	0xbcf97cef	-0.03045508
9	0x3da81b10	0.08208287
10	0xbd80c42e	-0.06287418
11	0x3d9d62ae	0.07684837
12	0x3b798627	0.0038074346
13	0x3e7f4797	0.24929653
14	0x3be90013	0.0071106046
15	0xbc724f5f	-0.014789431
16	0x3db7e098	0.08978385
17	0xbc77f180	-0.015133262
18	0x3c0f2092	0.008735793
19	0xbc80fe1f	-0.015746174
20	0x3b804677	0.00391465
21	0xbd48b2ce	-0.048998646
22	0x3d11e6a9	0.035620365
23	0x3d82f83b	0.063950025
24	0x3e04e17b	0.12976639
25	0x3d42094f	0.04737216
26	0xbe02e88f	-0.12784027
27	0xbba9a1df	-0.0051767672
28	0xbd732356	-0.05935987
29	0x3ccacb7e	0.024755236
30	0x3ccbdd79	0.02488588
31	0x3d4f6470	0.050632894
32	0xbd1db309	-0.03850082
33	0xbe326fa6	-0.17425403
34	0xbdd3c9ef	-0.1034125
35	0xbe422d78	-0.18962657
36	0xbd595699	-0.0530611
37	0xbe0a3adf	-0.1349902
38	0x3cb631ec	0.022240601
39	0x3dc41d4d	0.09575901
40	0xbde898f7	-0.11357301
41	0xbe37128b	-0.17878167
42	0x3d1f86df	0.038946982
43	0x3d3699bd	0.04458021
44	0x3d965178	0.07339758
45	0xbca79eae	-0.020461407
46	0xbcf14b0d	-0.029454732
47	0x3b570092	0.0032806736
48	0xbce6d2d2	-0.028176699
49	0xbcd3f1c3	-0.025872117
50	0x3c1f1120	0.009708673
51	0x3db3c7b2	0.08778323
52	0x3d1b4102	0.037903793
53	0xbd16f228	-0.036852032
54	0x3dc3774d	0.09544239
55	0x3e12ab58	0.14323175
56	0xbdbf4f38	-0.09341282
57	0x3d43785a	0.047722198
58	0xbdb9ee0d	-0.09078608
59	0xbcc322c6	-0.023820292
60	0xbd0519cd	-0.03249531
61	0xbd58c527	-0.052922394
62	0x3d10d135	0.035355765
63	0x3e06d256	0.13166174
64	0x3dd5cd2a	0.104395226
65	0xbde69f1b	-0.11260816
66	0xbcbe0a55	-0.023198286
67	0x3e0840a7	0.13305913
68	0xbdbd50d6	-0.09243934
69	0xbd97b4e1	-0.07407547
70	0xbd9b3392	-0.07578196
71	0xbd7de11c	-0.06198226
72	0xbe59fbb5	-0.21287425
73	0x3d9e8189	0.077395506
74	0x3d82715d	0.063692786
75	0x3c22ee8f	0.009944572
76	0x3dbe6d25	0.092981614
77	0x3d75842c	0.059940502
78	0x3baa55d2	0.005198219
79	0x3c8e38aa	0.017361004
80	0x3e21de36	0.15807423
81	0x3cb820ff	0.022476671
82	0xbd8a32ea	-0.06747992
83	0x3d447529	0.047963295
84	0x3d6768ef	0.056496557
85	0x3e0315fd	0.12801357
86	0xbce26b04	-0.02763892
87	0xbe17bce6	-0.14818153
88	0xbd1e496e	-0.038644247
89	0xbdcf5630	-0.10123861
90	0xbe47f405	-0.1952668
91	0x3d609bb1	0.05483598
92	0xbda53257	-0.08066242
93	0xbde1ddd8	-0.110286415
94	0x3cb22eec	0.02175089
95	0xbd9f1187	-0.07767015
96	0x3e17ec5d	0.14836259
97	0x3de0c700	0.10975456
98	0x3d1f1894	0.0388418
99	0x3d041b1e	0.032252423
100	0x3c625983	0.013815287
101	0xbd98bb47	-0.07457595
102	0x3d70fd76	0.05883547
103	0xbdbd9141	-0.092562206
104	0x3e07f32a	0.13276353
105	0x3df18f53	0.11794915
106	0x3d2e03a8	0.042483956
107	0x3d62f06c	0.055405065
108	0x3deebd69	0.11657221
109	0x3dd873a8	0.10568935
110	0xbd3bb434	-0.045826152
111	0x3e016d83	0.12639432
112	0xbe0502c4	-0.12989336
113	0x3da2c8e7	0.07948475
114	0xbcd36d2a	-0.02580889
115	0x3e2b9853	0.16757326
116	0x3de51210	0.11185086
117	0xbd0a2e39	-0.033735488
118	0x3dad9088	0.08474833
119	0xbdd26e53	-0.10274949
120	0xbd242a90	-0.040079653
121	0xbd25a8f3	-0.040444326
122	0x3d897d2e	0.06713329
123	0xbd032b7f	-0.032023903
124	0x3e52474d	0.20535012
125	0xb9dc82c2	-0.00042059092
126	0xbc956e49	-0.018241065
127	0x3cd4f94e	0.025997784
128	0xbdd045d0	-0.10169566
129	0xbc2012b5	-0.009770085
130	0xbcfa374c	-0.030543946
131	0x3d384b11	0.044993464
132	0x3db10b3c	0.08644721
133	0xbd985057	-0.074371986
134	0x3cc15810	0.023601562
135	0xbe06377f	-0.13107108
136	0xbd8bf76c	-0.06834301
137	0x3e492284	0.19642073
138	0x3abfb3d8	0.0014625741
139	0x3d5c98de	0.053856723
140	0x3d285c59	0.041103695
141	0xbd6c13ad	-0.05763595
142	0xbdfa315f	-0.12216448
143	0x3c1bfc7a	0.009520644
144	0x3c2d7416	0.010586759
145	0x3bd7ba73	0.006583506
146	0x3d425b61	0.047450427
147	0x3d96b67d	0.073590256
148	0x3bcd2288	0.00626022
149	0x3c798b2b	0.015230934
150	0x3d2f6b06	0.042826675
151	0xbd293455	-0.041309673
152	0xbe14face	-0.145488
153	0x3e0e7b7d	0.13914295
154	0xbd53630c	-0.05160813
155	0x3c74bc3e	0.014937459
156	0xbd21412b	-0.03936879
157	0xbd813a85	-0.0630999
158	0xbc4c34f4	-0.012463797
159	0xbca5fbdf	-0.020261703
160	0x3d27690f	0.040871676
161	0xbd2c4342	-0.04205633
162	0x3dc522df	0.09625792
163	0xbc64abde	-0.013956992
164	0x3c42694d	0.011865926
165	0x3d98bbd1	0.07457698
166	0x3cc1042b	0.023561558
167	0xbd43e40a	-0.047824897
168	0x3d5a4a30	0.053293407
169	0xbe176b30	-0.14786983
170	0x3e197c77	0.14988886
171	0x3bad7d18	0.0052944534
172	0x3e1e98b9	0.15487947
173	0x3dfeaa3b	0.12434813
174	0xbd9de13a	-0.07708974
175	0x3d73d598	0.05952987
176	0xbd85c86e	-0.065323696
177	0xbe4415e7	-0.1914898
178	0xbcb75762	-0.022380535
179	0x3d1b10fd	0.037858
180	0xbcab69f8	-0.020924553
181	0x3dd435ea	0.10361846
182	0xbdb1b5b2	-0.08677234
183	0x3dea63d0	0.11444819
184	0x3cae6bbf	0.021291612
185	0x3ddd1679	0.10795302
186	0x3c7d9408	0.015477188
187	0xbdfe1742	-0.1240678
188	0xbdd77d99	-0.10522003
189	0x3cba601f	0.022750912
190	0x3bc9da5a	0.0061600627
191	0x3d77b75f	0.06047761
192	0xbd89c11d	-0.067262866
193	0xbde60ba4	-0.11232689
194	0x3e1ce9d8	0.1532358
195	0xbd20e32c	-0.039279148
196	0x3d827520	0.06369996
197	0xbcb8de82	-0.022567037
198	0xbdea2af5	-0.11433975
199	0x3d8e1975	0.06938449
200	0xbe062ab1	-0.13102223
201	0x3e03d8cf	0.12875675
202	0xbc312fb5	-0.010814597
203	0xbe983dd2	-0.29734665
204	0x3d4fce80	0.050734043
205	0xbd522e07	-0.051313426
206	0xbd083200	-0.03325081
207	0xbd033127	-0.032029297
208	0x3b96ae99	0.0045984504
209	0xbdd92b03	-0.10603907
210	0x3d1b48aa	0.037911095
211	0x3cea14ed	0.028574431
212	0x3d1cde9a	0.038298227
213	0xbdf06bf6	-0.11739342
214	0x3d42b3c5	0.047534723
215	0x3d169661	0.036764506
216	0x3da55cec	0.08074364
217	0x3d290896	0.041267954
218	0xbd12f15e	-0.035874717
219	0x3df9e31b	0.1220152
220	0xbd8c201a	-0.068420604
221	0x3d88367a	0.066510156
222	0xbd2109fb	-0.03931616
223	0x3d8e55ae	0.06949936
224	0x3dbc6f37	0.092009
225	0x3d5fd486	0.054646038
226	0xbc9043f3	-0.017610526
227	0x3c84bd81	0.016203644
228	0x3c558e0f	0.013034358
229	0xbc65f480	-0.014035344
230	0x3dd81c41	0.10552264
231	0xbcba3b82	-0.022733454
232	0x3de37563	0.11106374
233	0xbda27ae4	-0.07933596
234	0xbd28a94e	-0.041177087
235	0xbdad050e	-0.0844823
236	0xbdf8e20d	-0.12152491
237	0xbdce1214	-0.10062042
238	0x3de80cd7	0.11330574
239	0x3d6cdd94	0.0578285
240	0x3e0a56f8	0.13509738
241	0x3d078133	0.0330822
242	0x3cd7d040	0.026344419
243	0x3d714778	0.05890605
244	0x3c852c55	0.01625649
245	0x3af82866	0.0018932938
246	0x3d276c7d	0.040874947
247	0xbd594981	-0.053048614
248	0x3c869298	0.016427323
249	0x3d0133b6	0.031543456
250	0x3c497ea7	0.012298263
251	0xbd01ee59	-0.031721447
252	0xbcdd8787	-0.027042164
253	0xbdaf91eb	-0.085727535
254	0xbd0a2280	-0.033724308
255	0x3d845937	0.06462329

network_body._body_endoder.seq_layers.2.bias f4 [128]
0	0x3b104d43	0.0022018708
1	0x3a9f1e2f	0.0012139733
2	0xbb0efc8a	-0.0021818005
3	0x3c67a794	0.014139075
4	0x3c73f3e3	0.01488969
5	0x3ba4bbcc	0.00502727
6	0x3aaba8df	0.0013096592
7	0x3c07c3b4	0.008286405
8	0x3b3116d6	0.0027021668
9	0xbc0461cb	-0.008079956
10	0xbc176eea	-0.009242753
11	0x3c3a48fe	0.011369942
12	0x3c92173e	0.017833348
13	0x3c3506d2	0.011048989
14	0x3bde3801	0.0067815785
15	0x3b523a05	0.003207804
16	0x3c83bc66	0.016081046
17	0x3ca3afa9	0.019981222
18	0x3bd412fd	0.00647199
19	0x3b1210f9	0.0022287949
20	0x3be69b84	0.007037582
21	0xbc00b5fd	-0.007855889
22	0x3b8c6ba4	0.0042852927
23	0x3b8fd952	0.0043899203
24	0x3c02a535	0.007973959
25	0xbb138a73	-0.0022512942
26	0x3c236524	0.009972844
27	0x3c218da6	0.009860432
28	0x3c00aa96	0.007853171
29	0x3b8e3e7d	0.0043409453
30	0xbb405947	-0.0029350088
31	0x3b0e71e4	0.0021735365
32	0xb9faf59e	-0.00047866715
33	0x3c07549d	0.0082599195
34	0x3c4e767e	0.012601493
35	0x3c080fcc	0.0083045475
36	0x3bb5cb16	0.0055478914
37	0x3caf8439	0.021425353
38	0x3c8716de	0.016490396
39	0x3c174ecf	0.009235098
40	0xbb8131dd	-0.0039427117
41	0xbb0f8fc5	-0.0021905762
42	0x3c6708ed	0.014101249
43	0xbb45b3a8	-0.0030166898
44	0x3c407dfc	0.011748787
45	0xbb48d197	-0.0030642503
46	0x3bc55ef8	0.006023284
47	0xbb2519d5	-0.00251924
48	0x39f2fe8c	0.0004634749
49	0x3b6d6faa	0.0036229887
50	0x3c4799df	0.012182682
51	0x3b21f4b2	0.00247125
52	0x3af3a541	0.0018588678
53	0xba4ba776	-0.0007768789
54	0xb903ddee	-0.00012575809
55	0x3be4d9bc	0.006983964
56	0x3afd93dd	0.0019346435
57	0x3c96d6ce	0.018412974
58	0xbc1e9f6d	-0.009681565
59	0x3c7316d8	0.014836989
60	0xbb056870	-0.002035644
61	0x3c132dc1	0.008983077
62	0x3befb725	0.0073155337
63	0x3c980b24	0.01856
64	0x3bcfedcb	0.006345486
65	0x3c50659f	0.012719541
66	0xb9de02b1	-0.00042345145
67	0x3b9f2928	0.004857201
68	0x3a88940e	0.00104201
69	0x3cadc4d0	0.021212012
70	0x3b90978a	0.004412596
71	0x3ca7fcff	0.02050638
72	0xba518d0e	-0.0007993736
73	0x3be1aec5	0.006887289
74	0x3caa8009	0.020813005
75	0x3aa4f1ee	0.0012584308
76	0x3c1e9c41	0.0096808085
77	0x3c81a21c	0.01582437
78	0x3aeed94f	0.0018222722
79	0x3c3f2e27	0.011668718
80	0xbb867258	-0.0041029863
81	0x3adcd4cc	0.0016848086
82	0xba94f694	-0.001136499
83	0xbab18b60	-0.0013545565
84	0x3bb6ab35	0.0055746087
85	0x3ba2acd2	0.0049644494
86	0x3ae6075c	0.0017549801
87	0x3cae30d7	0.021263523
88	0x3bd95c91	0.006633349
89	0xbb546400	-0.0032408237
90	0x3b6bb260	0.0035964474
91	0x3c57f138	0.01318007
92	0x3adb55dc	0.0016733962
93	0x3ba9bc15	0.005179892
94	0xbb860655	-0.0040901103
95	0xbb0b1026	-0.0021219342
96	0xbb845369	-0.0040382636
97	0x3c14d8ee	0.009084923
98	0x3c7b3f2a	0.015334884
99	0x3bdc5245	0.0067236745
100	0x3c0bee91	0.008540765
101	0x3b434011	0.0029792825
102	0x3bc08155	0.0058747926
103	0x399ebb6f	0.00030275757
104	0x3c54f39e	0.012997536
105	0x3b851e51	0.004062452
106	0x3bd41a79	0.0064728823
107	0x3ad7d140	0.001646556
108	0x3b837762	0.0040120343
109	0x3bba101f	0.0056781913
110	0xba5aa632	-0.0008340805
111	0x3bc43728	0.0059880204
112	0x3bbb17e8	0.005709637
113	0x3bd1e26e	0.0064051664
114	0x3a008f0f	0.000490413
115	0xba1ebbf4	-0.0006055229
116	0xbb8df972	-0.0043327147
117	0x3c6138bd	0.013746438
118	0x3ca144e4	0.01968617
119	0x3c2cb7e8	0.010541894
120	0xba74d9de	-0.0009340326
121	0xbbf6db45	-0.007533463
122	0x3b871ef9	0.0041235653
123	0xbc43b7aa	-0.011945644
124	0x38d39e62	0.00010090765
125	0xbb18b72a	-0.0023302534
126	0x3bace55d	0.0052763657
127	0x3c173f4c	0.0092314

action_model._discrete_distribution.branches.0.weight f4 [3, 128]
0	0x3a5b9848	0.00083768787
1	0xbc70a7c5	-0.014688437
2	0x38af11c2	8.347958e-05
3	0xba1c6aef	-0.0005966862
4	0x3b28b134	0.0025740387
5	0xbc0b3119	-0.0084955925
6	0x3c35d899	0.011099004
7	0xbc71590f	-0.014730706
8	0x3c1fa847	0.00974471
9	0x3c57bcf2	0.013167607
10	0x3b46de26	0.0030344813
11	0xbbe65130	-0.0070287213
12	0xbab5b087	-0.0013861813
13	0xbc835140	-0.016029954
14	0x3bc7c7f0	0.0060968325
15	0xba8e8812	-0.0010874292
16	0xbc0853f7	-0.0083208
17	0x3ba34141	0.004982144
18	0xbca1514a	-0.019692082
19	0xbba56417	-0.005047332
20	0x3bf80524	0.007568972
21	0x3a66dfbd	0.00088071433
22	0xbb4279ea	-0.0029674717
23	0x3a955c14	0.0011395239
24	0x3c02ed3a	0.0079911295
25	0x3cde4474	0.02713225
26	0x3be01e15	0.0068395236
27	0x3b39c336	0.0028345115
28	0x3b65307a	0.0034971521
29	0xbbe8f50e	-0.007109291
30	0x3c5c23da	0.013436282
31	0x3c3d141b	0.011540438
32	0xbbb480d9	-0.005508524
33	0xbbac1384	-0.00525135
34	0x3ca31e01	0.019911768
35	0xbc0bfac9	-0.008543679
36	0x3af8e291	0.001898842
37	0xba50443a	-0.0007944737
38	0xbc90630a	-0.01762535
39	0xba9bc927	-0.001188551
40	0xbba40c51	-0.005006351
41	0xbc0446e8	-0.008073546
42	0xbc900010	-0.017578155
43	0xbbdd48b7	-0.006753053
44	0xbc46edda	-0.012141669
45	0xbadfe082	-0.0017080458
46	0x3ca073af	0.019586412
47	0xbc27a91b	-0.010233189
48	0x3b650a2a	0.0034948685
49	0xbc34c4ae	-0.01103322
50	0xbb6266c5	-0.0034546119
51	0x3b7a16d4	0.003816058
52	0x3bda76a2	0.006666974
53	0xbb15e9a9	-0.0022874868
54	0xbbd64d5a	-0.0065399827
55	0x3c866b96	0.016408723
56	0x3c02e4f3	0.007989156
57	0xbc5a7db6	-0.013335636
58	0x3bb55b0e	0.005534536
59	0x3b8bef86	0.004270497
60	0x3c39e9a4	0.011347208
61	0xbcdc048b	-0.026857635
62	0xbb204091	-0.0024452547
63	0xbc3fe4d0	-0.011712268
64	0xbc6e2dc6	-0.01453728
65	0x3b4c3283	0.0031158037
66	0x3ba431dc	0.0050108265
67	0x3c55ffa1	0.013061435
68	0xbaef1307	-0.0018239924
69	0xbc2d4cfc	-0.010577437
70	0xbab11d1c	-0.0013512704
71	0xbbdf93a6	-0.006823021
72	0x3b940178	0.0045167767
73	0xbc1f4971	-0.0097221
74	0xbc7bba73	-0.015364277
75	0xbc33dbf2	-0.010977732
76	0xbb9d3dad	-0.004798612
77	0xbc479297	-0.012180946
78	0x3cb1c894	0.021702088
79	0xbbb3521f	-0.005472436
80	0x3c0ccb7d	0.008593437
81	0xbbb3308a	-0.005468433
82	0x3c67b53c	0.014142331
83	0x3b99ba5e	0.004691406
84	0xbb8c1b57	-0.00427572
85	0x3c66c7d5	0.01408573
86	0x3b761dcd	0.0037554384
87	0xbba1078f	-0.004914231
88	0xbc32739c	-0.010891821
89	0x3b8bce88	0.004266564
90	0x3c7a7f5f	0.015289157
91	0x3c8c3c96	0.017118733
92	0x3c6018bd	0.013677773
93	0xbba70c45	-0.005097898
94	0x3c275a01	0.01021433
95	0x3c85c29a	0.016328145
96	0x3c2da96d	0.010599476
97	0xbb81c714	-0.0039604995
98	0xbbe35b65	-0.0069383853
99	0xbc3c0737	-0.0114763295
100	0x3c10fc86	0.008849269
101	0x3c7133ae	0.014721794
102	0xbca4465e	-0.020053085
103	0xbac1ba5d	-0.0014780272
104	0xbb49fd65	-0.00308212
105	0x3c650c9b	0.013980056
106	0xbc40bbde	-0.011763541
107	0x3c2dfbfa	0.010619158
108	0x3ba56526	0.005047458
109	0x3968dd11	0.00022207598
110	0x3c716cd7	0.014735422
111	0x3c23d6b5	0.009999921
112	0xbc41721b	-0.01180699
113	0xbbdf3b8b	-0.006812518
114	0xbb935d2d	-0.0044971914
115	0xbc1aa961	-0.009439797
116	0x3b91bf75	0.0044478723
117	0x3bb85cea	0.0056263106
118	0xbb9aebad	-0.004727802
119	0xbb1399af	-0.0022522022
120	0xbc4adb79	-0.012381428
121	0xba97ca6a	-0.001158071
122	0x3c8be460	0.017076671
123	0xbb222cc1	-0.0024745914
124	0x3aedc55b	0.0018140482
125	0xbab60992	-0.001388835
126	0xb96881c7	-0.0002217359
127	0xbb40301d	-0.0029325553
128	0x3c2ca196	0.010536572
129	0x3c48c8be	0.012254892
130	0x3c0e1d20	0.008673936
131	0xbc80a518	-0.015703723
132	0xbc0393a7	-0.0080308085
133	0x3cc0fc46	0.023557793
134	0x3c791a40	0.015204012
135	0xbc5b936e	-0.013401849
136	0x3c1043b4	0.008805204
137	0x3b2f0b20	0.0026709512
138	0xbb238d72	-0.0024956134
139	0xbc0188a5	-0.007906114
140	0xbcc3e4b3	-0.023912763
141	0xbc8c21d8	-0.017105982
142	0xbc050604	-0.00811911
143	0x3be5abb5	0.0070089945
144	0xbbad7f18	-0.005294692
145	0xbc328dff	-0.010898112
146	0xbbce9f31	-0.006305598
147	0xbbf5cb7d	-0.0075010643
148	0xbc3d77b4	-0.011564184
149	0x3a065ff7	0.0005125994
150	0x3beede95	0.0072897174
151	0xbb9e8161	-0.0048372005
152	0xbcc97c4e	-0.024595406
153	0xbbbae00f	-0.0057029794
154	0x3c17b0d1	0.009258465
155	0xbca682b8	-0.020326003
156	0xb8a7002b	-7.963212e-05
157	0x3b8c1edc	0.0042761397
158	0xbbd98daf	-0.0066392045
159	0xbc634051	-0.013870315
160	0x3cd436a9	0.02590497
161	0xbc641444	-0.013920847
162	0xbd07d8bc	-0.03316568
163	0x3ac70932	0.0015185236
164	0x3c74963e	0.014928399
165	0xbc9fdd88	-0.019514814
166	0xbc35d731	-0.011098669
167	0x3b231f5e	0.0024890522
168	0xbad2e69b	-0.0016090454
169	0x3c781854	0.015142519
170	0x39227f84	0.00015497027
171	0x3c85c8af	0.016331045
172	0xbc5db584	-0.013532046
173	0x3c4133e2	0.011792155
174	0xbd040a9b	-0.032236677
175	0x3c747105	0.014919524
176	0xbcaaf926	-0.020870756
177	0x3c825290	0.01590851
178	0xbb876a38	-0.0041325353
179	0x3c669a36	0.014074853
180	0x3beeca8b	0.0072873286
181	0x3c592d93	0.013255495
182	0x3bf30d13	0.00741733
183	0xbc7a498c	-0.015276324
184	0x3c72dc5e	0.014823047
185	0xbc79439b	-0.015213872
186	0x3b11d351	0.0022251199
187	0xbc7b27de	-0.015329329
188	0xbc7414eb	-0.014897565
189	0xbb2959b7	-0.0025840828
190	0x3c36a012	0.011146562
191	0xbca61c83	-0.020277267
192	0xbbcec770	-0.006310396
193	0xbcee8cd8	-0.029119894
194	0x3b14ee2b	0.0022724967
195	0x3ca1ba4f	0.01974216
196	0x3cebb030	0.028770536
197	0xbccc02b0	-0.024903625
198	0xbb9e2be1	-0.004827008
199	0xbcae433b	-0.021272292
200	0xbc840b3f	-0.016118644
201	0x3c5672dd	0.013088909
202	0xbd00ffee	-0.031494074
203	0x3b8f38c9	0.004370783
204	0xbc3f57f8	-0.011678688
205	0xbc7b39d0	-0.015333608
206	0x3d04e741	0.032447103
207	0xbc2fde9e	-0.010734228
208	0x3bbe68ea	0.0058108466
209	0x3c7e4dd6	0.015521487
210	0x3b8c6d67	0.0042855027
211	0x3b8115dd	0.003939374
212	0xbb118170	-0.0022202395
213	0xbc301b7c	-0.01074874
214	0xbc1c2bc9	-0.009531924
215	0xbc2e04c4	-0.010621253
216	0x3c00504e	0.007831646
217	0x3c1bc3f6	0.00950717
218	0x3ae04f97	0.0017113563
219	0xbc56e9eb	-0.013117294
220	0x3c9cb0ee	0.019127335
221	0x3d1c88ee	0.038216524
222	0xbb32019b	-0.0027161601
223	0xbb56be1a	-0.0032767118
224	0x3be4fe8d	0.0069883526
225	0xbd02f9bd	-0.03197645
226	0xbc5d9d35	-0.013526251
227	0x3c0a0907	0.008425004
228	0xbc35a75d	-0.011087266
229	0xbc3b2d56	-0.011424383
230	0xb92bc600	-0.00016381592
231	0x3ce096b7	0.027415616
232	0xbc7452a6	-0.014912283
233	0xbc5253e9	-0.012837389
234	0x3bb0e756	0.005398671
235	0xbb1e3b08	-0.0024144072
236	0xbb86656f	-0.0041014473
237	0x3b3e6b11	0.0029055516
238	0x3a9429e8	0.0011303993
239	0xbca69bae	-0.020337906
240	0x3cac6539	0.02104436
241	0xbbced0b8	-0.0063115023
242	0x3ad8191e	0.0016486978
243	0x3be1f19f	0.0068952586
244	0x3bdfe538	0.006832745
245	0xbcb81463	-0.022470659
246	0xbc946ff6	-0.018119793
247	0xbcb3ca97	-0.021947188
248	0x3c06a835	0.008218815
249	0xbbc033e4	-0.005865561
250	0xbc8348be	-0.016025897
251	0xbb6257c6	-0.003453718
252	0xbcda9fe9	-0.02668758
253	0x3bc941aa	0.006141861
254	0xbb868f25	-0.0041064196
255	0xbca72d1c	-0.020407252

action_model._discrete_distribution.branches.0.bias f4 [3]
0	0xbb8ce14c	-0.0042993184
1	0xbb9729e6	-0.004613149
2	0x3c0db7e7	0.008649803

52 f4 [8]
0	0x4109011b	8.56277
1	0x4067644d	3.6154969
2	0x419176b1	18.182955
3	0x4105e480	8.368286
4	0x403e2962	2.9712758
5	0x413ceeea	11.808329
6	0x404080d2	3.0078626
7	0x3b857d3d	0.0040737675
