results/Session1/Pong/Pong-31414.pt (torch, 447314 bytes, 41 tensors)

network_body.observation_encoder.processors.0.normalizer.running_mean f4 [8]
000000 91 20 96 3e db 8f 18 3e 26 f6 23 3f d1 9b b6 3d
       0.2932172 0.14898627 0.6404747 0.08916438
000010 d7 23 30 3e 71 b1 70 3d 83 c5 2f 3e f2 fd ff 3e
       0.17201172 0.05876297 0.17165188 0.49998432

network_body.observation_encoder.processors.0.normalizer.running_variance f4 [8]
000000 c8 48 0d 4a 3d 4d cc 48 7d 55 1e 4b d8 bc 06 4a
       2.314802e+06 418409.9 1.0376573e+07 2.207542e+06
000010 09 2f 86 48 53 ff 84 4a 5e 66 89 48 00 76 f5 45
       274808.28 4.3580575e+06 281394.94 7854.75

network_body.processors.0.normalizer.running_mean f4 [8]
000000 91 20 96 3e db 8f 18 3e 26 f6 23 3f d1 9b b6 3d
       0.2932172 0.14898627 0.6404747 0.08916438
000010 d7 23 30 3e 71 b1 70 3d 83 c5 2f 3e f2 fd ff 3e
       0.17201172 0.05876297 0.17165188 0.49998432

network_body.processors.0.normalizer.running_variance f4 [8]
000000 c8 48 0d 4a 3d 4d cc 48 7d 55 1e 4b d8 bc 06 4a
       2.314802e+06 418409.9 1.0376573e+07 2.207542e+06
000010 09 2f 86 48 53 ff 84 4a 5e 66 89 48 00 76 f5 45
       274808.28 4.3580575e+06 281394.94 7854.75

network_body._body_endoder.seq_layers.0.weight f4 [128, 8]
000000 c5 61 5b 3d 55 72 64 3e db 7f 23 3e 50 05 0a be
       0.053560037 0.22309239 0.15966742 -0.13478589
000010 50 4a f2 3e 60 e1 89 bd cf c4 fa 3c c2 e0 79 be
       0.4732232 -0.0673244 0.030611424 -0.24402145
000020 58 9d 1d bf c2 6e dd be a1 9d 96 3e df d7 ac 3d
       -0.6156821 -0.43248564 0.29417136 0.08439612
000030 c6 01 70 3e 5f 83 e7 be 3a 48 86 3e 01 48 44 3f
       0.23438177 -0.45217416 0.2622698 0.7667237
000040 6f cc bb 3d 78 9b a7 be ae 84 01 bf a1 97 cb be
       0.09169852 -0.327358 -0.5059308 -0.3976412
000050 a3 f7 15 3f 06 3c 24 3f 73 06 8f be 8a da 4f 3e
       0.5858099 0.6415409 -0.27934608 0.2029821
000060 a1 e7 bd be d0 0d 84 bd fa 9f 96 be ef e6 f5 be
       -0.3709078 -0.06447947 -0.29418927 -0.4802775
000070 8c 1b bc be 87 bb 13 3e 94 94 40 be 3d 53 f4 bd
       -0.36739767 0.14427005 -0.18806678 -0.11929939
000080 e6 a2 af 3e 23 81 a8 3e 22 8a 04 be 07 a9 47 bd
       0.3430397 0.32911023 -0.12943318 -0.04874518
000090 fb e9 71 bd de dc 04 bf 51 dd 94 3e 1c a4 a2 3e
       -0.05906103 -0.51899517 0.290751 0.3176583
0000a0 0c e3 7d 3d 32 fe f9 3e 86 3b bc be 7a 37 4e be
       0.061984107 0.48826748 -0.36764163 -0.2013835
0000b0 4a cd 87 3e 17 c8 63 3e b6 44 57 3e fa d0 f7 be
       0.2652381 0.22244297 0.21022305 -0.48401624
0000c0 b9 48 12 be ee 72 ad be 8d 82 24 be ac c2 1a 3f
       -0.14285554 -0.33876747 -0.16065426 0.60453296
0000d0 47 92 60 be d9 f4 21 3e 02 60 59 bd 0d 1f e5 3e
       -0.219308 0.15816058 -0.053070076 0.44750252
0000e0 aa 46 d3 3e 1e 9b 68 bd b4 fe c2 3e 55 f7 06 3e
       0.4126485 -0.056788556 0.38084948 0.13180287
0000f0 d9 59 99 bd b5 e5 72 bd ef c4 b7 be 13 88 7a bd
       -0.0748784 -0.059301097 -0.35892436 -0.061164927
000100 bf 15 95 3d d1 2f 55 3e 8b a1 de be 3a bb 04 bf
       0.07279538 0.20819022 -0.43482623 -0.51848185
000110 5f 52 19 3f 1e 5f fa 3e 79 33 9b be ea 66 11 3e
       0.59891313 0.48900694 -0.30312708 0.14199415
000120 fb 79 f8 bc 55 d8 13 3e 2f 6d a7 bd ea 5d 22 be
       -0.030331602 0.14437993 -0.08175122 -0.15856138
000130 2f 37 df be 10 f5 66 3e ec 0b 86 bd aa 92 1f be
       -0.4359679 0.22554421 -0.06545243 -0.15583292
000140 78 09 79 3d 77 f2 93 be 30 5d d1 3e 64 49 90 be
       0.060800046 -0.28895923 0.4089141 -0.28180993
000150 f2 88 e1 be f9 59 df 3d 90 5e 25 bf e4 5c 29 bf
       -0.44049793 0.10905833 -0.64597416 -0.66157365
000160 9d ad 8b 3e ca 8e b7 be 37 3a c3 3e 7e aa a7 3c
       0.27280894 -0.35851127 0.38130352 0.02046704
000170 54 40 ca 3e 2f 62 1a bf 34 65 1d 3e 9d 87 a2 be
       0.39502203 -0.60306066 0.15370637 -0.3174409
000180 14 f7 94 3e ac 8e 9c 3d 64 d5 b4 be 2a ea 3c be
       0.29094756 0.076444 -0.35319054 -0.18448702
000190 69 6f 17 be 91 6c 08 bf 62 e0 42 bf 38 94 f0 bd
       -0.14788593 -0.5329066 -0.7612363 -0.117470205
0001a0 41 7b a4 3e b2 b6 47 bf 54 db c4 3e 5d e7 e3 bd
       0.32125285 -0.78013146 0.38448584 -0.111281134
0001b0 2e 2e 3f bf 65 c3 8e 3e 3c 09 56 3e a9 4c 0a be
       -0.7467984 0.2788345 0.2090196 -0.13505806
0001c0 d8 52 00 3e 33 6f 8c 3f 08 cb c7 be 2f e8 e3 3d
       0.12531602 1.0971435 -0.39022088 0.1112827
0001d0 36 85 d3 3e ec a9 bc 3d b6 80 74 39 ba dd 37 be
       0.4131257 0.092120975 0.00023317602 -0.17955676
0001e0 8e 38 ec 3e 8f 1d 84 3e a5 cc c7 3c ea 58 10 bf
       0.46136898 0.258038 0.024389574 -0.5638567
0001f0 09 14 1c 3f df 25 08 bf a7 99 c3 bd 16 79 ac 3d
       0.6096807 -0.53182787 -0.09550791 0.08421533
000200 ca 71 8b bd e0 78 87 be a2 9f 4f bd 00 06 a3 be
       -0.06808813 -0.26459408 -0.050689347 -0.31840515
000210 08 98 bb 3e c2 ef 46 be a8 04 5a be b6 8a 2d bf
       0.36639428 -0.19427398 -0.21290839 -0.6778978
000220 80 3e 2d be 27 0a d4 3d b0 84 f6 3c c9 01 28 bf
       -0.16918373 0.10353499 0.030092567 -0.65627724
000230 90 62 4e 3e dc 49 71 3d bd 45 ac be 73 24 7a 3e
       0.20154786 0.05890833 -0.33646956 0.24427967
000240 ad fc bc 3e a9 c0 9a be 71 e4 57 be 44 29 e2 3e
       0.36911526 -0.30225113 -0.21083237 0.44172108
000250 2d f3 c2 3c 62 11 d1 3d 72 23 93 3c d3 5d 4b 3e
       0.023797596 0.10208394 0.017961238 0.1986001
000260 d6 2d e8 bd 42 5a b4 3e 46 bd 0c 3e 2a 39 d7 3c
       -0.113368675 0.3522511 0.13744077 0.026272375
000270 f5 82 c1 be 76 8f 48 3f 65 b5 19 3e 1e 1a a8 bd
       -0.37795225 0.78343904 0.15010603 -0.082081065
000280 b0 4c 8b 3d 8b 6d 8f 3d 3f 64 a9 be 9f ef bc 3e
       0.06801736 0.070033155 -0.33084294 0.36901566
000290 fc 4c 04 3f c3 4a 90 3d a1 99 b8 be b9 62 80 bc
       0.5167997 0.0704551 -0.3605471 -0.015672075
0002a0 cc 3c c3 3e 1e b3 4f 3d 9d 92 4c 3e a9 61 b4 3c
       0.38132322 0.05070793 0.19977804 0.022019224
0002b0 01 c0 bd bd 1d 07 56 be d1 87 8f be 95 cf d2 be
       -0.092651375 -0.20901151 -0.28033307 -0.41173998
0002c0 7a 62 67 3e 2e 5a 0e 3f fe 40 1a 3d f4 d0 90 be
       0.2259616 0.55606353 0.037659638 -0.2828442
0002d0 d3 83 c7 3e 52 36 d0 3e 59 7f ce 3e 62 38 20 3c
       0.3896776 0.40666443 0.40331534 0.009779068
0002e0 e6 7a d6 3d 9e d7 63 ba e8 9a b2 be 79 73 a4 be
       0.1047266 -0.0008691492 -0.3488381 -0.3211935
0002f0 43 02 37 be 02 f6 f7 be 0b db a7 be 36 4c 12 be
       -0.17871957 -0.48429877 -0.32784304 -0.14286885
000300 d9 71 46 3e 84 bb e0 be 48 84 5f be 26 51 d5 3c
       0.19379367 -0.43893063 -0.21827805 0.026039671
000310 d3 c1 b0 ba 1b 3d c7 be ca 47 7a 3e 9e 7e 89 3e
       -0.0013485498 -0.38913807 0.24441448 0.26854414
000320 83 17 5f 3f 4c 4a 9e 3e 76 01 48 be 5b ae 3c be
       0.8714525 0.3091606 -0.19531807 -0.18425886
000330 ac 35 c4 3e e4 4a 10 be 07 70 84 3f d0 75 7c 3e
       0.38322198 -0.14091069 1.0346688 0.24654317
000340 9d f0 a2 3c 4e c9 3a 3d a6 f1 bd be cd a8 fe bd
       0.019890124 0.045602135 -0.37098426 -0.1243454
000350 28 57 e4 3d 82 34 49 bf b0 fb 5c be f3 f2 89 3d
       0.11149436 -0.78595746 -0.21580386 0.06735792
000360 e7 07 ff be db 7c d3 bd 57 ea 9e be 58 f6 c4 3e
       -0.49810717 -0.10326549 -0.31038162 0.38469195
000370 a0 e5 00 bf f3 4d b9 3e 7f 95 96 3e e8 75 07 be
       -0.5035038 0.36192283 0.2941093 -0.13228571
000380 a4 be 19 bc d2 0d 8f 3e 91 55 67 bf e0 14 bb bd
       -0.009383831 0.27940232 -0.9036494 -0.09134841
000390 fa 1a ff 3c 3a 06 de 3e 02 73 cb 3e 80 29 b8 be
       0.031140793 0.43364125 0.39736181 -0.35969162
0003a0 58 7e 0f bf 07 f0 e7 3d d4 6b 57 be 44 6a 3f 3e
       -0.5605216 0.113250785 -0.21037227 0.18692881
0003b0 f4 20 e0 be 74 3b 89 bd ff ae 05 bf ae 4a 2d 3f
       -0.4377514 -0.06700793 -0.5222015 0.6769208
0003c0 75 7c 97 be 76 c7 e1 3e 25 cc 90 3e 57 62 21 bf
       -0.2958714 0.4409749 0.2828075 -0.6304068
0003d0 cc 38 e4 3e 89 0a f8 3d b7 10 02 3f 1e 58 11 be
       0.44574583 0.121113844 0.50806755 -0.1419377
0003e0 36 06 47 3d 49 f6 33 be 1d df 1e bd 1f 5e ae 3d
       0.048589908 -0.17574419 -0.038786996 0.08514046
0003f0 e6 4f bd be bb c1 0a be 9c 24 e8 3d a8 fd de 3d
       -0.3697502 -0.13550465 0.11335108 0.10888225

network_body._body_endoder.seq_layers.0.bias f4 [128]
000000 1d c2 1b 39 5b 6e c3 3b 5b 55 0d bb b5 ef a2 3b
       0.00014854265 0.005964083 -0.0021565768 0.004972423
000010 11 d7 8f 3b cd cc df bb 2d 03 8b bb 47 7d 33 ba
       0.0043896516 -0.006829834 -0.004242322 -0.0006846976
000020 3e 6a d3 ba 5d 28 91 bb 90 60 ec 3a 05 b2 51 bb
       -0.0016129685 -0.0044298605 0.0018034149 -0.0031996977
000030 30 85 2a 3a 2f 95 0a 3b c1 7f 2e bb d0 ca ef 3b
       0.0006504832 0.002114605 -0.002662644 0.0073178783
000040 b5 d5 dd bb f6 87 b5 b8 e2 50 ff 3a 79 d3 bf 39
       -0.0067698606 -8.656077e-05 0.0019479061 0.00036587918
000050 c2 f3 9a b9 83 61 d5 bb 90 ff 00 3c e9 3c a3 3b
       -0.00029554783 -0.0065118684 0.007873431 0.0049816263
000060 1c d2 21 bb c8 62 36 3c cc a1 0f bc 3e a0 dd ba
       -0.0024691885 0.01113195 -0.008766603 -0.0016908718
000070 9d 1b 52 bb a4 dd 48 bb 8e ca af 3b 94 1b 0a bb
       -0.0032059916 -0.0030649686 0.0053647226 -0.0021073567
000080 18 fc c3 bb 46 2b f4 39 b9 6a 16 3c 6c 0b 5e 3c
       -0.0059809797 0.00046571548 0.009180718 0.013552528
000090 d5 0b 10 b9 68 c6 93 3b 94 54 9c 3b 83 04 8e bb
       -0.00013737318 0.004509736 0.0047708247 -0.004334034
0000a0 ed d0 a8 bb 47 97 8a ba 0d b7 78 ba 24 5e 06 3b
       -0.005151859 -0.0010573649 -0.0009487726 0.002050289
0000b0 ce 7d 34 3b 70 7b e6 3b 36 2c a5 bb e1 73 b7 3b
       0.0027540806 0.007033758 -0.0050406707 0.0055985306
0000c0 01 6e e6 3b 1a 2d a8 ba 96 1d df 3a b4 e3 61 bb
       0.0070321565 -0.0012830824 0.0017022367 -0.0034467997
0000d0 9a c2 6f 3c c7 36 63 3b 50 eb c2 3b 33 d7 ef 3a
       0.014633799 0.00346701 0.0059484616 0.0018298387
0000e0 98 4f 13 3c 81 2d 9e 3b d7 a4 7b bb 2d 54 55 bb
       0.008991145 0.004827202 -0.0038397813 -0.0032551393
0000f0 d2 e3 c8 3b 65 e5 ba b9 6e da d7 3b a2 56 33 bb
       0.006130674 -0.00035647597 0.006587318 -0.002736487
000100 ee 6d 3d 3c 1c 47 b4 3a 55 25 00 3c 21 fe 77 ba
       0.011561854 0.0013754102 0.007821401 -0.00094601704
000110 6c 0b 0b 3c bb 8c 94 3b dc a6 1c 3b 44 f7 81 bb
       0.00848661 0.004533378 0.0023903167 -0.003966244
000120 01 32 e2 3b 7f 19 11 3c e9 dc 80 bb 90 3a 03 3b
       0.0069029336 0.008856176 -0.0039325845 0.002002392
000130 7d 4e 13 3c 7d 84 99 3b af 3b cc 3a 48 c0 a3 3b
       0.008990881 0.0046849833 0.0015581752 0.004997287
000140 c1 a2 02 bb b4 93 88 3b 4d 48 fa 3b d4 c8 9b 3b
       -0.0019933435 0.004167998 0.0076380135 0.004754165
000150 b8 56 f0 b7 97 ee 51 3b ae 9d bc 3b 07 da 99 3b
       -2.8650611e-05 0.003203308 0.0057561016 0.0046951803
000160 3e b5 02 3c c4 97 63 bc 2e 48 fc ba 66 f9 fe 3b
       0.007977782 -0.013891164 -0.0019247585 0.0077811955
000170 49 88 bc 3b ce c2 71 3b 69 0a d9 bb 67 53 31 39
       0.005753551 0.0036889794 -0.0066235554 0.00016911105
000180 95 ec e7 3b f9 5d c9 bb 5f ca 23 bb 00 6c 8f 3b
       0.0070777633 -0.0061452356 -0.0024992449 0.0043768883
000190 31 4f a6 ba 7a 03 3a 3b 1a 70 cf ba 3f de 51 3c
       -0.0012688396 0.002838342 -0.0015826256 0.012809335
0001a0 fd e7 78 3b 18 69 2a ba 65 bd e2 3b 8a c3 8a 3b
       0.0037980073 -0.00065006455 0.0069195502 0.004234736
0001b0 8d 56 ad 3b ce f8 02 3c a7 91 2d 3b e7 e9 e1 3b
       0.0052898587 0.00799389 0.002648452 0.0068943384
0001c0 f1 71 c9 bb a0 d3 2a 3c 08 cf 81 3b 54 28 50 bb
       -0.006147616 0.010426432 0.0039614476 -0.0031762319
0001d0 ae 39 1c 3a f2 fb dc 3b dc 3e 3e ba 5a a0 ce 3b
       0.00059595227 0.0067439014 -0.00072572916 0.0063057365
0001e0 de a8 6a bb 51 11 86 bb 3e 1a 3a 3c 43 02 81 bb
       -0.003580622 -0.0040914197 0.011358796 -0.003937037
0001f0 d1 e8 0e 3c c1 0c 8a 3b 69 be 22 bb 72 f2 ac ba
       0.0087225 0.004212946 -0.0024832732 -0.0013194813

network_body._body_endoder.seq_layers.2.weight f4 [128, 128]
000000 e7 34 1a 3c 45 4f 68 3d a3 98 ce 3b f5 78 87 bd
       0.009412027 0.056716222 0.006304817 -0.066148676
000010 3a d1 90 3d a2 8b 8a 3d 1d 0d 97 bc da 28 f2 bd
       0.07071157 0.06764914 -0.01843887 -0.11824198
000020 33 e9 04 3c db 62 d8 3a 53 46 59 bd 2d 5f 3f bd
       0.00811224 0.0016508953 -0.053045582 -0.046721626
000030 15 79 b3 bd 1e 0f 10 3d f7 4a cc 3d f7 5e 33 bd
       -0.08763329 0.035170667 0.09975236 -0.043791737
000040 2b 7d dd 3d 20 6d b3 3d 06 bb bc 3d 6f 68 08 be
       0.108148895 0.08761048 0.092153594 -0.13321088
000050 0e 6f d6 3d fb bb 44 bc a6 29 bb bd de 7b 2a 3c
       0.10470401 -0.012007709 -0.09138803 0.010405509
000060 2f fe 24 bd ab 3f cb bb 8c 26 47 bd 31 e3 c0 bd
       -0.04028147 -0.006202658 -0.048620746 -0.09418333
000070 17 47 dc bd a9 d2 5d bd 11 21 91 3d d8 d9 7d bc
       -0.10755747 -0.05415598 0.07086385 -0.0154938325
000080 2b 0e 64 bd f2 25 f0 ba 0d 7d 82 ba 7c b4 82 bd
       -0.055677574 -0.0018321855 -0.0009955481 -0.06382081
000090 96 20 23 bc 56 8d 7f 3d 93 98 47 3c e3 bb 6f 3c
       -0.0099565 0.062390648 0.012182373 0.014632198
0000a0 dd 2e 83 bd 1f 3a 93 3d 48 ce 8d 3d 8f bb 81 bd
       -0.06405423 0.0718882 0.06924111 -0.06334602
0000b0 d2 60 b9 3d 6f 28 0a 3e 8b c5 00 be ee 10 74 bd
       0.0905167 0.13491987 -0.12575357 -0.059586458
0000c0 74 8c d6 3d d9 53 c7 bd 70 7b 67 bc 92 73 b4 3d
       0.10476008 -0.097327895 -0.014128551 0.08811106
0000d0 31 fd db bc 05 d1 bc 3d e6 43 8f 3d b1 32 3c 3e
       -0.02685413 0.09219555 0.069953725 0.18378712
0000e0 50 bf 68 3e 4a 4c b7 bc cb 5b 68 3d de 1d a2 bc
       0.2272923 -0.022375245 0.056728166 -0.019789632
0000f0 db d3 41 3d 43 9e 91 bd da f6 58 3e 2b 5e bd bd
       0.04732118 -0.07110264 0.21187916 -0.09246477
000100 dd f3 84 3c b0 1d ed 3d f4 04 e3 3c 44 b9 5a 3d
       0.016229564 0.11577928 0.027712323 0.05339934
000110 cf d0 64 3e b6 80 2f 3e 62 93 b0 3d 0c 4a d9 bd
       0.22345279 0.17138943 0.08621861 -0.106098264
000120 21 15 9f bd 48 c9 0b 3d dd e0 09 3d 7b f2 bb ba
       -0.07767702 0.034127504 0.033661712 -0.0014339233
000130 ca ac d0 bd 1e 44 22 be e9 e4 2e bd a1 6f 90 bc
       -0.10189207 -0.15846297 -0.042698774 -0.017631354
000140 31 85 16 bd 02 52 a5 3d 8a 23 2e 3d 92 21 b9 3d
       -0.036748115 0.080722824 0.04251436 0.09039606
000150 e6 90 3a 3d 5e 9d de bc f2 3a 29 3d d0 ea 25 be
       0.045548342 -0.027174648 0.04131598 -0.16202855
000160 40 e1 be bd 4d eb 83 3d cd eb 5a ba 94 c1 49 bd
       -0.09320307 0.064413644 -0.0008351177 -0.049256876
000170 1d 81 b0 3d 2a a2 48 3d 1e b1 4c 3d 52 9e 73 bd
       0.086183764 0.048982777 0.0499736 -0.059477158
000180 b8 43 dd ba 92 26 01 be f3 fa 2d be 69 d6 2e 3d
       -0.0016881144 -0.1261237 -0.16990261 0.042684946
000190 26 2c 23 3c 74 67 8d bd 89 5e dd 3d 86 c1 ff 3d
       0.009959256 -0.06904498 0.10809047 0.124880835
0001a0 53 b3 6b be bc 3f 7f bd f3 41 f2 bd 5d b7 f5 bd
       -0.23017626 -0.06231664 -0.11828985 -0.119978644
0001b0 12 dd a6 bd a0 b1 52 3d 80 13 01 bd 94 9f 98 3c
       -0.081476346 0.051438928 -0.031512737 0.01863078
0001c0 ed e7 60 3d 80 b4 34 3d 3c f2 37 3e 5b 60 4f 3e
       0.05490868 0.04411745 0.17963499 0.202516
0001d0 c5 ab be 3d 28 fd 11 be e9 de 67 3d 71 28 b8 bd
       0.09310106 -0.14256728 0.056609068 -0.089920886
0001e0 c8 5a b3 3b 3c 5f 0d 3e b0 89 b6 3c 25 0c 9d bc
       0.0054734685 0.1380586 0.022282451 -0.01917083
0001f0 8a 8e c7 3d fd 07 d4 bc 09 7a 99 bd 17 9a 5a 3e
       0.09743984 -0.025882715 -0.074939795 0.21347843
000200 c9 11 71 bd b3 5f a3 bd 1d 3a c6 3c 08 49 31 3d
       -0.058854852 -0.079772376 0.024197632 0.04328254
000210 e2 7a 9f bd 7f 52 4b be 03 26 33 3e 0d 5f 5a 3e
       -0.0778711 -0.19855689 0.17494969 0.21325321
000220 d5 93 80 3d 49 07 20 be 93 80 40 bd 34 19 1a bc
       0.06278197 -0.15627779 -0.046997618 -0.009405423
000230 ae d4 00 3c 37 9e 2d be e4 3e 9d 3d a6 e0 03 3e
       0.007863207 -0.16954885 0.07678011 0.12878665
000240 dc 3a 22 3d ed db 56 3d 41 1c 0e 3d bc 3b bc 3c
       0.039606914 0.05245583 0.034694914 0.022977702
000250 c0 4f 18 3e 8c b6 75 bd 16 16 d9 bd 63 e5 10 3e
       0.14874172 -0.059988543 -0.10599916 0.14150004
000260 c3 3e 01 3e 49 09 3b ba 78 6b 9a bc 4f ba 98 3d
       0.12621598 -0.00071348675 -0.018850073 0.074574105
000270 0e 1a 86 bd d4 90 2d 3e d5 83 08 3e bb 1c b5 3c
       -0.06547938 0.16949779 0.1333154 0.022108426
000280 5a 88 b1 bd fb 87 11 bd ed e0 2b bd 1b 55 b7 bd
       -0.08668585 -0.03553007 -0.041962553 -0.089517795
000290 24 71 7b bd 99 83 28 be bf 9e 0b be 13 2f 9d 3c
       -0.061387196 -0.1645645 -0.13634776 0.019187486
0002a0 33 9a 87 be 7e 4c 85 3d 0c 84 2e bd 56 b5 d8 3a
       -0.26484832 0.0650873 -0.0426064 0.0016533535
0002b0 47 57 3c 3d 84 3f e3 bc 2a da d5 3b 37 43 95 3d
       0.04598167 -0.027740248 0.0065262513 0.07288211
0002c0 12 b9 37 3d 69 d0 ff bd 2f 08 71 bd 60 ae c8 ba
       0.04485423 -0.12490923 -0.058845695 -0.0015310757
0002d0 1e af 7e 3d e1 06 5a 3e a1 b9 5e bd 76 be 63 bd
       0.062178724 0.21291687 -0.05437625 -0.05560156
0002e0 10 bf 63 3c 5a 51 35 be 87 75 ad 3a 71 9a ad bb
       0.013900533 -0.17706814 0.0013233878 -0.005297952
0002f0 61 6e 03 bd e1 e6 ac 3b 43 6e 3a bd 41 e3 3a be
       -0.032087687 0.0052765463 -0.04551531 -0.18250753
000300 e8 c7 5c be 45 9f 67 3d cf 4f dd bd 8a 1d 86 3c
       -0.21560633 0.056548376 -0.10806238 0.016371507
000310 0b c1 c2 bc 2c 98 9f 3d ec 07 1c 3c ea 39 b1 3d
       -0.02377369 0.07792696 0.009523373 0.08653624
000320 58 0c fa 3c 6b 07 e0 3c 34 2f 0d be 77 fc 0b bd
       0.030523464 0.027347287 -0.13787538 -0.034176316
000330 4d 7e 82 3d 19 e7 5b 3d 27 47 b9 bc 48 86 3f 3d
       0.06371746 0.05368719 -0.022616936 0.04675892
000340 4b cf ad 3a ea 98 18 3d 24 76 e8 3b 64 80 84 bd
       0.0013260631 0.037255205 0.0070941616 -0.06469801
000350 fa a8 da bd 17 38 08 be 54 c1 3a 3d 46 30 f9 3d
       -0.10676761 -0.13302647 0.04559453 0.121674106
000360 97 95 0f be fc 12 8a 3c c8 94 1c be ad 88 06 bd
       -0.14021908 0.016854756 -0.1529113 -0.032845188
000370 4d cd 5d bc eb c0 ca bc 7e 00 d5 bc 57 3c 0a 3e
       -0.013537717 -0.024750194 -0.026001211 0.1349958
000380 23 c6 44 3c dd 7f c7 3c d8 d7 03 3d cd a9 3a 3e
       0.01201013 0.024352962 0.032188267 0.18228836
000390 9d ef 84 3c d7 83 db 3c 3c a2 14 3c 07 e4 fd bd
       0.016227538 0.026796265 0.009071883 -0.123970084
0003a0 72 38 f4 bc 6c 64 04 bc c2 31 0c bc 98 da 35 3d
       -0.029812071 -0.008080583 -0.008556785 0.04439792
0003b0 9f 68 2e bd 90 59 cc bc be c1 02 bc df 9e 17 be
       -0.042580243 -0.02494505 -0.007980762 -0.14806698
0003c0 aa 8c ca bb 56 e5 87 3d 34 a4 b6 bd 26 d0 d2 bd
       -0.0061813192 0.06635539 -0.08918038 -0.102936074
0003d0 94 c4 02 3c 72 fb 5d 3c 21 d5 f5 3d aa 5d f7 3d
       0.007981438 0.013548719 0.12003542 0.12078412
0003e0 75 fe f6 bd c7 e0 9f bd 73 9f 11 3e f0 b3 1b 3b
       -0.120602526 -0.07806545 0.14220981 0.0023758374
0003f0 96 92 a4 bd a5 c3 d7 3c a5 2f b9 3c f1 64 84 bc
       -0.080357715 0.026338408 0.022605726 -0.016161414

network_body._body_endoder.seq_layers.2.bias f4 [128]
000000 24 86 c3 3b f4 f6 f7 39 b5 36 b7 39 cd a4 22 bb
       0.0059669185 0.00047295506 0.0003494524 -0.0024817467
000010 f4 b3 0b bb 33 0d 35 3a 88 77 78 bb c7 9b fc 3a
       -0.0021316977 0.0006906569 -0.0037913043 0.00192725
000020 4c 5f 81 3b 6c da 3a bb 4e 6d 1f bb 86 27 06 3b
       0.003948128 -0.0028511537 -0.0024326625 0.0020470335
000030 d1 4a 2b 3b 6f 0e 27 3b d4 d4 9c 3b 77 f1 da 3b
       0.0026137123 0.002549078 0.0047861133 0.006681617
000040 73 e6 34 3c 2b ee ec 3b 6e ac 23 39 bc 2b ea 3b
       0.0110412715 0.0072305403 0.00015609126 0.007146327
000050 bf 89 72 3a c6 e1 9b 3b 17 21 02 3b ef be 5d bb
       0.0009252093 0.004757139 0.001985615 -0.003383573
000060 3c cc 32 bb 26 e8 92 bb 7a a5 9e 3b d6 ad c1 3b
       -0.0027282378 -0.0044832407 0.0048415037 0.0059106154
000070 a7 44 3b bb ff 3c 77 bb 48 fa e7 b9 25 79 91 3b
       -0.0028574856 -0.0037725565 -0.00044246227 0.0044394904
000080 28 5b 0e 3c 4e c1 a8 ba fe bc 2c 3a e6 a6 1f bb
       0.0086887255 -0.0012874992 0.00065894413 -0.0024360954
000090 93 f4 2e b9 9e 2d 0c bb 66 5a a5 3b 4c 62 e9 3b
       -0.00016685044 -0.0021389495 0.0050461767 0.0071223136
0000a0 32 a9 1b bb bb f3 01 3c 7f 78 79 ba b9 ea 68 bb
       -0.0023751971 0.007931645 -0.00095165515 -0.0035540296
0000b0 f8 de 30 3b f6 5c 78 3b 50 65 11 3b bb e1 ba ba
       0.0026988368 0.0037897206 0.002218563 -0.0014257947
0000c0 eb e6 9a 3b 36 78 f6 3b 68 4a 94 3b fb bb a2 ba
       0.0047272346 0.0075216545 0.0045254715 -0.0012415642
0000d0 ed e6 a9 3b 93 c6 20 3c ac 4c f6 b9 87 dd c0 3a
       0.005184999 0.009812969 -0.000469779 0.0014714458
0000e0 79 3c f2 3b 93 00 5e bb 07 5b 73 bb 45 1e 0b 3b
       0.007392463 -0.0033874854 -0.0037133114 0.002122776
0000f0 7d 9b e3 3b 51 a8 09 3b ba 10 7a 3b 3f 42 74 3b
       0.006946026 0.0021004865 0.0038156942 0.003727093
000100 8b eb 10 bb 1b 77 a4 3b dc f8 c1 3b 46 3f 93 bb
       -0.002211305 0.0050190813 0.005919559 -0.0044936268
000110 c7 ab b3 3b 25 6d 92 39 46 16 da ba 4c 6c a3 3b
       0.005483124 0.0002792861 -0.0016638718 0.004987275
000120 bb 02 49 bb 5a d7 bc bb 8f b8 dc ba 5a 9a 02 ba
       -0.0030671794 -0.0057629766 -0.0016839671 -0.00049821066
000130 b0 ca e4 b9 ff 43 f3 3b 92 70 70 ba 20 ec e7 3b
       -0.00043638563 0.0074238773 -0.0009172048 0.007077709
000140 1a 6b aa 3b 57 6c 0b 3b 5b c5 53 bb 0a 26 84 3b
       0.005200756 0.0021274292 -0.0032313678 0.004032855
000150 fd ec 76 3b 87 27 58 3b c4 59 4f 3a a3 df 8b 3b
       0.0037677877 0.0032982545 0.00079097995 0.004268603
000160 ba 0a b8 3b 18 fa fd ba 7f 45 ae 3b 5a ce 0a 3a
       0.005616513 -0.0019376902 0.005318343 0.0005295031
000170 c0 ef a7 3b 77 c8 1c bb 7a 7a 54 3b 38 2d e3 3a
       0.005125016 -0.0023923197 0.0032421635 0.0017332202
000180 6c 7a 36 3c 76 27 c2 3b da c8 cc 3a d6 5c 7c 3b
       0.011137586 0.0059251143 0.0015623823 0.0038507483
000190 15 8a cd 3b 1b ad ff 3b 26 e6 01 3a c2 91 80 3a
       0.006272564 0.007802618 0.0004955254 0.0009809064
0001a0 f8 43 ac 3a 5e ec 07 3a cb 99 e8 ba da ba 1c bb
       0.0013142815 0.0005185063 -0.0017746029 -0.0023915083
0001b0 10 c1 b9 3b 2f ad 00 39 1f b7 f4 3a fa df f7 3b
       0.005668767 0.00012271547 0.0018670297 0.007564542
0001c0 a4 50 15 3b 8f 94 32 bb f8 91 ba b8 68 dc 28 ba
       0.0022783661 -0.0027249192 -8.89636e-05 -0.00064415345
0001d0 36 89 af 3b fb 6d 9b 3b ca 29 06 3b 23 ea 5f bb
       0.005356933 0.0047433353 0.0020471686 -0.0034166656
0001e0 31 33 67 bb 17 58 6e ba d9 cf 80 bb a0 52 ca 3b
       -0.0035278315 -0.0009092106 -0.0039310274 0.0061744004
0001f0 23 99 66 3b 62 84 f3 b8 23 60 e7 3a 77 49 c8 3b
       0.0035186491 -0.00011611801 0.0017652552 0.0061122733

action_model._discrete_distribution.branches.0.weight f4 [3, 128]
000000 73 29 2c bc 99 46 6e 3c bc 50 ee bb a4 9b ee 3b
       -0.010507929 0.014543199 -0.007272808 0.0072817374
000010 02 97 07 bb a3 25 23 3c 71 ff b9 bb 36 19 18 3b
       -0.0020689373 0.009957704 -0.005676203 0.0023208386
000020 41 34 21 bb fb 7b 5d 3c 9d c3 0c bb 94 c7 a7 bc
       -0.0024597796 0.013518329 -0.00214789 -0.020480908
000030 f3 ec b7 bb 71 d8 0a bb f1 f8 5e bc d3 7b 34 bc
       -0.0056129633 -0.0021186138 -0.013609157 -0.01101585
000040 45 a6 88 bc 91 a5 0a 3b 3b 45 4c 3c 15 b1 3d 3c
       -0.016680846 0.0021155814 0.012467678 0.011577864
000050 5b 0e 2b bc 0d fc bb bc 86 d7 86 3b 73 a7 52 3c
       -0.010440434 -0.022947336 0.004115048 0.012857306
000060 a6 09 f8 3b b9 3c bd ba 1d fb dd bb fe dc 38 bb
       0.0075695096 -0.0014437652 -0.00677432 -0.0028207893
000070 3f 7a 70 bb 45 62 85 3c b4 05 0d bb 22 08 08 3b
       -0.0036693958 0.01628221 -0.0021518292 0.00207568
000080 58 02 98 39 d6 45 53 3c 21 17 6a bb cb bc 31 3a
       0.00028993445 0.012895068 -0.0035719352 0.00067801465
000090 36 97 0d 3b e0 3f c8 39 c0 cf 4c bb 22 db 66 bc
       0.0021605021 0.00038194563 -0.0031251758 -0.014090331
0000a0 b7 db 29 bc 74 05 22 bc 12 0f 42 3b 98 13 4d 3b
       -0.0103673255 -0.009888995 0.0029611033 0.0031292196
0000b0 d3 e0 2a bc 96 6c 20 bc b8 35 83 3b 54 97 c5 3b
       -0.010429579 -0.009791514 0.0040042065 0.0060300026
0000c0 49 22 76 bb 28 63 0e bc 3c 07 13 bc 4e c4 e0 3b
       -0.0037557057 -0.008690633 -0.008973893 0.006859339
0000d0 2b d9 b1 bc a4 08 00 bc df ad 83 bb fd 38 17 3c
       -0.02171 -0.00781456 -0.00401853 0.009229896
0000e0 fc 5a db 3b be 69 d5 3b 4c 73 f0 3b 48 13 b0 bb
       0.006694196 0.0065128496 0.007337963 -0.0053733923
0000f0 4d 25 6f bc 71 83 bd bb 41 2a 07 3c 7e 23 c4 bb
       -0.014596296 -0.0057834913 0.00824982 -0.0059856763
000100 d0 8c ac 3b 42 cb 29 bc 1e de 32 bc ea 7a 53 bb
       0.0052658096 -0.010363402 -0.010917215 -0.0032269307
000110 c9 d2 44 bc d0 02 d0 bc 7f 9e 11 3c ff 02 91 bb
       -0.012013146 -0.025391966 0.008887886 -0.004425406
000120 1e 53 8d ba 0a fc a3 3b 12 b8 99 bb a9 f5 5b 3c
       -0.0010782217 0.0050044106 -0.0046911323 0.013425269
000130 58 e1 6e 3b d6 6c 80 bc c6 b3 f6 bb 95 24 e1 39
       0.0036450233 -0.015676897 -0.007528755 0.000429426
000140 25 98 1a bb 6f 3f 83 39 e3 39 0c bc 64 4a 66 3b
       -0.002358922 0.0002503353 -0.008558723 0.0035139555
000150 ee d6 e5 ba fe 56 3a bc 00 c0 05 bc 37 86 db 3b
       -0.0017535368 -0.01137328 -0.008163452 0.0066993493
000160 d6 20 a5 bb ae 4b 17 3c 8b 99 2a 3c 2d 7d 99 b9
       -0.0050393147 0.009234352 0.010412584 -0.00029275697
000170 3d 5d 96 bc e4 66 a4 ba 8f d5 68 bc 4d 4d 44 3c
       -0.018355006 -0.0012542871 -0.014211073 0.011981321
000180 79 22 31 3b 8f dc 85 bb c2 85 4f bc 25 36 68 bb
       0.0027028604 -0.0040851305 -0.012666168 -0.0035432663
000190 dd 93 8a bc d6 71 9e bc 84 72 ee 39 f5 68 f6 bb
       -0.01691621 -0.01934139 0.00045480218 -0.007519836
0001a0 48 63 f0 3b 91 ad 22 bc a1 57 c9 ba e2 00 c1 3b
       0.007336054 -0.009929077 -0.0015361198 0.005889998
0001b0 05 dc ee bb 40 81 be 3b b3 1b 09 bc 71 cd 04 bc
       -0.007289412 0.0058137476 -0.00836842 -0.008105622
0001c0 ba 98 27 ba 86 3a dd bb e2 b7 43 3c e6 f9 41 bc
       -0.00063933025 -0.0067513613 0.011945697 -0.011839366
0001d0 2c 5e d9 bc cd 9d 00 3c b0 79 26 bc 49 fb 24 bc
       -0.026534162 0.007850123 -0.0101608485 -0.010069677
0001e0 5f 91 4d 3c 46 12 eb 38 d4 67 4c 3b 0d 35 08 bc
       0.012546866 0.00011209077 0.0031189816 -0.00831343
0001f0 0d 91 28 bc 1c bf 08 bb 67 78 8d bb 38 32 3b bc
       -0.010288489 -0.0020865863 -0.0043173316 -0.011425547
000200 d3 b1 a0 bc 1b f7 de 3c b1 00 a6 bb 06 37 04 3c
       -0.019616043 0.027217438 -0.0050660004 0.008069759
000210 e0 b8 8f bc a8 ec 1b 3c 8b d5 19 3a 40 46 29 bc
       -0.01754421 0.009516872 0.0005868307 -0.01033169
000220 84 c2 b8 bb c7 df 1a 3c 87 fe d2 bb f0 2a a2 3b
       -0.0056384224 0.009452767 -0.0064390334 0.004948966
000230 3a c0 1a bc aa 3a 19 3b d3 00 df bb 09 78 67 3a
       -0.009445244 0.0023380914 -0.006805518 0.00088298373
000240 40 cd a3 bc 69 6e c9 bc cf 90 f6 3b 76 c8 7e bc
       -0.019995332 -0.02458878 0.0075245867 -0.015550723
000250 fc e3 fe 3a 56 bc 8b 3c 63 80 0d 3c e5 48 de 3b
       0.0019446607 0.017057579 0.008636567 0.006783592
000260 24 9e 01 3c a6 e1 86 bc cb 21 7e 3c 7e 42 d1 3b
       0.007911239 -0.01646502 0.015510987 0.0063861003
000270 9a 16 37 3b d2 11 35 3b 8c 9e 65 bc 64 87 dc bb
       0.0027937056 0.002762903 -0.014014851 -0.006730007
000280 5f 63 5d 3c a2 0a b3 3b 46 1f 2e 3c 53 67 3e bc
       0.013512461 0.005463914 0.010627573 -0.011621314
000290 9c 2f 49 3c 2d 4e ec bb 25 29 d5 3c 1e 30 5e bc
       0.012279417 -0.0072114677 0.026020596 -0.013561277
0002a0 9e 48 e0 3b f6 c8 c2 3b e9 e2 55 3c 9e 76 01 3c
       0.006844594 0.0059443666 0.013054588 0.007901816
0002b0 67 a0 0a bb e8 bd b4 3a 57 31 50 3c 90 e2 5a 3a
       -0.0021152736 0.0013789507 0.012707076 0.00083498005
0002c0 fc e7 70 3c 32 96 a9 3c 57 33 49 bb 22 61 03 39
       0.014703747 0.020701502 -0.0030700767 0.00012529318
0002d0 f1 3f b7 3b 2f 08 5f bc 30 6f 92 b9 b8 87 62 bb
       0.005592339 -0.013612791 -0.0002793013 -0.0034565758
0002e0 9e 69 bb 3c 7c df b0 3b b8 ea d0 3b 82 8f a6 3b
       0.02287751 0.005397735 0.006375637 0.0050830254
0002f0 f4 a6 1d bc d7 b0 44 bb f2 ba bd 3c 86 f8 d7 3c
       -0.009622324 -0.0030012631 0.023160432 0.026363622
000300 79 3f f3 3b 23 d6 16 bc e5 f5 5e bc 6d a6 02 bc
       0.007423338 -0.009206328 -0.0136084305 -0.007974249
000310 d0 ad 80 3c 31 cf 2b 3b a6 05 b0 bc d7 f5 3d bc
       0.01570788 0.0026216025 -0.021487068 -0.011594257
000320 ba bf ec ba 42 5d 85 bb 42 1f 76 bc 16 a1 cd 3b
       -0.001806251 -0.004069955 -0.015022101 0.0062753065
000330 8e c9 25 3c fa 7a a4 3c be ff 33 3b c9 05 a1 3c
       0.010118855 0.020078171 0.0027465667 0.019656079
000340 2e 5c 8d 3c 10 fa 28 3c cb 01 b8 bb b9 82 52 3c
       0.017255869 0.010313526 -0.005615448 0.0128485495
000350 10 d4 9d bc 0b ca 0e 3c 45 a5 03 bc 64 80 c4 3c
       -0.019266158 0.008715163 -0.008035009 0.023987003
000360 1f 42 49 3c 7d 8c 20 3c 0c dd 35 bc fa b5 1f 3c
       0.012283831 0.00979912 -0.011100065 0.009747976
000370 01 d4 82 bb e4 a6 dc 3b e1 f5 91 bb 87 3b 9b bc
       -0.003992558 0.006733762 -0.00445436 -0.018949283
000380 99 5c a1 bc c9 80 29 3c 4e 67 4d 3c 55 d7 5d 3c
       -0.019697474 0.010345646 0.012536837 0.013540109
000390 23 49 11 3c bb 4d 02 3c aa d6 78 3c 45 f5 7a 3a
       0.008867535 0.007953103 0.015187899 0.0009573291
0003a0 3d 50 cb 3c bc 90 54 3c 29 da e5 3a ae 93 a9 bb
       0.024818534 0.0129739605 0.001753633 -0.0051750755
0003b0 3e 1b 96 bc 24 ce 7d 3c 85 5e fc 3b 1c 09 51 3b
       -0.018323537 0.015491042 0.0077016973 0.0031896299
0003c0 b9 e4 11 3c 51 18 b6 bb d6 0d 78 bc 70 1d b2 3b
       0.008904629 -0.005557098 -0.0151400175 0.005435638
0003d0 ae 3d 5d bc 24 df 86 3c 18 8d 64 bb e4 da e6 bb
       -0.013503475 0.016463824 -0.0034874137 -0.0070451368
0003e0 c2 2d 65 bc 19 83 f5 3b 60 8e 15 3b d2 3d 2f 3c
       -0.01398796 0.0074924347 0.0022820458 0.010695891
0003f0 56 86 84 3b 48 68 70 3c 16 5f 94 bc 6d 4c 1a 3c
       0.0040443344 0.0146733 -0.018111747 0.009417635

action_model._discrete_distribution.branches.0.bias f4 [3]
000000 ee 59 5f bb 2b e6 f9 3a fb 3c c7 3a
       -0.0034080702 0.0019065788 0.0015200669

exp_avg f4 [128, 8]
000000 73 83 c6 b7 88 a5 43 b7 00 07 bd b7 70 88 05 b8
       -2.366465e-05 -1.16614465e-05 -2.2533815e-05 -3.183674e-05
000010 97 34 51 37 ae 4b a5 37 18 df 0b b8 2c 9a df 36
       1.2469615e-05 1.9704774e-05 -3.3347955e-05 6.663866e-06
000020 26 55 8b 37 4c 9e 39 38 20 ca 25 b4 bb 2a 1c 38
       1.6609742e-05 4.4254863e-05 -1.5440355e-07 3.7233094e-05
000030 12 7a d9 37 d6 f5 fb b7 7b f9 ae b7 e5 df 8f b7
       2.592526e-05 -3.0036008e-05 -2.085859e-05 -1.7151187e-05
000040 4e bf 2e 37 0b d6 8f b8 74 6b c7 37 69 15 6e b7
       1.041575e-05 -6.85864e-05 2.3772685e-05 -1.419089e-05
000050 d5 32 a7 37 ee fb 7c 37 9c e3 79 37 20 6c e5 35
       1.9931622e-05 1.5079027e-05 1.4894551e-05 1.7093298e-06
000060 54 a6 98 b5 01 a3 19 39 a5 31 0d 38 12 84 5b 38
       -1.137329e-06 0.00014651941 3.3663255e-05 5.233667e-05
000070 26 19 6b b6 0d bf ff 37 c5 5e 7d b8 34 ab c6 37
       -3.5032367e-06 3.0487334e-05 -6.040816e-05 2.3683162e-05
000080 b4 4e 8a b7 fb 77 0f 38 2c a2 67 35 77 34 9e 37
       -1.6487531e-05 3.4205597e-05 8.6290197e-07 1.8859499e-05
000090 ee 3a d3 37 82 70 30 38 8c 19 d3 b7 11 ef b1 b7
       2.5180601e-05 4.206645e-05 -2.5165056e-05 -2.1211368e-05
0000a0 49 1d 60 36 05 3f a7 b7 8b 75 17 b7 53 71 69 b7
       3.3395647e-06 -1.9937297e-05 -9.027669e-06 -1.3914268e-05
0000b0 6f 5f 1a 37 92 e5 98 37 5c a3 f3 b6 c8 a4 59 b7
       9.201335e-06 1.8226714e-05 -7.260982e-06 -1.2972574e-05
0000c0 a7 38 9e b6 13 d4 0e 37 7a 95 60 b5 fe de 97 36
       -4.715362e-06 8.513237e-06 -8.366402e-07 4.5261104e-06
0000d0 eb 2f 86 37 b3 9c 46 37 53 52 d3 36 37 77 c4 37
       1.5996358e-05 1.1838204e-05 6.297874e-06 2.3420534e-05
0000e0 ea 0b 72 b7 64 fd 02 38 d4 aa e9 b5 78 2d 88 37
       -1.4427098e-05 3.1230404e-05 -1.740957e-06 1.6233636e-05
0000f0 80 df 8e 35 4e 84 86 b7 62 18 04 37 b6 5f b1 37
       1.0644872e-06 -1.6035654e-05 7.87349e-06 2.1144613e-05
000100 7a d6 20 b8 f4 a9 19 b7 a0 15 d2 37 26 93 8d 37
       -3.834672e-05 -9.159081e-06 2.504402e-05 1.6877031e-05
000110 5a df 1d b7 b0 8f 83 38 b4 96 a2 b7 c4 4d c7 36
       -9.409932e-06 6.273331e-05 -1.9382082e-05 5.9397153e-06
000120 a2 00 94 37 5e 35 e8 b7 b9 e0 e1 b6 85 c7 b5 37
       1.764327e-05 -2.7681406e-05 -6.7316837e-06 2.166979e-05
000130 92 72 fc 36 0f cd 02 b8 07 6e c7 37 e7 99 19 b8
       7.523523e-06 -3.118539e-05 2.3773884e-05 -3.6621375e-05
000140 b3 76 dd b7 e4 ae 03 39 88 9b 0e 38 4b fd 09 39
       -2.6400527e-05 0.00012558285 3.4000288e-05 0.00013159697
000150 68 12 01 37 40 ad 78 b5 a0 e9 39 38 81 4f 1d 38
       7.693285e-06 -9.263931e-07 4.4325017e-05 3.750576e-05
000160 9d 3e 5e 38 d0 a3 9a 37 28 54 de 37 58 8a 40 38
       5.2987238e-05 1.8434512e-05 2.650365e-05 4.590521e-05
000170 da 4f 1c b7 b7 a0 59 b8 04 a9 c7 38 76 2c a9 b7
       -9.3169165e-06 -5.188651e-05 9.520541e-05 -2.0167074e-05
000180 23 af 91 b8 62 85 44 39 b5 69 63 b8 7f 4a d5 38
       -6.9467605e-05 0.00018741706 -5.4219465e-05 0.000101705074
000190 8a 7e 90 37 8c c3 65 b8 2a 5c 8f 38 82 1f 9b 38
       1.7225062e-05 -5.4779972e-05 6.835938e-05 7.396845e-05
0001a0 9d b2 8f 37 f6 23 17 36 49 e0 9b 37 72 15 44 38
       1.7130102e-05 2.2521685e-06 1.858188e-05 4.6750014e-05
0001b0 06 a1 ab b5 61 83 b7 b7 a8 53 7f 38 34 1f 2d 37
       -1.2787357e-06 -2.1876478e-05 6.087465e-05 1.0318869e-05
0001c0 52 ba 71 38 1c 98 e1 b8 60 da e4 37 ce 47 71 b8
       5.7632402e-05 -0.00010757169 2.7281407e-05 -5.752575e-05
0001d0 40 68 7e 37 de 6e cf 38 a3 b0 86 b7 57 c9 21 b7
       1.5163852e-05 9.89118e-05 -1.6056298e-05 -9.643226e-06
0001e0 4e 2e be b7 0e c4 92 38 1b bb ec b6 5f f0 a9 37
       -2.2671327e-05 6.9983405e-05 -7.05513e-06 2.0258301e-05
0001f0 bc 5c a8 b6 3a c8 c2 b7 0b 7a 2a 38 d0 f0 af b6
       -5.017586e-06 -2.321984e-05 4.064482e-05 -5.2434407e-06
000200 79 8c 7b 37 00 f1 22 b8 14 d2 b7 b6 9e 2f 73 b7
       1.4993472e-05 -3.884826e-05 -5.4782813e-06 -1.4495015e-05
000210 e1 29 33 36 b4 e5 e5 36 7c c1 13 36 16 f4 f6 b7
       2.6697455e-06 6.851473e-06 2.201733e-06 -2.9439147e-05
000220 fd c6 08 b8 68 2e a4 38 62 a6 65 37 9f ad b5 37
       -3.261025e-05 7.828773e-05 1.3688203e-05 2.165773e-05
000230 b6 23 9b b7 5d 7c a0 37 d4 a3 7a b7 9d 84 0a 37
       -1.8494069e-05 1.9131397e-05 -1.4939305e-05 8.256317e-06
000240 e0 29 c7 37 00 ad ae b5 11 6b ab 37 15 a6 a3 37
       2.3742148e-05 -1.301436e-06 2.0434645e-05 1.9508452e-05
000250 1b ac 72 b7 4e 47 e2 b7 4d 75 14 38 33 47 b7 37
       -1.44643955e-05 -2.6974503e-05 3.5395195e-05 2.1848455e-05
000260 c5 e6 ba b7 24 87 f9 38 f4 f1 ef b7 9e 7f 85 38
       -2.2280388e-05 0.00011898417 -2.8603688e-05 6.365705e-05
000270 94 8e 53 b7 fe 01 cf b7 d4 07 39 b8 ea 8f 4a 37
       -1.2609777e-05 -2.467725e-05 -4.4114728e-05 1.2073646e-05
000280 69 35 2d 38 a7 81 06 b9 62 67 ae b7 7e 59 a1 b8
       4.1296156e-05 -0.00012827535 -2.0790558e-05 -7.6937475e-05
000290 08 bb fa 37 d7 ad 76 38 14 4b 34 b7 62 06 a7 b7
       2.9889416e-05 5.881287e-05 -1.0746317e-05 -1.9910924e-05
0002a0 06 e5 d1 37 1b 2f f3 37 40 e7 5b 37 b5 68 74 38
       2.5021389e-05 2.8989793e-05 1.3107259e-05 5.827165e-05
0002b0 c8 fd f8 35 78 4e 62 b8 55 13 4a 38 c9 9e 19 b7
       1.85513e-06 -5.395568e-05 4.8178557e-05 -9.156481e-06
0002c0 1c bf 83 b7 b9 6c 0d b8 d8 a1 a7 b7 16 77 b6 b7
       -1.570541e-05 -3.3718276e-05 -1.9983316e-05 -2.1751544e-05
0002d0 7b 1d 5e b7 7e 4a 10 36 68 28 10 b8 1a 03 8a 37
       -1.3239095e-05 2.1501032e-06 -3.4369907e-05 1.6452326e-05
0002e0 ba 89 e8 b7 a4 85 41 39 c6 14 51 b5 9f 75 02 39
       -2.772069e-05 0.000184557 -7.7888797e-07 0.00012441583
0002f0 b0 4a 20 38 a9 ce a5 b7 aa dd ff 37 20 48 ae 38
       3.821653e-05 -1.9765766e-05 3.050159e-05 8.310401e-05
000300 bc 01 c9 36 a8 70 d3 37 1e 94 b1 37 2a d7 17 37
       5.9904687e-06 2.520562e-05 2.1169017e-05 9.050398e-06
000310 0d e5 be b6 51 9a 40 b7 b1 17 04 37 a8 37 0f b7
       -5.6891063e-06 -1.1480021e-05 7.873329e-06 -8.536423e-06
000320 4d cf 18 b7 67 e4 f2 b7 60 43 b0 35 2f 58 96 b8
       -9.108172e-06 -2.8955006e-05 1.313263e-06 -7.168983e-05
000330 6a 21 65 b8 fc e9 8c 38 fd 3a 15 b9 ea 57 b8 b6
       -5.4628974e-05 6.719303e-05 -0.00014231722 -5.493862e-06
000340 0e 95 7b 37 1d 64 56 b7 d7 c4 3e b7 88 92 b8 b5
       1.499547e-05 -1.2778703e-05 -1.1370713e-05 -1.3751715e-06
000350 92 a0 87 b7 f6 2a 6b b8 57 0b 1e 38 6a 22 8d 36
       -1.6168025e-05 -5.6068377e-05 3.7680697e-05 4.206134e-06
000360 8e a4 c9 b6 01 a6 9d 38 9c e5 60 37 08 cc 61 b6
       -6.0094235e-06 7.517264e-05 1.34049005e-05 -3.3646375e-06
000370 a2 60 25 36 b2 23 15 38 db e6 82 b8 00 f2 88 b3
       2.4643164e-06 3.5557612e-05 -6.241883e-05 -6.377013e-08
000380 1a b1 2a b6 1e 7f 7a 37 34 89 ed b7 de 9e 09 38
       -2.543506e-06 1.4930758e-05 -2.8316492e-05 3.2811302e-05
000390 a0 e5 af 37 9d d9 df b7 32 47 ee 37 5c da 2d b7
       2.0968553e-05 -2.6685006e-05 2.8404964e-05 -1.0362444e-05
0003a0 1c dd 95 b7 2b 00 d1 38 ee 94 ee b7 29 a1 ba 38
       -1.7865146e-05 9.965928e-05 -2.8441162e-05 8.8991896e-05
0003b0 d8 09 f5 b7 d6 c2 94 b8 17 0a 70 38 92 15 92 38
       -2.921086e-05 -7.093481e-05 5.7229856e-05 6.96584e-05
0003c0 88 c0 bf b7 76 7b 0e 39 41 68 ce b7 c3 ad 96 38
       -2.2858629e-05 0.00013588168 -2.460566e-05 7.184923e-05
0003d0 79 f8 f2 b7 93 06 b4 b8 fd ab f3 b7 0c 84 c9 b6
       -2.8964352e-05 -8.5842934e-05 -2.9047946e-05 -6.005639e-06
0003e0 5b 4c db 36 a0 ab 1d b8 d4 72 d9 b7 a0 ce 20 b8
       6.5355975e-06 -3.7591555e-05 -2.5921887e-05 -3.8339407e-05
0003f0 10 2a 5d b7 28 1b a2 36 0e 7a d1 b7 42 48 2a b8
       -1.318242e-05 4.8311376e-06 -2.4971578e-05 -4.0598454e-05

exp_avg_sq f4 [128, 8]
000000 d3 de 9a 2f 1e 6a 87 2f 05 e2 56 2f 88 ef 40 2f
       2.8170763e-10 2.4631758e-10 1.9543485e-10 1.7547397e-10
000010 fa c1 8a 2f a4 4f ab 2f 3f 59 98 2f c9 a8 85 2f
       2.5239882e-10 3.1161307e-10 2.7712052e-10 2.4312488e-10
000020 e1 a2 00 30 15 94 08 30 4c 6e 92 2f aa ac e8 2f
       4.6797594e-10 4.968695e-10 2.6635616e-10 4.232324e-10
000030 86 82 e5 2f d2 d4 e7 2f 56 ad f7 2f 0a dd bb 2f
       4.17476e-10 4.2169873e-10 4.50522e-10 3.417216e-10
000040 ed 2a 02 30 28 4d 22 30 66 ed db 2f e6 6c ea 2f
       4.7354726e-10 5.90449e-10 4.000455e-10 4.264173e-10
000050 07 fc 2f 30 9c 7b 53 30 1c 4c e7 2f 15 92 ce 2f
       6.402278e-10 7.693701e-10 4.2072734e-10 3.757498e-10
000060 50 5e 90 30 c7 5f 1b 31 8c cd bc 30 aa fc e5 30
       1.0504184e-09 2.2609912e-09 1.373722e-09 1.6733754e-09
000070 cf b8 d6 30 3f 71 f8 30 f3 40 ad 30 41 0a b8 30
       1.5623075e-09 1.8076561e-09 1.2605866e-09 1.3390676e-09
000080 9b 57 0f 30 32 0f 56 30 0c 7a d7 2f 83 bb 57 30
       5.214759e-10 7.787434e-10 3.9194992e-10 7.8483015e-10
000090 10 c3 90 30 d9 3b 5c 30 06 e0 66 30 ec 1e 38 30
       1.0532819e-09 8.012058e-10 8.399187e-10 6.698275e-10
0000a0 50 39 3d 2f 9c ef 3d 2f fe 59 fd 2e e7 a3 43 2f
       1.7209811e-10 1.7274576e-10 1.1521094e-10 1.7793376e-10
0000b0 61 bd 92 2f 33 c2 73 2f 2b 63 5c 2f 06 e0 1b 2f
       2.6691807e-10 2.2169715e-10 2.0044115e-10 1.4176757e-10
0000c0 e5 dc 38 30 3e c8 90 30 53 98 33 30 0b 89 d7 2f
       6.725272e-10 1.0534291e-09 6.5336286e-10 3.9205647e-10
0000d0 15 b8 1c 30 22 e7 49 30 bc 8e 62 30 dd 51 2f 30
       5.7014066e-10 7.3451834e-10 8.242116e-10 6.3780964e-10
0000e0 41 db 42 2f 81 07 5b 2f bd 76 15 2f 28 34 78 2f
       1.7722092e-10 1.99206e-10 1.3593655e-10 2.2573998e-10
0000f0 d6 dd 9b 2f 00 cd 92 2f e7 75 6c 2f 31 00 6e 2f
       2.835196e-10 2.6702907e-10 2.1505962e-10 2.1646042e-10
000100 1f 9f a1 30 74 75 74 30 f0 98 58 30 7b e4 7c 30
       1.1759517e-09 8.8933594e-10 7.879768e-10 9.2001756e-10
000110 64 b5 78 30 96 48 95 30 3b 37 ac 30 21 fd 81 30
       9.0479646e-10 1.0861807e-09 1.2530345e-09 9.457929e-10
000120 ad dd 1b 30 55 cf 61 30 fc 2b 03 30 5e d3 19 30
       5.670369e-10 8.214916e-10 4.772003e-10 5.5961447e-10
000130 20 ef 8c 30 4c 5b 5c 30 90 cb 46 30 ac d4 d8 2f
       1.0254304e-09 8.0165274e-10 7.232126e-10 3.9441284e-10
000140 45 e8 03 31 50 03 02 31 dc be f9 30 46 45 08 31
       1.919504e-09 1.8919373e-09 1.817138e-09 1.9829982e-09
000150 ea 5c d2 30 e7 d4 3d 31 61 23 08 31 c7 4c db 30
       1.5305919e-09 2.762414e-09 1.9810715e-09 1.5956169e-09
000160 34 84 3b 31 e3 55 16 31 1a 67 d0 30 99 c0 d7 30
       2.728723e-09 2.1876694e-09 1.5163295e-09 1.5698048e-09
000170 74 ca ef 30 ad 24 28 31 90 d8 3e 31 d2 80 1c 31
       1.7447079e-09 2.4468065e-09 2.777174e-09 2.2774214e-09
000180 4f e7 29 31 7f fe 51 31 be 54 e3 30 49 68 42 31
       2.472422e-09 3.0558167e-09 1.6540509e-09 2.8289995e-09
000190 76 d4 1e 31 c2 49 4a 31 1a d2 23 31 83 e3 1f 31
       2.3112796e-09 2.9436795e-09 2.383905e-09 2.326687e-09
0001a0 a4 76 a6 30 18 88 4a 30 5a e5 48 30 ab 65 40 30
       1.2111809e-09 7.368057e-10 7.3085504e-10 6.999367e-10
0001b0 84 74 95 30 09 c8 a3 30 b7 70 a7 30 ed e2 8b 30
       1.0874293e-09 1.1916664e-09 1.2182885e-09 1.0178077e-09
0001c0 39 7c eb 2f 52 9b 2e 30 44 d5 a5 2f fe 43 20 30
       4.2834516e-10 6.3521555e-10 3.016486e-10 5.8304284e-10
0001d0 15 d1 02 30 81 07 1a 30 8d 9a f2 2f 7f a1 cd 2f
       4.759085e-10 5.603554e-10 4.4129359e-10 3.7404033e-10
0001e0 d5 1f 9d 30 72 f7 a1 30 c0 92 48 30 34 5d cb 30
       1.1432301e-09 1.178462e-09 7.296812e-10 1.4796684e-09
0001f0 fc ff c9 30 e8 a5 dd 30 40 c0 bd 30 cd 66 60 30
       1.469743e-09 1.612702e-09 1.3806201e-09 8.1636814e-10
000200 d5 40 96 30 b6 78 a0 30 33 85 75 30 61 d4 e6 30
       1.0932363e-09 1.167584e-09 8.931977e-10 1.6795064e-09
000210 bd f9 c0 30 9d 0d ee 30 7e 58 cb 30 51 a9 4c 30
       1.4040819e-09 1.7320648e-09 1.4795345e-09 7.445538e-10
000220 f0 f5 53 30 fc 4a 97 30 e3 20 0b 30 de c3 99 30
       7.711085e-10 1.1008008e-09 5.061464e-10 1.1187884e-09
000230 07 ae 84 30 a1 e9 89 30 4c 35 9c 30 c9 0b 3e 30
       9.653726e-10 1.0034463e-09 1.1365642e-09 6.9138345e-10
000240 f0 7d a7 2f be cb 97 2f 21 fc 21 2f da fa 37 2f
       3.0466607e-10 2.7611508e-10 1.4732439e-10 1.6732873e-10
000250 f5 35 91 2f 9e 92 70 2f 81 b2 b0 2f 43 4d 9b 2f
       2.6413685e-10 2.1879962e-10 3.2141048e-10 2.8249234e-10
000260 d9 78 b5 30 47 f5 09 31 31 33 b2 30 84 d1 d6 30
       1.320383e-09 2.0075548e-09 1.2965754e-09 1.5630097e-09
000270 9a 43 e9 30 8f 4d 1b 31 e4 e0 dd 30 b3 86 a6 30
       1.6972195e-09 2.2599556e-09 1.6143784e-09 1.2116373e-09
000280 d6 0a 3e 30 3c 1e 98 30 e3 a2 36 30 2c 29 bf 30
       6.9136996e-10 1.1068049e-09 6.644269e-10 1.3908781e-09
000290 e6 5f af 30 76 a5 e0 30 7e de 30 30 da 99 a3 30
       1.2760182e-09 1.6345172e-09 6.434461e-10 1.1903538e-09
0002a0 e2 95 74 30 a9 36 7d 30 ee 44 0b 30 67 8f 6a 30
       8.897968e-10 9.211854e-10 5.066586e-10 8.533249e-10
0002b0 2f 80 38 30 3c 20 5e 30 d8 e7 85 30 32 2d 3a 30
       6.712097e-10 8.080894e-10 9.742918e-10 6.773063e-10
0002c0 9d c5 20 30 45 de ef 2f 35 1d d6 2f eb b8 ef 2f
       5.8488486e-10 4.363178e-10 3.8947126e-10 4.360524e-10
0002d0 ee 0e ff 2f eb 1d 10 30 72 b9 26 30 18 8d b7 2f
       4.6394838e-10 5.242941e-10 6.065398e-10 3.338776e-10
0002e0 17 63 3b 31 36 b0 30 31 4a 78 12 31 f0 92 6b 31
       2.7268408e-09 2.5711535e-09 2.1314173e-09 3.4280525e-09
0002f0 80 f7 2a 31 5b 58 52 31 e8 85 2a 31 2c e5 2a 31
       2.4878943e-09 3.0609246e-09 2.4814373e-09 2.4868525e-09
000300 b6 ec e6 2f 94 db d2 2f e2 a4 85 2f fc 1c 8e 2f
       4.200495e-10 3.8354797e-10 2.4309715e-10 2.5850244e-10
000310 f6 c2 a5 2f 44 1d b3 2f dd ad 88 2f f1 dd a6 2f
       3.0151853e-10 3.2580705e-10 2.4861793e-10 3.0352923e-10
000320 74 5d f3 30 99 29 e9 30 cf e3 be 30 38 e8 d9 30
       1.7707138e-09 1.6964804e-09 1.3889067e-09 1.5854829e-09
000330 7d 6d 3e 31 1e c3 fa 30 aa 6e 55 31 c7 2b cf 30
       2.7710876e-09 1.824535e-09 3.1058485e-09 1.5073675e-09
000340 e4 1e d8 2f 23 ac bf 2f 55 9c d4 2f 57 46 02 30
       3.931212e-10 3.4865008e-10 3.8673656e-10 4.7393683e-10
000350 eb f8 e0 2f 18 24 3a 30 01 a2 0b 30 bc ef a5 2f
       4.092223e-10 6.77177e-10 5.0798127e-10 3.0183667e-10
000360 9c 2f e9 2f 8a 28 72 30 8d 3b d8 2f 12 40 01 30
       4.2416282e-10 8.8096697e-10 3.9332484e-10 4.7020976e-10
000370 02 6f 0b 30 76 4c 16 30 13 2f 0c 30 83 3a fd 2f
       5.0725657e-10 5.467834e-10 5.09986e-10 4.6062007e-10
000380 2a b8 c1 2f e7 92 f6 2f 01 61 94 2f 02 47 c2 2f
       3.5237352e-10 4.485152e-10 2.6989969e-10 3.5338849e-10
000390 55 7e c6 2f 7b e3 cd 2f 39 7f ef 2f 80 83 6e 2f
       3.6105754e-10 3.7450917e-10 4.3564244e-10 2.1692692e-10
0003a0 14 d6 22 31 c1 00 1e 31 bb 3c 12 31 f0 47 09 31
       2.3695792e-09 2.2992455e-09 2.1280318e-09 1.9977016e-09
0003b0 24 1f 30 31 7a 5c 29 31 3c 45 0e 31 c0 8f 0c 31
       2.5629072e-09 2.4645304e-09 2.0703075e-09 2.0454394e-09
0003c0 5d d9 e0 30 d0 00 26 31 04 8d c2 30 4e 46 72 31
       1.6359923e-09 2.4156641e-09 1.4155437e-09 3.5255598e-09
0003d0 a2 51 3e 31 0f 43 2b 31 f4 f3 1b 31 f4 ef c8 30
       2.7695042e-09 2.4921893e-09 2.269414e-09 1.4620114e-09
0003e0 a4 23 4c 30 d8 6c 64 30 c5 cc 20 30 9b f1 35 30
       7.4265416e-10 8.3100593e-10 5.8498656e-10 6.619076e-10
0003f0 d6 f8 5d 30 3d ea 79 30 49 6e 23 30 45 86 05 30
       8.075295e-10 9.0918545e-10 5.945578e-10 4.8575927e-10

exp_avg f4 [128]
000000 9f fb 01 b7 b8 02 36 b8 cf 3f 85 37 6e 76 7c b8
       -7.747584e-06 -4.3394713e-05 1.5884549e-05 -6.0191778e-05
000010 da de db b7 07 4c 3b 36 8c 92 88 37 89 6a 9a 36
       -2.6210608e-05 2.7909425e-06 1.6280705e-05 4.60196e-06
000020 2f 4a 91 37 c7 a3 8b 38 5a 54 87 b8 14 e2 ca 38
       1.7319891e-05 6.6585424e-05 -6.453013e-05 9.674221e-05
000030 c6 04 30 38 8f 2c 53 b7 d1 fb 23 b8 14 d0 db b7
       4.1966116e-05 -1.2586955e-05 -3.909675e-05 -2.6203728e-05
000040 2e f0 59 38 00 f4 c9 36 67 d3 6f 37 b6 6b a1 36
       5.1960516e-05 6.018672e-06 1.4294731e-05 4.810713e-06
000050 37 aa 07 b6 1e b3 ac 38 c9 4e 43 b8 e2 7e 1d b8
       -2.0215646e-06 8.234962e-05 -4.6564997e-05 -3.7549886e-05
000060 a2 07 12 b7 03 93 34 b9 8b cb 83 38 f7 bb 54 b8
       -8.704055e-06 -0.00017220904 6.2844796e-05 -5.0719795e-05
000070 40 65 24 38 e1 b0 ac 38 60 d5 e0 b7 67 17 e3 36
       3.9194943e-05 8.2345454e-05 -2.6802241e-05 6.7678516e-06
000080 f7 b6 fe b6 15 ce d5 b7 10 1f 2a b9 6d 14 3e b9
       -7.59109e-06 -2.5487543e-05 -0.00016224035 -0.00018127421
000090 b7 14 9b b8 c9 12 79 b8 dc 17 86 b8 70 d9 f5 37
       -7.3948344e-05 -5.938372e-05 -6.394062e-05 2.9307528e-05
0000a0 a4 93 aa 36 0d 88 e2 37 b2 f6 9e 37 86 02 f1 b7
       5.0835824e-06 2.7004653e-05 1.8949944e-05 -2.8730614e-05
0000b0 37 93 d4 b7 ba 27 0a b9 aa cd b6 36 67 62 6e 37
       -2.5340922e-05 -0.00013175505 5.447965e-06 1.42088165e-05
0000c0 ec 15 20 b8 7e 31 d3 b7 22 08 85 37 63 bf c2 37
       -3.816739e-05 -2.5176207e-05 1.5858623e-05 2.3215724e-05
0000d0 59 55 25 b9 15 64 e1 b8 87 46 a2 b8 f2 b4 4d 37
       -0.0001576742 -0.00010747478 -7.737899e-05 1.2261082e-05
0000e0 a5 bc f3 b8 70 b7 72 b8 5e 6c ee b6 7c af 31 38
       -0.00011622281 -5.7868136e-05 -7.1055683e-06 4.236352e-05
0000f0 fc 4b 50 b8 35 8d 65 37 48 05 25 b8 63 3e e0 37
       -4.966183e-05 1.3682341e-05 -3.9343984e-05 2.6731932e-05
000100 4e 6b b1 b8 0e 6c 2a b8 f4 5d 0b b9 ae 80 89 b8
       -8.460005e-05 -4.0631792e-05 -0.00013291073 -6.5566375e-05
000110 05 43 82 b8 3b 05 0b b8 11 2a 2e b8 42 5d 44 38
       -6.2113664e-05 -3.3145054e-05 -4.152401e-05 4.6816895e-05
000120 e6 6b b2 b8 a1 4f b3 b8 2d fd 71 38 0a 1d 1f b7
       -8.507799e-05 -8.550217e-05 5.7694666e-05 -9.4839e-06
000130 6c bf dd b7 d2 1d 2b b7 f8 f9 af b6 6c de 3b b8
       -2.643439e-05 -1.0199337e-05 -5.2445066e-06 -4.479142e-05
000140 2c b3 be 36 54 2d 28 37 93 a7 07 b9 cf 9e 4a b8
       5.6832996e-06 1.0024134e-05 -0.0001293703 -4.8308455e-05
000150 6b c0 04 b8 ef 59 2a 37 40 01 90 b5 82 86 fb b7
       -3.1650456e-05 1.0153729e-05 -1.07292e-06 -2.9984167e-05
000160 92 f3 ed b7 99 f5 19 38 45 9a 8d b7 82 16 71 b7
       -2.8366023e-05 3.6706773e-05 -1.6880347e-05 -1.436996e-05
000170 d1 25 8f b8 15 7d b8 b7 9f 63 87 38 4a 41 8c b7
       -6.825815e-05 -2.1992755e-05 6.4558575e-05 -1.6719703e-05
000180 17 78 eb b7 4b 73 23 38 46 5e 55 b7 08 53 8f b7
       -2.8070104e-05 3.8969603e-05 -1.2717739e-05 -1.7085593e-05
000190 f0 ff ee b6 f0 c4 08 b8 71 37 4e 37 b1 d7 70 b8
       -7.122748e-06 -3.260834e-05 1.2291465e-05 -5.7421337e-05
0001a0 10 13 14 37 d4 0d 24 b6 05 69 b4 b8 3a b1 d8 36
       8.825926e-06 -2.4445953e-06 -8.60263e-05 6.4579335e-06
0001b0 5a cb 75 b8 2e a8 9b b8 93 61 9e b7 79 11 1e b8
       -5.8601938e-05 -7.422302e-05 -1.8880504e-05 -3.7686408e-05
0001c0 72 47 44 38 ba ce 95 b7 7e 45 1c b8 02 f0 f9 36
       4.679658e-05 -1.7858449e-05 -3.7258018e-05 7.448719e-06
0001d0 b4 00 bb b7 ae 53 ce b7 6d dc 3b b8 e3 b9 18 b8
       -2.2292465e-05 -2.459608e-05 -4.478956e-05 -3.6412745e-05
0001e0 4c f2 0c b6 b6 84 55 37 d2 7d 8b b8 d8 e0 07 37
       -2.100266e-06 1.27266885e-05 -6.651472e-05 8.098978e-06
0001f0 7b 9a 3a b9 cc b8 1b b7 57 c9 16 b8 26 9c 70 b8
       -0.00017795891 -9.281746e-06 -3.59503e-05 -5.7365884e-05
