results/myFirstRun/Pong/checkpoint.pt (torch, 152483 bytes, 12 tensors)

network_body._body_endoder.seq_layers.0.weight f4 [128, 8]
0.12385368 0.11651374 0.27003914 -0.22035584 0.57202715 -0.09206081 0.05169337 0.7403063
0.42669585 -0.24118604 -0.27292603 0.22527567 -0.5995687 0.43952283 0.050653484 0.17724322
0.16225646 0.31558722 0.8305957 -0.11238768 0.01938054 0.09607328 -0.54635614 -0.26343495
0.10195091 0.51213944 -0.15054509 -0.57570475 0.45025057 -0.08621321 0.60191745 0.07953374
0.011538686 0.46208477 0.24356169 -0.5681671 -0.21910444 0.053068243 -0.51794106 -0.27440566
0.47899154 -0.0973918 -0.29119185 0.15480804 0.16148186 -0.21342938 0.29688668 0.23717128
-0.21106292 -0.056914862 0.2822841 0.48603272 -0.0193069 0.34123084 0.4272284 -0.3547554
0.042436704 -0.14746326 0.15831596 0.2997167 0.2762108 0.6548957 -0.01001146 -0.037606657
0.056757543 -0.13039415 0.023087285 0.27136606 0.31016842 -0.4453203 -0.06247688 0.11802433
0.083119094 -0.60051763 0.13151562 0.15029941 0.3398662 -0.1382873 0.62106335 -0.3078119
0.014180516 0.62468153 -0.05247199 1.0770438 -0.5929416 -0.46494758 0.41129097 0.30434972
-0.65241915 0.36223444 -0.26329505 0.046750974 -0.110237725 -0.35402483 0.6365633 -0.020454431
-0.32781512 -0.4227035 -0.25538242 -0.22856516 0.053904433 0.25509343 0.5203048 0.03662591
0.24755502 -0.1718674 -0.21562749 -0.28066736 -0.2469701 0.7223556 -0.12284404 -0.09839334
0.13916864 -0.2644716 0.44107535 -0.38945612 0.37752888 -0.1341418 -0.07397148 0.2799795
0.94525385 -0.30338982 -0.07063557 -0.49277386 -0.36234245 -0.037118167 -0.056423567 -0.24607882
-0.35447517 -0.23104373 -0.23862115 0.4783107 0.06833187 -0.34054792 -0.16330397 0.42428288
0.022183053 -0.34782225 0.21537232 0.09097451 0.12775637 0.0026124048 -0.057830032 0.5376349
-0.2803769 0.06296642 0.48072824 0.0924563 -0.36071947 -0.25347024 0.21739262 0.084354416
0.026840396 0.65344054 0.22966963 0.022897897 -0.3692118 -0.07912416 -0.25042135 0.41177663
0.00356191 -0.25795966 -0.000926194 0.30939195 0.09788539 -0.28621343 -0.056720816 0.25570533
0.08811425 0.12844309 -0.18127461 0.92314637 -0.4165744 0.04896703 0.4374352 0.3722942
0.31884256 -0.074021935 -0.58157355 0.03201229 -0.020702885 0.086758874 0.37690333 0.051284663
0.42229158 -0.32081175 1.206456 -0.0769714 -0.012382724 -0.47302052 -0.12768759 -0.47263888
-0.010825626 -0.16272478 -0.2929174 0.38821363 -0.28212488 0.03783909 0.33583102 0.11126107
0.13115542 0.0030700925 0.5979739 -0.052166738 0.010540878 -0.5129571 0.11450188 -0.22700159
0.1507994 0.20097616 1.3299022 0.2894395 0.09796041 -0.076604486 -0.07410901 0.50063556
0.2571114 -0.52237177 -0.10700425 -0.07537763 0.32930383 0.25452384 -0.025264619 0.22783116
0.48778456 -0.106304444 0.23515248 0.31181672 -0.24873297 -0.08092563 0.0667018 0.02162646
-0.5440843 0.19669358 0.37713307 -0.16480066 -0.16922775 -0.14135315 0.002586456 -0.23461199
-0.4701543 -0.065620385 -0.20815095 0.78463 -0.8813054 -0.06327745 -0.12274843 -0.2166185
-1.1091294 0.35989627 0.22288355 -0.4020093 -0.17725895 -0.5936088 -0.3264797 -0.17921889
00000000: 00a7 fd3d c19e ee3d 9242 8a3e f6a4 61be
00000010: 5f70 123f 618a bcbd 6dbc 533d b784 3d3f
00000020: e177 da3e 79f9 76be f6bc 8bbe aaae 663e
00000030: 567d 19bf 2309 e13e 077a 4f3d 3f7f 353e
00000040: 8f26 263e a694 a13e eba1 543f 832b e6bd
00000050: f0c3 9e3c 11c2 c43d ffdd 0bbf f2e0 86be
00000060: a4cb d03d 921b 033f 7e28 1abe 6361 13bf
00000070: 3e87 e63e 8d90 b0bd 4317 1a3f 96e2 a23d
00000080: c20c 3d3c 6096 ec3e 3c68 793e 6673 11bf
00000090: ea5c 60be 165e 593d c997 04bf e67e 8cbe
000000a0: 613e f53e 5a75 c7bd 1917 95be 0086 1e3e
000000b0: 805b 253e 3b8d 5abe 8801 983e 07dd 723e
000000c0: e120 58be 8f1f 69bd 8b87 903e 48d9 f83e
000000d0: 8129 9ebc cfb5 ae3e aebd da3e 80a2 b5be
000000e0: 1cd2 2d3d 9c00 17be 941d 223e 7874 993e
000000f0: 816b 8d3e 3fa7 273f 1b07 24bc 7009 1abd
00000100: 997a 683d 0b86 05be 8c21 bd3c 7ef0 8a3e
00000110: 65ce 9e3e 0601 e4be c2e7 7fbd bdb6 f13d
00000120: 583a aa3d 86bb 19bf 08ac 063e 17e8 193e
00000130: f102 ae3e 309b 0dbe 02fe 1e3f 8599 9dbe
00000140: 6555 683c 21eb 1f3f dfec 56bd 92dc 893f
00000150: 05cb 17bf 9c0d eebe bb94 d23e bad3 9b3e
00000160: f104 27bf cb76 b93e 9cce 86be f37d 3f3d
00000170: 51c4 e1bd be42 b5be d0f5 223f 0d90 a7bc
00000180: 62d7 a7be 986c d8be 7cc1 82be fc0c 6abe
00000190: e5ca 5c3d 9b9b 823e b232 053f 0d05 163d
000001a0: 107f 7d3e 02fe 2fbe 74cd 5cbe a2b3 8fbe
000001b0: bbe5 7cbe 4cec 383f a895 fbbd 7382 c9bd
000001c0: 3982 0e3e d268 87be a1d4 e13e cb66 c7be
000001d0: 774b c13e 785c 09be 5c7e 97bd 7959 8f3e
000001e0: 28fc 713f e955 9bbe 62a9 90bd db4c fcbe
000001f0: f384 b9be 3809 18bd 661c 67bd 16fc 7bbe
00000200: c57d b5be ba96 6cbe 1a59 74be 24e5 f43e
00000210: 94f1 8b3d 4c5c aebe 2839 27be 9b3b d93e
00000220: 3cb9 b53c c215 b2be 908a 5c3e d850 ba3d
00000230: 91d2 023e e134 2b3b 2fdf 6cbd 71a2 093f
00000240: 908d 8fbe 8af4 803d 0322 f63e bb59 bd3d
00000250: 39b0 b8be dac6 81be 2c9c 5e3e 02c2 ac3d
00000260: 64e0 db3c e147 273f 842e 6b3e 5f94 bb3c
00000270: 5409 bdbe d90b a2bd 3a37 80be 63d4 d23e
00000280: ef6e 693b 4a13 84be d4cb 72ba 9f68 9e3e
00000290: 2378 c83d 918a 92be 1654 68bd cfeb 823e
000002a0: 3e75 b43d 9686 033e 0da0 39be 5253 6c3f
000002b0: 3d49 d5be a791 483d 82f7 df3e 589d be3e
000002c0: 553f a33e d098 97bd 01e2 14bf 521f 033d
000002d0: 1999 a9bc a3ae b13d 79f9 c03e de0f 523d
000002e0: 9a36 d83e 7041 a4be 266d 9a3f 2ea3 9dbd
000002f0: e9e0 4abc bf2f f2be 89c0 02be b9fd f1be
00000300: f75d 31bc 53a1 26be 45f9 95be f0c3 c63e
00000310: ac72 90be 29fd 1a3d 0bf2 ab3e d8dc e33d
00000320: 9b4d 063e 9b33 493b d114 193f caac 55bd
00000330: a6b3 2c3c 2851 03bf f67f ea3d 1b73 68be
00000340: 286b 1a3e b2cc 4d3e 3c3a aa3f 6a31 943e
00000350: 789f c83d d0e2 9cbd 77c6 97bd a729 003f
00000360: 1ba4 833e 28ba 05bf 0b25 dbbd 965f 9abd
00000370: 839a a83e f350 823e bff7 cebc 924c 693e
00000380: e6be f93e 25b6 d9bd d0cb 703e 71a6 9f3e
00000390: dbb3 7ebe 56bc a5bd f49a 883d f929 b13c
000003a0: 1c49 0bbf 0b6a 493e 9617 c13e 81c1 28be
000003b0: 0a4a 2dbe e1be 10be 8881 293b 203e 70be
000003c0: 10b8 f0be fb63 86bd 8625 55be 83dd 483f
000003d0: 3b9d 61bf 9c97 81bd 8763 fbbd 3dd1 5dbe
000003e0: f4f7 8dbf 5344 b83e 963b 643e 2ad4 cdbe
000003f0: 5f83 35be bff6 17bf 5928 a7be 2885 37be

network_body._body_endoder.seq_layers.0.bias f4 [128]
0.0 0.0 0.0 0.0 0.0 0.0 0.0 0.0
0.0 0.0 0.0 0.0 0.0 0.0 0.0 0.0
0.0 0.0 0.0 0.0 0.0 0.0 0.0 0.0
0.0 0.0 0.0 0.0 0.0 0.0 0.0 0.0
0.0 0.0 0.0 0.0 0.0 0.0 0.0 0.0
0.0 0.0 0.0 0.0 0.0 0.0 0.0 0.0
0.0 0.0 0.0 0.0 0.0 0.0 0.0 0.0
0.0 0.0 0.0 0.0 0.0 0.0 0.0 0.0
0.0 0.0 0.0 0.0 0.0 0.0 0.0 0.0
0.0 0.0 0.0 0.0 0.0 0.0 0.0 0.0
0.0 0.0 0.0 0.0 0.0 0.0 0.0 0.0
0.0 0.0 0.0 0.0 0.0 0.0 0.0 0.0
0.0 0.0 0.0 0.0 0.0 0.0 0.0 0.0
0.0 0.0 0.0 0.0 0.0 0.0 0.0 0.0
0.0 0.0 0.0 0.0 0.0 0.0 0.0 0.0
0.0 0.0 0.0 0.0 0.0 0.0 0.0 0.0
00000000: 0000 0000 0000 0000 0000 0000 0000 0000
00000010: 0000 0000 0000 0000 0000 0000 0000 0000
00000020: 0000 0000 0000 0000 0000 0000 0000 0000
00000030: 0000 0000 0000 0000 0000 0000 0000 0000
00000040: 0000 0000 0000 0000 0000 0000 0000 0000
00000050: 0000 0000 0000 0000 0000 0000 0000 0000
00000060: 0000 0000 0000 0000 0000 0000 0000 0000
00000070: 0000 0000 0000 0000 0000 0000 0000 0000
00000080: 0000 0000 0000 0000 0000 0000 0000 0000
00000090: 0000 0000 0000 0000 0000 0000 0000 0000
000000a0: 0000 0000 0000 0000 0000 0000 0000 0000
000000b0: 0000 0000 0000 0000 0000 0000 0000 0000
000000c0: 0000 0000 0000 0000 0000 0000 0000 0000
000000d0: 0000 0000 0000 0000 0000 0000 0000 0000
000000e0: 0000 0000 0000 0000 0000 0000 0000 0000
000000f0: 0000 0000 0000 0000 0000 0000 0000 0000
00000100: 0000 0000 0000 0000 0000 0000 0000 0000
00000110: 0000 0000 0000 0000 0000 0000 0000 0000
00000120: 0000 0000 0000 0000 0000 0000 0000 0000
00000130: 0000 0000 0000 0000 0000 0000 0000 0000
00000140: 0000 0000 0000 0000 0000 0000 0000 0000
00000150: 0000 0000 0000 0000 0000 0000 0000 0000
00000160: 0000 0000 0000 0000 0000 0000 0000 0000
00000170: 0000 0000 0000 0000 0000 0000 0000 0000
00000180: 0000 0000 0000 0000 0000 0000 0000 0000
00000190: 0000 0000 0000 0000 0000 0000 0000 0000
000001a0: 0000 0000 0000 0000 0000 0000 0000 0000
000001b0: 0000 0000 0000 0000 0000 0000 0000 0000
000001c0: 0000 0000 0000 0000 0000 0000 0000 0000
000001d0: 0000 0000 0000 0000 0000 0000 0000 0000
000001e0: 0000 0000 0000 0000 0000 0000 0000 0000
000001f0: 0000 0000 0000 0000 0000 0000 0000 0000

network_body._body_endoder.seq_layers.2.weight f4 [128, 128]
-0.034292147 -0.010710969 0.064127825 0.08601918 -0.23611334 -0.016878732 -0.023700831 0.0062045995
0.14279267 0.0115976455 -0.0062441775 -0.16798714 -0.07553604 -0.06533448 -0.00034693014 -0.08729345
0.1644862 0.012482013 0.02236291 0.026590547 0.037754558 -0.005400759 0.07421721 0.06583382
0.10476408 -0.08815693 0.055731982 0.09202792 0.045438223 -0.036756936 -0.009640871 -0.10543989
-0.03471332 -0.031387497 -0.17279983 0.096540846 -0.11695536 -0.16510227 0.03696165 0.07759244
0.0556724 -0.01394751 0.028865265 -0.01398518 -0.054976452 0.034347266 -0.11555775 0.065734066
0.04016914 0.09485099 -0.07432555 -0.020686818 -0.031377092 -0.009302077 -0.09422672 0.010194749
-0.080998965 0.020375764 0.034049794 0.059141356 -0.09692967 0.027238851 -0.038848713 -0.057556946
-0.044199716 -0.0003203331 -0.021166096 -0.14251274 0.06397438 -0.06941033 0.14033371 0.060112942
-0.06545024 0.13973443 -0.0015626306 -0.036206193 0.072361164 0.050197687 0.23260432 -0.029099375
0.038252715 0.19184078 0.10971441 -0.08460433 0.023565175 0.0160053 0.008262557 -0.078973204
0.03981598 0.029166283 -0.16255161 -0.014336415 -0.02329643 -0.17766066 -0.021376962 0.20708828
0.045773983 0.04805086 -0.06815008 0.066850536 -0.1504957 -0.042684596 -0.027582409 -0.036595896
-0.011495438 -0.04214262 -0.0923493 0.09687051 0.004933233 -0.06420178 -0.111570716 0.20556809
-0.013031823 -0.002249723 -0.13792002 0.04057813 -0.18838531 0.052965734 -0.09403911 -0.17843077
0.062264446 0.040826187 -0.011262343 0.0143138785 -0.13279383 -0.0065154806 0.010372434 0.023691114
-0.07098191 0.20933281 0.039284226 -0.1502688 -0.075373225 -0.09072049 0.027182784 -0.022917453
-0.045600098 -0.05326261 -0.111619994 -0.005488944 0.02110939 0.011221215 -0.10267406 -0.11764887
-0.064586245 0.05924574 -0.05660278 -0.023278976 -0.085972965 -0.05068 -0.041294888 0.09779661
-0.050386135 0.054006174 -0.024485862 0.004890813 -0.05257196 -0.10587207 0.10169165 -0.02857149
-0.2193605 -0.08317554 -0.08963498 0.037095737 -0.1885116 -0.04804941 0.11688695 0.030828772
-0.20239173 0.11475127 0.06524826 0.0950433 0.07163053 -0.0060428847 -0.039877295 0.067456126
-0.051742904 -0.08606256 0.0859724 -0.111934684 0.010583544 0.11851427 0.008310368 -0.06457291
-0.18710233 0.19495064 -0.060352873 0.0014605894 -0.12229823 0.07868495 -0.027845275 -0.30456245
0.041131094 0.13839597 0.081677265 -0.07017088 -0.09423354 0.03206627 -0.024521897 -0.042110477
0.09423892 -0.039798222 -0.022428028 0.087785795 0.1602357 -0.06519268 0.09040119 -0.02072425
-0.004727852 0.085003294 -0.01171569 0.13183568 -0.03366345 0.00778519 -0.03823827 -0.04667126
0.07453992 -0.072708555 -0.10792562 -0.10125817 -0.025139617 -0.025415286 0.04017181 0.011784522
-0.056441773 -0.021746092 0.0636412 0.14871708 -0.055164944 0.062265836 0.017618243 0.0022815068
0.14175592 -0.15890488 0.06704478 -0.10777694 0.004009516 -0.05583548 -0.02985696 0.028460398
-0.1262816 0.028655792 -0.003447901 0.043560322 -0.07708784 0.014341022 0.12840697 -0.03062749
-0.026697874 -0.0219136 0.026655756 -0.028224032 -0.04935048 -0.0061678085 0.075155705 0.045997214
00000000: ec75 0cbd 0f7d 2fbc 7355 833d d32a b03d
00000010: b2c7 71be 4445 8abc 3f28 c2bc f44f cb3b
00000020: 3e38 123e 0d04 3e3c f59b ccbb d204 2cbe
00000030: a4b2 9abd 15ce 85bd 2de4 b5b9 e9c6 b2bd
00000040: 126f 283e 5b81 4c3c 6c32 b73c 6bd4 d93c
00000050: 86a4 1a3d daf8 b0bb 31ff 973d e2d3 863d
00000060: 8d8e d63d 9f8b b4bd 3847 643d 2279 bc3d
00000070: 6e1d 3a3d 718e 16bd bef4 1dbc def0 d7bd
00000080: 8e2f 0ebd 2d90 00bd 70f2 30be 35b7 c53d
00000090: 4b86 efbd 9210 29be 1965 173d c9e8 9e3d
000000a0: be08 643d 1984 64bc d976 ec3c 1922 65bc
000000b0: fd2e 61bd b8af 0c3d 8ba9 ecbd 959f 863d
000000c0: 6588 243d 3c41 c23d fe37 98bd 6777 a9bc
000000d0: 4485 00bd bd67 18bc f0f9 c0bd e007 273c
000000e0: c9e2 a5bd 13eb a63c cc77 0b3d 353e 723d
000000f0: 1083 c6bd 0324 df3c d41f 1fbd d5c0 6bbd
00000100: c30a 35bd 62f2 a7b9 8564 adbc dcee 11be
00000110: 0005 833d 0127 8ebd a4b3 0f3e fd38 763d
00000120: c70a 86bd 8b16 0f3e 2fd1 ccba f24c 14bd
00000130: 1732 943d 179c 4d3d d42f 6e3e d061 eebc
00000140: e1ae 1c3d e971 443e f3b1 e03d 0945 adbd
00000150: c10b c13c 8c1d 833c ad5f 073c b4bc a1bd
00000160: 1516 233d 21ee ee3c ee73 26be 48e3 6abc
00000170: 28d8 bebc adec 35be bd1e afbc f30e 543e
00000180: 807d 3b3d fbd0 443d 4592 8bbd efe8 883d
00000190: 8b1b 1abe 0bd6 2ebd 81f4 e1bc 94e5 15bd
000001a0: 5d57 3cbc bd9d 2cbd a121 bdbd 0c64 c63d
000001b0: f5a6 a13b 397c 83bd 307f e4bd 7180 523e
000001c0: 6d83 55bc 1770 13bb e83a 0dbe 4135 263d
000001d0: 14e8 40be 99f2 583d 9497 c0bd 8eb6 36be
000001e0: 0109 7f3d 5c39 273d b185 38bc c284 6a3c
000001f0: 1bfb 07be d07f d5bb 24f1 293c de13 c23c
00000200: f75e 91bd 575b 563e 7fe8 203d 10e0 19be
00000210: 475d 9abd aacb b9bd 6eae de3c 62bd bbbc
00000220: 2bc7 3abd e529 5abd 0699 e4bd 99dc b3bb
00000230: 99ed ac3c 30d9 373c c746 d2bd e4f1 f0bd
00000240: cb45 84bd a9ab 723d 51d8 67bd 8db3 bebc
00000250: 9812 b0bd d595 4fbd d424 29bd 9749 c83d
00000260: b161 4ebd 9435 5d3d 9396 c8bc 1d43 a03b
00000270: b255 57bd 75d3 d8bd b643 d03d c20e eabc
00000280: 0aa0 60be f057 aabd 8b92 b7bd b3f1 173d
00000290: 2f09 41be 75cf 44bd 6d62 ef3d 9f8c fc3c
000002a0: c73f 4fbe b702 eb3d e1a0 853d 10a6 c23d
000002b0: 07b3 923d 6403 c6bb 6056 23bd 7026 8a3d
000002c0: 5ef0 53bd 9141 b0bd 4c12 b03d 033e e5bd
000002d0: 9a66 2d3c 9cb7 f23d 3628 083c cd3e 84bd
000002e0: c197 3fbe 24a1 473e 9334 77bd 3f71 bf3a
000002f0: 7f77 fabd 9325 a13d c61b e4bc 9cef 9bbe
00000300: 1479 283d acb7 0d3e 6946 a73d c0b5 8fbd
00000310: 84fd c0bd ec57 033d 25e2 c8bc 097c 2cbd
00000320: 5600 c13d 7603 23bd fcba b7bc 0ac9 b33d
00000330: d414 243e bd83 85bd 4224 b93d e7c5 a9bc
00000340: 19ec 9abb 3516 ae3d 2af3 3fbc efff 063e
00000350: b0e2 09bd e81a ff3b bb9f 1cbd 5d2a 3fbd
00000360: 63a8 983d 39e8 94bd 1c08 ddbd 7260 cfbd
00000370: 99f1 cdbc b833 d0bc 328b 243d de13 413c
00000380: 7d2f 67bd dc24 b2bc 5156 823d 4a49 183e
00000390: a3f4 61bd 760a 7f3d 2254 903c 5585 153b
000003a0: 7728 113e f6b7 22be c64e 893d 28ba dcbd
000003b0: 4262 833b bfb3 64bd 9596 f4bc c825 e93c
000003c0: f74f 01be 8dbf ea3c 2ef6 61bb 4f6c 323d
000003d0: 3be0 9dbd 9bf6 6a3c 1e7d 033e 80e6 fabc
000003e0: 80b5 dabc 2684 b3bc 2c5d da3c 1636 e7bc
000003f0: bb23 4abd 541b cabb 3ceb 993d 9367 3c3d

network_body._body_endoder.seq_layers.2.bias f4 [128]
0.0 0.0 0.0 0.0 0.0 0.0 0.0 0.0
0.0 0.0 0.0 0.0 0.0 0.0 0.0 0.0
0.0 0.0 0.0 0.0 0.0 0.0 0.0 0.0
0.0 0.0 0.0 0.0 0.0 0.0 0.0 0.0
0.0 0.0 0.0 0.0 0.0 0.0 0.0 0.0
0.0 0.0 0.0 0.0 0.0 0.0 0.0 0.0
0.0 0.0 0.0 0.0 0.0 0.0 0.0 0.0
0.0 0.0 0.0 0.0 0.0 0.0 0.0 0.0
0.0 0.0 0.0 0.0 0.0 0.0 0.0 0.0
0.0 0.0 0.0 0.0 0.0 0.0 0.0 0.0
0.0 0.0 0.0 0.0 0.0 0.0 0.0 0.0
0.0 0.0 0.0 0.0 0.0 0.0 0.0 0.0
0.0 0.0 0.0 0.0 0.0 0.0 0.0 0.0
0.0 0.0 0.0 0.0 0.0 0.0 0.0 0.0
0.0 0.0 0.0 0.0 0.0 0.0 0.0 0.0
0.0 0.0 0.0 0.0 0.0 0.0 0.0 0.0
00000000: 0000 0000 0000 0000 0000 0000 0000 0000
00000010: 0000 0000 0000 0000 0000 0000 0000 0000
00000020: 0000 0000 0000 0000 0000 0000 0000 0000
00000030: 0000 0000 0000 0000 0000 0000 0000 0000
00000040: 0000 0000 0000 0000 0000 0000 0000 0000
00000050: 0000 0000 0000 0000 0000 0000 0000 0000
00000060: 0000 0000 0000 0000 0000 0000 0000 0000
00000070: 0000 0000 0000 0000 0000 0000 0000 0000
00000080: 0000 0000 0000 0000 0000 0000 0000 0000
00000090: 0000 0000 0000 0000 0000 0000 0000 0000
000000a0: 0000 0000 0000 0000 0000 0000 0000 0000
000000b0: 0000 0000 0000 0000 0000 0000 0000 0000
000000c0: 0000 0000 0000 0000 0000 0000 0000 0000
000000d0: 0000 0000 0000 0000 0000 0000 0000 0000
000000e0: 0000 0000 0000 0000 0000 0000 0000 0000
000000f0: 0000 0000 0000 0000 0000 0000 0000 0000
00000100: 0000 0000 0000 0000 0000 0000 0000 0000
00000110: 0000 0000 0000 0000 0000 0000 0000 0000
00000120: 0000 0000 0000 0000 0000 0000 0000 0000
00000130: 0000 0000 0000 0000 0000 0000 0000 0000
00000140: 0000 0000 0000 0000 0000 0000 0000 0000
00000150: 0000 0000 0000 0000 0000 0000 0000 0000
00000160: 0000 0000 0000 0000 0000 0000 0000 0000
00000170: 0000 0000 0000 0000 0000 0000 0000 0000
00000180: 0000 0000 0000 0000 0000 0000 0000 0000
00000190: 0000 0000 0000 0000 0000 0000 0000 0000
000001a0: 0000 0000 0000 0000 0000 0000 0000 0000
000001b0: 0000 0000 0000 0000 0000 0000 0000 0000
000001c0: 0000 0000 0000 0000 0000 0000 0000 0000
000001d0: 0000 0000 0000 0000 0000 0000 0000 0000
000001e0: 0000 0000 0000 0000 0000 0000 0000 0000
000001f0: 0000 0000 0000 0000 0000 0000 0000 0000

action_model._continuous_distribution.mu.weight f4 [1, 128]
0.015803615 -0.0038682108 -0.010248029 -0.01686405 -0.015247225 -0.008426858 -0.006915203 -0.00036728857
-0.0012445502 -0.0077176676 0.0035543859 -0.049418416 0.0070827343 -0.008071568 -0.007268825 0.003140927
-0.00068791327 0.0015088593 0.032922417 -0.011434869 -0.0017720321 0.002729859 -0.015833693 0.029612279
-0.017987804 -0.0001089791 -0.021877846 0.03843392 0.041855656 -0.0035483732 0.0054036053 0.008491988
0.0009918868 -0.013280806 0.0042718025 0.017350879 -0.008033822 0.022171779 0.036436673 0.03480691
0.026066024 0.014193267 0.041982017 0.0037694406 -0.003094492 -0.0055644396 -0.009267835 0.004236645
-0.0037866482 0.036584817 -0.0049013314 0.041667137 -0.0032065243 -0.005351541 -0.030933589 -0.0037266586
-0.034671854 0.003252469 0.015424921 -0.0118308095 -0.02621979 -0.025802383 -0.000903065 -0.007759598
-0.02662634 -0.011288579 -0.0053044963 0.00321064 -0.013172673 -0.027903898 0.035956096 0.0021961592
0.002246594 -0.015349428 0.01171965 -0.0033650405 -0.009513611 -0.009022532 -0.044499572 0.0067188786
-0.0027266354 -0.015885381 -0.024189373 -0.016988521 0.013297009 -0.0031542168 0.023931349 0.006090183
0.03342354 -0.012321762 0.036405668 0.013255584 -0.0023327942 -0.034424663 0.015145572 0.017505188
0.02120916 -0.0014759109 -0.03990021 -0.010607465 -0.008508706 0.03387342 -0.0045863623 0.0029465852
-0.034482688 0.008270307 0.010215556 -0.025497837 0.00055968063 -0.008513318 0.0024788703 0.014466676
0.009332708 0.009215729 -0.024116017 -0.006526807 -0.026002318 -0.010713874 -0.0011636559 0.029884834
0.005577575 -0.011876478 -0.001740409 -0.025088832 -0.009066127 0.012573461 -0.009599595 0.0071583376
00000000: 9576 813c cf81 7dbb 59e7 27bc 7a26 8abc
00000010: 7fcf 79bc ce10 0abc ed98 e2bb a390 c0b9
00000020: 2d20 a3ba 7de4 fcbb b3f0 683b f76a 4abd
00000030: 4816 e83b 9c3e 04bc 532f eebb 03d8 4d3b
00000040: 1455 34ba ebc4 c53a a8d9 063d 5159 3bbc
00000050: 8843 e8ba 6fe7 323b a9b5 81bc 7395 f23c
00000060: 295b 93bc b58b e4b8 2b39 b3bc e36c 1d3d
00000070: d670 2b3d d38b 68bb ba10 b13b fb21 0b3c
00000080: 3302 823a bd97 59bc 7afa 8b3b 6e23 8e3c
00000090: 4ba0 03bc 97a1 b53c 9f3e 153d b191 0e3d
000000a0: 6a88 d53c e08a 683c 56f5 2b3d b808 773b
000000b0: f6cc 4abb e755 b6bb 1ed8 17bc 8ed3 8a3b
000000c0: 6a29 78bb f6d9 153d 599b a0bb 29ab 2a3d
000000d0: 8d24 52bb fb5b afbb 7068 fdbc f53a 74bb
000000e0: 1304 0ebd 6027 553b cfb8 7c3c 03d6 41bc
000000f0: e3ca d6bc 855f d3bc abbb 6cba 3a44 febb
00000100: 7b1f dabc bbf3 38bc 57d1 adbb 9a69 523b
00000110: 32d2 57bc b796 e4bc b346 133d 70ed 0f3b
00000120: 983b 133b 2b7c 7bbc c603 403c 0388 5cbb
00000130: fade 1bbc 3ed3 13bc 2f45 36bd 0a2a dc3b
00000140: 5ab1 32bb 0f22 82bc cb28 c6bc 832b 8bbc
00000150: b3db 593c fab6 4ebb ad0b c43c 2890 c73b
00000160: 1fe7 083d 37e1 49bc 1c1e 153d f32d 593c
00000170: cbe1 18bb e000 0dbd 2225 783c 0a67 8f3c
00000180: d5be ad3c 5a73 c1ba 676e 23bd efca 2dbc
00000190: 1a68 0bbc dbbe 0a3d 3249 96bb 7f1b 413b
000001a0: b83d 0dbd 2f80 073c 265f 273c d7e0 d0bc
000001b0: 88b7 123a 727b 0bbc 8b74 223b a305 6d3c
000001c0: 37e8 183c 92fd 163c f48e c5bc d3de d5bb
000001d0: d002 d5bc 3f89 2fbc d085 98ba 0ad1 f43c
000001e0: 17c4 b63b 8f95 42bc 6f1e e4ba 1887 cdbc
000001f0: 188a 14bc eb00 4e3c 9f47 1dbc 7d90 ea3b

action_model._discrete_distribution.branches.0.weight f4 [3, 128]
0.011026854 -0.0011150957 -0.0019747892 0.009792018 0.0055703362 -0.0057293028 0.0018338757 0.0015042052
-0.003974426 0.0076940036 0.015963323 0.0054529957 0.012877396 0.0017361696 0.0053537656 0.0008394491
-0.013427458 -0.010269601 0.004497153 -0.0008706517 0.0023072576 0.0144971255 -0.019256879 -0.0020908269
0.003541771 -0.0024022076 0.0069553903 0.00055737165 -0.0261894 0.0030863876 0.0014460051 0.005958073
-0.018298801 0.0008082442 -0.0034236864 0.0051131123 0.0051733376 -0.0066589504 0.011287356 0.004237195
0.009447002 -0.00021518169 0.0064954087 0.009798056 0.0039000183 -0.007983971 0.0080436375 0.010303787
0.0008354066 -0.008488722 -0.02188901 0.0017664498 0.003545689 0.0018717742 -0.0030969696 -0.0027297817
-0.0035595004 -0.0029993202 -0.0014954632 0.004190208 -0.0010282019 0.010855712 -0.007522784 -0.00075493107
0.001227935 -0.0030616715 0.0012620271 -0.012469085 0.0019542791 -0.014722553 -0.009256102 -0.00487478
0.0107387565 0.0033941183 -0.010433636 0.008168813 0.0014017527 0.008136729 -0.0056019723 0.0030145717
-0.0020702821 0.0024139378 -0.006605934 0.01745072 -0.015512514 -0.018237544 -0.002824783 0.00038433156
-0.005804656 0.008058961 0.010813304 0.0054100933 -0.0015887859 0.0039539617 -0.0037942515 0.009714622
-0.00091072574 -0.018895803 -0.005272248 -0.009887216 -0.004586187 0.007910601 0.0012824055 0.00757898
-0.0076198066 0.0018650308 0.005314739 0.006207335 0.0046868166 -0.010413664 0.0033014473 -0.020661324
-0.00017870772 0.0033021679 -0.0055466737 0.00924786 -0.007731572 0.005333203 0.012817494 -0.011573609
0.015969668 0.0035607074 0.005032541 0.010508846 0.006083551 0.011896855 -0.0011239204 -0.01020902
0.00031605185 0.017568817 -0.019315926 -0.0021614002 0.010690104 0.00024987533 0.0038972825 -0.008047073
-0.004514178 -0.014172733 0.006870076 0.007216539 -0.011212061 -0.004402712 0.0040198676 -0.010593791
0.014024754 -0.006390308 0.01129605 -0.00066392374 -0.019606633 0.004626866 -0.002939284 0.0054907235
-0.008827745 0.01492337 -0.0074770227 -0.0045730635 -0.0052115037 -0.016266232 0.006357013 0.006766628
-0.011959265 0.018324377 0.00535327 -0.0022950873 -0.00044874428 -0.0022054648 -0.017254641 0.012397665
0.010184563 -0.015702056 0.01173674 -0.0030630538 -0.008655626 -0.00662471 -0.029268349 -0.0064169983
0.025466258 -0.010388093 0.0022411644 0.0010949044 0.017596446 -0.005429207 -0.00072207674 -0.012762706
0.0075617777 0.002296784 0.0059692925 0.019405924 -0.0024297812 -0.017254226 -0.014921598 3.813524e-05
0.012808408 0.0095843505 -0.0021569189 0.0167596 -0.002299357 0.01781608 -0.00017057029 0.0010249581
-0.010696231 0.0124533465 -0.006414993 -0.009678071 0.0068103797 0.00930618 0.012536402 -0.0062429076
-0.0005800208 0.017578583 0.0077196746 0.0018742662 0.0085122725 -0.0051923636 -0.0058821025 -0.013459918
0.009168055 -0.011106999 0.0036212492 0.00032963065 -0.004124515 -0.005918208 0.025787523 -0.005300392
-0.004570025 -0.022971535 -0.0058781495 0.002421807 0.009001761 0.0023922867 -0.0041280775 -0.00494596
0.0034440295 -0.0048576114 0.013061504 -0.0075192056 -0.0028445078 -0.0034170363 0.0085640205 0.0024942034
0.018829849 0.0036355765 -0.010722145 0.010037689 0.005456617 0.00734547 0.0020318972 0.001810745
0.010725488 0.0017860861 0.007951663 0.007590297 -0.00041467385 -0.0021963487 -0.0097118225 0.0096470695
00000000: faa9 343c 6728 92ba 776b 01bb b36e 203c
00000010: 5e87 b63b e0bc bbbb a85e f03a c028 c53a
00000020: e73b 82bb fb1d fc3b 84c5 823c 0baf b23b
00000030: b7fb 523c 2f90 e33a a46e af3b 7a0e 5c3a
00000040: d7fe 5bbc d441 28bc db5c 933b 723c 64ba
00000050: 5c35 173b 5a85 6d3c 9ac0 9dbc 4106 09bb
00000060: 0f1d 683b 5b6e 1dbb 0bea e33b 941c 123a
00000070: 278b d6bc fe44 4a3b e187 bd3a f03b c33b
00000080: 5ee7 95bc 5ae0 533a ed5f 60bb e58b a73b
00000090: 1a85 a93b 5333 dabb 9aee 383c 2bd8 8a3b
000000a0: 99c7 1a3c 65a2 61b9 70d7 d43b 0788 203c
000000b0: 7397 7f3b 34cf 02bc 76c9 033c 37d1 283c
000000c0: 30ff 5a3a 4814 0bbc 9550 b3bc 3888 e73a
000000d0: ca5e 683b 5256 f53a 87f6 4abb 23e6 32bb
000000e0: 8246 69bb 3e90 44bb 6b03 c4ba 034e 893b
000000f0: bbc4 86ba 28dc 313c b081 f6bb 91e6 45ba
00000100: a9f2 a03a 53a6 48bb 9a6a a53a 224b 4cbc
00000110: 5d13 003b dd36 71bc e8a6 17bc 9ebc 9fbb
00000120: 9cf1 2f3c db6f 5e3b d7f1 2abc 7cd6 053c
00000130: 04bb b73a ea4f 053c c090 b7bb 1f90 453b
00000140: 92ad 07bb 2833 1e3b 9776 d8bb d0f4 8e3c
00000150: 3328 7ebc e766 95bc ff1f 39bb 1c80 c939
00000160: fc34 bebb bb09 043c 492a 313c 2747 b13b
00000170: cf3e d0ba 3c90 813b faa8 78bb 142a 1f3c
00000180: c5bd 6eba 5fcb 9abc d2c2 acbb fdfd 21bc
00000190: ba47 96bb 779b 013c 6316 a83a 1859 f83b
000001a0: 92af f9bb 0d74 f43a 4327 ae3b e666 cb3b
000001b0: de93 993b 139e 2abc 185d 583b f041 a9bc
000001c0: 7d63 3bb9 2f69 583b dfc0 b5bb 5684 173c
000001d0: 2059 fdbb 26c2 ae3b 7700 523c 3c9f 3dbc
000001e0: d2d2 823c c25a 693b 04e8 a43b 4b2d 2c3c
000001f0: 8658 c73b 07eb 423c 8350 93ba bc43 27bc
00000200: c3b3 a539 7bec 8f3c 6f3c 9ebc 47a6 0dbb
00000210: 8c25 2f3c b301 8339 8d69 7f3b dfd7 03bc
00000220: abeb 93bb c034 68bc 601e e13b b778 ec3b
00000230: cbb2 37bc a044 90bb 18b9 833b 9491 2dbc
00000240: 15c8 653c ca65 d1bb 1113 393c 2b0b 2eba
00000250: 179e a0bc f79c 973b 01a1 40bb 87eb b33b
00000260: 3fa2 10bc 2781 743c d001 f5bb a3d9 95bb
00000270: 43c5 aabb c340 85bc 7d4e d03b 97ba dd3b
00000280: cbf0 43bc 011d 963c 7c6a af3b 2d69 16bb
00000290: 7045 ebb9 8f89 10bb 9b59 8dbc 931f 4b3c
000002a0: 27dd 263c 99a1 80bc 754b 403c 84bd 48bb
000002b0: 54d0 0dbc 1814 d9bb 2dc4 efbc af45 d2bb
000002c0: 9d9e d03c d232 2abc 80e0 123b e582 8f3a
000002d0: 6c26 903c 7de7 b1bb c049 3dba ab1a 51bc
000002e0: cac8 f73b a485 163b 0e9a c33b 2cf9 9e3c
000002f0: f73c 1fbb bc58 8dbc b879 74bc 67f3 1f38
00000300: 5bda 513c ae07 1d3c 185b 0dbb 6e4b 893c
00000310: cfb0 16bb 07f3 913c 1ddb 32b9 e357 863a
00000320: 3f3f 2fbc 1f09 4c3c dd34 d2bb c690 1ebc
00000330: 9b29 df3b f378 183c 7b65 4d3c 4e91 ccbb
00000340: 890c 18ba f600 903c 53f5 fc3b f0a9 f53a
00000350: 0f77 0b3c b424 aabb a7be c0bb fd86 5cbc
00000360: 9c35 163c 21fa 35bc 7b52 6d3b 47d2 ac39
00000370: f126 87bb 87ed c1bb 5b40 d33c e9ae adbb
00000380: 26c0 95bb cd2e bcbc 7e9d c0bb 2eb7 1e3b
00000390: 1f7c 133c e9c7 1c3b d344 87bb b811 a2bb
000003a0: 3ab5 613b 992c 9fbb ebff 553c ab63 f6bb
000003b0: ec6a 3abb 5bf0 5fbb 1b50 0c3c ca75 233b
000003c0: 0e41 9a3c da42 6e3b f0ab 2fbc 1e75 243c
000003d0: 6ccd b23b 45b2 f03b 9429 053b 8556 ed3a
000003e0: f5b9 2f3c 1b1b ea3a b147 023c 07b8 f83b
000003f0: 9568 d9b9 9ef0 0fbb 561e 1fbc be0e 1e3c

action_model._discrete_distribution.branches.0.bias f4 [3]
0.0 0.0 0.0
00000000: 0000 0000 0000 0000 0000 0000

network_body._body_endoder.seq_layers.0.weight f4 [128, 8]
0.06511277 -0.49774128 0.15838428 -0.5414227 0.008661938 0.43570712 -0.70982534 -0.25763366
-0.19117591 -0.11798697 -0.30758843 0.12646921 0.43696395 0.12878145 -0.2247299 0.21052437
0.1601126 0.4728783 -0.35877046 0.17036086 0.49234232 -0.40615535 -0.3435063 -0.28617182
-0.03348063 0.078869805 0.079519495 -0.13075267 -0.17158265 0.47652742 0.013660921 0.059731044
0.060984287 0.20253657 0.080043726 -0.8270942 -0.19142413 0.14588675 -0.19153416 -0.38416642
0.028339751 0.16629846 0.6327753 -0.25613028 -0.6491806 0.3237225 -0.42268032 -0.029876586
0.1963294 0.24588731 0.23803182 -0.060199928 -0.21431395 -0.25572833 -0.22433469 0.4347121
-0.34600025 0.4817833 0.6747272 0.19886912 -0.09732475 0.24850014 -0.06651691 0.026329815
0.070134155 0.12955816 0.39710212 0.26700705 0.053173512 -0.33027714 -0.14428459 0.24078704
0.4950199 -0.2409564 0.28172806 -0.4824468 0.27140772 0.34540007 0.06267108 -0.104818
0.52828854 0.085165516 0.26126587 0.4992343 0.17494722 0.14976361 -0.17052613 0.0932163
0.20552495 -0.49269795 0.10743593 0.5088314 -0.09749147 -0.20195886 -0.06002233 -0.07916753
0.49748495 -0.22311193 -0.4719498 0.08655164 0.28692642 0.37092695 0.22193262 -0.061344456
-0.24013628 0.74724144 0.10093875 -0.48718065 0.119873 -0.3119302 -0.02582982 -0.12221934
0.9354908 0.37658668 -0.5177915 0.0387685 -0.12926742 -0.19897962 0.09296304 0.3495852
0.5175874 -0.016128393 -0.2692749 -0.30533955 0.08890865 0.7070031 0.44399303 0.40362266
-0.27277258 0.26732233 0.23379263 0.74549353 -0.26792872 0.013205868 -0.10344772 -0.69849545
0.4964713 -0.13886333 -0.010253526 0.038266465 0.3719668 0.76289165 0.098020904 -0.17308709
-0.18547061 0.062327296 -0.19072826 -0.067195214 -0.3583467 0.3563014 0.24045643 0.3807529
0.36944818 0.029900834 -0.34647053 -0.624972 0.25066406 -0.4008385 -0.20654558 0.6613155
0.30829602 -0.27628434 0.3551395 -0.24084215 -0.34465975 0.21427466 0.48230442 0.19904765
0.42321634 -0.010209122 -0.27129048 0.46983916 -0.0831944 0.25028124 -0.9422061 -0.35625094
0.13993967 0.26327872 0.016066324 -0.12344962 0.38781178 0.32185853 0.56572974 -0.2456743
0.057831775 -0.27906254 -0.45455694 0.040345088 0.18108393 -0.38437352 -0.040606398 0.5222078
0.057931833 -0.21841463 -0.4818647 -0.17975502 -0.38268772 0.38967466 -0.024250098 0.6357717
-0.0102801435 -1.1807858 0.4389563 -0.37583676 0.6063082 0.487437 0.7465528 0.22530584
0.17972417 0.30690306 -0.33292055 -0.22413597 -0.2473235 -0.032793514 0.12108425 -0.39119247
0.23756275 0.04515599 0.7743255 0.344534 0.0040000263 -0.025437662 -0.29150894 0.2791558
-0.6692599 0.37422198 -0.011544725 -0.0752023 0.4043168 -0.06513478 -0.36421794 -0.255866
0.08054143 0.10803605 -0.06675137 0.21775094 0.14544983 -0.21951014 0.078621894 -0.02443966
-0.11501269 0.25660092 -0.096496254 -0.074574694 0.26470444 0.0305568 -0.20234093 0.22029173
-0.09033075 -0.2492846 0.6736698 -0.29634053 0.2539264 0.30276436 -0.03684653 0.18589866
00000000: d859 853d f2d7 febe 7d2f 223e ae9a 0abf
00000010: cdea 0d3c 0115 df3e 1db7 35bf 8fe8 83be
00000020: 9ec3 43be 27a3 f1bd 3b7c 9dbe 2581 013e
00000030: bdb9 df3e 49df 033e 981f 66be b393 573e
00000040: 8ff4 233e 1b1d f23e c3b0 b7be 1473 2e3e
00000050: 4b14 fc3e 98f3 cfbe 0fe0 afbe 1d85 92be
00000060: fc22 09bd 7e86 a13d 1edb a23d 07e4 05be
00000070: 5db3 2fbe 67fb f33e 0ed2 5f3c 8aa8 743d
00000080: a9ca 793d bf65 4f3e f7ed a33d 72bc 53bf
00000090: b004 44be 5663 153e 8821 44be 76b1 c4be
000000a0: c428 e83c 254a 2a3e 90fd 213f 8223 83be
000000b0: b330 26bf f5be a53e 8e69 d8be bebf f4bc
000000c0: 930a 493e e2c9 7b3e 9dbe 733e 3394 76bd
000000d0: 1e75 5bbe d3ee 82be feb7 65be 9692 de3e
000000e0: f226 b1be 4dac f63e ecba 2c3f 59a4 4b3e
000000f0: 3352 c7bd d276 7e3e 053a 88bd a0b1 d73c
00000100: 7fa2 8f3d e5aa 043e f850 cb3e 26b5 883e
00000110: 78cc 593d 161a a9be 57bf 13be e190 763e
00000120: 4073 fd3e 46bd 76be a93e 903e 4403 f7be
00000130: f4f5 8a3e 47d8 b03e b259 803d d2aa d6bd
00000140: eb3d 073f 426b ae3d a4c4 853e a39b ff3e
00000150: 5d25 333e a25b 193e 679e 2ebe 30e8 be3d
00000160: 2275 523e e842 fcbe 5e07 dc3d c642 023f
00000170: 9ca9 c7bd 4ece 4ebe fad9 75bd 9622 a2bd
00000180: 59b6 fe3e 7477 64be 67a3 f1be fc41 b13d
00000190: 05e8 923e 23ea bd3e 4e42 633e 5344 7bbd
000001a0: 49e6 75be 374b 3f3f fab8 ce3d be6f f9be
000001b0: fa7f f53d 51b5 9fbe 0f99 d3bc 224e fabd
000001c0: 537c 6f3f f8cf c03e fc8d 04bf b8cb 1e3d
000001d0: ae5e 04be 50c1 4bbe 6863 be3d d5fc b23e
000001e0: 9c80 043f b11f 84bc 66de 89be 7755 9cbe
000001f0: bd15 b63d 28fe 343f 0e53 e33e a1a7 ce3e
00000200: d9a8 8bbe 79de 883e 5667 6f3e aad8 3e3f
00000210: f42d 89be 6d5d 583c 66dc d3bd 99d0 32bf
00000220: 7c31 fe3e 3032 0ebe 68fe 27bc 4cbd 1c3d
00000230: 6f72 be3e de4c 433f 2fbf c83d be3d 31be
00000240: 02ec 3dbe e84a 7f3d 454e 43be a59d 89bd
00000250: 3879 b7be 236d b63e 363a 763e 0bf2 c23e
00000260: 5028 bd3e 98f2 f43c 9664 b1be 2afe 1fbf
00000270: 0a57 803e b43a cdbe af80 53be f94b 293f
00000280: fad8 9d3e 2475 8dbe d8d4 b53e 539f 76be
00000290: 3e77 b0be d16a 5b3e 9bf0 f63e 26d3 4b3e
000002a0: d0af d83e 2944 27bc 96e6 8abe c28e f03e
000002b0: d361 aabd dd24 803e 6b34 71bf 8666 b6be
000002c0: 584c 0f3e 78cc 863e 869d 833c 28d3 fcbd
000002d0: 448f c63e a4ca a43e aad3 103f 0b92 7bbe
000002e0: 03e1 6c3d 49e1 8ebe b0bb e8be e440 253d
000002f0: 116e 393e 9bcc c4be e552 26bd 69af 053f
00000300: ee49 6d3d 16a8 5fbe f8b6 f6be b311 38be
00000310: a5ef c3be 7083 c73e 24a8 c6bc efc1 223f
00000320: 0c6e 28bc fd23 97bf e1be e03e ad6d c0be
00000330: 0437 1b3f 5891 f93e 161e 3f3f 93b6 663e
00000340: 9d09 383e 6622 9d3e 9074 aabe e683 65be
00000350: 5f42 7dbe 7e52 06bd 05fb f73d 614a c8be
00000360: a643 733e 7df5 383d 323a 463f c366 b03e
00000370: a712 833b a562 d0bc a940 95be 82ed 8e3e
00000380: 9e54 2bbf 069a bf3e 1626 3dbc aa03 9abd
00000390: 9d02 cf3e 6265 85bd c67a babe de00 83be
000003a0: e8f2 a43d 0142 dd3d f1b4 88bd 1afa 5e3e
000003b0: cdf0 143e 44c7 60be 8404 a13d af35 c8bc
000003c0: c68b ebbd 3261 833e d49f c5bd 9eba 98bd
000003d0: 5787 873e 4152 fa3c 7632 4fbe 2894 613e
000003e0: 54ff b8bd 7644 7fbe a075 2c3f f2b9 97be
000003f0: a402 823e ee03 9b3e 63ec 16bd 385c 3e3e

network_body._body_endoder.seq_layers.0.bias f4 [128]
0.0 0.0 0.0 0.0 0.0 0.0 0.0 0.0
0.0 0.0 0.0 0.0 0.0 0.0 0.0 0.0
0.0 0.0 0.0 0.0 0.0 0.0 0.0 0.0
0.0 0.0 0.0 0.0 0.0 0.0 0.0 0.0
0.0 0.0 0.0 0.0 0.0 0.0 0.0 0.0
0.0 0.0 0.0 0.0 0.0 0.0 0.0 0.0
0.0 0.0 0.0 0.0 0.0 0.0 0.0 0.0
0.0 0.0 0.0 0.0 0.0 0.0 0.0 0.0
0.0 0.0 0.0 0.0 0.0 0.0 0.0 0.0
0.0 0.0 0.0 0.0 0.0 0.0 0.0 0.0
0.0 0.0 0.0 0.0 0.0 0.0 0.0 0.0
0.0 0.0 0.0 0.0 0.0 0.0 0.0 0.0
0.0 0.0 0.0 0.0 0.0 0.0 0.0 0.0
0.0 0.0 0.0 0.0 0.0 0.0 0.0 0.0
0.0 0.0 0.0 0.0 0.0 0.0 0.0 0.0
0.0 0.0 0.0 0.0 0.0 0.0 0.0 0.0
00000000: 0000 0000 0000 0000 0000 0000 0000 0000
00000010: 0000 0000 0000 0000 0000 0000 0000 0000
00000020: 0000 0000 0000 0000 0000 0000 0000 0000
00000030: 0000 0000 0000 0000 0000 0000 0000 0000
00000040: 0000 0000 0000 0000 0000 0000 0000 0000
00000050: 0000 0000 0000 0000 0000 0000 0000 0000
00000060: 0000 0000 0000 0000 0000 0000 0000 0000
00000070: 0000 0000 0000 0000 0000 0000 0000 0000
00000080: 0000 0000 0000 0000 0000 0000 0000 0000
00000090: 0000 0000 0000 0000 0000 0000 0000 0000
000000a0: 0000 0000 0000 0000 0000 0000 0000 0000
000000b0: 0000 0000 0000 0000 0000 0000 0000 0000
000000c0: 0000 0000 0000 0000 0000 0000 0000 0000
000000d0: 0000 0000 0000 0000 0000 0000 0000 0000
000000e0: 0000 0000 0000 0000 0000 0000 0000 0000
000000f0: 0000 0000 0000 0000 0000 0000 0000 0000
00000100: 0000 0000 0000 0000 0000 0000 0000 0000
00000110: 0000 0000 0000 0000 0000 0000 0000 0000
00000120: 0000 0000 0000 0000 0000 0000 0000 0000
00000130: 0000 0000 0000 0000 0000 0000 0000 0000
00000140: 0000 0000 0000 0000 0000 0000 0000 0000
00000150: 0000 0000 0000 0000 0000 0000 0000 0000
00000160: 0000 0000 0000 0000 0000 0000 0000 0000
00000170: 0000 0000 0000 0000 0000 0000 0000 0000
00000180: 0000 0000 0000 0000 0000 0000 0000 0000
00000190: 0000 0000 0000 0000 0000 0000 0000 0000
000001a0: 0000 0000 0000 0000 0000 0000 0000 0000
000001b0: 0000 0000 0000 0000 0000 0000 0000 0000
000001c0: 0000 0000 0000 0000 0000 0000 0000 0000
000001d0: 0000 0000 0000 0000 0000 0000 0000 0000
000001e0: 0000 0000 0000 0000 0000 0000 0000 0000
000001f0: 0000 0000 0000 0000 0000 0000 0000 0000

network_body._body_endoder.seq_layers.2.weight f4 [128, 128]
-0.011186302 -0.15648651 -0.13905697 -0.11695332 0.025961362 0.0183028 -0.08553098 -0.03968657
0.0253733 0.028112058 -0.092320524 -0.076053515 -0.0018244368 0.048563976 0.0005915994 0.05406276
0.008070919 -0.017979428 0.034769837 -0.021243539 0.022657275 0.07166271 -0.026674803 -0.042502336
-0.013267317 -0.16148514 -0.045448422 0.05140482 -0.0021178925 0.0076888944 -0.038782403 -0.09299329
0.1272112 0.017657012 -0.14827064 -0.087788865 0.0051033087 0.019508602 0.075451754 -0.104627065
-0.15628687 0.12102206 0.080273286 -0.0985464 -0.007781317 5.9398667e-06 0.06410423 -0.08476917
-0.06735536 -0.120929316 0.03766578 -0.15203631 -0.07325423 -0.04977126 0.04451465 -0.09058351
0.18544912 0.086111404 0.06391463 -0.12187444 0.020406863 0.076764606 -0.033912525 -0.018028704
0.03380934 -0.08211383 0.10390408 -0.07531983 -0.0564455 -0.08060352 0.120599225 -0.1247158
0.14278352 -0.109710276 -0.0370039 0.043406397 0.1394684 0.06872434 -0.066660725 0.16774306
-0.06527178 -0.0048617763 -0.009913017 0.0021718785 0.008446048 -0.031237151 -0.033995192 0.06494634
0.18705888 -0.059487272 -0.074447006 -0.029307721 -0.01231801 0.056247137 0.008616327 0.022745244
0.16593465 0.012392353 0.19550177 0.034153268 0.044245508 -0.009779881 0.026431944 0.10605325
0.13833901 -0.010572193 0.019478604 -0.036914166 0.04923564 -0.059627775 0.09602211 0.06801263
-0.07954836 -0.027810102 0.08042137 0.032491714 0.008543756 0.016324539 0.07019419 -0.018834163
0.0040034843 -0.020564094 -0.039291184 0.11138055 -0.03031605 -0.002709955 0.028442118 0.10326739
0.039611716 0.13035274 0.096127994 -0.06429279 0.05442997 -0.021313526 -0.03271898 -0.04782643
0.018020958 -0.08941156 -0.02341456 -0.08318786 0.09307005 -0.053678278 -0.13731423 -0.032739863
0.051177636 -0.15026154 -0.060435783 -0.04263771 -0.0005002026 0.00034356525 0.08489641 0.061797496
-0.20497906 -0.062138148 0.1224389 0.010537583 -0.10325773 -0.02195086 0.038405325 -0.09073737
-0.03779316 -0.054918308 -0.13682054 0.120071225 0.04931541 -0.004375563 -0.06089667 -0.0494599
0.12152167 0.006084493 -0.025036873 0.031565342 0.069705404 0.05777449 0.14135012 -0.011903046
0.10922484 -0.05832402 -0.08351084 0.026862439 -0.045780096 0.12237059 -0.16347715 0.17034456
-0.17983626 0.0061702444 0.015048843 -0.13963343 -0.012626209 0.050223645 0.0095547 -0.045965657
-0.04776054 0.046626616 -0.107816294 -0.018228894 0.08981075 -0.066695236 -0.2061097 0.16569722
0.061427116 -0.0029522195 0.020258611 -0.09210637 0.030912206 0.09708528 -0.038958885 -0.05059654
-0.15068187 -0.12259848 -0.10735058 -0.060065076 -0.010682996 -0.052486833 -0.012750645 -0.06326415
-0.08764027 0.13313057 -0.0006160215 0.017049937 0.12512843 0.030782988 0.100219354 0.049938172
0.015952876 -0.00026674662 0.06547116 0.031747043 -0.005048018 0.07654572 0.17286268 -0.012218492
-0.14409985 0.13020553 0.033389393 0.0096542295 0.11378634 0.07871278 0.027093912 -0.019389678
0.06265905 0.031751506 0.0072755166 -0.021585936 0.08381234 -0.12485407 0.11948946 0.09210665
-0.11882305 0.04174976 -0.21626832 0.060166776 -0.09275491 -0.08291402 -0.021230433 -0.060397577
00000000: c046 37bc 003e 20be f364 0ebe 3985 efbd
00000010: ecac d43c c1ef 953c de2a afbd 638e 22bd
00000020: abdb cf3c 424b e63c 8b12 bdbd f2c1 9bbd
00000030: f121 efba 05eb 463d 9015 1b3a ea70 5d3d
00000040: e33b 043c 9849 93bc d16a 0e3d ee06 aebc
00000050: c09b b93c e6c3 923d 1e85 dabc ee16 2ebd
00000060: 295f 59bc 5c5c 25be 2028 3abd dc8d 523d
00000070: 57cc 0abb 1ff3 fb3b 4cda 1ebd 4473 bebd
00000080: a743 023e 70a5 903c 42d4 17be a6ca b3bd
00000090: a839 a73b 81d0 9f3c 7386 9a3d b746 d6bd
000000a0: aa09 20be 6ada f73d 5266 a43d b2d2 c9bd
000000b0: 6bfa febb 114f c736 1449 833d 759b adbd
000000c0: 9bf1 89bd caa9 f7bd 6f47 1a3d 68af 1bbe
000000d0: 5006 96bd f3dc 4bbd fe54 363d d983 b9bd
000000e0: 60e6 3d3e 2d5b b03d ace5 823d 4e99 f9bd
000000f0: 4b2c a73c c336 9d3d dce7 0abd efb0 93bc
00000100: aa7b 0a3d 4c2b a8bd aacb d43d 4841 9abd
00000110: 6633 67bd 7513 a5bd bafc f63d ff6a ffbd
00000120: d835 123e c8af e0bd 6791 17bd e8ca 313d
00000130: ced0 0e3e 59bf 8c3d 6b85 88bd d6c4 2b3e
00000140: 36ad 85bd 894f 9fbb 356a 22bc 1356 0e3b
00000150: 4b61 0a3c 0ee5 ffbc 8b3e 0bbd 9602 853d
00000160: 5d8c 3f3e eda8 73bd ac77 98bd bf16 f0bc
00000170: 7bd1 49bc 6663 663d 7f2b 0d3c 3c54 ba3c
00000180: c6ea 293e 4c09 4b3c 9e31 483e 4ce4 0b3d
00000190: c73a 353d cb3b 20bc ce87 d83c 7232 d93d
000001a0: bea8 0d3e fe36 2dbc 9891 9f3c 4f33 17bd
000001b0: 4fab 493d 413c 74bd 3da7 c43d 354a 8b3d
000001c0: 40ea a2bd 03d2 e3bc f6b3 a43d 0816 053d
000001d0: 1cfb 0b3c 0abb 853c f9c1 8f3d 1a4a 9abc
000001e0: a92f 833b 0876 a8bc cbef 20bd 7c1b e43d
000001f0: 5d59 f8bc 8099 31bb 72ff e83c da7d d33d
00000200: e53f 223d 307b 053e c1de c43d f0ab 83bd
00000210: f6f1 5e3d b499 aebc 5604 06bd a6e5 43bd
00000220: b0a0 933c 681d b7bd e4cf bfbc 665e aabd
00000230: 839b be3d c1dd 5bbd 1a9c 0cbe 3c1a 06bd
00000240: a49f 513d 29de 19be 838b 77bd e1a4 2ebd
00000250: 0720 03ba 8c20 b439 2bde ad3d 5f1f 7d3d
00000260: 08e6 51be 9284 7ebd 3fc1 fa3d d4a5 2c3c
00000270: ca78 d3bd 4ad2 b3bc e74e 1d3d 84d4 b9bd
00000280: 00cd 1abd 05f2 60bd af1a 0cbe e7e7 f53d
00000290: f5fe 493d e260 8fbb c96e 79bd 7796 4abd
000002a0: 5ae0 f83d 6d60 c73b 211a cdbc a94a 013d
000002b0: b5c1 8e3d f2a4 6c3d 16be 103e fe04 43bc
000002c0: 46b1 df3d 2be5 6ebd bb07 abbd 9e0e dc3c
000002d0: e983 3bbd 6f9d fa3d 8e66 27be ce6e 2e3e
000002e0: ff26 38be c32f ca3b 6c8f 763c 11fc 0ebe
000002f0: 29de 4ebc 4fb7 4d3d 518b 1c3c 7c46 3cbd
00000300: 8ea0 43bd 8dfb 3e3d cace dcbd c354 95bc
00000310: b3ee b73d 8397 88bd 6c0e 53be 88ac 293e
00000320: 009b 7b3d 067a 41bb 63f5 a53c 44a2 bcbd
00000330: 983b fd3c a6d4 c63d 5a93 1fbd 513e 4fbd
00000340: 594c 1abe e914 fbbd 9fda dbbd cc06 76bd
00000350: bc07 2fbc 6ffc 56bd 15e8 50bc a290 81bd
00000360: be7c b3bd 6153 083e 817c 21ba 4fac 8b3c
00000370: ab21 003e 9b2c fc3c ce3f cd3d f88b 4c3d
00000380: 9baf 823c 20da 8bb9 be15 863d 3009 023d
00000390: d869 a5bb 01c4 9c3d ea02 313e 1230 48bc
000003a0: e98e 13be 9954 053e 51c3 083d c62c 1e3c
000003b0: d008 e93d 2a34 a13d 0df4 dd3c 1ad7 9ebc
000003c0: 6353 803d de0d 023d 7567 ee3b fdd4 b0bc
000003d0: cea5 ab3d 7eb3 ffbd e4b6 f43d 69a2 bc3d
000003e0: 8059 f3bd cc01 2b3d 7175 5dbe 7071 763d
000003f0: 49f6 bdbd d3ce a9bd 72eb adbc 7363 77bd

network_body._body_endoder.seq_layers.2.bias f4 [128]
0.0 0.0 0.0 0.0 0.0 0.0 0.0 0.0
0.0 0.0 0.0 0.0 0.0 0.0 0.0 0.0
0.0 0.0 0.0 0.0 0.0 0.0 0.0 0.0
0.0 0.0 0.0 0.0 0.0 0.0 0.0 0.0
0.0 0.0 0.0 0.0 0.0 0.0 0.0 0.0
0.0 0.0 0.0 0.0 0.0 0.0 0.0 0.0
0.0 0.0 0.0 0.0 0.0 0.0 0.0 0.0
0.0 0.0 0.0 0.0 0.0 0.0 0.0 0.0
0.0 0.0 0.0 0.0 0.0 0.0 0.0 0.0
0.0 0.0 0.0 0.0 0.0 0.0 0.0 0.0
0.0 0.0 0.0 0.0 0.0 0.0 0.0 0.0
0.0 0.0 0.0 0.0 0.0 0.0 0.0 0.0
0.0 0.0 0.0 0.0 0.0 0.0 0.0 0.0
0.0 0.0 0.0 0.0 0.0 0.0 0.0 0.0
0.0 0.0 0.0 0.0 0.0 0.0 0.0 0.0
0.0 0.0 0.0 0.0 0.0 0.0 0.0 0.0
00000000: 0000 0000 0000 0000 0000 0000 0000 0000
00000010: 0000 0000 0000 0000 0000 0000 0000 0000
00000020: 0000 0000 0000 0000 0000 0000 0000 0000
00000030: 0000 0000 0000 0000 0000 0000 0000 0000
00000040: 0000 0000 0000 0000 0000 0000 0000 0000
00000050: 0000 0000 0000 0000 0000 0000 0000 0000
00000060: 0000 0000 0000 0000 0000 0000 0000 0000
00000070: 0000 0000 0000 0000 0000 0000 0000 0000
00000080: 0000 0000 0000 0000 0000 0000 0000 0000
00000090: 0000 0000 0000 0000 0000 0000 0000 0000
000000a0: 0000 0000 0000 0000 0000 0000 0000 0000
000000b0: 0000 0000 0000 0000 0000 0000 0000 0000
000000c0: 0000 0000 0000 0000 0000 0000 0000 0000
000000d0: 0000 0000 0000 0000 0000 0000 0000 0000
000000e0: 0000 0000 0000 0000 0000 0000 0000 0000
000000f0: 0000 0000 0000 0000 0000 0000 0000 0000
00000100: 0000 0000 0000 0000 0000 0000 0000 0000
00000110: 0000 0000 0000 0000 0000 0000 0000 0000
00000120: 0000 0000 0000 0000 0000 0000 0000 0000
00000130: 0000 0000 0000 0000 0000 0000 0000 0000
00000140: 0000 0000 0000 0000 0000 0000 0000 0000
00000150: 0000 0000 0000 0000 0000 0000 0000 0000
00000160: 0000 0000 0000 0000 0000 0000 0000 0000
00000170: 0000 0000 0000 0000 0000 0000 0000 0000
00000180: 0000 0000 0000 0000 0000 0000 0000 0000
00000190: 0000 0000 0000 0000 0000 0000 0000 0000
000001a0: 0000 0000 0000 0000 0000 0000 0000 0000
000001b0: 0000 0000 0000 0000 0000 0000 0000 0000
000001c0: 0000 0000 0000 0000 0000 0000 0000 0000
000001d0: 0000 0000 0000 0000 0000 0000 0000 0000
000001e0: 0000 0000 0000 0000 0000 0000 0000 0000
000001f0: 0000 0000 0000 0000 0000 0000 0000 0000

value_heads.value_heads.extrinsic.weight f4 [1, 128]
0.2154223 -0.047574535 0.14408726 0.1948652 -0.08299573 0.14886612 0.17581186 -0.024477318
-0.10473776 0.037628144 -0.21324082 0.16623122 -0.058868676 -0.19170481 0.19676971 0.18041542
-0.029709682 0.007564917 -0.11382177 -0.046781376 -0.17888135 -0.07422088 0.039503217 -0.21322908
-0.17874998 -0.10444071 -0.023923874 -0.088710815 0.13448906 -0.15687999 -0.08638193 -0.06654391
0.14134997 -0.19676517 0.009198546 0.16991967 -0.20009227 -0.20985526 0.09386805 -0.101158164
0.09341842 0.097855896 0.19534156 -0.07507667 -0.15477967 0.02135086 0.018145233 -0.16346306
0.1892586 -0.07759376 -0.038777396 0.1708366 0.1689929 -0.09412728 0.059022933 -0.18705875
-0.18620586 0.078055084 -0.14496985 0.20422879 -0.012798831 0.1943807 0.14024743 -0.014867291
0.04503694 0.052414924 -0.20430352 -0.016234443 -0.18978134 0.04458368 0.1358406 0.09798527
0.19492292 0.090210885 0.19655746 -0.082286775 0.14201769 -0.011258781 0.05660197 0.010733858
-0.07973021 -0.08641027 0.083658904 0.06115225 -0.16023694 0.113748044 0.011965767 0.1881384
-0.08730166 0.15381974 -0.17007372 0.16957492 -0.20113954 0.025610015 0.07657492 0.08646354
0.05127871 -0.0014937967 0.13057885 0.11131111 -0.040454388 -0.07562898 -0.20738013 0.18548334
-0.020982295 -0.0064147115 -0.038693085 0.21315056 0.20568416 -0.15527746 -0.12729487 -0.15955809
-0.024338752 -0.012533784 -0.19965725 -0.03639005 0.06816867 -0.028601632 0.1926193 -0.0025471747
-0.008112937 0.18141851 0.029670402 -0.11527565 0.011358827 0.09110752 -0.12057862 -0.1420809
00000000: aa97 5c3e 84dd 42bd 9c8b 133e be8a 473e
00000010: aaf9 a9bd 5c70 183e 0608 343e a884 c8bc
00000020: c080 d6bd f81f 1a3d cd5b 5abe 8438 2a3e
00000030: 4820 71bd 444e 44be 007e 493e d2be 383e
00000040: b861 f3bc 20e3 f73b 631b e9bd d49d 3fbd
00000050: ac2c 37be 1e01 98bd 20ce 213d b958 5abe
00000060: 3c0a 37be 03e5 d5bd 00fc c3bc 04ae b5bd
00000070: 80b7 093e 26a5 20be 02e9 b0bd 2c48 88bd
00000080: 0cbe 103e cf7c 49be 80b5 163c 6cff 2d3e
00000090: fde4 4cbe 4ce4 56be e43d c03d 032c cfbd
000000a0: 2852 bf3d ac68 c83d 9e07 483e ccc1 99bd
000000b0: 907e 1ebe 00e8 ae3c 50a5 943c dc62 27be
000000c0: 02cd 413e 7ae9 9ebd 0cd5 1ebd caef 2e3e
000000d0: 7a0c 2d3e cec5 c0bd 08c2 713d 548c 3fbe
000000e0: c0ac 3ebe 58db 9f3d fa72 14be 5a21 513e
000000f0: 30b2 51bc bc0b 473e 069d 0f3e f095 73bc
00000100: a878 383d 08b1 563d f134 51be 18fe 84bc
00000110: 0a56 42be 609d 363d cc19 0b3e 80ac c83d
00000120: e099 473e 7cc0 b83d 5c46 493e f885 a8bd
00000130: 166d 113e c076 38bc 78d7 673d 10dd 2f3c
00000140: 9849 a3bd def7 b0bd 5c55 ab3d c87a 7a3d
00000150: 2715 24be bcf4 e83d 100c 443c 5aa7 403e
00000160: 36cb b2bd ec82 1d3e ce27 2ebe 0ca5 2d3e
00000170: 86f7 4dbe 18cc d13c 50d3 9c3d cc13 b13d
00000180: a009 523d 80cb c3ba 76b6 053e 14f7 e33d
00000190: 80b3 25bd 5ee3 9abd 755b 54be 58ef 3d3e
000001a0: 10e3 abbc 8032 d2bb a47c 1ebd 2444 5a3e
000001b0: de9e 523e 0e01 1fbe 9659 02be 3263 23be
000001c0: 1062 c7bc 805a 4dbc f372 4cbe bc0d 15bd
000001d0: 049c 8b3d f84d eabc fe3d 453e 80ee 26bb
000001e0: 20ec 04bc c6c5 393e 580f f33c a415 ecbd
000001f0: 601a 3a3c 9496 ba3d ecf1 f6bd a87d 11be
