results/Session1/Pong.onnx (onnx, 74911 bytes, 8 tensors)

network_body.observation_encoder.processors.0.normalizer.running_mean f4 [8]
0.2932172 0.14898627 0.6404747 0.08916438 0.17201172 0.05876297 0.17165188 0.49998432
00000000: 9120 963e db8f 183e 26f6 233f d19b b63d
00000010: d723 303e 71b1 703d 83c5 2f3e f2fd ff3e

network_body._body_endoder.seq_layers.0.weight f4 [128, 8]
0.053560037 0.22309239 0.15966742 -0.13478589 0.4732232 -0.0673244 0.030611424 -0.24402145
-0.6156821 -0.43248564 0.29417136 0.08439612 0.23438177 -0.45217416 0.2622698 0.7667237
0.09169852 -0.327358 -0.5059308 -0.3976412 0.5858099 0.6415409 -0.27934608 0.2029821
-0.3709078 -0.06447947 -0.29418927 -0.4802775 -0.36739767 0.14427005 -0.18806678 -0.11929939
0.3430397 0.32911023 -0.12943318 -0.04874518 -0.05906103 -0.51899517 0.290751 0.3176583
0.061984107 0.48826748 -0.36764163 -0.2013835 0.2652381 0.22244297 0.21022305 -0.48401624
-0.14285554 -0.33876747 -0.16065426 0.60453296 -0.219308 0.15816058 -0.053070076 0.44750252
0.4126485 -0.056788556 0.38084948 0.13180287 -0.0748784 -0.059301097 -0.35892436 -0.061164927
0.07279538 0.20819022 -0.43482623 -0.51848185 0.59891313 0.48900694 -0.30312708 0.14199415
-0.030331602 0.14437993 -0.08175122 -0.15856138 -0.4359679 0.22554421 -0.06545243 -0.15583292
0.060800046 -0.28895923 0.4089141 -0.28180993 -0.44049793 0.10905833 -0.64597416 -0.66157365
0.27280894 -0.35851127 0.38130352 0.02046704 0.39502203 -0.60306066 0.15370637 -0.3174409
0.29094756 0.076444 -0.35319054 -0.18448702 -0.14788593 -0.5329066 -0.7612363 -0.117470205
0.32125285 -0.78013146 0.38448584 -0.111281134 -0.7467984 0.2788345 0.2090196 -0.13505806
0.12531602 1.0971435 -0.39022088 0.1112827 0.4131257 0.092120975 0.00023317602 -0.17955676
0.46136898 0.258038 0.024389574 -0.5638567 0.6096807 -0.53182787 -0.09550791 0.08421533
-0.06808813 -0.26459408 -0.050689347 -0.31840515 0.36639428 -0.19427398 -0.21290839 -0.6778978
-0.16918373 0.10353499 0.030092567 -0.65627724 0.20154786 0.05890833 -0.33646956 0.24427967
0.36911526 -0.30225113 -0.21083237 0.44172108 0.023797596 0.10208394 0.017961238 0.1986001
-0.113368675 0.3522511 0.13744077 0.026272375 -0.37795225 0.78343904 0.15010603 -0.082081065
0.06801736 0.070033155 -0.33084294 0.36901566 0.5167997 0.0704551 -0.3605471 -0.015672075
0.38132322 0.05070793 0.19977804 0.022019224 -0.092651375 -0.20901151 -0.28033307 -0.41173998
0.2259616 0.55606353 0.037659638 -0.2828442 0.3896776 0.40666443 0.40331534 0.009779068
0.1047266 -0.0008691492 -0.3488381 -0.3211935 -0.17871957 -0.48429877 -0.32784304 -0.14286885
0.19379367 -0.43893063 -0.21827805 0.026039671 -0.0013485498 -0.38913807 0.24441448 0.26854414
0.8714525 0.3091606 -0.19531807 -0.18425886 0.38322198 -0.14091069 1.0346688 0.24654317
0.019890124 0.045602135 -0.37098426 -0.1243454 0.11149436 -0.78595746 -0.21580386 0.06735792
-0.49810717 -0.10326549 -0.31038162 0.38469195 -0.5035038 0.36192283 0.2941093 -0.13228571
-0.009383831 0.27940232 -0.9036494 -0.09134841 0.031140793 0.43364125 0.39736181 -0.35969162
-0.5605216 0.113250785 -0.21037227 0.18692881 -0.4377514 -0.06700793 -0.5222015 0.6769208
-0.2958714 0.4409749 0.2828075 -0.6304068 0.44574583 0.121113844 0.50806755 -0.1419377
0.048589908 -0.17574419 -0.038786996 0.08514046 -0.3697502 -0.13550465 0.11335108 0.10888225
00000000: c561 5b3d 5572 643e db7f 233e 5005 0abe
00000010: 504a f23e 60e1 89bd cfc4 fa3c c2e0 79be
00000020: 589d 1dbf c26e ddbe a19d 963e dfd7 ac3d
00000030: c601 703e 5f83 e7be 3a48 863e 0148 443f
00000040: 6fcc bb3d 789b a7be ae84 01bf a197 cbbe
00000050: a3f7 153f 063c 243f 7306 8fbe 8ada 4f3e
00000060: a1e7 bdbe d00d 84bd fa9f 96be efe6 f5be
00000070: 8c1b bcbe 87bb 133e 9494 40be 3d53 f4bd
00000080: e6a2 af3e 2381 a83e 228a 04be 07a9 47bd
00000090: fbe9 71bd dedc 04bf 51dd 943e 1ca4 a23e
000000a0: 0ce3 7d3d 32fe f93e 863b bcbe 7a37 4ebe
000000b0: 4acd 873e 17c8 633e b644 573e fad0 f7be
000000c0: b948 12be ee72 adbe 8d82 24be acc2 1a3f
000000d0: 4792 60be d9f4 213e 0260 59bd 0d1f e53e
000000e0: aa46 d33e 1e9b 68bd b4fe c23e 55f7 063e
000000f0: d959 99bd b5e5 72bd efc4 b7be 1388 7abd
00000100: bf15 953d d12f 553e 8ba1 debe 3abb 04bf
00000110: 5f52 193f 1e5f fa3e 7933 9bbe ea66 113e
00000120: fb79 f8bc 55d8 133e 2f6d a7bd ea5d 22be
00000130: 2f37 dfbe 10f5 663e ec0b 86bd aa92 1fbe
00000140: 7809 793d 77f2 93be 305d d13e 6449 90be
00000150: f288 e1be f959 df3d 905e 25bf e45c 29bf
00000160: 9dad 8b3e ca8e b7be 373a c33e 7eaa a73c
00000170: 5440 ca3e 2f62 1abf 3465 1d3e 9d87 a2be
00000180: 14f7 943e ac8e 9c3d 64d5 b4be 2aea 3cbe
00000190: 696f 17be 916c 08bf 62e0 42bf 3894 f0bd
000001a0: 417b a43e b2b6 47bf 54db c43e 5de7 e3bd
000001b0: 2e2e 3fbf 65c3 8e3e 3c09 563e a94c 0abe
000001c0: d852 003e 336f 8c3f 08cb c7be 2fe8 e33d
000001d0: 3685 d33e eca9 bc3d b680 7439 badd 37be
000001e0: 8e38 ec3e 8f1d 843e a5cc c73c ea58 10bf
000001f0: 0914 1c3f df25 08bf a799 c3bd 1679 ac3d
00000200: ca71 8bbd e078 87be a29f 4fbd 0006 a3be
00000210: 0898 bb3e c2ef 46be a804 5abe b68a 2dbf
00000220: 803e 2dbe 270a d43d b084 f63c c901 28bf
00000230: 9062 4e3e dc49 713d bd45 acbe 7324 7a3e
00000240: adfc bc3e a9c0 9abe 71e4 57be 4429 e23e
00000250: 2df3 c23c 6211 d13d 7223 933c d35d 4b3e
00000260: d62d e8bd 425a b43e 46bd 0c3e 2a39 d73c
00000270: f582 c1be 768f 483f 65b5 193e 1e1a a8bd
00000280: b04c 8b3d 8b6d 8f3d 3f64 a9be 9fef bc3e
00000290: fc4c 043f c34a 903d a199 b8be b962 80bc
000002a0: cc3c c33e 1eb3 4f3d 9d92 4c3e a961 b43c
000002b0: 01c0 bdbd 1d07 56be d187 8fbe 95cf d2be
000002c0: 7a62 673e 2e5a 0e3f fe40 1a3d f4d0 90be
000002d0: d383 c73e 5236 d03e 597f ce3e 6238 203c
000002e0: e67a d63d 9ed7 63ba e89a b2be 7973 a4be
000002f0: 4302 37be 02f6 f7be 0bdb a7be 364c 12be
00000300: d971 463e 84bb e0be 4884 5fbe 2651 d53c
00000310: d3c1 b0ba 1b3d c7be ca47 7a3e 9e7e 893e
00000320: 8317 5f3f 4c4a 9e3e 7601 48be 5bae 3cbe
00000330: ac35 c43e e44a 10be 0770 843f d075 7c3e
00000340: 9df0 a23c 4ec9 3a3d a6f1 bdbe cda8 febd
00000350: 2857 e43d 8234 49bf b0fb 5cbe f3f2 893d
00000360: e707 ffbe db7c d3bd 57ea 9ebe 58f6 c43e
00000370: a0e5 00bf f34d b93e 7f95 963e e875 07be
00000380: a4be 19bc d20d 8f3e 9155 67bf e014 bbbd
00000390: fa1a ff3c 3a06 de3e 0273 cb3e 8029 b8be
000003a0: 587e 0fbf 07f0 e73d d46b 57be 446a 3f3e
000003b0: f420 e0be 743b 89bd ffae 05bf ae4a 2d3f
000003c0: 757c 97be 76c7 e13e 25cc 903e 5762 21bf
000003d0: cc38 e43e 890a f83d b710 023f 1e58 11be
000003e0: 3606 473d 49f6 33be 1ddf 1ebd 1f5e ae3d
000003f0: e64f bdbe bbc1 0abe 9c24 e83d a8fd de3d

network_body._body_endoder.seq_layers.0.bias f4 [128]
0.00014854265 0.005964083 -0.0021565768 0.004972423 0.0043896516 -0.006829834 -0.004242322 -0.0006846976
-0.0016129685 -0.0044298605 0.0018034149 -0.0031996977 0.0006504832 0.002114605 -0.002662644 0.0073178783
-0.0067698606 -8.656077e-05 0.0019479061 0.00036587918 -0.00029554783 -0.0065118684 0.007873431 0.0049816263
-0.0024691885 0.01113195 -0.008766603 -0.0016908718 -0.0032059916 -0.0030649686 0.0053647226 -0.0021073567
-0.0059809797 0.00046571548 0.009180718 0.013552528 -0.00013737318 0.004509736 0.0047708247 -0.004334034
-0.005151859 -0.0010573649 -0.0009487726 0.002050289 0.0027540806 0.007033758 -0.0050406707 0.0055985306
0.0070321565 -0.0012830824 0.0017022367 -0.0034467997 0.014633799 0.00346701 0.0059484616 0.0018298387
0.008991145 0.004827202 -0.0038397813 -0.0032551393 0.006130674 -0.00035647597 0.006587318 -0.002736487
0.011561854 0.0013754102 0.007821401 -0.00094601704 0.00848661 0.004533378 0.0023903167 -0.003966244
0.0069029336 0.008856176 -0.0039325845 0.002002392 0.008990881 0.0046849833 0.0015581752 0.004997287
-0.0019933435 0.004167998 0.0076380135 0.004754165 -2.8650611e-05 0.003203308 0.0057561016 0.0046951803
0.007977782 -0.013891164 -0.0019247585 0.0077811955 0.005753551 0.0036889794 -0.0066235554 0.00016911105
0.0070777633 -0.0061452356 -0.0024992449 0.0043768883 -0.0012688396 0.002838342 -0.0015826256 0.012809335
0.0037980073 -0.00065006455 0.0069195502 0.004234736 0.0052898587 0.00799389 0.002648452 0.0068943384
-0.006147616 0.010426432 0.0039614476 -0.0031762319 0.00059595227 0.0067439014 -0.00072572916 0.0063057365
-0.003580622 -0.0040914197 0.011358796 -0.003937037 0.0087225 0.004212946 -0.0024832732 -0.0013194813
00000000: 1dc2 1b39 5b6e c33b 5b55 0dbb b5ef a23b
00000010: 11d7 8f3b cdcc dfbb 2d03 8bbb 477d 33ba
00000020: 3e6a d3ba 5d28 91bb 9060 ec3a 05b2 51bb
00000030: 3085 2a3a 2f95 0a3b c17f 2ebb d0ca ef3b
00000040: b5d5 ddbb f687 b5b8 e250 ff3a 79d3 bf39
00000050: c2f3 9ab9 8361 d5bb 90ff 003c e93c a33b
00000060: 1cd2 21bb c862 363c cca1 0fbc 3ea0 ddba
00000070: 9d1b 52bb a4dd 48bb 8eca af3b 941b 0abb
00000080: 18fc c3bb 462b f439 b96a 163c 6c0b 5e3c
00000090: d50b 10b9 68c6 933b 9454 9c3b 8304 8ebb
000000a0: edd0 a8bb 4797 8aba 0db7 78ba 245e 063b
000000b0: ce7d 343b 707b e63b 362c a5bb e173 b73b
000000c0: 016e e63b 1a2d a8ba 961d df3a b4e3 61bb
000000d0: 9ac2 6f3c c736 633b 50eb c23b 33d7 ef3a
000000e0: 984f 133c 812d 9e3b d7a4 7bbb 2d54 55bb
000000f0: d2e3 c83b 65e5 bab9 6eda d73b a256 33bb
00000100: ee6d 3d3c 1c47 b43a 5525 003c 21fe 77ba
00000110: 6c0b 0b3c bb8c 943b dca6 1c3b 44f7 81bb
00000120: 0132 e23b 7f19 113c e9dc 80bb 903a 033b
00000130: 7d4e 133c 7d84 993b af3b cc3a 48c0 a33b
00000140: c1a2 02bb b493 883b 4d48 fa3b d4c8 9b3b
00000150: b856 f0b7 97ee 513b ae9d bc3b 07da 993b
00000160: 3eb5 023c c497 63bc 2e48 fcba 66f9 fe3b
00000170: 4988 bc3b cec2 713b 690a d9bb 6753 3139
00000180: 95ec e73b f95d c9bb 5fca 23bb 006c 8f3b
00000190: 314f a6ba 7a03 3a3b 1a70 cfba 3fde 513c
000001a0: fde7 783b 1869 2aba 65bd e23b 8ac3 8a3b
000001b0: 8d56 ad3b cef8 023c a791 2d3b e7e9 e13b
000001c0: f171 c9bb a0d3 2a3c 08cf 813b 5428 50bb
000001d0: ae39 1c3a f2fb dc3b dc3e 3eba 5aa0 ce3b
000001e0: dea8 6abb 5111 86bb 3e1a 3a3c 4302 81bb
000001f0: d1e8 0e3c c10c 8a3b 69be 22bb 72f2 acba

network_body._body_endoder.seq_layers.2.weight f4 [128, 128]
0.009412027 0.056716222 0.006304817 -0.066148676 0.07071157 0.06764914 -0.01843887 -0.11824198
0.00811224 0.0016508953 -0.053045582 -0.046721626 -0.08763329 0.035170667 0.09975236 -0.043791737
0.108148895 0.08761048 0.092153594 -0.13321088 0.10470401 -0.012007709 -0.09138803 0.010405509
-0.04028147 -0.006202658 -0.048620746 -0.09418333 -0.10755747 -0.05415598 0.07086385 -0.0154938325
-0.055677574 -0.0018321855 -0.0009955481 -0.06382081 -0.0099565 0.062390648 0.012182373 0.014632198
-0.06405423 0.0718882 0.06924111 -0.06334602 0.0905167 0.13491987 -0.12575357 -0.059586458
0.10476008 -0.097327895 -0.014128551 0.08811106 -0.02685413 0.09219555 0.069953725 0.18378712
0.2272923 -0.022375245 0.056728166 -0.019789632 0.04732118 -0.07110264 0.21187916 -0.09246477
0.016229564 0.11577928 0.027712323 0.05339934 0.22345279 0.17138943 0.08621861 -0.106098264
-0.07767702 0.034127504 0.033661712 -0.0014339233 -0.10189207 -0.15846297 -0.042698774 -0.017631354
-0.036748115 0.080722824 0.04251436 0.09039606 0.045548342 -0.027174648 0.04131598 -0.16202855
-0.09320307 0.064413644 -0.0008351177 -0.049256876 0.086183764 0.048982777 0.0499736 -0.059477158
-0.0016881144 -0.1261237 -0.16990261 0.042684946 0.009959256 -0.06904498 0.10809047 0.124880835
-0.23017626 -0.06231664 -0.11828985 -0.119978644 -0.081476346 0.051438928 -0.031512737 0.01863078
0.05490868 0.04411745 0.17963499 0.202516 0.09310106 -0.14256728 0.056609068 -0.089920886
0.0054734685 0.1380586 0.022282451 -0.01917083 0.09743984 -0.025882715 -0.074939795 0.21347843
-0.058854852 -0.079772376 0.024197632 0.04328254 -0.0778711 -0.19855689 0.17494969 0.21325321
0.06278197 -0.15627779 -0.046997618 -0.009405423 0.007863207 -0.16954885 0.07678011 0.12878665
0.039606914 0.05245583 0.034694914 0.022977702 0.14874172 -0.059988543 -0.10599916 0.14150004
0.12621598 -0.00071348675 -0.018850073 0.074574105 -0.06547938 0.16949779 0.1333154 0.022108426
-0.08668585 -0.03553007 -0.041962553 -0.089517795 -0.061387196 -0.1645645 -0.13634776 0.019187486
-0.26484832 0.0650873 -0.0426064 0.0016533535 0.04598167 -0.027740248 0.0065262513 0.07288211
0.04485423 -0.12490923 -0.058845695 -0.0015310757 0.062178724 0.21291687 -0.05437625 -0.05560156
0.013900533 -0.17706814 0.0013233878 -0.005297952 -0.032087687 0.0052765463 -0.04551531 -0.18250753
-0.21560633 0.056548376 -0.10806238 0.016371507 -0.02377369 0.07792696 0.009523373 0.08653624
0.030523464 0.027347287 -0.13787538 -0.034176316 0.06371746 0.05368719 -0.022616936 0.04675892
0.0013260631 0.037255205 0.0070941616 -0.06469801 -0.10676761 -0.13302647 0.04559453 0.121674106
-0.14021908 0.016854756 -0.1529113 -0.032845188 -0.013537717 -0.024750194 -0.026001211 0.1349958
0.01201013 0.024352962 0.032188267 0.18228836 0.016227538 0.026796265 0.009071883 -0.123970084
-0.029812071 -0.008080583 -0.008556785 0.04439792 -0.042580243 -0.02494505 -0.007980762 -0.14806698
-0.0061813192 0.06635539 -0.08918038 -0.102936074 0.007981438 0.013548719 0.12003542 0.12078412
-0.120602526 -0.07806545 0.14220981 0.0023758374 -0.080357715 0.026338408 0.022605726 -0.016161414
00000000: e734 1a3c 454f 683d a398 ce3b f578 87bd
00000010: 3ad1 903d a28b 8a3d 1d0d 97bc da28 f2bd
00000020: 33e9 043c db62 d83a 5346 59bd 2d5f 3fbd
00000030: 1579 b3bd 1e0f 103d f74a cc3d f75e 33bd
00000040: 2b7d dd3d 206d b33d 06bb bc3d 6f68 08be
00000050: 0e6f d63d fbbb 44bc a629 bbbd de7b 2a3c
00000060: 2ffe 24bd ab3f cbbb 8c26 47bd 31e3 c0bd
00000070: 1747 dcbd a9d2 5dbd 1121 913d d8d9 7dbc
00000080: 2b0e 64bd f225 f0ba 0d7d 82ba 7cb4 82bd
00000090: 9620 23bc 568d 7f3d 9398 473c e3bb 6f3c
000000a0: dd2e 83bd 1f3a 933d 48ce 8d3d 8fbb 81bd
000000b0: d260 b93d 6f28 0a3e 8bc5 00be ee10 74bd
000000c0: 748c d63d d953 c7bd 707b 67bc 9273 b43d
000000d0: 31fd dbbc 05d1 bc3d e643 8f3d b132 3c3e
000000e0: 50bf 683e 4a4c b7bc cb5b 683d de1d a2bc
000000f0: dbd3 413d 439e 91bd daf6 583e 2b5e bdbd
00000100: ddf3 843c b01d ed3d f404 e33c 44b9 5a3d
00000110: cfd0 643e b680 2f3e 6293 b03d 0c4a d9bd
00000120: 2115 9fbd 48c9 0b3d dde0 093d 7bf2 bbba
00000130: caac d0bd 1e44 22be e9e4 2ebd a16f 90bc
00000140: 3185 16bd 0252 a53d 8a23 2e3d 9221 b93d
00000150: e690 3a3d 5e9d debc f23a 293d d0ea 25be
00000160: 40e1 bebd 4deb 833d cdeb 5aba 94c1 49bd
00000170: 1d81 b03d 2aa2 483d 1eb1 4c3d 529e 73bd
00000180: b843 ddba 9226 01be f3fa 2dbe 69d6 2e3d
00000190: 262c 233c 7467 8dbd 895e dd3d 86c1 ff3d
000001a0: 53b3 6bbe bc3f 7fbd f341 f2bd 5db7 f5bd
000001b0: 12dd a6bd a0b1 523d 8013 01bd 949f 983c
000001c0: ede7 603d 80b4 343d 3cf2 373e 5b60 4f3e
000001d0: c5ab be3d 28fd 11be e9de 673d 7128 b8bd
000001e0: c85a b33b 3c5f 0d3e b089 b63c 250c 9dbc
000001f0: 8a8e c73d fd07 d4bc 097a 99bd 179a 5a3e
00000200: c911 71bd b35f a3bd 1d3a c63c 0849 313d
00000210: e27a 9fbd 7f52 4bbe 0326 333e 0d5f 5a3e
00000220: d593 803d 4907 20be 9380 40bd 3419 1abc
00000230: aed4 003c 379e 2dbe e43e 9d3d a6e0 033e
00000240: dc3a 223d eddb 563d 411c 0e3d bc3b bc3c
00000250: c04f 183e 8cb6 75bd 1616 d9bd 63e5 103e
00000260: c33e 013e 4909 3bba 786b 9abc 4fba 983d
00000270: 0e1a 86bd d490 2d3e d583 083e bb1c b53c
00000280: 5a88 b1bd fb87 11bd ede0 2bbd 1b55 b7bd
00000290: 2471 7bbd 9983 28be bf9e 0bbe 132f 9d3c
000002a0: 339a 87be 7e4c 853d 0c84 2ebd 56b5 d83a
000002b0: 4757 3c3d 843f e3bc 2ada d53b 3743 953d
000002c0: 12b9 373d 69d0 ffbd 2f08 71bd 60ae c8ba
000002d0: 1eaf 7e3d e106 5a3e a1b9 5ebd 76be 63bd
000002e0: 10bf 633c 5a51 35be 8775 ad3a 719a adbb
000002f0: 616e 03bd e1e6 ac3b 436e 3abd 41e3 3abe
00000300: e8c7 5cbe 459f 673d cf4f ddbd 8a1d 863c
00000310: 0bc1 c2bc 2c98 9f3d ec07 1c3c ea39 b13d
00000320: 580c fa3c 6b07 e03c 342f 0dbe 77fc 0bbd
00000330: 4d7e 823d 19e7 5b3d 2747 b9bc 4886 3f3d
00000340: 4bcf ad3a ea98 183d 2476 e83b 6480 84bd
00000350: faa8 dabd 1738 08be 54c1 3a3d 4630 f93d
00000360: 9795 0fbe fc12 8a3c c894 1cbe ad88 06bd
00000370: 4dcd 5dbc ebc0 cabc 7e00 d5bc 573c 0a3e
00000380: 23c6 443c dd7f c73c d8d7 033d cda9 3a3e
00000390: 9def 843c d783 db3c 3ca2 143c 07e4 fdbd
000003a0: 7238 f4bc 6c64 04bc c231 0cbc 98da 353d
000003b0: 9f68 2ebd 9059 ccbc bec1 02bc df9e 17be
000003c0: aa8c cabb 56e5 873d 34a4 b6bd 26d0 d2bd
000003d0: 94c4 023c 72fb 5d3c 21d5 f53d aa5d f73d
000003e0: 75fe f6bd c7e0 9fbd 739f 113e f0b3 1b3b
000003f0: 9692 a4bd a5c3 d73c a52f b93c f164 84bc

network_body._body_endoder.seq_layers.2.bias f4 [128]
0.0059669185 0.00047295506 0.0003494524 -0.0024817467 -0.0021316977 0.0006906569 -0.0037913043 0.00192725
0.003948128 -0.0028511537 -0.0024326625 0.0020470335 0.0026137123 0.002549078 0.0047861133 0.006681617
0.0110412715 0.0072305403 0.00015609126 0.007146327 0.0009252093 0.004757139 0.001985615 -0.003383573
-0.0027282378 -0.0044832407 0.0048415037 0.0059106154 -0.0028574856 -0.0037725565 -0.00044246227 0.0044394904
0.0086887255 -0.0012874992 0.00065894413 -0.0024360954 -0.00016685044 -0.0021389495 0.0050461767 0.0071223136
-0.0023751971 0.007931645 -0.00095165515 -0.0035540296 0.0026988368 0.0037897206 0.002218563 -0.0014257947
0.0047272346 0.0075216545 0.0045254715 -0.0012415642 0.005184999 0.009812969 -0.000469779 0.0014714458
0.007392463 -0.0033874854 -0.0037133114 0.002122776 0.006946026 0.0021004865 0.0038156942 0.003727093
-0.002211305 0.0050190813 0.005919559 -0.0044936268 0.005483124 0.0002792861 -0.0016638718 0.004987275
-0.0030671794 -0.0057629766 -0.0016839671 -0.00049821066 -0.00043638563 0.0074238773 -0.0009172048 0.007077709
0.005200756 0.0021274292 -0.0032313678 0.004032855 0.0037677877 0.0032982545 0.00079097995 0.004268603
0.005616513 -0.0019376902 0.005318343 0.0005295031 0.005125016 -0.0023923197 0.0032421635 0.0017332202
0.011137586 0.0059251143 0.0015623823 0.0038507483 0.006272564 0.007802618 0.0004955254 0.0009809064
0.0013142815 0.0005185063 -0.0017746029 -0.0023915083 0.005668767 0.00012271547 0.0018670297 0.007564542
0.0022783661 -0.0027249192 -8.89636e-05 -0.00064415345 0.005356933 0.0047433353 0.0020471686 -0.0034166656
-0.0035278315 -0.0009092106 -0.0039310274 0.0061744004 0.0035186491 -0.00011611801 0.0017652552 0.0061122733
00000000: 2486 c33b f4f6 f739 b536 b739 cda4 22bb
00000010: f4b3 0bbb 330d 353a 8877 78bb c79b fc3a
00000020: 4c5f 813b 6cda 3abb 4e6d 1fbb 8627 063b
00000030: d14a 2b3b 6f0e 273b d4d4 9c3b 77f1 da3b
00000040: 73e6 343c 2bee ec3b 6eac 2339 bc2b ea3b
00000050: bf89 723a c6e1 9b3b 1721 023b efbe 5dbb
00000060: 3ccc 32bb 26e8 92bb 7aa5 9e3b d6ad c13b
00000070: a744 3bbb ff3c 77bb 48fa e7b9 2579 913b
00000080: 285b 0e3c 4ec1 a8ba febc 2c3a e6a6 1fbb
00000090: 93f4 2eb9 9e2d 0cbb 665a a53b 4c62 e93b
000000a0: 32a9 1bbb bbf3 013c 7f78 79ba b9ea 68bb
000000b0: f8de 303b f65c 783b 5065 113b bbe1 baba
000000c0: ebe6 9a3b 3678 f63b 684a 943b fbbb a2ba
000000d0: ede6 a93b 93c6 203c ac4c f6b9 87dd c03a
000000e0: 793c f23b 9300 5ebb 075b 73bb 451e 0b3b
000000f0: 7d9b e33b 51a8 093b ba10 7a3b 3f42 743b
00000100: 8beb 10bb 1b77 a43b dcf8 c13b 463f 93bb
00000110: c7ab b33b 256d 9239 4616 daba 4c6c a33b
00000120: bb02 49bb 5ad7 bcbb 8fb8 dcba 5a9a 02ba
00000130: b0ca e4b9 ff43 f33b 9270 70ba 20ec e73b
00000140: 1a6b aa3b 576c 0b3b 5bc5 53bb 0a26 843b
00000150: fdec 763b 8727 583b c459 4f3a a3df 8b3b
00000160: ba0a b83b 18fa fdba 7f45 ae3b 5ace 0a3a
00000170: c0ef a73b 77c8 1cbb 7a7a 543b 382d e33a
00000180: 6c7a 363c 7627 c23b dac8 cc3a d65c 7c3b
00000190: 158a cd3b 1bad ff3b 26e6 013a c291 803a
000001a0: f843 ac3a 5eec 073a cb99 e8ba daba 1cbb
000001b0: 10c1 b93b 2fad 0039 1fb7 f43a fadf f73b
000001c0: a450 153b 8f94 32bb f891 bab8 68dc 28ba
000001d0: 3689 af3b fb6d 9b3b ca29 063b 23ea 5fbb
000001e0: 3133 67bb 1758 6eba d9cf 80bb a052 ca3b
000001f0: 2399 663b 6284 f3b8 2360 e73a 7749 c83b

action_model._discrete_distribution.branches.0.weight f4 [3, 128]
-0.010507929 0.014543199 -0.007272808 0.0072817374 -0.0020689373 0.009957704 -0.005676203 0.0023208386
-0.0024597796 0.013518329 -0.00214789 -0.020480908 -0.0056129633 -0.0021186138 -0.013609157 -0.01101585
-0.016680846 0.0021155814 0.012467678 0.011577864 -0.010440434 -0.022947336 0.004115048 0.012857306
0.0075695096 -0.0014437652 -0.00677432 -0.0028207893 -0.0036693958 0.01628221 -0.0021518292 0.00207568
0.00028993445 0.012895068 -0.0035719352 0.00067801465 0.0021605021 0.00038194563 -0.0031251758 -0.014090331
-0.0103673255 -0.009888995 0.0029611033 0.0031292196 -0.010429579 -0.009791514 0.0040042065 0.0060300026
-0.0037557057 -0.008690633 -0.008973893 0.006859339 -0.02171 -0.00781456 -0.00401853 0.009229896
0.006694196 0.0065128496 0.007337963 -0.0053733923 -0.014596296 -0.0057834913 0.00824982 -0.0059856763
0.0052658096 -0.010363402 -0.010917215 -0.0032269307 -0.012013146 -0.025391966 0.008887886 -0.004425406
-0.0010782217 0.0050044106 -0.0046911323 0.013425269 0.0036450233 -0.015676897 -0.007528755 0.000429426
-0.002358922 0.0002503353 -0.008558723 0.0035139555 -0.0017535368 -0.01137328 -0.008163452 0.0066993493
-0.0050393147 0.009234352 0.010412584 -0.00029275697 -0.018355006 -0.0012542871 -0.014211073 0.011981321
0.0027028604 -0.0040851305 -0.012666168 -0.0035432663 -0.01691621 -0.01934139 0.00045480218 -0.007519836
0.007336054 -0.009929077 -0.0015361198 0.005889998 -0.007289412 0.0058137476 -0.00836842 -0.008105622
-0.00063933025 -0.0067513613 0.011945697 -0.011839366 -0.026534162 0.007850123 -0.0101608485 -0.010069677
0.012546866 0.00011209077 0.0031189816 -0.00831343 -0.010288489 -0.0020865863 -0.0043173316 -0.011425547
-0.019616043 0.027217438 -0.0050660004 0.008069759 -0.01754421 0.009516872 0.0005868307 -0.01033169
-0.0056384224 0.009452767 -0.0064390334 0.004948966 -0.009445244 0.0023380914 -0.006805518 0.00088298373
-0.019995332 -0.02458878 0.0075245867 -0.015550723 0.0019446607 0.017057579 0.008636567 0.006783592
0.007911239 -0.01646502 0.015510987 0.0063861003 0.0027937056 0.002762903 -0.014014851 -0.006730007
0.013512461 0.005463914 0.010627573 -0.011621314 0.012279417 -0.0072114677 0.026020596 -0.013561277
0.006844594 0.0059443666 0.013054588 0.007901816 -0.0021152736 0.0013789507 0.012707076 0.00083498005
0.014703747 0.020701502 -0.0030700767 0.00012529318 0.005592339 -0.013612791 -0.0002793013 -0.0034565758
0.02287751 0.005397735 0.006375637 0.0050830254 -0.009622324 -0.0030012631 0.023160432 0.026363622
0.007423338 -0.009206328 -0.0136084305 -0.007974249 0.01570788 0.0026216025 -0.021487068 -0.011594257
-0.001806251 -0.004069955 -0.015022101 0.0062753065 0.010118855 0.020078171 0.0027465667 0.019656079
0.017255869 0.010313526 -0.005615448 0.0128485495 -0.019266158 0.008715163 -0.008035009 0.023987003
0.012283831 0.00979912 -0.011100065 0.009747976 -0.003992558 0.006733762 -0.00445436 -0.018949283
-0.019697474 0.010345646 0.012536837 0.013540109 0.008867535 0.007953103 0.015187899 0.0009573291
0.024818534 0.0129739605 0.001753633 -0.0051750755 -0.018323537 0.015491042 0.0077016973 0.0031896299
0.008904629 -0.005557098 -0.0151400175 0.005435638 -0.013503475 0.016463824 -0.0034874137 -0.0070451368
-0.01398796 0.0074924347 0.0022820458 0.010695891 0.0040443344 0.0146733 -0.018111747 0.009417635
00000000: 7329 2cbc 9946 6e3c bc50 eebb a49b ee3b
00000010: 0297 07bb a325 233c 71ff b9bb 3619 183b
00000020: 4134 21bb fb7b 5d3c 9dc3 0cbb 94c7 a7bc
00000030: f3ec b7bb 71d8 0abb f1f8 5ebc d37b 34bc
00000040: 45a6 88bc 91a5 0a3b 3b45 4c3c 15b1 3d3c
00000050: 5b0e 2bbc 0dfc bbbc 86d7 863b 73a7 523c
00000060: a609 f83b b93c bdba 1dfb ddbb fedc 38bb
00000070: 3f7a 70bb 4562 853c b405 0dbb 2208 083b
00000080: 5802 9839 d645 533c 2117 6abb cbbc 313a
00000090: 3697 0d3b e03f c839 c0cf 4cbb 22db 66bc
000000a0: b7db 29bc 7405 22bc 120f 423b 9813 4d3b
000000b0: d3e0 2abc 966c 20bc b835 833b 5497 c53b
000000c0: 4922 76bb 2863 0ebc 3c07 13bc 4ec4 e03b
000000d0: 2bd9 b1bc a408 00bc dfad 83bb fd38 173c
000000e0: fc5a db3b be69 d53b 4c73 f03b 4813 b0bb
000000f0: 4d25 6fbc 7183 bdbb 412a 073c 7e23 c4bb
00000100: d08c ac3b 42cb 29bc 1ede 32bc ea7a 53bb
00000110: c9d2 44bc d002 d0bc 7f9e 113c ff02 91bb
00000120: 1e53 8dba 0afc a33b 12b8 99bb a9f5 5b3c
00000130: 58e1 6e3b d66c 80bc c6b3 f6bb 9524 e139
00000140: 2598 1abb 6f3f 8339 e339 0cbc 644a 663b
00000150: eed6 e5ba fe56 3abc 00c0 05bc 3786 db3b
00000160: d620 a5bb ae4b 173c 8b99 2a3c 2d7d 99b9
00000170: 3d5d 96bc e466 a4ba 8fd5 68bc 4d4d 443c
00000180: 7922 313b 8fdc 85bb c285 4fbc 2536 68bb
00000190: dd93 8abc d671 9ebc 8472 ee39 f568 f6bb
000001a0: 4863 f03b 91ad 22bc a157 c9ba e200 c13b
000001b0: 05dc eebb 4081 be3b b31b 09bc 71cd 04bc
000001c0: ba98 27ba 863a ddbb e2b7 433c e6f9 41bc
000001d0: 2c5e d9bc cd9d 003c b079 26bc 49fb 24bc
000001e0: 5f91 4d3c 4612 eb38 d467 4c3b 0d35 08bc
000001f0: 0d91 28bc 1cbf 08bb 6778 8dbb 3832 3bbc
00000200: d3b1 a0bc 1bf7 de3c b100 a6bb 0637 043c
00000210: e0b8 8fbc a8ec 1b3c 8bd5 193a 4046 29bc
00000220: 84c2 b8bb c7df 1a3c 87fe d2bb f02a a23b
00000230: 3ac0 1abc aa3a 193b d300 dfbb 0978 673a
00000240: 40cd a3bc 696e c9bc cf90 f63b 76c8 7ebc
00000250: fce3 fe3a 56bc 8b3c 6380 0d3c e548 de3b
00000260: 249e 013c a6e1 86bc cb21 7e3c 7e42 d13b
00000270: 9a16 373b d211 353b 8c9e 65bc 6487 dcbb
00000280: 5f63 5d3c a20a b33b 461f 2e3c 5367 3ebc
00000290: 9c2f 493c 2d4e ecbb 2529 d53c 1e30 5ebc
000002a0: 9e48 e03b f6c8 c23b e9e2 553c 9e76 013c
000002b0: 67a0 0abb e8bd b43a 5731 503c 90e2 5a3a
000002c0: fce7 703c 3296 a93c 5733 49bb 2261 0339
000002d0: f13f b73b 2f08 5fbc 306f 92b9 b887 62bb
000002e0: 9e69 bb3c 7cdf b03b b8ea d03b 828f a63b
000002f0: f4a6 1dbc d7b0 44bb f2ba bd3c 86f8 d73c
00000300: 793f f33b 23d6 16bc e5f5 5ebc 6da6 02bc
00000310: d0ad 803c 31cf 2b3b a605 b0bc d7f5 3dbc
00000320: babf ecba 425d 85bb 421f 76bc 16a1 cd3b
00000330: 8ec9 253c fa7a a43c beff 333b c905 a13c
00000340: 2e5c 8d3c 10fa 283c cb01 b8bb b982 523c
00000350: 10d4 9dbc 0bca 0e3c 45a5 03bc 6480 c43c
00000360: 1f42 493c 7d8c 203c 0cdd 35bc fab5 1f3c
00000370: 01d4 82bb e4a6 dc3b e1f5 91bb 873b 9bbc
00000380: 995c a1bc c980 293c 4e67 4d3c 55d7 5d3c
00000390: 2349 113c bb4d 023c aad6 783c 45f5 7a3a
000003a0: 3d50 cb3c bc90 543c 29da e53a ae93 a9bb
000003b0: 3e1b 96bc 24ce 7d3c 855e fc3b 1c09 513b
000003c0: b9e4 113c 5118 b6bb d60d 78bc 701d b23b
000003d0: ae3d 5dbc 24df 863c 188d 64bb e4da e6bb
000003e0: c22d 65bc 1983 f53b 608e 153b d23d 2f3c
000003f0: 5686 843b 4868 703c 165f 94bc 6d4c 1a3c

action_model._discrete_distribution.branches.0.bias f4 [3]
-0.0034080702 0.0019065788 0.0015200669
00000000: ee59 5fbb 2be6 f93a fb3c c73a

52 f4 [8]
8.583974 3.649492 18.174332 8.382739 2.9576473 11.778173 2.992882 0.5000318
00000000: f557 0941 4791 6940 0865 9141 b31f 0641
00000010: 184a 3d40 6673 3c41 618b 3f40 1602 003f
