results/BTB_v1/Pong/checkpoint.pt (torch, 447378 bytes, 41 tensors)

network_body.observation_encoder.processors.0.normalizer.running_mean f4 [8]
000000 5f 94 31 bd 1a 0f 48 3d 73 41 81 3e ee 88 eb 3c
       -0.04335439 0.048842527 0.25245246 0.028751817
000010 a9 8c 29 be 3b 7a ba 3e 6f 7e 25 be e6 ff ff 3e
       -0.16557564 0.3642138 -0.16161512 0.49999923

network_body.observation_encoder.processors.0.normalizer.running_variance f4 [8]
000000 95 b5 46 4a d3 06 40 49 5c 7e 44 4b 61 27 21 4b
       3.2556532e+06 786541.2 1.2877404e+07 1.0561377e+07
000010 aa cd ab 49 e8 96 93 4b f0 c4 54 49 20 ee f4 47
       1.4074132e+06 1.9344848e+07 871503.0 125404.25

network_body.processors.0.normalizer.running_mean f4 [8]
000000 5f 94 31 bd 1a 0f 48 3d 73 41 81 3e ee 88 eb 3c
       -0.04335439 0.048842527 0.25245246 0.028751817
000010 a9 8c 29 be 3b 7a ba 3e 6f 7e 25 be e6 ff ff 3e
       -0.16557564 0.3642138 -0.16161512 0.49999923

network_body.processors.0.normalizer.running_variance f4 [8]
000000 95 b5 46 4a d3 06 40 49 5c 7e 44 4b 61 27 21 4b
       3.2556532e+06 786541.2 1.2877404e+07 1.0561377e+07
000010 aa cd ab 49 e8 96 93 4b f0 c4 54 49 20 ee f4 47
       1.4074132e+06 1.9344848e+07 871503.0 125404.25

network_body._body_endoder.seq_layers.0.weight f4 [128, 8]
000000 98 d7 fa bd 69 dd f0 3e e8 88 5b be 4c 2d a9 3d
       -0.122481525 0.47043923 -0.21438944 0.08260593
000010 b9 d5 e0 3e b5 5d 82 be 72 09 9d 3e 9c 6c 27 3e
       0.43913057 -0.25462118 0.3067127 0.16350025
000020 19 83 cb bc 13 af 1c 3f 2c f2 1a be d0 64 6f be
       -0.024842786 0.6120464 -0.15131444 -0.233783
000030 6c 9c a1 be 5a 74 39 3d a2 d5 14 3d 50 88 e3 be
       -0.31564653 0.045276977 0.03633655 -0.44439936
000040 ae aa 82 bf fc 57 a1 be 60 23 cf 3e ca 5d d5 bd
       -1.0208337 -0.3151244 0.40456676 -0.104182795
000050 70 2a c3 3d 8b d8 ad be 67 86 ae bd 33 1e ca be
       0.09529579 -0.33954272 -0.08521729 -0.39476165
000060 78 0a 02 bf 92 00 6a bc ff fb 83 be c4 e4 86 3e
       -0.50797224 -0.014282363 -0.25778195 0.2634641
000070 3f 68 6f 3f 3a c2 f5 3e f4 22 6e 3e 04 d4 9e 3c
       0.9351844 0.47999746 0.23255521 0.019388206
000080 3d 0d 80 bd dc 3c 06 bf 86 8c 7d 3c a4 e5 03 3f
       -0.06252525 -0.52436614 0.015475398 0.5152228
000090 e8 57 27 3e 4a bc b6 3e e0 ae 2e bd e5 ed c1 be
       0.16342127 0.35690528 -0.042647243 -0.37876812
0000a0 d2 3b ff 3e c8 5c d2 3d 46 d1 b1 3e b6 b1 66 be
       0.49850327 0.10271603 0.34729975 -0.22528729
0000b0 df 51 e7 be 7f 09 e6 be e6 36 3a be 64 1a 8b 3e
       -0.4517965 -0.4492912 -0.18185005 0.27168572
0000c0 5c 46 db bd 52 91 b6 be 1e dd f6 bd d2 e4 53 be
       -0.10706779 -0.35657746 -0.120538935 -0.20692757
0000d0 3c 19 c5 3e 64 28 21 3e c0 32 03 3c 87 be 46 3f
       0.38495815 0.15738064 0.008007705 0.7763447
0000e0 a3 94 68 3e 2e f7 62 3f 94 c2 44 be d2 19 99 be
       0.2271295 0.88658416 -0.1921485 -0.29902512
0000f0 57 12 d6 3e 1c 2d d1 3e 69 50 75 bf 3f 03 3e be
       0.41810867 0.40854728 -0.9582582 -0.18555926
000100 87 c8 8b be a1 9a da 3c 3e 0c d8 3d 18 b1 74 be
       -0.27301428 0.026685061 0.1054921 -0.23895681
000110 6a 32 bd be 06 e5 56 3e 1f 34 07 bf 57 e2 d2 be
       -0.36952525 0.20985803 -0.52813905 -0.4118831
000120 e0 b7 6d bc 0f c1 3c 3f 4d 1e 15 3f 22 60 98 3d
       -0.014509171 0.73732084 0.5824936 0.07440211
000130 f3 28 06 bd 0e 93 09 be 73 6b 51 be 23 27 9e 3d
       -0.032753896 -0.13435003 -0.20451145 0.077223085
000140 eb 7f 5b bf 26 7e 0d 3f dc 74 04 3d a2 b2 8f be
       -0.8574206 0.5527061 0.03233801 -0.28065974
000150 ee 2c 8a 3e d8 85 19 be 0e 1b 33 be 28 79 d4 bd
       0.26987404 -0.14992464 -0.1749079 -0.10374671
000160 22 0b 89 3e 7b 73 3a be 7d 7b d5 3e 3c 07 35 3e
       0.26766306 -0.18208115 0.41695777 0.17678541
000170 68 ee 09 3e 94 3f da 3d fa 5d 9e 3e 4e 9f 71 3d
       0.13469851 0.10656658 0.30931073 0.058989815
000180 50 bf a6 be 7a 3f 6d be 73 85 b7 be 28 38 06 be
       -0.32567835 -0.23168746 -0.35844 -0.1310736
000190 c4 6a b7 3c 46 61 db 3c 7a d4 a8 be 4d 5d 02 3e
       0.022389777 0.026779782 -0.32974607 0.12730904
0001a0 e7 e0 4f bc cc 6b 0b bf 69 2b 0c bd 2f 1f 31 bb
       -0.012687898 -0.5446136 -0.034221087 -0.0027026644
0001b0 10 fc 24 3e cc af 64 3e 19 8e 52 3e 37 7b 17 bf
       0.16111779 0.22332686 0.20562018 -0.59172386
0001c0 8c 99 53 bf f2 a3 c0 be e9 2c 96 bc e8 4c fc 3e
       -0.8265617 -0.3762508 -0.018331962 0.49277425
0001d0 3e 88 a4 be 5f 1d bf 3e af 77 f0 3e 8c 26 a6 bc
       -0.32135195 0.37327096 0.4696631 -0.020282052
0001e0 15 c5 8f be 33 d9 6e 3e 7b 36 92 3e 7a 1a f4 bd
       -0.2808005 0.23325042 0.2855719 -0.119191125
0001f0 ef c8 f5 be ee 21 59 b9 da 71 81 bb 94 47 0f be
       -0.48004863 -0.00020707372 -0.0039503397 -0.13992149
000200 d1 e3 a1 3e c8 59 86 be 62 ed 5e bd 49 24 c1 be
       0.31619123 -0.26240373 -0.054425605 -0.37722996
000210 a2 f1 7e 3e a0 7b 89 be 3c 7c f3 3c 50 54 a8 3e
       0.24896863 -0.2685213 0.029722326 0.32876825
000220 7f 19 d9 3e 43 95 20 3f 0c 94 e7 3c 66 33 5c 3f
       0.42402264 0.62727755 0.028268836 0.8601593
000230 b0 15 6c bf 28 1d 49 3e 31 1b e5 be a2 d4 34 3f
       -0.9222059 0.19640028 -0.44747308 0.7063695
000240 43 2d 0c 3e 32 59 1f 3e 74 f6 fe 3d 8d b1 b4 3e
       0.13689141 0.15561369 0.12449351 0.3529171
000250 c5 a5 1d 3e 16 d3 65 3e 46 a0 08 be a9 6a 9f 3e
       0.15395267 0.22443804 -0.1334239 0.31136063
000260 f3 d0 a6 be 16 d2 23 bf 60 f9 db bb 1b 8b fd 3d
       -0.3258129 -0.6399244 -0.0067130774 0.12380048
000270 c3 89 b6 be b5 fd 56 be 17 ab e1 3c 0e 21 d8 be
       -0.3565198 -0.20995219 0.027547402 -0.4221272
000280 97 60 16 3f 33 70 b1 bd b8 91 4e 3c 40 58 31 bf
       0.58741134 -0.086639784 0.012607984 -0.69275284
000290 55 90 76 3d 38 96 8f be 2a d5 01 bf 2f 73 9f be
       0.06019624 -0.28044295 -0.5071589 -0.31142566
0002a0 3a 96 e5 bd ca ed a6 3e ec 0a ba be b5 ce 26 3f
       -0.11210294 0.32603294 -0.36336458 0.6515916
0002b0 d3 6b 36 bf 16 37 54 be 05 4a a9 3e 6e 5a 07 3f
       -0.71258277 -0.20724139 0.33064285 0.5287236
0002c0 36 e4 c5 3e 68 d7 d4 3e 9a 91 08 3f 32 ec e6 bd
       0.38650674 0.41570592 0.5334717 -0.112755194
0002d0 16 50 0a 3f 04 17 10 3f b8 ce 14 be fe 37 3d 3e
       0.5402845 0.5628512 -0.14531982 0.1847839
0002e0 12 9e a5 be 32 4b 88 3e 99 64 35 be 18 fc ba be
       -0.3234716 0.2661987 -0.17714156 -0.36520457
0002f0 08 dd 45 3f 15 fc d1 3d 7f 2f 00 bf ec c6 f0 3d
       0.7729039 0.10253159 -0.50072473 0.11756691
000300 23 72 87 be 81 ba 9c be f9 ca bb 3e e7 57 a9 3d
       -0.26454267 -0.3061104 0.36678293 0.08268719
000310 99 b1 70 3f fb c1 40 be 2d 61 83 3e 39 dc b7 be
       0.9402099 -0.18823998 0.25660077 -0.35910204
000320 cf fa 3d bf 3b bd 17 be 41 d7 0c 3f 5b bc 1e be
       -0.7421083 -0.1481828 0.5501595 -0.1550154
000330 82 3b c8 be 39 b9 3c 3e 97 28 52 3e fa 87 fa bc
       -0.391079 0.18430032 0.20523296 -0.030582417
000340 98 77 a2 be ae 1f 93 3e ac 53 94 3e 39 1a e2 3e
       -0.31731868 0.28735107 0.28970087 0.4416063
000350 33 04 61 3d 3c ba 09 be 52 54 d1 bd 9b f1 8a bd
       0.054935645 -0.13449949 -0.10221161 -0.06784364
000360 48 9c ec be de 4c a5 3e 61 12 35 be d3 01 85 3e
       -0.46212983 0.32285208 -0.17682792 0.25977954
000370 0e 7f 8c be 65 9e 3a 3f 22 5c ba 3b 7c db ef 3d
       -0.27440685 0.7289794 0.0056872526 0.11711785
000380 2f 56 c9 be c6 39 2d 3e b0 45 fe 3d fc 21 dd bd
       -0.39323565 0.1691657 0.124156356 -0.10797498
000390 5a 82 2e 3f 7b 4f 77 be bb c5 c3 3d 9a df b2 3d
       0.6816765 -0.24151413 0.095591985 0.08734055
0003a0 f0 be d1 be 1e 64 9b bc 61 04 13 3e 72 1f 91 be
       -0.40965986 -0.018968638 0.14357139 -0.28344303
0003b0 f1 d1 6f 3f cd e8 8b be c2 65 df 3e 75 e0 d8 be
       0.9367972 -0.2732605 0.43632323 -0.42358747
0003c0 78 b1 80 bd 59 c7 74 be 28 00 ef 3e ca e1 76 3d
       -0.062838495 -0.2390417 0.46679807 0.060273923
0003d0 3c ec 10 3d 13 30 1e bd 1d 0a ce bd 60 d4 ec bd
       0.03538154 -0.038620066 -0.10060523 -0.11563945
0003e0 1d 3b e2 bd 50 47 73 be d5 b6 c8 bd 9f 43 15 bf
       -0.11046431 -0.23757672 -0.098004974 -0.58306307
0003f0 eb d8 2f 3e 28 82 0b bf b2 ae e5 bd af 1f 74 be
       0.17172591 -0.5449548 -0.11214961 -0.23840211

network_body._body_endoder.seq_layers.0.bias f4 [128]
000000 fe 18 2f 3c cb 3f 2f 3d 5b 78 59 3d f1 38 14 3c
       0.010687111 0.042785447 0.053093296 0.009046779
000010 f5 9f 25 3d c3 3a 3a ba 92 c3 d2 3b bd b2 94 3c
       0.04043575 -0.0007104093 0.006432005 0.018151635
000020 f0 53 5e 3d 17 c1 8d bc 8e f2 fb 3c a2 d7 bf bc
       0.054279268 -0.017303986 0.030755308 -0.023418251
000030 ab 1c cd 3c 1d 9f 3e 3d 1d 2d 63 3d ad 1a 10 3d
       0.025038084 0.04653846 0.055462945 0.03518169
000040 1a 0f 37 3a 91 7c 6f 3d 2a 70 b9 3b 9e a0 64 3d
       0.00069831463 0.058468405 0.005659123 0.05581724
000050 92 41 14 3d a8 f2 4b 3d 3f 56 1f 3c ea e6 d5 3c
       0.036195345 0.049791962 0.0097251525 0.026111085
000060 54 28 ba 3c 24 ba de 3c d5 0f c9 3c 34 32 18 3d
       0.022724308 0.027188368 0.024543682 0.037157252
000070 96 be 46 3d a5 fe 6c 39 37 7e 6f bc d7 ed 0a 3d
       0.0485216 0.00022601576 -0.014617494 0.033918228
000080 6a 65 ba bc 73 39 ab 3c e4 9e ab bc a0 e4 bd 3c
       -0.022753436 0.020901417 -0.020949788 0.023180306
000090 ba a1 48 bc 4e 15 1c 3c 3e 91 1a 3c 6d ba ea bc
       -0.01224559 0.009526564 0.0094340425 -0.028653348
0000a0 a3 ec be 3c 4d cc 34 3d 83 36 63 3d 36 51 09 3b
       0.023306197 0.04414015 0.05547191 0.0020952947
0000b0 4d 7e 2f bb f9 81 29 3c 96 45 0f 3d 26 39 3d 3d
       -0.0026778162 0.010345929 0.03497847 0.04619708
0000c0 7b 98 1e 3d 62 36 c4 3b 90 f1 d9 3c ee 95 23 bc
       0.038719635 0.0059879282 0.026604444 -0.0099844765
0000d0 ef 61 26 bc 55 33 9d 3c 6c 03 be ba e8 59 4d 3d
       -0.010155185 0.019189516 -0.0014496869 0.05013457
0000e0 6f f2 e9 3c 25 d7 ec 3c 8f 09 0b 3d fb 26 90 bc
       0.028557984 0.028911183 0.033944663 -0.017596712
0000f0 64 ce a5 3d 63 39 a5 3c 06 a5 d3 3c 18 b2 27 3c
       0.080960065 0.020168966 0.025835525 0.010235332
000100 74 91 d0 3c 7e ac e1 3c 97 5c f5 3c 08 97 b7 3c
       0.025459982 0.027548071 0.029951377 0.022410884
000110 fe eb 30 3d d5 e4 0b 3b 1f 43 ce 3c 68 15 76 3a
       0.04319381 0.0021346111 0.02517849 0.0009387345
000120 81 f7 ea 3c 6a ed 8f 3c 76 a9 86 3c 73 12 19 bc
       0.028682472 0.017569263 0.016438227 -0.009342778
000130 0c fb 6f 3c d5 17 67 3b f0 16 02 3d 3e 12 09 3d
       0.014647257 0.0035262008 0.031760156 0.033464663
000140 56 2e 1e 3d 74 13 10 3c 0f 50 37 3d b1 58 3f bd
       0.03861841 0.0087937005 0.044754084 -0.046715442
000150 0c 9f c2 bc 33 a1 79 bd c8 47 03 3d 64 90 be 3b
       -0.02375748 -0.060944747 0.032050878 0.0058155525
000160 ce f5 ba 3c 2b 9d 12 bb fd b1 14 3d cb 5f 03 bc
       0.022822287 -0.0022371511 0.036302555 -0.008018444
000170 39 d5 ec 3c 92 a4 de 3c 54 87 91 3b 98 ea 04 bd
       0.028910266 0.027178083 0.004441181 -0.03245029
000180 96 ec ee 3c 4e 12 29 3d 1b fa 32 bd 42 23 0e 3d
       0.029165547 0.041277222 -0.04369555 0.034701593
000190 f4 2c 8d 3c a6 78 3a 3d 50 99 20 3d 03 d4 0e 3d
       0.01723335 0.045525216 0.03920871 0.03487016
0001a0 25 ca cb bc c9 a4 c1 3b 87 81 81 3d e3 9f 8a 3d
       -0.024876663 0.0059095365 0.063235335 0.06768777
0001b0 1f 92 d4 3c df f6 73 3c d7 a4 4f 3c 2e 18 01 bc
       0.025948582 0.014890402 0.012673578 -0.0078793
0001c0 38 21 d2 3c 02 72 4b bc 47 d9 dd 39 46 f1 d3 bc
       0.025650606 -0.012417318 0.0004231429 -0.025871884
0001d0 d5 e2 11 3d a1 01 87 3c 47 4f 90 39 d9 4d 72 3d
       0.035616715 0.016480269 0.00027524887 0.059156273
0001e0 7d 87 92 3c f5 11 88 3c ee 65 70 3d 20 f4 4e 3d
       0.017886871 0.016610125 0.058690958 0.050525784
0001f0 f4 8b ce 3c cb 9a 76 bc d8 13 bc bb 2c c7 38 3d
       0.02521322 -0.015051554 -0.0057396702 0.04511182

network_body._body_endoder.seq_layers.2.weight f4 [128, 128]
000000 5b f4 54 3c 0f c5 41 bd c9 f4 51 bc b3 a6 a1 bd
       0.012997712 -0.04730707 -0.012814709 -0.078931235
000010 34 fa 04 3e 6b 9d 8d 3c b8 ab 22 bd c2 b3 45 be
       0.1298607 0.017286977 -0.039714545 -0.19306853
000020 3c 6b 26 be 22 f2 13 bc dd 5c 92 bc dd 48 b3 bd
       -0.16251844 -0.009029897 -0.017866546 -0.08754132
000030 fa 15 d6 bd 75 8e 1f bd b7 b9 de 3c 3b aa 1d 3d
       -0.104534104 -0.038954217 0.027188165 0.038492423
000040 74 cf 8f bd 92 25 3e 3d 84 c8 48 3c ae 39 6c 3b
       -0.070219904 0.04642255 0.012254838 0.0036045122
000050 b4 da c3 3c 8a 5a 6b 3d 08 92 22 bd 2b f9 a8 3c
       0.023907997 0.05745939 -0.039690048 0.020626625
000060 c1 02 a2 bd e3 75 de bd 60 46 0f be 79 3b 43 3d
       -0.079106815 -0.10862329 -0.1399169 0.04766414
000070 f2 9c 1e 3e 2a be 0a be c5 48 83 3c 04 01 66 3b
       0.15489557 -0.13549104 0.01602591 0.003509582
000080 a2 a1 5b 3d a4 b4 6d 3d 13 85 27 3d d1 9e b7 bd
       0.053620942 0.0580336 0.040898394 -0.08965839
000090 1d 37 96 bd e0 18 74 be 2a f2 d0 3d b4 cc ac bd
       -0.07334731 -0.23837614 0.10202439 -0.084374815
0000a0 72 9a d6 bd 21 5d cf 3d 93 5b 03 bd e2 f7 98 bc
       -0.10478677 0.10125185 -0.032069754 -0.018672887
0000b0 7e ac 2b bd 1d b5 0b 3e 91 84 77 be ea 51 4f bd
       -0.04191255 0.13643308 -0.24171664 -0.05061523
0000c0 b1 f1 ee bd 24 52 c6 bb 5b 0b e9 3d 94 bf 48 bd
       -0.11667193 -0.0060522724 0.11379119 -0.04901083
0000d0 ec 56 ff bc 41 c5 c9 bd ae 58 36 3e e3 7c d3 bd
       -0.031169377 -0.09852076 0.17807266 -0.103265546
0000e0 d5 42 1d 3d de 45 52 be ed 0b 5a 3d 85 5c 63 bd
       0.038393814 -0.20534465 0.05323403 -0.055508155
0000f0 ce 88 da bd a8 d0 ad 3d e2 53 6a 3d 3c e3 33 be
       -0.10670625 0.08487064 0.057208903 -0.17567152
000100 5f 83 1c bd e0 ae c7 3d 44 e6 32 bc c6 53 0b bd
       -0.038211223 0.09750152 -0.010919157 -0.03401544
000110 4c 6e 1c be 07 de b9 bc 18 a6 ae 3d ea 6d ad bd
       -0.1527645 -0.022688879 0.085277736 -0.0846823
000120 46 83 fa bd 02 58 84 bd 13 a3 1d 3d 6d 09 58 3d
       -0.1223207 -0.06462099 0.038485598 0.052743364
000130 2e d6 31 3c 40 cc d8 3d d0 9e cd 3c 32 38 00 3d
       0.010854287 0.105858326 0.025100142 0.031303592
000140 55 84 17 bd e6 09 06 3d 9f 2d b1 3d 1f 83 d6 bd
       -0.036991436 0.032724284 0.0865128 -0.10474228
000150 28 2e 61 3d 0c 77 0c be 15 71 29 3d 1d 0c be 3c
       0.05497566 -0.13717288 0.04136761 0.023199135
000160 70 b6 da 3c ac 66 00 be 2c ee 6a 3d 31 75 41 3e
       0.026698321 -0.12539166 0.057356045 0.18892361
000170 86 1b 09 3c 96 6c b3 bd a3 1c 91 3d ce e6 f9 3d
       0.0083683785 -0.087609455 0.0708554 0.122022256
000180 b3 e3 a3 bd 7e 60 76 bd 40 0a 50 3d 61 10 02 3c
       -0.080024146 -0.060150616 0.050791025 0.007938475
000190 c0 af 14 3b 28 40 1c 3e ee 3d 32 be 58 1d 06 3e
       0.0022687763 0.15258849 -0.17406437 0.13097131
0001a0 06 06 7c 3d df 13 18 bd f3 bb 84 bd c3 38 fa 3b
       0.061529182 -0.037128326 -0.06481161 0.007636161
0001b0 e0 9c 6c 3d 2f 33 81 bd c0 a7 2d 3c 43 f2 50 bd
       0.057766795 -0.063085906 0.010599077 -0.05101229
0001c0 e2 fc 03 bd 35 23 68 3d 18 b0 87 bd 82 36 3b be
       -0.03222359 0.0566742 -0.06625384 -0.18282512
0001d0 8d 83 59 3e bd 05 74 be 05 8b 89 bd 2b aa d0 bd
       0.21241589 -0.23830314 -0.06715969 -0.10188707
0001e0 aa 23 aa bd f6 37 8d 3d 36 fc e3 3d 6c 53 87 be
       -0.08307584 0.06895439 0.1113209 -0.26430833
0001f0 19 18 6b bd 0d d0 8d 3d 9d 8d 40 bc 83 90 4f bc
       -0.05739603 0.06924448 -0.011752513 -0.012668732
000200 44 b7 13 3e 4c a3 d6 bc 94 0d a3 3d 35 e0 d5 3d
       0.14425379 -0.026200913 0.07961574 0.10443155
000210 c2 b2 f2 bd 90 e3 98 bd 66 61 0d 3e 69 96 06 be
       -0.118505016 -0.07465279 0.13806686 -0.13143314
000220 3d 57 11 3d 48 53 d3 bc 5a 54 cd bd 74 83 9f 3c
       0.035483588 -0.025796548 -0.100258544 0.019471861
000230 5d 7c bf 3c d7 bf 8b 3d 4d 8e ee 3d 09 19 0f 3e
       0.02337473 0.068237 0.116482355 0.13974394
000240 0e 0f 5f bd 6e 8d 8d 3d 0e bd 46 3d a2 ac ac bd
       -0.054457717 0.06911741 0.04852014 -0.084313646
000250 4a ea fa bd 48 e2 17 3e 52 da 33 bd be a0 1b bd
       -0.12251718 0.14832413 -0.04390938 -0.037995093
000260 f2 3d 26 be 11 df 79 bd 7a 07 f3 3c 06 3f 76 3d
       -0.16234568 -0.06100375 0.029666651 0.060118698
000270 e9 f7 7b bd d7 c7 4f 3b ee 19 b9 3d e4 b5 b8 3c
       -0.061515722 0.0031704807 0.09038149 0.02254767
000280 91 d2 05 bd 17 0e 23 3d d0 8a 85 3d 29 14 eb 3d
       -0.032671515 0.03980836 0.06520617 0.114784546
000290 41 10 0c bc 80 ae 95 bd 6a cf c7 bd 8e 69 7d 3d
       -0.008548797 -0.07308674 -0.09756358 0.061868243
0002a0 1d b8 2d 3d 7e da b2 3d ac 46 db bc 1e 82 40 be
       0.042411912 0.0873308 -0.026767097 -0.18799636
0002b0 12 0c ed bc b0 4a 16 3e 5f 90 7f bd 39 dd a3 3d
       -0.02893642 0.14676929 -0.062393542 0.08001179
0002c0 02 7e b0 bd e8 e6 27 bd 75 0b a9 3c f1 34 21 bd
       -0.08617784 -0.040991694 0.020635346 -0.03935713
0002d0 24 42 3d 3d a9 83 92 be e4 8d 8c bd a6 4e f5 3c
       0.046205655 -0.28616074 -0.06863001 0.029944729
0002e0 cc 73 1a be 32 55 97 3e fb 88 da bd ab b5 96 bc
       -0.15083236 0.29557186 -0.10670658 -0.018397173
0002f0 bf a3 ee 3b cd a1 0e 3e 34 10 1b 3b 8e 57 85 be
       0.0072827036 0.1392891 0.002366078 -0.2604336
000300 2c b6 bf 3d 26 9b 44 3e 9d ce a8 3d 0d 40 1c 3d
       0.093609184 0.1919981 0.08242533 0.03814702
000310 09 f5 fe 3d 89 af 28 be c0 4c 13 be 54 36 b1 ba
       0.124490805 -0.16473211 -0.14384747 -0.0013520219
000320 12 3b 08 bd c6 24 b7 3d 8c 17 0b be 87 54 00 bd
       -0.03325946 0.08942561 -0.13583201 -0.03133061
000330 65 ea 17 be d3 75 d7 bd b3 60 51 bc 83 62 37 3b
       -0.14835508 -0.1052052 -0.012779403 0.0027982302
000340 e7 f2 1e be 19 4e 0c bd 75 2d 0c be da 42 e5 3d
       -0.15522347 -0.034254167 -0.13689215 0.111943915
000350 ab 1c 48 3c ce bf 65 bd 67 f1 9d bd 44 85 6d 3d
       0.012213866 -0.056091122 -0.077120595 0.05798842
000360 cd 3d e3 3d 6c b8 80 3d ab 53 0e 3e 17 67 c9 bc
       0.11095772 0.06285176 0.13899104 -0.02458529
000370 d7 74 b0 bd b0 4d fc 3d 18 54 b4 bd 3b dd a5 bd
       -0.086160354 0.12319505 -0.08805102 -0.08098837
000380 15 94 3a bc fb 8e a4 3c a0 e6 6d be ea 5f 4b 3e
       -0.011387845 0.02008771 -0.23232508 0.19860807
000390 4d f4 0e be 77 d1 d3 3c a7 82 8e 3b d1 0d a8 3c
       -0.13960381 0.025856717 0.004349071 0.0205144
0003a0 6a e3 b0 3c f1 6d ca bc a1 47 5b 3e 0d 5a 22 3e
       0.021592814 -0.024710627 0.21414043 0.15854664
0003b0 c2 32 27 bd a7 c4 03 3e fd aa 7b 3d a6 e4 a3 3d
       -0.04081989 0.12867986 0.061442364 0.080025956
0003c0 b1 bd f5 3c 27 da d1 3d 73 dd 1a 3d c6 d4 85 3b
       0.029997678 0.102466874 0.037808847 0.0040842025
0003d0 3b ab 8b b8 05 ad ac 3d 24 9c a2 3d 93 bc 0e be
       -6.659931e-05 0.08431438 0.07939938 -0.13939123
0003e0 33 cc 85 bd b3 c0 c9 bb 52 eb af bc 3b 6c 1f 3e
       -0.065330885 -0.0061570047 -0.021474514 0.1556863
0003f0 d6 b5 b3 3b 31 aa 43 3d 1c 96 29 3d e3 18 f9 3c
       0.005484323 0.04776973 0.04140292 0.030407375

network_body._body_endoder.seq_layers.2.bias f4 [128]
000000 4e 3c 15 3c f5 3b 3c 3d 7a 7c 4f 3c da 9c d7 bb
       0.009108616 0.045955617 0.012663955 -0.0065799775
000010 d8 c5 61 3c ae c9 05 3d 03 1f 3f 3d b2 66 c7 3c
       0.01378008 0.03266304 0.046660434 0.024340961
000020 f6 99 9f 3c b5 cc db 3c 0c 67 50 3b 87 67 a1 3c
       0.019482594 0.02683101 0.0031799702 0.019702686
000030 15 30 f3 bb 31 86 7c 3c 5a d5 af 3c 84 ac 6f 3c
       -0.0074215033 0.015412853 0.021464039 0.014628533
000040 df b6 01 3d 47 c8 99 3c ef af b5 3c a6 c8 d4 bb
       0.03166854 0.018772257 0.022178618 -0.0064936457
000050 24 60 ec 3c 7c 1e 89 bb c6 17 7e 3c ef 43 bb bc
       0.028854437 -0.004184542 0.015508598 -0.022859542
000060 ea b3 fc 3c df e5 de 3c b9 36 89 3c d9 63 34 3d
       0.030847508 0.02720922 0.016749727 0.044040535
000070 45 37 af 3c 03 de bc 3c 18 99 af 3b 6e c9 a1 3c
       0.02138866 0.023055082 0.0053588264 0.01974937
000080 6a 5a 20 3d 5e 53 8f 3c 78 ba 07 3d fe 83 42 bc
       0.039148726 0.017495807 0.033136815 -0.01187229
000090 4e 40 5d bc 6f 30 13 3d 19 b2 de 3c 83 6b 63 ba
       -0.013504101 0.03593486 0.027184533 -0.0008675383
0000a0 18 80 6c 3c 40 1e 3e 3c 79 c5 8a 3c 73 ed 4c 3c
       0.014434837 0.011603892 0.016939865 0.012507784
0000b0 ea 05 3b 3d a9 8c bb 3c 3a 81 e8 3c f2 e3 0a 3d
       0.045659937 0.02289422 0.028381933 0.03390879
0000c0 9f 79 01 bc 1b 02 c7 3c fd d8 ce 3c 53 3c a5 3c
       -0.007902532 0.024292996 0.025249952 0.020170366
0000d0 19 ab 33 3d e8 f0 f5 3c d6 18 0b 3d f3 80 0a 3d
       0.043864343 0.0300221 0.033959232 0.03381438
0000e0 f8 8c d5 3c f7 6f ab 3b 8a c8 16 3d 1d 10 ea 3c
       0.026068196 0.005231853 0.036812343 0.028572137
0000f0 62 4d 19 3c d0 3c fb bb a6 02 07 3d b5 39 10 3d
       0.009356828 -0.0076671615 0.03296151 0.035211284
000100 dc c7 0d 3d 7e f3 a5 3c 5f dd d4 3c 59 62 e9 3c
       0.03461443 0.020257708 0.025984464 0.028489279
000110 2b b6 f9 3c af 59 9b bb ba cb 94 3c fd dd 81 3c
       0.030482372 -0.0047409157 0.01816355 0.015852923
000120 91 6e 12 bc 21 46 cf 3c bb 66 86 3b 81 d0 f0 3b
       -0.008937494 0.025301995 0.004101602 0.0073490744
000130 7b 62 7e 3c 46 58 4c 3c bd 76 b8 3c 7b 7a 29 3d
       0.015526409 0.012472218 0.022517556 0.041376572
000140 2f 25 ed bb 3d 04 83 3c 14 a3 43 3c eb d0 e5 3c
       -0.0072370986 0.015993232 0.011940736 0.028053721
000150 6d 97 ae 3a 36 7f 33 3d e3 74 92 3c 14 f5 dc 3c
       0.0013320275 0.04382249 0.017878002 0.026972331
000160 06 f1 c6 3b 5b a0 ef 3c 17 d9 24 bb d4 33 37 3c
       0.0060712127 0.029251268 -0.002515381 0.01118179
000170 22 9d 1d 3d 36 c6 7b 3c 42 f0 05 3a 17 46 c4 3c
       0.03847993 0.015367081 0.00051093486 0.023959203
000180 8e 5c bb 3c 25 4b cb 3c 23 05 8d 3c b4 c5 fd ba
       0.022871282 0.024816105 0.017214363 -0.0019361288
000190 fa e0 12 3d 3f 45 03 3d 9d 55 f7 3c 06 52 50 bb
       0.035859086 0.03204846 0.03019219 -0.003178717
0001a0 6f 9a 26 3d 06 22 01 3d 66 57 0d 3d 56 dc 75 3b
       0.040674623 0.031526588 0.034507178 0.0037515364
0001b0 2b 69 d1 3c 06 22 e7 3c b9 fc 85 3c 0d 68 f0 3c
       0.025562843 0.028214466 0.01635586 0.02934649
0001c0 07 9b dc 3c 12 2c 7b 3b 10 f5 bb 3c b8 9e cf 3c
       0.026929392 0.0038325829 0.022944003 0.025344238
0001d0 83 88 e6 3c df 74 e8 3c d9 03 9d 3c d4 98 ef 3c
       0.028141266 0.028376041 0.019166874 0.029247679
0001e0 80 80 6c 3c 75 9f be 3c c8 05 b7 3c f1 aa a3 3c
       0.014434934 0.023269394 0.022341624 0.019978972
0001f0 b7 2c 31 3d b6 87 51 3c e0 c6 b0 3c b3 26 1b 3d
       0.043255534 0.012788704 0.021579206 0.037878703

action_model._discrete_distribution.branches.0.weight f4 [3, 128]
000000 01 1b 4e 3c 58 75 67 bc 62 f0 e2 3b 03 f5 6d 3b
       0.01257968 -0.014127098 0.0069256285 0.0036309368
000010 d0 1f 59 bc 13 1c be bc 21 ea fa bc 78 7d 82 bc
       -0.013252214 -0.023206746 -0.03062922 -0.015928969
000020 eb 24 c2 bc b7 fb 78 bc 59 04 03 bc 01 0e 07 3c
       -0.023699244 -0.015196732 -0.007996642 0.008243085
000030 34 e4 fe ba 7c 53 ff ba e9 43 ef ba c0 a7 af bb
       -0.0019446672 -0.0019479836 -0.0018254492 -0.0053605735
000040 0c a7 ff bc e4 e8 3f 3b de c8 82 bc c2 c3 9a 3c
       -0.031207584 0.00292831 -0.015964922 0.018892173
000050 0b e9 75 bc 88 10 a4 3c 2b 26 ab 3c a1 c3 0d 3c
       -0.015009175 0.020027414 0.020892223 0.008652599
000060 d3 13 d6 3a a1 13 20 3b f3 86 98 bc 98 9e ce bb
       0.0016332812 0.0024425762 -0.018619036 -0.006305527
000070 8c c5 2b bd 44 ca a2 bc 0e dd b4 bb cb 0e 51 3c
       -0.041936442 -0.019871838 -0.005519516 0.012759875
000080 61 b8 ca bb fe 24 17 bc b2 0b 9e bc 31 c4 51 3c
       -0.0061865305 -0.009225128 -0.019292686 0.012803123
000090 89 25 85 3a e5 25 2f 3b e8 dc 44 bc c7 bc 9d 3b
       0.0010158281 0.0026725468 -0.012015559 0.004813764
0000a0 16 73 da ba c4 59 1b bb 4d 72 e8 38 e5 33 77 bc
       -0.0016666378 -0.0023704628 0.00011083912 -0.015088056
0000b0 e5 51 bb ba 00 b5 5d bc 2c 9d 27 bc 0b 25 61 bc
       -0.0014291374 -0.013531923 -0.010230344 -0.013741742
0000c0 41 35 fe 3b b5 37 5f bc 94 c0 8e bc 50 fc 2d bc
       0.007757813 -0.013624121 -0.017425813 -0.010619238
0000d0 b2 f3 7d bb 25 65 b6 bb f5 48 d3 bc 4f 69 e3 bc
       -0.003874999 -0.0055662566 -0.025791625 -0.027760176
0000e0 b7 76 3f bc 17 d6 32 bc 17 ad 9f bc 47 5b 9a bc
       -0.011686019 -0.010915301 -0.019491715 -0.018842353
0000f0 e8 c4 99 bb 0b 4a 8c 3c 08 52 60 bb b1 29 45 bc
       -0.0046926625 0.01712515 -0.0034228582 -0.012033866
000100 00 c2 5b bb 09 08 3e 3c 3f 82 9b ba 8a fd c0 bc
       -0.003353238 0.011598595 -0.0011864378 -0.023558397
000110 7e ae 07 bc 34 fc 92 3b ef ac 9e bc a6 92 bb bb
       -0.008281348 0.0044856314 -0.01936957 -0.005724269
000120 bc a7 9f 3a 5e 81 9f bc 9d 0d 88 3c 36 84 e4 3a
       0.0012180726 -0.019470867 0.016608054 0.0017434421
000130 d1 e9 a9 bc 77 d9 35 bc 60 eb 48 bc ba 22 4b bc
       -0.020741375 -0.011099211 -0.012263149 -0.012398416
000140 be 11 a3 3b 12 a0 86 bc 37 44 8d bb 9f de 27 bc
       0.0049764803 -0.01643375 -0.0043111104 -0.010245948
000150 83 38 b6 3c 82 77 3d bc 62 6e 7c bb 5f 0c 23 bc
       0.022243744 -0.011564137 -0.0038517942 -0.00995168
000160 93 90 70 3c 54 65 a4 bc 53 64 6d 3c 0e 30 33 3c
       0.014682907 -0.020067848 0.014489251 0.01093675
000170 f6 36 e6 bc 7e 78 b2 bc 2c fe 0f 3c 74 cb 38 bc
       -0.02810238 -0.02178597 0.008788627 -0.011278976
000180 d7 ed 36 bb 03 5f 87 bc 48 d5 5a 3b 7b 1b 9f 3b
       -0.002791276 -0.016524797 0.0033391286 0.004855571
000190 51 75 31 bc cd 0c 87 bc 44 77 31 bc 2f aa e2 3c
       -0.010831193 -0.016485596 -0.010831658 0.02766904
0001a0 37 3e 4e bc 83 b8 d9 bc 4b 74 64 bc 0f a4 a5 bb
       -0.012588075 -0.02657724 -0.013943742 -0.0050549577
0001b0 cf 21 0f 3a 93 45 9a bc a0 80 7a bc 88 25 58 bc
       0.0005460055 -0.018832004 -0.015289456 -0.013192542
0001c0 e0 fb 96 bb 41 91 d2 bc 43 f3 b3 bc 0c ed f2 bc
       -0.0046076626 -0.025704028 -0.021966582 -0.029654048
0001d0 ac 85 3e bc ff 97 42 bc c5 f0 ff 3b ad 4c 15 3b
       -0.01162855 -0.011877059 0.0078106844 0.0022781298
0001e0 c2 db e9 3b 18 26 76 bc 98 ac 79 ba e1 ce e1 bc
       0.007136793 -0.015023731 -0.00095243147 -0.027564468
0001f0 46 fc 22 bc 8f 6a 6e bc e6 e3 57 bc 40 51 79 bc
       -0.009947842 -0.014551773 -0.013176894 -0.015217125
000200 0c 3f b3 3c 73 3b 8b 3d c5 0a ad 3c 2a 4c 67 bc
       0.021880649 0.067984484 0.0211233 -0.01411728
000210 12 c7 ae 3c 62 30 a3 3d 30 cf 9a bd d0 2a 5e 3d
       0.021335158 0.07968213 -0.07559049 0.054240048
000220 e8 80 05 bd 84 a8 3f 3d ce 84 13 3c 5b 19 e8 3c
       -0.032593638 0.04679157 0.009003831 0.028332403
000230 b3 59 56 bc 66 81 ce 3c 84 e8 a7 3c 0a 8a 24 3d
       -0.013082909 0.025208186 0.020496614 0.040170707
000240 05 e1 8b 3d da 02 18 3d b8 28 f0 3c 51 63 e6 ba
       0.068300284 0.037112094 0.029316291 -0.0017577206
000250 6d 0b 99 3d 74 d6 f6 3b 47 cd 1b 3d 1a b5 46 bc
       0.074728824 0.007532889 0.038037565 -0.012128139
000260 c3 3b 82 bd 7a 19 11 3d bc ae 48 3c 84 24 8b bd
       -0.06359055 0.035424687 0.012248691 -0.06794074
000270 f6 21 50 bd 72 f2 f6 3c 7b c3 5e bc d0 9e e5 3c
       -0.050813638 0.030144904 -0.013596411 0.02802983
000280 91 7d c4 bd 49 a1 4e 3d 58 99 52 bd fc 3c 7a bc
       -0.095942624 0.050446782 -0.05141577 -0.015273329
000290 c5 8e b3 bc 37 0c 5e 3d bc 89 73 bd f4 dc ff bb
       -0.021918664 0.054210868 -0.059457526 -0.007808322
0002a0 7a 59 b1 3c 72 ab c2 3c c4 86 34 bd d0 40 0d bc
       0.021649111 0.023763392 -0.044073835 -0.00862141
0002b0 4f 83 33 3d 69 df 51 bd 47 33 79 bd dd 8b 78 bd
       0.043826398 -0.05123845 -0.060839918 -0.06068026
0002c0 09 0b 80 bc 21 13 05 3d 53 c0 02 3d 0e 0c 5a 3d
       -0.015630262 0.032488946 0.031921696 0.053234152
0002d0 8e 7c b2 3d ad 1c 87 3d de 1b 79 bd 16 27 20 bd
       0.08715163 0.06597266 -0.06081759 -0.039099775
0002e0 b4 d0 83 3d 29 b1 62 3b e7 4e ba 3d 6c 1c eb 3c
       0.06436291 0.003459046 0.09097081 0.028700076
0002f0 65 d8 fb 3c 10 37 89 bc e1 e6 82 bd 5c 3e 3e 3d
       0.030742833 -0.016749889 -0.06391693 0.04644619
000300 c0 04 50 bd 99 23 f3 3c cd ee 97 3d 18 ad 8f bd
       -0.05078578 0.02968006 0.074185945 -0.07015437
000310 5d ec 89 3d 70 55 9f bc 86 ff 93 bc a0 94 b3 3c
       0.06734536 -0.01944992 -0.018066179 0.021921456
000320 30 ed 11 bc a8 72 17 bd 7b 89 eb 3b 2c cc cb 3c
       -0.008906648 -0.03697458 0.00718802 0.02487763
000330 87 2c 95 3c c3 87 8e bb fe dc 4b 3d 07 c9 87 3d
       0.018209709 -0.00434968 0.0497713 0.0663014
000340 cf c4 d3 bc 37 39 44 3c d4 71 0a bd 86 6b 43 3d
       -0.025850682 0.011976532 -0.03379996 0.047709964
000350 ac b5 45 3b 51 3f 90 bd e8 cb 32 3d da ae 06 bd
       0.00301681 -0.07043327 0.04365149 -0.032881595
000360 e9 3b 5c bd 18 93 70 bd ee be e9 3b 72 15 aa bc
       -0.053768072 -0.05873403 0.0071333563 -0.020762179
000370 99 d5 5c bd 11 33 ea 3c 09 6b f4 3b e5 2b 09 3d
       -0.05391464 0.028588803 0.0074590486 0.033489127
000380 b2 9e 57 bd 14 af 30 3d e9 db 24 3d 4b 25 fc b9
       -0.052641578 0.043135718 0.040248785 -0.0004809297
000390 0c 61 41 bd 0d 7d 16 bd fe ee 5d 3d 36 a6 47 3b
       -0.04721169 -0.03674035 0.054183 0.003046406
0003a0 5d da 65 3d 4d d6 88 3d b4 2b 2b bd 54 6c fc 3b
       0.05611645 0.066815 -0.041789725 0.0077033434
0003b0 b7 f0 78 bd 61 27 0c 3d c6 f2 39 bd 44 55 4d bd
       -0.06077644 0.034217242 -0.045397542 -0.050130144
0003c0 68 bf 08 bd bc 6d 19 bc e9 c5 00 3d b7 07 37 3d
       -0.033385664 -0.009364542 0.03143874 0.04468509
0003d0 2f 70 99 3d 58 aa c4 3c ca 2d 22 3d 2b be 1e 3d
       0.074921004 0.024007007 0.03959445 0.038755577
0003e0 37 c9 12 3d 70 99 2b 3d 88 28 23 bc e3 05 41 3d
       0.035836425 0.041894376 -0.009958394 0.047124755
0003f0 0b c4 53 bd 1e 06 e9 3c 5d 47 36 bd 7d 6d 74 bd
       -0.051700633 0.0284453 -0.04450165 -0.05967473

action_model._discrete_distribution.branches.0.bias f4 [3]
000000 b7 a8 29 bc 1b d4 f1 3b 55 ec 26 3b
       -0.010355166 0.0073800213 0.0025470455

exp_avg f4 [128, 8]
000000 35 4c 4d 39 29 fb 00 ba 85 02 12 39 b5 01 af b7
       0.00019578713 -0.0004920238 0.00013924584 -2.086242e-05
000010 64 26 d3 b9 d2 9f 21 b9 16 d8 bd b9 c1 7c 7c 39
       -0.0004027366 -0.00015413694 -0.00036209886 0.00024079067
000020 28 81 3d 3a fd b8 04 bb 71 fa 4f 3a 4b 67 c8 b6
       0.00072290236 -0.0020251863 0.0007933742 -5.9724894e-06
000030 1f c1 c0 ba ba 29 e2 b9 d2 e9 cb ba ec 41 45 39
       -0.0014705992 -0.00043137168 -0.0015557355 0.00018811942
000040 0b 3f 0a b9 a5 cd e4 39 0e c8 0a b9 20 5d ae b8
       -0.00013184191 0.00043640766 -0.00013235232 -8.3143124e-05
000050 52 10 7a 39 96 be 38 38 7a 1d 74 39 b1 49 d6 39
       0.00023847938 4.4046516e-05 0.00023280634 0.00040872165
000060 a2 e6 c4 b9 e5 1c b7 3a 3d 59 18 ba a2 bc 70 b9
       -0.00037555868 0.0013970403 -0.00058116374 -0.00022958455
000070 6d 63 2b 3a f1 6f ca b9 59 36 78 3a 9c 9b b7 b9
       0.0006537948 -0.00038611845 0.00094685477 -0.00035020418
000080 fb 25 3e b8 c9 b1 03 39 4c d1 cc b8 45 aa 0c b9
       -4.5334902e-05 0.00012559364 -9.7664626e-05 -0.00013414871
000090 dd 57 6b 38 4e 34 31 b8 a6 0d 9a 38 d0 21 89 39
       5.6110195e-05 -4.22488e-05 7.3458345e-05 0.0002615587
0000a0 36 a3 81 38 f6 06 a5 38 b6 26 d2 38 3e 7d 28 38
       6.1816e-05 7.86911e-05 0.00010020791 4.0170962e-05
0000b0 82 37 f0 38 a4 da 1b 39 34 a7 07 38 06 65 88 39
       0.00011454431 0.00014863402 3.234223e-05 0.0002601521
0000c0 05 18 32 39 65 f9 de 39 33 88 ed 35 66 92 61 b8
       0.00016984351 0.00042528953 1.7697515e-06 -5.3780524e-05
0000d0 55 11 83 b6 fc c8 f8 b8 d2 45 75 39 4b 82 4f 39
       -3.906122e-06 -0.00011862998 0.00023391031 0.00019789596
0000e0 6d f1 3c 39 15 13 86 39 77 95 37 b9 84 77 f3 b7
       0.00018019015 0.0002557269 -0.0001750792 -2.9023511e-05
0000f0 20 91 10 38 52 aa 8a b7 39 30 11 39 fa 75 22 39
       3.4467434e-05 -1.6530194e-05 0.00013846242 0.00015493474
000100 cf 9e 1b 38 d0 d8 71 b9 70 7b 15 37 35 f2 9f b6
       3.710278e-05 -0.0002306432 8.909832e-06 -4.766766e-06
000110 60 b4 25 b9 3b a5 24 39 77 ba 62 b9 e1 d5 f1 38
       -0.00015802821 0.00015701812 -0.00021622503 0.000115316136
000120 b3 7e 20 b9 79 16 35 ba fb 5e 88 39 ff 82 a4 b8
       -0.00015305988 -0.0006907951 0.00026010707 -7.844529e-05
000130 f0 49 87 b9 36 12 c4 38 89 0d da b9 4c 25 35 b8
       -0.00025804294 9.3494e-05 -0.00041590285 -4.31885e-05
000140 55 05 07 37 2c 3d af 37 11 f9 93 38 cb 88 2d 38
       8.0478685e-06 2.0890111e-05 7.0558985e-05 4.1373813e-05
000150 eb 98 b5 b7 8d 0d 33 38 66 2a 6e b7 6e df dc 37
       -2.164809e-05 4.2689546e-05 -1.4195777e-05 2.6330086e-05
000160 91 98 bd b8 f5 4e 84 b9 59 65 9e 38 de 53 c3 b8
       -9.04064e-05 -0.0002523583 7.5529046e-05 -9.313946e-05
000170 3f 9f 93 b8 ec 94 bd b8 30 2a 2e b9 b1 1d 64 38
       -7.039168e-05 -9.039961e-05 -0.00016609649 5.438709e-05
000180 3c 35 bc b8 2d ce f8 39 96 df 0d b9 4f b3 cd b8
       -8.974454e-05 0.0004745586 -0.000135301 -9.8085606e-05
000190 d3 71 44 39 a0 f3 84 b4 8b cc 84 39 61 5c 98 39
       0.0001873442 -2.4764176e-07 0.00025329398 0.00029060527
0001a0 46 f2 40 b9 e4 05 ca 3a 02 31 10 ba 85 ad 97 b9
       -0.00018400801 0.0015413132 -0.0005500467 -0.00028930246
0001b0 64 70 62 3a 13 f1 3b 37 3c a3 8d 3a 47 f3 30 3a
       0.00086379633 1.1202198e-05 0.0010806094 0.00067501183
0001c0 ee d5 9d 38 88 17 43 ba af a9 58 39 73 39 15 39
       7.526191e-05 -0.0007442166 0.00020662577 0.00014231149
0001d0 2e 59 cc b9 42 36 5b 39 20 0a 15 ba d8 fa 58 b8
       -0.00038976356 0.0002090568 -0.00056854077 -5.173203e-05
0001e0 26 3e b3 39 56 0e 07 bb a3 1a 39 3a bf c9 c2 39
       0.00034187845 -0.002060791 0.0007061159 0.00037152876
0001f0 08 a0 93 ba 18 9d 4c 39 97 61 ba ba 78 a0 52 ba
       -0.0011262903 0.00019513478 -0.0014219758 -0.0008034776
000200 44 57 a8 39 b1 ea 16 3a 53 0d a3 b7 70 ae 26 39
       0.00032108475 0.00057570176 -1.9437319e-05 0.00015895977
000210 e8 73 ea 37 b7 84 46 b7 aa 41 a3 39 ed d8 c5 39
       2.7948947e-05 -1.183262e-05 0.00031138706 0.0003773639
000220 b0 05 95 ba d9 a6 7f ba 13 95 1b ba ec 2c a6 39
       -0.0011369493 -0.000975234 -0.00059349946 0.00031695457
000230 67 7e cf b9 8b d7 29 3a 73 c8 4c ba 76 4b 92 ba
       -0.00039576294 0.0006478957 -0.00078118517 -0.0011161405
000240 3b bf b3 b9 cc 64 e4 b9 f3 ef 8b 37 a6 2b 91 b8
       -0.00034284018 -0.00043562648 1.6681826e-05 -6.922269e-05
000250 b6 03 ae b8 12 7c b4 38 8c 74 92 b9 64 76 89 b9
       -8.297658e-05 8.606179e-05 -0.00027934124 -0.00026218884
000260 b9 05 2d b8 25 0e 09 ba 0f 5a 58 37 8f 8f ca 38
       -4.1251744e-05 -0.0005228243 1.2895572e-05 9.6588505e-05
000270 e8 ff a3 b9 d8 93 c8 39 9d 9d cd b9 56 18 39 b9
       -0.00031280448 0.00038257125 -0.00039218078 -0.0001765204
000280 38 5d b0 39 c6 01 96 3a b8 fe 54 b9 43 13 3b 37
       0.0003363879 0.001144462 -0.00020312786 1.1150553e-05
000290 1c 1b e5 39 68 32 88 b7 df 88 36 3a 87 75 76 3a
       0.00043698482 -1.6235936e-05 0.00069631444 0.0009401668
0002a0 d6 95 7d b9 07 ac bc ba 58 75 a9 38 93 c6 62 38
       -0.00024183778 -0.001439453 8.080405e-05 5.4067536e-05
0002b0 ef a8 41 ba eb 25 b4 b5 97 68 81 ba 40 c3 20 ba
       -0.0007387539 -1.3422081e-06 -0.0009873089 -0.000613261
0002c0 89 0f 20 b9 3d 3a a3 38 5e 47 3c b9 03 de c9 b7
       -0.00015264576 7.7832934e-05 -0.00017955663 -2.406445e-05
0002d0 34 5c 84 38 8d 6e 70 38 3d 8d 5a 37 a6 ca a2 b8
       6.311425e-05 5.7323417e-05 1.3026697e-05 -7.762508e-05
0002e0 4e 9b 82 ba 0c a7 1d 3b 8d af a0 ba 07 94 11 b9
       -0.0009964497 0.0024055867 -0.001225935 -0.00013883422
0002f0 90 5c 98 3a 87 ab eb b8 70 18 d0 3a 96 fb 49 ba
       0.0011624265 -0.00011237623 0.0015876424 -0.0007705031
000300 77 5e 19 ba 1b e4 e6 3a bb e4 8a ba bd 65 07 39
       -0.0005850563 0.0017615588 -0.0010596731 0.00012912504
000310 97 96 71 3a 9d d6 21 b9 21 49 99 3a 97 4b 8b b9
       0.000921586 -0.00015434106 0.0011694768 -0.00026568465
000320 50 a2 2d 38 71 cb 88 b9 a2 62 ea 38 86 c5 e2 38
       4.139758e-05 -0.00026091517 0.00011176361 0.000108133114
000330 36 01 f6 b8 db 39 6c 38 63 90 4a b9 7d 0e 4c 38
       -0.0001173042 5.6320667e-05 -0.0001931801 4.8650883e-05
000340 bb 6c 08 39 2b 19 ca ba 9b 2f 06 3a 86 01 34 38
       0.00013010476 -0.0015418878 0.0005118788 4.2916763e-05
000350 8f 50 69 ba 1b a0 76 39 ee 30 87 ba f3 aa 69 b9
       -0.0008900249 0.00023520032 -0.0010314265 -0.00022284295
000360 82 a6 03 39 59 de ac ba 28 1b e4 39 af 40 82 39
       0.00012555163 -0.0013188823 0.00043507782 0.00024843725
000370 02 7d 31 ba f5 88 b8 37 0f c5 77 ba 84 8b 95 b8
       -0.0006770642 2.1998285e-05 -0.0009451666 -7.1308605e-05
000380 11 29 e4 b9 17 4e 8f 3a 95 84 2f ba 3f 5a 1a 39
       -0.00043518146 0.0010933307 -0.00066954765 0.00014720204
000390 4f 03 e6 39 06 37 27 b8 a9 d8 2c 3a 57 88 9f b9
       0.00043871484 -3.9867147e-05 0.0006593564 -0.00030428424
0003a0 c8 d8 4b ba e8 26 05 3b c6 44 b9 ba 84 bf be 39
       -0.00077761384 0.002031738 -0.0014134876 0.00036382314
0003b0 7f 9d 93 3a 83 8d cf 39 72 65 b7 3a e0 b0 14 ba
       0.0011262147 0.0003958755 0.0013992025 -0.00056721084
0003c0 e1 71 46 38 6a dd 2f 37 4b ea 61 38 9c 13 b8 37
       4.7312937e-05 1.0482365e-05 5.3862383e-05 2.194364e-05
0003d0 9d a9 a9 b6 90 59 f8 b7 ea e0 43 37 b0 65 6d 38
       -5.056338e-06 -2.960561e-05 1.1675273e-05 5.6599907e-05
0003e0 1e ad b6 b9 c3 e2 8b 3a e0 12 b0 b9 4f e5 b4 b7
       -0.00034842727 0.0010672439 -0.000335834 -2.1564452e-05
0003f0 26 62 09 3a a6 e8 4f b8 f1 89 22 3a 27 af b1 39
       0.00052407605 -4.9569317e-05 0.00062003644 0.0003389057

exp_avg_sq f4 [128, 8]
000000 1c ce 6b 34 b5 2d 75 34 62 c5 80 34 ff 5f a5 33
       2.1961063e-07 2.2834031e-07 2.3985473e-07 7.700873e-08
000010 dd 42 07 34 34 bb 9a 34 a9 6a 86 34 88 ce 35 34
       1.259718e-07 2.8820943e-07 2.503705e-07 1.6932074e-07
000020 58 21 27 36 d7 53 f5 35 23 68 59 36 5f d0 5d 35
       2.4904348e-06 1.8278323e-06 3.2396135e-06 8.2632135e-07
000030 37 e2 91 35 9b 41 68 36 65 da 13 36 98 03 04 36
       1.0869179e-06 3.4608881e-06 2.203183e-06 1.9671625e-06
000040 ce 1a 5e 34 2f db 58 34 ce 3f 92 34 bc 4f eb 33
       2.0685113e-07 2.0196306e-07 2.7241043e-07 1.0957544e-07
000050 6c 7f 03 34 80 c2 dd 34 86 2b 7d 34 a2 ed 5a 34
       1.2246682e-07 4.1305975e-07 2.3578295e-07 2.0389282e-07
000060 6e b8 f5 35 f7 91 9c 35 ec 03 10 36 88 4c 03 35
       1.8307599e-06 1.1665387e-06 2.1459955e-06 4.891267e-07
000070 d7 a8 45 35 04 67 28 36 99 7d c0 35 29 ff a8 35
       7.3633913e-07 2.5093914e-06 1.4341668e-06 1.2591237e-06
000080 85 14 8f 33 62 18 af 33 49 f2 97 33 4e 75 fd 32
       6.662689e-08 8.153508e-08 7.075557e-08 2.950642e-08
000090 1f c2 44 33 c0 54 f3 33 b9 63 be 33 06 52 71 33
       4.581136e-08 1.1330985e-07 8.865704e-08 5.6186785e-08
0000a0 a8 3a 8d 34 a6 a5 55 34 7a 66 a1 34 0e 18 04 34
       2.6305975e-07 1.9897433e-07 3.0063148e-07 1.2302209e-07
0000b0 5e fb 0d 34 d9 28 26 35 f5 f7 92 34 5c 74 7e 34
       1.3223095e-07 6.189926e-07 2.7375032e-07 2.3697925e-07
0000c0 06 ea 31 35 3f 5c ee 34 31 3e 4f 35 29 f2 83 34
       6.627819e-07 4.4398072e-07 7.720401e-07 2.4576846e-07
0000d0 d3 b7 af 34 63 d7 49 35 d8 bb 16 35 bb bf 05 35
       3.273004e-07 7.5191764e-07 5.6152703e-07 4.9825366e-07
0000e0 71 0b 78 34 cc 15 33 34 cc f3 69 34 14 63 ee 33
       2.3100962e-07 1.6678604e-07 2.1788509e-07 1.1100761e-07
0000f0 d5 ca ee 33 3f 4e a8 34 31 98 6b 34 2c d7 36 34
       1.11196336e-07 3.134937e-07 2.1941447e-07 1.702835e-07
000100 90 ab 69 34 5a ea 0e 34 7b 27 82 34 81 ad 9b 33
       2.176223e-07 1.3310037e-07 2.4243113e-07 7.24931e-08
000110 8c 41 bc 33 ba 7e 98 34 3e 0e 41 34 4f 0d 32 34
       8.766355e-08 2.8404412e-07 1.7979707e-07 1.6582383e-07
000120 61 68 c2 34 b7 5f b6 34 ec 9a e6 34 05 ef 2a 34
       3.6211262e-07 3.3969783e-07 4.295356e-07 1.5919439e-07
000130 82 0e 92 34 74 28 03 35 d5 98 ea 34 78 42 a6 34
       2.7205175e-07 4.886017e-07 4.3697096e-07 3.0968272e-07
000140 8e f8 24 33 b6 0b 03 33 88 b7 1d 33 29 bc 86 32
       3.8410285e-08 3.0511465e-08 3.672133e-08 1.5685218e-08
000150 58 4c 8c 32 64 48 57 33 48 cb 23 33 43 78 db 32
       1.6332862e-08 5.0124427e-08 3.8136278e-08 2.5549644e-08
000160 78 f1 97 33 f4 f4 80 33 bb 6d 8e 33 f7 32 ff 32
       7.075408e-08 6.005021e-08 6.63235e-08 2.9709083e-08
000170 72 e2 49 33 df bf cc 33 a6 fa bb 33 3e b9 6a 33
       4.700491e-08 9.5343914e-08 8.753459e-08 5.4650847e-08
000180 3a 70 b5 34 1b cd 98 34 e9 0e ed 34 b0 77 12 34
       3.3795533e-07 2.846144e-07 4.415554e-07 1.3640852e-07
000190 31 b6 3f 34 31 b5 19 35 c6 b4 b8 34 32 f8 95 34
       1.7854542e-07 5.726061e-07 3.44042e-07 2.7934e-07
0001a0 9d f6 b8 35 20 ff a8 35 c8 dd e8 35 f4 77 04 35
       1.3780842e-06 1.2591227e-06 1.7349894e-06 4.9348387e-07
0001b0 ae 38 51 35 6f 8a 14 36 5a fd bd 35 24 5a 99 35
       7.7941047e-07 2.2134298e-06 1.4155332e-06 1.1425623e-06
0001c0 a6 29 0c 35 6f dc dd 34 56 a8 1a 35 05 48 84 34
       5.221467e-07 4.1324844e-07 5.761443e-07 2.4639317e-07
0001d0 ee de 80 34 cc 2a 58 35 f9 97 0c 35 b8 99 dc 34
       2.400406e-07 8.052855e-07 5.2375213e-07 4.1090038e-07
0001e0 69 9f 52 36 7f d5 27 36 26 0a 84 36 b2 1d ab 35
       3.1385227e-06 2.500921e-06 3.935088e-06 1.2749135e-06
0001f0 59 c2 cd 35 7d 0e a6 36 ec f6 44 36 36 25 34 36
       1.5330253e-06 4.948872e-06 2.9350003e-06 2.684375e-06
000200 0e 2d 64 35 02 a3 24 35 e3 57 91 35 33 2f d5 34
       8.500218e-07 6.133197e-07 1.082892e-06 3.9708684e-07
000210 f9 1e 00 35 8d 5c 9b 35 5d 9c 53 35 5f 12 44 35
       4.7728787e-07 1.1575336e-06 7.8831164e-07 7.3042423e-07
000220 dc f5 cf 35 6b 78 9e 35 14 ab b4 35 bb 00 3b 35
       1.5494256e-06 1.1806964e-06 1.3460835e-06 6.966399e-07
000230 61 5c 70 35 ca 9a c3 35 e3 6c c3 35 b5 5c 9a 35
       8.9541396e-07 1.4573682e-06 1.4560322e-06 1.1500875e-06
000240 5b 45 77 34 3d 67 49 34 1d ec 56 34 9f cb f7 33
       2.3028899e-07 1.8757142e-07 2.00162e-07 1.1538872e-07
000250 5c 4d 22 34 ed f4 78 34 9d 4b 80 34 67 7f 38 34
       1.5115569e-07 2.3185903e-07 2.3896874e-07 1.7182684e-07
000260 1d 78 c4 34 46 83 a1 34 4d 12 e5 34 6b d6 3b 34
       3.659524e-07 3.00841e-07 4.266789e-07 1.7493737e-07
000270 b2 a7 5f 34 bb 8b 0b 35 cd e7 d4 34 fe 07 a6 34
       2.08295e-07 5.198487e-07 3.9656734e-07 3.0925725e-07
000280 7d e0 29 36 29 61 fd 35 3b 8d 43 36 51 b9 95 35
       2.5313632e-06 1.8878246e-06 2.9139471e-06 1.1155299e-06
000290 a6 b6 ae 35 0a e3 6e 36 f0 76 22 36 de 1a 04 36
       1.3017168e-06 3.5596918e-06 2.4209112e-06 1.9685172e-06
0002a0 98 d9 1a 36 04 1c f7 35 7c 5e 43 36 8c c5 56 35
       2.3074444e-06 1.8411088e-06 2.9112261e-06 8.000868e-07
0002b0 24 c6 a2 35 2a e1 5b 36 49 2a 19 36 88 07 03 36
       1.2127607e-06 3.2764606e-06 2.282339e-06 1.9524905e-06
0002c0 ac c1 41 33 c2 f9 1c 33 34 34 4b 33 11 66 bb 32
       4.5112458e-08 3.6548734e-08 4.73121e-08 2.181608e-08
0002d0 45 85 ac 32 17 2c 19 34 4e 2d 46 33 a8 04 18 33
       2.008404e-08 1.4265275e-07 4.6141672e-08 3.5394493e-08
0002e0 03 92 9a 36 28 fd 49 36 f7 ed ba 36 98 24 b4 35
       4.6065556e-06 3.009869e-06 5.5709347e-06 1.3421695e-06
0002f0 b9 13 0a 36 2d 2a be 36 99 5a 65 36 c2 d4 5b 36
       2.0575083e-06 5.667351e-06 3.4176394e-06 3.2757384e-06
000300 6d af f9 35 ce cf c1 35 f1 b8 19 36 ca 86 23 35
       1.8603001e-06 1.44401e-06 2.2906427e-06 6.0918376e-07
000310 fa be 91 35 6f fa 21 36 5c 8d f7 35 5a fe cd 35
       1.0858923e-06 2.413664e-06 1.8444075e-06 1.5347716e-06
000320 08 38 2a 34 bc 07 e2 33 1c 0a 2e 34 ee d1 75 33
       1.5852868e-07 1.0525352e-07 1.620869e-07 5.7234438e-08
000330 66 86 81 33 03 fb a8 34 a9 3d 18 34 5b ef e2 33
       6.0314775e-08 3.1475074e-07 1.4178535e-07 1.05674836e-07
000340 9c 13 94 35 fb 93 86 35 cd f9 ad 35 68 53 eb 34
       1.1032566e-06 1.0026846e-06 1.2962206e-06 4.3832847e-07
000350 17 bf 39 35 69 a6 c8 35 56 5a a3 35 30 fe 7b 35
       6.9195943e-07 1.4949593e-06 1.2170738e-06 9.387468e-07
000360 42 f8 ce 35 19 37 a4 35 a4 1f f1 35 0b f0 2d 35
       1.5420449e-06 1.2234988e-06 1.7965108e-06 6.479683e-07
000370 6f 72 41 35 e8 5e 21 36 ce 8d cd 35 99 d5 96 35
       7.2064626e-07 2.4046112e-06 1.5314961e-06 1.1238036e-06
000380 f3 25 98 35 3c f8 57 35 62 d0 b6 35 72 0f d8 34
       1.1335927e-06 8.045497e-07 1.3620704e-06 4.0244373e-07
000390 7f 04 29 35 db cc bb 35 be c8 82 35 01 fd 67 35
       6.296395e-07 1.3992207e-06 9.744178e-07 8.6422375e-07
0003a0 08 2e 62 36 de 19 21 36 02 c8 88 36 3e 3b 87 35
       3.3703418e-06 2.4005926e-06 4.0764e-06 1.0075526e-06
0003b0 f1 80 e2 35 5f 57 8b 36 79 fa 49 36 d7 7c 2b 36
       1.6875839e-06 4.152694e-06 3.0097128e-06 2.5553652e-06
0003c0 e0 f4 9a 32 d8 aa 68 32 17 c9 95 32 2b 23 06 32
       1.8039316e-08 1.3543023e-08 1.7437328e-08 7.807823e-09
0003d0 19 c1 17 32 d7 3e 0f 33 e3 b3 a0 32 59 e7 63 32
       8.833262e-09 3.3351935e-08 1.8708255e-08 1.3265741e-08
0003e0 4f f9 e3 35 2a 43 96 35 15 eb 0f 36 8b a2 44 35
       1.6985376e-06 1.1195418e-06 2.1445496e-06 7.325222e-07
0003f0 24 5f 44 35 0a 5b 3f 36 6c 2f b8 35 2b a4 c3 35
       7.315414e-07 2.851421e-06 1.372287e-06 1.4576411e-06

exp_avg f4 [128]
000000 32 1e c8 b9 87 bb 0e ba c5 50 a9 b9 38 84 66 39
       -0.0003816947 -0.0005444814 -0.0003229437 0.00021983765
000010 7f 49 27 b9 d0 c0 16 b9 15 09 df 38 86 5d 34 38
       -0.0001595374 -0.00014376943 0.0001063516 4.3002445e-05
000020 b4 38 00 b8 2a d4 78 b9 de be 00 b8 8b 90 4b b8
       -3.0570387e-05 -0.0002373016 -3.0695337e-05 -4.8533588e-05
000030 71 8e 94 b8 c5 03 19 ba 7e 9a a9 37 b2 49 06 39
       -7.083722e-05 -0.00058370485 2.0218311e-05 0.0001280669
000040 b4 20 28 38 36 0d 50 b9 3e f4 22 b9 92 5e 17 39
       4.008478e-05 -0.00019841347 -0.00015540511 0.00014435712
000050 24 31 d2 b9 68 ec 40 ba 00 62 5f b8 7d 73 3d 3a
       -0.00040090934 -0.0007359446 -5.3258613e-05 0.0007226987
000060 51 fa 72 39 1e 98 ca b7 bb c9 7e b9 67 7d 3f b9
       0.00023172169 -2.4151112e-05 -0.00024298478 -0.00018261895
000070 e1 3e a8 39 4d fd 59 3a 40 e0 25 37 fa e8 c2 b8
       0.00032090305 0.0008315638 9.886979e-06 -9.294036e-05
000080 e8 81 e2 b8 31 64 bf b8 57 78 83 b8 1a 4b 89 36
       -0.00010800717 -9.126252e-05 -6.268982e-05 4.091661e-06
000090 91 4e f7 b8 8a e8 45 b9 9c ff 6e b9 14 fa 85 38
       -0.00011792512 -0.00018874012 -0.0002279267 6.388515e-05
0000a0 fb ab 0e 39 2d 5f 70 39 82 81 93 38 dd 48 49 b9
       0.00013606243 0.0002292364 7.033629e-05 -0.00019195997
0000b0 92 60 48 b8 81 e4 a5 b9 fe 6b 2f ba e1 d3 22 b9
       -4.7773654e-05 -0.000316415 -0.00066918123 -0.00015528455
0000c0 e3 1f 46 3a bd e1 1e ba 0a df 1f ba 73 58 b0 38
       0.0007557852 -0.00060608593 -0.0006098604 8.408809e-05
0000d0 da 4d 88 b9 25 91 0d ba 68 72 bb b8 c8 fd 5e 39
       -0.00025997945 -0.00054003514 -8.938165e-05 0.0002126611
0000e0 f0 e7 b5 ba a9 4a 30 39 19 23 0c ba 36 22 a3 39
       -0.0013878327 0.00016812481 -0.0005345806 0.00031115272
0000f0 33 54 fd b8 70 29 7d 38 44 62 b9 39 b0 ea e0 b9
       -0.000120796634 6.0358492e-05 0.00035359163 -0.00042899465
000100 7b 7c d0 b8 f1 bc 63 39 d9 5a de b9 a7 0d b7 b8
       -9.941399e-05 0.00021718793 -0.00042410826 -8.728663e-05
000110 a3 40 9c 39 26 6b 04 b4 95 0b 86 ba 52 65 00 37
       0.00029802797 -1.2332438e-07 -0.001022684 7.652985e-06
000120 ce 37 a4 38 5d be 35 b8 18 fd dc 39 4e 3d f6 b8
       7.830524e-05 -4.3331052e-05 0.0004215024 -0.00011741613
000130 b5 34 00 b9 93 3c 3e 39 4f cf 30 3a d0 0d b9 b9
       -0.00012226666 0.00018142378 0.00067447586 -0.0003529624
000140 86 ff 0d ba 95 ad 1c 37 40 eb 8c b9 ad d7 26 b9
       -0.0005416799 9.33874e-06 -0.00026878156 -0.00015911339
000150 4c a1 4e b8 37 f5 33 39 a3 11 3e b9 f8 9c d2 39
       -4.9264447e-05 0.0001716212 -0.00018126382 0.00040171272
000160 59 38 26 b9 e9 5d d9 b8 3c b2 03 39 8f f0 70 39
       -0.00015851985 -0.000103648585 0.00012559531 0.00022977799
000170 ad 98 c3 b8 04 65 8f 39 a3 91 1e b9 58 13 8b b8
       -9.326763e-05 0.00027350348 -0.00015122308 -6.6316396e-05
000180 31 94 2f ba 33 89 9e b8 f6 78 96 38 22 74 24 39
       -0.00066978025 -7.5595824e-05 7.175088e-05 0.00015683522
000190 f5 fc 37 b9 53 61 22 ba 8c 92 4d ba e2 4b 85 ba
       -0.00017546474 -0.0006194312 -0.00078419666 -0.001016971
0001a0 0f 5a b9 b8 b7 ec 50 b9 37 ee 1d ba ce 21 8f 36
       -8.838262e-05 -0.00019924609 -0.00060245715 4.2656675e-06
0001b0 ea cc 11 ba ff 57 17 ba 87 17 79 b9 85 1e 20 39
       -0.00055618456 -0.00057733053 -0.00023755255 0.00015270158
0001c0 1d 0c e0 39 f3 6e 0c ba 87 d4 9b 38 50 3a d1 38
       0.00042733634 -0.0005357109 7.430562e-05 9.976758e-05
0001d0 bf 9a 48 ba 26 e3 99 b9 64 a3 07 b9 b6 0c aa 3a
       -0.00076524535 -0.00029351673 -0.00012935471 0.0012973759
0001e0 6b 81 6e 37 18 12 2e b9 b1 7d 70 b9 49 d9 46 38
       1.4216038e-05 -0.00016600674 -0.00022935007 4.740924e-05
0001f0 bf 24 55 b9 86 25 41 b8 29 cd b2 b9 e7 11 16 ba
       -0.00020326952 -4.6049732e-05 -0.00034103662 -0.00057247136
