results/BTB_v1/Pong/Pong-129892.onnx (onnx, 75505 bytes, 8 tensors)

network_body.observation_encoder.processors.0.normalizer.running_mean f4 [8]
00000000: 60cb 4a37 7699 663d 11d8 eb3c 837c 46b9
00000010: 53c7 f13c e233 7bb9 82af 133d 82ff ff3e
1.208749e-05 0.056298696 0.028789552 -0.00018929136 0.02951399 -0.00023956553 0.03605605 0.49999624

network_body._body_endoder.seq_layers.0.weight f4 [128, 8]
00000000: 5dc5 02be fe45 e83e 6917 5bbe f94d 813d
00000010: 52dd e13e 9205 82be d6df 963e 6b62 353e
00000020: 2cae 1abc 2b0a 183f 3a4b 07be 09ee 7bbe
00000030: 41d3 96be 9713 5f3d 6bbb c23c 8eee d7be
00000040: d1dd 81bf ce7f 9dbe 0674 d33e c500 9cbd
00000050: 2d29 913d b67b b0be 8ffd aebd e0fd bdbe
00000060: d7df febe 90da adb9 4b08 82be 59d4 9b3e
00000070: 2f93 673f 25f1 f23e 43f2 733e 1e3b b13b
00000080: 3ed2 68bd 9959 05bf 005d b53c 1ca7 063f
00000090: f080 253e ae94 b53e cd25 27bd 21a6 b7be
000000a0: 9426 013f cd26 d83d a0b7 b73e 887b 54be
000000b0: ec10 ecbe 6a35 e1be 5b9a 40be 0f31 933e
000000c0: 7ba9 4abd bbaf afbe a973 89bd 8a41 15be
000000d0: 0197 b23e 39ac 383e 0796 1ebc 2ed8 493f
000000e0: b5e1 5d3e c8cd 633f 0805 49be 82c2 95be
000000f0: 4e55 d43e d650 cf3e 0189 73bf b41a 40be
00000100: e60b 86be c1eb f33c 9322 ff3d 6d4e 75be
00000110: 9015 b2be cd73 633e 1f27 05bf 1396 c6be
00000120: 8846 87ba 7bf4 3a3f 29f8 183f cbb4 093d
00000130: 7c5a fc3b 3c14 f3bd 6777 48be 7737 bf3d
00000140: 590b 5cbf a517 0e3f 4a70 073d a618 8ebe
00000150: 680c 893e 7668 1bbe e7fe 2abe 203b a0bd
00000160: fa36 973e ae7d 36be ca3b e33e 6a46 1b3e
00000170: 89ef 1f3e 1d94 cb3d 383b a63e b2a9 b53d
00000180: a670 a5be adb7 6bbe 9a80 b5be afa3 b9bd
00000190: b02c 6abc 8f58 8e3c 5cf2 acbe acd0 033e
000001a0: 5cfc 89bc 7cf1 07bf 5e9c 38bd a929 e43c
000001b0: b22f 0c3e d0e8 563e c3d5 573e 7510 16bf
000001c0: 3a6e 55bf 6f9b c4be 6a09 abbc b33b f13e
000001d0: c8c0 9cbe 0649 be3e c336 ef3e fd35 5c3b
000001e0: 0208 8bbe b37c 623e 1248 983e 7b9d 17be
000001f0: 30c5 e4be 3e4a 113c 1cee 4bbb 6406 01be
00000200: f1ae a53e b794 7bbe 5c63 0abd ed8f 9ebe
00000210: 46e7 453e 369d 89be 80c4 da3b ce62 a53e
00000220: e012 d43e e8e4 1e3f 6084 02b6 f4ec 553f
00000230: b693 68bf 859b 573e 819d e3be 5fd8 2b3f
00000240: 80d4 f93d 081b 173e 22f4 d63d b279 9a3e
00000250: 4a6b 3e3e 146c 653e ebb3 fdbd ce9b 893e
00000260: d731 9abe 059d 22bf 13f4 ec3c 5e20 003e
00000270: 9b18 adbe 4e8d 41be 4ba2 033d e451 c9be
00000280: aea5 103f 1443 98bd 769b 92bb 76da 28bf
00000290: 94a7 c43c 864a 93be 9ba2 02bf 9d8e 9dbe
000002a0: e5a9 dabd 50f0 a13e 8178 babe 2b6c 1b3f
000002b0: 7818 30bf 6c03 51be 0380 ad3e 89b0 0d3f
000002c0: 396b cd3e 826b d23e ac17 0c3f 7fbe f1bd
000002d0: 874f 0a3f 18b2 0f3f 8470 09be 3743 493e
000002e0: a107 a6be d44e 903e 1f35 3abe bb06 a6be
000002f0: a5e7 3a3f b688 b33d 578e 00bf 76ca c13d
00000300: c5fb 85be 2fd5 92be 821d b73e 4b4d 023e
00000310: 27cd 683f 9ad9 4abe e8d4 873e 2a1f bdbe
00000320: b25a 3fbf 15d1 20be 7de2 0b3f 0010 36be
00000330: 007c bcbe a124 3f3e 8893 503e 41f3 67bc
00000340: f1e0 a6be 1cd4 8a3e 9189 903e 23a9 ca3e
00000350: 1a19 a53d 22e5 06be 1f35 d7bd d0c3 8fbd
00000360: 4cab f0be cd42 9f3e b37c 3abe 6686 6f3e
00000370: ae32 82be 4662 3b3f 5ef4 fd3a 745f f73d
00000380: 41e4 c6be dedb 363e 76bb 043e ee25 69bd
00000390: 35f7 213f ac59 7abe 06b8 a93d bf45 803d
000003a0: 0e0d d1be 1154 663b 5612 0e3e 28d3 7cbe
000003b0: 5943 683f a4af 91be 8899 e33e 10f5 e4be
000003c0: 5f9d 86bd 6450 78be 2ca0 f23e 99b8 7c3d
000003d0: ffd7 c83c 4cb3 1bbd 1fd1 ecbd 6aab e7bd
000003e0: 0025 02be 47a3 6bbe 624d debd 9a97 0cbf
000003f0: 108b 093e 1f30 0dbf e6dd 02be ccd3 85be
-0.127706 0.453659 -0.21395649 0.063137 0.44114166 -0.25394875 0.29467648 0.17713325
-0.00944094 0.59390515 -0.1321229 -0.24602522 -0.2945805 0.05446204 0.023771008 -0.4217419
-1.0145818 -0.3076157 0.41299456 -0.07617334 0.07087932 -0.34469384 -0.08544456 -0.37107754
-0.4978015 -0.00033159973 -0.25396952 0.30435446 0.9045896 0.47449604 0.23822884 0.0054086586
-0.056841128 -0.5208984 0.022139072 0.5259874 0.16162467 0.35464996 -0.040807534 -0.35868934
0.5044949 0.10554276 0.35882282 -0.20750248 -0.4610666 -0.43986064 -0.18808882 0.28748366
-0.049478035 -0.3431376 -0.067115135 -0.14575782 0.34880832 0.18034448 -0.009679324 0.7884549
0.21668132 0.8898587 -0.19630826 -0.2924996 0.41471332 0.4049136 -0.95130926 -0.18760186
-0.26180953 0.029775502 0.124577664 -0.23955698 -0.34782076 0.22212143 -0.5201282 -0.38786373
-0.0010320703 0.730293 0.5975366 0.033619683 0.0077012163 -0.11869094 -0.19576798 0.09336751
-0.85954815 0.5550483 0.03306607 -0.2775318 0.26767278 -0.15176567 -0.166988 -0.07823777
0.2953413 -0.1782138 0.44381553 0.1516358 0.15618719 0.0994036 0.32467055 0.088702574
-0.32312506 -0.23019286 -0.35449678 -0.09064423 -0.014292881 0.017376212 -0.33778656 0.12872571
-0.016843967 -0.5310285 -0.045071 0.027851896 0.1369007 0.20987248 0.21077637 -0.5861886
-0.8337132 -0.38399836 -0.020878512 0.4711586 -0.3061583 0.37165087 0.46721467 0.0033601515
-0.27154547 0.22117881 0.29742485 -0.14806168 -0.44681692 0.008867798 -0.0031117266 -0.12600094
0.32360032 -0.24568449 -0.033786163 -0.30969182 0.19326505 -0.26877755 0.0066762567 0.32301944
0.4142065 0.62068033 -1.9448562e-06 0.83564687 -0.9085039 0.2105542 -0.44456103 0.6712703
0.12198734 0.14756405 0.104957834 0.3017097 0.18595615 0.2240451 -0.12387832 0.26876682
-0.3011615 -0.6352084 0.028924977 0.12512347 -0.33807835 -0.1890156 0.032137197 -0.3932029
0.5650281 -0.07434669 -0.004474099 -0.65958345 0.024005689 -0.28767794 -0.51029366 -0.30772868
-0.10676936 0.31628656 -0.36420062 0.60711926 -0.68787336 -0.20411462 0.33886728 0.55347496
0.40120867 0.41097647 0.5472362 -0.11803912 0.540276 0.56131124 -0.13421828 0.19654547
-0.32427695 0.2818514 -0.18184327 -0.3242701 0.7300971 0.0876631 -0.50217193 0.094624445
-0.26168647 -0.2867827 0.357647 0.12724797 0.9093804 -0.19809571 0.26529622 -0.3693784
-0.74747765 -0.15704758 0.5464247 -0.17779541 -0.36813354 0.18666317 0.20368779 -0.014157117
-0.32593492 0.27114952 0.28229955 0.39582166 0.08061428 -0.13173345 -0.10508179 -0.0701977
-0.4700569 0.31105652 -0.18211631 0.23391113 -0.2542929 0.7319683 0.0019375195 0.12078753
-0.3884602 0.1785731 0.12962136 -0.05692094 0.63267833 -0.2444827 0.08287053 0.06263303
-0.40830272 0.0035145322 0.13874182 -0.24689925 0.90727764 -0.28454316 0.44453073 -0.44718218
-0.06572985 -0.24249417 0.47387826 0.061699484 0.024517057 -0.038012788 -0.11563324 -0.113119915
-0.12709427 -0.23011504 -0.10854603 -0.54918826 0.13431954 -0.5515155 -0.1277996 -0.2613815

network_body._body_endoder.seq_layers.0.bias f4 [128]
00000000: 1a0a 82bb 1442 a23c 9503 1b3d 85cd e93a
00000010: aad3 553c 0ca2 323c b603 283c d124 f23b
00000020: 1957 e83c 0ee0 9ebb 62fd af3c 2c67 483b
00000030: 2f51 8a3c 8df1 f43c 5f9c 0e3d c0b1 8d3c
00000040: d149 f1bb 9d8c b83c c17d 73bc 2ef0 a13c
00000050: 99be d53c 8f04 333c f023 0f3b 0169 ab3c
00000060: fe68 3b3c 06a9 793c 1a7b c1ba edd6 c33c
00000070: 9e1f bd3c 2977 1039 3b4a a3bb 8159 e33c
00000080: 175b c7ba d07d 883b 8a91 a3bc 0a0c fd3b
00000090: 779e 763b c965 e83b 6c16 553c 157d 38bc
000000a0: 2e55 363c f5db 043d ee4a 293d 1ff9 a9bb
000000b0: 5ed9 33bb 2012 e2b7 b7f2 a43c 958a c13c
000000c0: 2d33 a83c 2b79 153c 9693 343c ea77 d6bb
000000d0: 3476 983a 5f6c ce3c f157 c53a e5e0 183d
000000e0: 0faf e03c 964d 4a3c 3712 be3c a8a0 8fbc
000000f0: a926 073d 9937 1f3c 8041 4ebb e0aa e93b
00000100: 6402 403c d4fa 1e3c 33e6 803c 5e60 8ebb
00000110: 7cf5 e63c 68d7 15bc 41a0 e93c 073e 983b
00000120: 4bca 123c 3bae 8c3b 9a15 283b 6f24 78bb
00000130: 1594 bcb9 9a86 543c 1921 5e3c 4d50 c03c
00000140: c574 b23c b771 fe3b 7518 43bb 0c80 d0bc
00000150: 03a8 8fbb b191 e8bc be7f 1f3c 7e9e 3fbc
00000160: dc2f 593c 2eca 8eba 74af b93c b69e 06bc
00000170: b352 6a3a 1cb3 0b3c bce1 fb3b b881 38bb
00000180: 1075 b53c caa5 af3c 3e34 aabb 77bb 893c
00000190: 13f5 cd3b eb9c 0e3d 1c61 a03c bd4b 9d3b
000001a0: b268 38bb f3eb c0ba 55e3 0e3d 025f f23c
000001b0: 0825 a93c 57a6 143b 1536 b7bb 9af3 0a3c
000001c0: bb93 3c3c 6730 93bc a286 97bc 0701 113b
000001d0: 6f15 a13c 64d5 3f3a e436 a43b 8e88 203d
000001e0: 38ee f43a 68aa 353c 790b a53c ca97 dd3c
000001f0: 5a0c bdbb 5f34 babc f2f8 31bc 6472 033d
-0.0039684894 0.0198069 0.037845213 0.0017837739 0.013050953 0.010902893 0.010254791 0.0073896428
0.028361844 -0.0048484867 0.021483127 0.0030579073 0.016884414 0.029900337 0.034817096 0.017296672
-0.007363536 0.022527987 -0.014861525 0.019767847 0.02609186 0.01092638 0.0021841489 0.020924093
0.011438606 0.015238052 -0.0014761419 0.023906196 0.023086365 0.00013777301 -0.004983214 0.02775264
-0.0015209642 0.0041653886 -0.01996686 0.0077223824 0.0037631074 0.007092212 0.013005834 -0.011260291
0.011128707 0.03243633 0.041331224 -0.0051871683 -0.0027442793 -2.694974e-05 0.020135267 0.023625651
0.020532215 0.009123127 0.011021515 -0.0065450566 0.0011631907 0.02519816 0.0015056116 0.03732385
0.027427224 0.0123475995 0.023202045 -0.017532662 0.032995854 0.009717845 -0.0031472147 0.0071309656
0.01171932 0.009703357 0.015734768 -0.004344984 0.028193228 -0.009145595 0.028518798 0.004646066
0.008959363 0.004293231 0.002564764 -0.0037863513 -0.00035968484 0.012971545 0.013557696 0.02347579
0.021784196 0.0077650207 -0.0029769216 -0.025451683 -0.004384042 -0.028389784 0.009735046 -0.011695502
0.0132560395 -0.0010893994 0.02266667 -0.008216551 0.0008938715 0.00852659 0.0076868217 -0.002815349
0.022150546 0.02144136 -0.005194216 0.016813023 0.0062853186 0.034817617 0.019577555 0.0048002885
-0.0028138575 -0.0014718756 0.03488477 0.029586319 0.02064754 0.0022682154 -0.005591164 0.008480931
0.011509831 -0.017967416 -0.018496815 0.0022125856 0.01966354 0.00073178695 0.0050114263 0.03919273
0.0018686717 0.011087991 0.020147072 0.027049918 -0.0057692947 -0.02273005 -0.010862576 0.032091513

network_body._body_endoder.seq_layers.2.weight f4 [128, 128]
00000000: e653 903b 9775 3abd c251 33bc 2ada a1bd
00000010: 804b 033e 5180 72ba 171c f1bc ff10 44be
00000020: 0581 20be 81ef f0bc 0b6f aabc de0a b4bd
00000030: b787 d1bd 0812 c8bc 741b c03c 3bc0 f23c
00000040: b3b7 7bbd cc54 903c 0d89 24bb 2772 0f3c
00000050: 8192 043d a3e5 273d e6bb 1ebd 3490 193d
00000060: e912 8fbd 6bd7 e1bd c413 29be 69a0 313d
00000070: e74d 1d3e c82c 07be 1420 603c 24ea 943c
00000080: 7a38 623d 443a 813d 4464 473d 7a2e b6bd
00000090: 8a2a a9bd b3ad 7fbe 411a e03d d2cd c1bd
000000a0: aa92 d6bd 557c d33d fc94 d2bc e276 a3bc
000000b0: 9736 68bd 1010 003e 48d2 77be d17d 2dbd
000000c0: da0e debd 6226 b3bb c7a0 e93d e026 64bd
000000d0: 862c 15bd c324 ccbd f5d5 253e 50d9 a1bd
000000e0: 0dd9 2f3d 6344 59be b404 9f3d b82b 9abd
000000f0: 13dc c6bd 50b4 a63d 720e 933c 4ba1 31be
00000100: b908 24bd 53e4 da3d 32eb 83bc 8788 17bd
00000110: 2c61 0ebe 9bc2 88bc 57c8 ac3d aede c9bd
00000120: 23c0 f1bd 9696 6cbd 69f3 483d 9146 3b3d
00000130: a494 dfba 5c6f e33d 333a 1f3c b114 fe3c
00000140: 4d7d 0cbc 08b3 093d fc4a ad3d 5de9 e5bd
00000150: d879 f53c 44e9 fbbd 042d 0d3d 4d94 df3c
00000160: 1df4 af3c 1182 03be df84 8d3d 1958 493e
00000170: b120 dbbb 3e19 aabd 4e0e 973d e12b ec3d
00000180: c303 82bd cd27 6bbd 8420 573d b941 28bc
00000190: 8267 d2bc f938 263e 6102 38be 84fe df3d
000001a0: 0c45 283d 4318 08bd 6d78 93bd 6895 b13c
000001b0: a455 873d 8e75 92bd 6b88 cf3b bf99 49bd
000001c0: a0d0 81bc cb87 5b3d 6f15 8ebd 73e5 47be
000001d0: 657f 523e f84c 6bbe c37f 49bd f8e1 a3bd
000001e0: 7624 a2bd fb90 aa3d bfd2 d63d 05d6 84be
000001f0: c758 8abd 0f73 623d 2e96 65bc 7966 ce3b
00000200: be17 0f3e 090b 5cbd 1b6d 853d 52d0 e03d
00000210: 8e5d 00be 8739 ccbd 06ba 213e 593c 05be
00000220: 1057 cd3c 6c8a 54bd 6f83 d4bd f4ae a0bc
00000230: 6887 c53c d546 8a3d 1275 e93d e495 f73d
00000240: 06a3 33bd 8854 3f3d bac1 c93c b350 ddbd
00000250: 1bd9 f4bd 1757 183e aa00 93bd 6fb4 7ebc
00000260: c28b 21be 10ee 6bbd c572 503c 29dc 6c3d
00000270: 8b61 67bd d8dc 733a 0972 b03d c6a6 3a3c
00000280: cb2a 61bd cbdd 2b3d 9f31 583d fe7e e83d
00000290: 9954 fcbc 8134 acbd f486 cdbd 388e 113d
000002a0: 816e 2b3d f589 993d 5388 f0bc cde7 47be
000002b0: 1242 9fbc 64dd eb3d 40a4 afbd 1083 493d
000002c0: 9f9f acbd 44db 49bd 85af c13c 8d3b 70bd
000002d0: 519d 343d 6039 9bbe e13c bbbd bd66 163d
000002e0: 9e44 23be 233b 883e e159 c6bd 1dba dabc
000002f0: 466b 47bb 2c3e 0c3e 25ca 3bbb eb28 82be
00000300: 8216 ba3d 1a3b 233e a653 933d 8ecf df3c
00000310: 08f7 043e d2fd 17be 073f 16be 08f3 30bb
00000320: 5204 ccbc dbbf 9c3d 9b64 f5bd 1147 4dbd
00000330: ba4b 14be 6204 ecbd a5c4 dbbc 327f 893b
00000340: be65 f4bd 3f51 0bbd 4550 2fbe 7d8b d83d
00000350: b366 943b d865 17bd 41bd b2bd f13c 103d
00000360: ce0d ce3d b3ae 853d 9777 e53d f65f 17bd
00000370: 2914 eebd 9833 e03d 1707 c5bd 68d8 d2bd
00000380: 7b65 45bc 4403 b3ba 4a1b 68be d304 3b3e
00000390: 1545 0ebe 1e11 253d 523b 9dbc 80fc fb3b
000003a0: abb5 873b 21b3 81bd bd16 4f3e e265 013e
000003b0: 8878 6fbd 3b19 f73d 30aa 433d ee6e a33d
000003c0: 5f9d 493d f515 ae3d d41b ed3c 0a74 dbbb
000003d0: 7cb7 81bc c708 a53d 7111 bf3d f20b ebbd
000003e0: 2e2e 9abd 5a94 aebc 0d5e 3fbd 7c9e f53d
000003f0: 5287 ccbb 7012 0e3d b96c 433c cd3c 583d
0.0044045327 -0.0455223 -0.010944786 -0.079029396 0.1282177 -0.0009250688 -0.02943234 -0.19147108
-0.15674217 -0.02941108 -0.020804903 -0.08791135 -0.10230964 -0.02442266 0.02345059 0.029632678
-0.061454486 0.01761856 -0.0025106103 0.008755243 0.03236628 0.040990483 -0.038753413 0.03749104
-0.06986029 -0.11027416 -0.16511446 0.04336587 0.15361749 -0.13200676 0.013679523 0.018178053
0.05522964 0.063099414 0.048679605 -0.088955835 -0.08260067 -0.24968605 0.109425075 -0.09463085
-0.10477193 0.10326449 -0.025705807 -0.019954149 -0.056692686 0.12506127 -0.2420131 -0.042356316
-0.108426765 -0.005467222 0.11407619 -0.055701137 -0.036419414 -0.09967949 0.161949 -0.07902777
0.042931605 -0.21217494 0.07764569 -0.0752787 -0.097099446 0.08139861 0.017951224 -0.17346685
-0.04004738 0.10688081 -0.01610336 -0.036995437 -0.13904256 -0.016694358 0.08436649 -0.09856926
-0.11804225 -0.057760797 0.04906026 0.045721594 -0.0017057848 0.111052245 0.009718466 0.031015726
-0.008574796 0.033618003 0.08461568 -0.11226151 0.029965326 -0.12300351 0.03446676 0.027292395
0.021478707 -0.12842585 0.06910109 0.19662513 -0.0066872467 -0.08305596 0.07375775 0.11531807
-0.06348374 -0.057411004 0.052521244 -0.010269576 -0.025684122 0.16232671 -0.17969657 0.10937217
0.041081473 -0.033226263 -0.07200704 0.021677688 0.066081315 -0.07151328 0.006333401 -0.04921889
-0.01584655 0.0535963 -0.06937682 -0.19521122 0.2055641 -0.2297858 -0.04919411 -0.080020845
-0.079171106 0.08328434 0.104894154 -0.25944534 -0.06755214 0.05528551 -0.014012856 0.006298837
0.139739 -0.05372146 0.06514951 0.10977234 -0.12535688 -0.0997191 0.15793619 -0.13011302
0.025065929 -0.051889822 -0.103766315 -0.019614674 0.024112418 0.067517914 0.113992825 0.12089136
-0.043856643 0.046711475 0.024628509 -0.10806408 -0.11955472 0.14876972 -0.07177861 -0.015545948
-0.1577597 -0.05760008 0.012722676 0.05782715 -0.05648951 0.00093026226 0.086155005 0.011392301
-0.05497245 0.041959565 0.052781697 0.11352347 -0.030802058 -0.08408452 -0.10035506 0.03553602
0.04185343 0.07497016 -0.02936188 -0.19522019 -0.019440684 0.11516836 -0.0857625 0.049197257
-0.08428883 -0.049281374 0.023643265 -0.058650542 0.04409534 -0.3031721 -0.09142471 0.036719073
-0.15944144 0.26607618 -0.09685112 -0.026700074 -0.003042893 0.13695592 -0.0028654423 -0.25421843
0.09086324 0.15940514 0.07193689 0.02732065 0.1298486 -0.14842919 -0.1467248 -0.0027000327
-0.024904404 0.07653781 -0.119820796 -0.050116602 -0.14482012 -0.115242735 -0.026827166 0.004196071
-0.11933468 -0.03401303 -0.17120464 0.1057348 0.0045288443 -0.03696236 -0.087275036 0.03521437
0.10061227 0.06527462 0.112044506 -0.03695675 -0.11624939 0.10947341 -0.09620493 -0.102951825
-0.012048121 -0.001365759 -0.2266666 0.18263559 -0.1389354 0.040299527 -0.019193325 0.0076900125
0.0041415296 -0.06332994 0.20223518 0.12636521 -0.058464557 0.12065359 0.047769725 0.079801425
0.049222346 0.08500282 0.028943934 -0.0066971825 -0.015834562 0.08058315 0.093294986 -0.11476888
-0.07528339 -0.021310974 -0.046720553 0.11993119 -0.0062417174 0.034685552 0.011927777 0.05279236

network_body._body_endoder.seq_layers.2.bias f4 [128]
00000000: aaf1 633b 42f9 983c 9296 ef3a da66 853b
00000010: 2c8e a0b9 b593 a63c 9f12 d43c 9315 e13a
00000020: d240 7d3c f030 313c 8ecb 18bb 00b6 083b
00000030: 877f 06bc 3c3e 6c3b 1dd9 acbb 337c d53a
00000040: 095c 2a3c 64e7 53bb 1d73 8dbb 5f1d 0d3b
00000050: 6887 923b 80e0 01bb 37d0 c23a 9baf c0bb
00000060: 75d8 873c bb3a c139 51ff 173c 7a08 fc3c
00000070: 512d 983c 3b8b a23b 1cfd 2b3c 13f1 503b
00000080: 90c5 c03c 7c44 843a 65a9 443c 585e 6e3b
00000090: 873a b0bb 3ba9 ab3b 8ad2 953c 3a14 253a
000000a0: 545b 0dbb 3a6d 91bb 3730 713c 2f3c 303c
000000b0: e837 913c f5bf 5f3c 763f 983c ff66 af3c
000000c0: 1f80 843b f9e5 6d3b ac87 243b 9cc0 183c
000000d0: 8f84 033c 4864 8c3c 8964 e83c 5115 9e3c
000000e0: 9910 f93b 0f78 683b 702c 993c f703 ad3a
000000f0: 4acd debb 7987 da3a 6cde c13c 4029 7d3b
00000100: 7d1d aa3c f604 253b db1f a83b e8f3 b83c
00000110: 2e14 9c3c f8b7 003b b9ba 333c 5b5d 63bb
00000120: 0218 c93a f01a 583c 04ee dfbb f33b 0cbb
00000130: 1009 0d3c 3b20 eb3b f3fd 16bc 2c93 a43b
00000140: 22cb b23b 5835 d43a 0740 1f3c ccb5 003c
00000150: 1a05 863a 82b9 cd3c 7554 c2ba b3b6 943c
00000160: 482c 283c e4fa aa3c 87f7 e8bb e3f3 443c
00000170: bee5 bb3c 676a 2ab9 709d 93ba 269f 3d3a
00000180: 9df0 893c 352a 7c3c 0610 9d3b 4664 153c
00000190: e3e2 b13c e9df 743c eaef 183b bf66 a03b
000001a0: e0ab 293c 6695 303c ecb4 d93c a599 78bb
000001b0: 09dc b23c 37fc b7bb 7874 743c 08da 733c
000001c0: b66f 923c 045e e53a 5a6d b3b9 7fb5 663b
000001d0: dbd6 813b f814 6fbb dad7 a3bb b05d e63b
000001e0: 9bda 2ebc 1595 d13b 2738 8a3c cbda 1bbb
000001f0: 56c6 f13c 4712 4c3b 1442 923c 5a8b bd3c
0.0034781494 0.018673543 0.0018279126 0.0040710988 -0.00030623504 0.020334104 0.025887785 0.0017172567
0.015457349 0.01081489 -0.0023314687 0.0020860434 -0.008209116 0.0036047837 -0.0052749054 0.0016287625
0.010397919 -0.0032333964 -0.004316701 0.00215324 0.004471708 -0.001981765 0.0014863078 -0.005880309
0.016582707 0.00036855586 0.009277181 0.03076576 0.018576296 0.004960445 0.010497358 0.0031881973
0.023531705 0.0010091211 0.012003277 0.0036372151 -0.0053780708 0.0052386797 0.01828887 0.00062972645
-0.0021569328 -0.0044380696 0.014720968 0.010756536 0.017726853 0.013656606 0.018584948 0.021411417
0.0040435935 0.0036300404 0.002510528 0.009323265 0.00802721 0.017137662 0.028368251 0.019297274
0.0076008555 0.003547195 0.018697947 0.0013200034 -0.0067993747 0.0016672454 0.02366563 0.0038629323
0.020766014 0.002517996 0.0051307506 0.022577241 0.019052591 0.0019640904 0.010969811 -0.0034693095
0.0015342238 0.013190016 -0.0068337936 -0.0021398037 0.008608118 0.007175473 -0.00921582 0.005022427
0.005456344 0.0016190214 0.009719855 0.007855844 0.0010224909 0.025112871 -0.0014826196 0.018153524
0.010264464 0.020871587 -0.0071095857 0.012021038 0.022936698 -0.00016252101 -0.001126213 0.0007233493
0.016838366 0.015390922 0.00479317 0.009118145 0.021714633 0.0149459625 0.002333636 0.004895061
0.01035592 0.010777807 0.026575528 -0.0037933376 0.021833437 -0.005614783 0.014920346 0.014883526
0.017875534 0.0017499332 -0.00034223014 0.0035203395 0.0039623803 -0.0036481004 -0.0050000967 0.0070302114
-0.010672237 0.006395946 0.016872479 -0.0023781534 0.02951352 0.0031138824 0.017853774 0.023137737

action_model._discrete_distribution.branches.0.weight f4 [3, 128]
00000000: fbb5 d03c 257e 84bc eb8c b13b 3e26 323c
00000010: ec2e 6dbc d2f2 d2bc 6cee b5bc 33c5 37bc
00000020: ca76 9bbc 5e5e 85bc 7cfa 8c39 ea3b b33c
00000030: 1a43 c8ba 06ac 4ebc 6ed7 8e3a bdd7 9abb
00000040: 108d d9bc d7f9 09bb 39f4 31bc ccfe c13c
00000050: 9d92 7bbc d557 433c a510 8b3c 44bf e43b
00000060: 64e8 6a3b 10d1 313c 8061 9dbc 8e14 683b
00000070: c0f5 dfbc be07 94bc 8f15 c2b9 648e a93c
00000080: 4506 4bbb e6c7 febb fadb 98ba 8ed9 683c
00000090: f1cf 283c 43e1 5b3b 6dad 08bc d032 2d3c
000000a0: 1620 193c 8d03 063c 4ef0 8e3b edca 40bc
000000b0: 1a4e 03bc 3047 0bbc b918 feba ab66 1bbc
000000c0: 714d 3c3c bc1c 98bc 390e 5cbc c79e 80bc
000000d0: d456 95bb 5ec3 0ebc c6ec 8cbc 8cb9 86bc
000000e0: a8c4 47bc 450d 7ebc f4f8 89bc 0de5 68bc
000000f0: 8ab2 ca3a 110b 313c f647 7a3b 7a37 38ba
00000100: d4e6 d3bb 435e ae3c a9d2 173a ec97 78bc
00000110: 51e7 06bc 3ab2 3a3c 0c83 78bc 5b6b 82bb
00000120: e038 a73b 62ab 57bc 6b53 053c da37 0a3c
00000130: 1c8f 9abc 41c0 4abc 2f22 85bb 9fa7 3dbc
00000140: fe6c b33b 288a 97bc cf1e 1b3c bc6d 3fbc
00000150: 99b4 863c 31bc 71bb b3e1 2e3b 0f32 8fbb
00000160: 0088 c23c 2206 7abc 3730 f23b 7623 6b3c
00000170: 828e 96bc 1089 95bc e99b 883c df5c 68bc
00000180: 92a7 e33b f419 88bc 19d7 44bb fb22 853c
00000190: 8472 5939 eea2 5bbb c6ea a2bb ce1e e53c
000001a0: 581e 7fbc 91ed b8bc ad0f 21bc dcfe 05bc
000001b0: 8bb2 9e3b 94ce 1cbc 745e adbb b987 3abb
000001c0: e431 a63b 76de 16bc 05ef abbc fbbd e5bc
000001d0: 5d73 24bc 1186 12bc a911 133c 900a c2bb
000001e0: c382 3b3c fdb4 9abc 30c7 30ba 8a70 98bc
000001f0: c9bb 4abc 1ee8 adbc 8fe3 3abc f27f b8bb
00000200: 078d f4bb 247a 3d3d 3fe6 313c e99e 64bc
00000210: 21b1 703c e577 843d 0c1c 2fbd 73f4 003d
00000220: 7308 c2bc b99d 073d 1f13 c43a e414 8fbc
00000230: f6b6 39bb 61ca 823c 6219 8d3a ff83 f03c
00000240: ce6a 383d a07d a43c 91de f13b 84ba 47bc
00000250: ce5f 503d 1a62 8b3c e753 e63c b81e e9bb
00000260: a9b9 1bbd a9f4 f33a 38bf 473c 56b8 12bd
00000270: 582c 2cbd 3baa 853c 624d a6bc 8c67 79bc
00000280: 239a 70bd 5afa d93c 3224 fcbc f7f4 fabc
00000290: 89dc 54bb 5227 e33c 1ab3 03bd 8e68 01bd
000002a0: c24b 8ebb 84cb 0c3b 0ca1 f1bc fa8b 2bbb
000002b0: 6e74 023d 4d3a d5bc 8357 14bd d384 10bd
000002c0: 6cad 98bc 2ff5 8d3c a555 0c3c fb76 1f3d
000002d0: 0b3b 533d 6b71 363d 767c 21bd 10af 9dbc
000002e0: cf03 1f3d b429 1b3b 9f87 853d 33ba ba3b
000002f0: 1868 753c 0fa0 32ba 9de3 19bd 6952 603c
00000300: a8df b5bc 0fa9 053b c5cf 363d 3a7a 28bd
00000310: ff4f 3c3d d885 f6bb 5242 d5bb f56c 883b
00000320: caef 7fbc c356 a3bc cf45 dabb 97bf 863c
00000330: db8d 8c3c d61c 523b 49c7 c43c 7161 f63c
00000340: 74b8 95bc a4c3 633a b9c8 89bc 3d69 1e3d
00000350: e00b 48bc 67b7 1bbd 5b18 913c e702 21bc
00000360: b958 f1bc 28ed eebc 7896 a9ba 2290 1eba
00000370: 1bfe f0bc 7acc 983c 5fa6 d7bb d26f 2d3c
00000380: 2d66 cbbc 0a9b 0f3d 3666 ef3c f147 ebbc
00000390: 7ed8 a8bc c6fe 4ebc f5fe f83c b11b 8ebc
000003a0: 6f55 043d e896 5a3d acd6 c6bc 9d17 043c
000003b0: 758b 11bd bad1 0c3c d656 eabc bd92 77bc
000003c0: 821f 6abc 85d3 afbc 05ef 333c 5d91 a33c
000003d0: 896d 493d a047 943a f05e 5d3c 7841 e53c
000003e0: 5ef5 863c 7804 103d e3ea 58bb a554 b83c
000003f0: 1bef a3bc 8ff4 f93c 18c6 c4bc 5aa3 f3bc
0.0254774 -0.016173432 0.00541841 0.010873375 -0.014476519 -0.025750551 -0.022208415 -0.01121645
-0.018977541 -0.01628035 0.00026889506 0.021879155 -0.0015278787 -0.012614256 0.0010897943 -0.004725425
-0.026556522 -0.0021053457 -0.01086145 0.023681067 -0.01535478 0.011922796 0.01697571 0.0069808085
0.0035844082 0.010853067 -0.01921153 0.0035412642 -0.027338862 -0.018070098 -0.00037018626 0.02069778
-0.0030979079 -0.0077752946 -0.0011662238 0.014212025 0.010303483 0.0033551014 -0.008342129 0.010571197
0.009346029 0.0081795575 0.0043621426 -0.011767131 -0.008014226 -0.008500859 -0.001938603 -0.009484927
0.011493073 -0.01856839 -0.013431125 -0.015700711 -0.00455747 -0.008713571 -0.017202746 -0.016445898
-0.012192883 -0.015506093 -0.016842343 -0.014214766 0.0015464586 0.010805861 0.0038189865 -0.00070273096
-0.006466726 0.021285182 0.00057915837 -0.01517294 -0.008233861 0.011395032 -0.015167963 -0.003980083
0.0051032156 -0.013163419 0.008137564 0.008436168 -0.018867068 -0.012374938 -0.004062913 -0.0115756085
0.0054756394 -0.018498495 0.009467795 -0.011683878 0.016443538 -0.0036885852 0.002668482 -0.004369981
0.02374649 -0.015260251 0.0073910016 0.014351716 -0.0183785 -0.018253833 0.016675906 -0.014182298
0.006947466 -0.016613938 -0.0030035435 0.016252032 0.00020737393 -0.0033513862 -0.004971835 0.02796879
-0.015571199 -0.022574218 -0.009830398 -0.008178439 0.0048430613 -0.009570736 -0.0052908007 -0.0028462245
0.0050718654 -0.009208312 -0.020987997 -0.028044691 -0.01003727 -0.008943097 0.0089763785 -0.0059216693
0.01144475 -0.01888513 -0.00067435484 -0.01860835 -0.012373873 -0.021228846 -0.011406793 -0.0056304866
-0.007463101 0.04625906 0.010858118 -0.013953903 0.014690668 0.064681806 -0.042751357 0.031483125
-0.02368567 0.0331094 0.0014959312 -0.017466016 -0.0028337813 0.015965642 0.0010765011 0.029359816
0.045023732 0.020079434 0.0073812683 -0.012190465 0.050872616 0.017014552 0.02811618 -0.0071142577
-0.038018856 0.0018612343 0.012191586 -0.035820328 -0.042034477 0.016316524 -0.02030057 -0.015222441
-0.058740746 0.026608635 -0.030778978 -0.030634386 -0.0032480082 0.02772871 -0.032153226 -0.03159385
-0.004342527 0.002148361 -0.029495738 -0.0026175962 0.031849317 -0.026028777 -0.03621627 -0.03528292
-0.018637381 0.017328827 0.008565341 0.038931828 0.05156998 0.044541758 -0.039425336 -0.019248515
0.03882199 0.002367598 0.06520008 0.005698466 0.014978431 -0.0006814012 -0.037570585 0.013691523
-0.022201374 0.0020394956 0.04463174 -0.04113219 0.045974728 -0.0075232796 -0.00650815 0.0041633793
-0.015621135 -0.019938832 -0.006661154 0.016448779 0.017157486 0.0032060645 0.024020808 0.03007576
-0.01827643 0.00086885155 -0.016819345 0.03867458 -0.0122098625 -0.038016703 0.017711809 -0.009827352
-0.029461252 -0.02916582 -0.001293852 -0.0006048699 -0.029418042 0.01865219 -0.0065811123 0.010585742
-0.024828995 0.035059966 0.029223543 -0.028720828 -0.020611044 -0.012633985 0.03039501 -0.017347189
0.03230804 0.05336657 -0.024272285 0.0080622705 -0.035533387 0.008594925 -0.02860586 -0.015110669
-0.014289739 -0.021463165 0.01098228 0.019966776 0.049176726 0.001131285 0.013511404 0.02798532
0.016474422 0.03516051 -0.0033098988 0.0225013 -0.020011475 0.030512122 -0.02402024 -0.029740978

action_model._discrete_distribution.branches.0.bias f4 [3]
00000000: 84bc 35bb d37c 8fbb 02ba e63b
-0.0027730772 -0.004378894 0.007041217

onnx::Div_52 f4 [8]
00000000: 554f 2540 61af 923f 4939 b740 b8b0 8540
00000010: 6a42 db3f 0723 913e e73f 6f3f 8100 003f
2.582967 1.1459771 5.725743 4.177822 1.7129643 0.28347036 0.9345688 0.5000077
