results/BTB_v2/Pong/Pong-300012.pt (torch, 447378 bytes, 41 tensors)

network_body.observation_encoder.processors.0.normalizer.running_mean f4 [8]
0.058041546 0.07463153 0.07339013 -0.025282187 0.30181113 -0.31529924 0.31074712 0.49999827
00000000: f9bc 6d3d 6ad8 983d 914d 963d 971c cfbc
00000010: fd86 9a3e e76e a1be 3f1a 9f3e c6ff ff3e

network_body.observation_encoder.processors.0.normalizer.running_variance f4 [8]
1.9959239e+06 464273.1 7.347912e+06 6.6029405e+06 1.6937991e+06 1.3514236e+07 621661.6 75004.25
00000000: 9fa4 f349 23b2 e248 903d e04a 7981 c94a
00000010: 39c3 ce49 fc35 4e4b dac5 1749 207e 9247

network_body.processors.0.normalizer.running_mean f4 [8]
0.058041546 0.07463153 0.07339013 -0.025282187 0.30181113 -0.31529924 0.31074712 0.49999827
00000000: f9bc 6d3d 6ad8 983d 914d 963d 971c cfbc
00000010: fd86 9a3e e76e a1be 3f1a 9f3e c6ff ff3e

network_body.processors.0.normalizer.running_variance f4 [8]
1.9959239e+06 464273.1 7.347912e+06 6.6029405e+06 1.6937991e+06 1.3514236e+07 621661.6 75004.25
00000000: 9fa4 f349 23b2 e248 903d e04a 7981 c94a
00000010: 39c3 ce49 fc35 4e4b dac5 1749 207e 9247

network_body._body_endoder.seq_layers.0.weight f4 [128, 8]
-0.11995144 -0.40988392 -0.15977056 -0.27354786 0.568228 -0.6535168 -0.023119582 -0.3568063
-0.1689905 0.43495703 0.0052957307 0.08996626 0.22602113 -0.48036307 -0.09967735 0.48305014
-0.029901562 0.32997423 0.06012717 0.17924808 0.06389114 -0.08097108 -0.16154537 0.01762614
-0.5090318 -0.7638464 0.109133884 -0.050866757 0.10687483 -0.0782412 -0.49998766 0.13909057
0.11242384 0.4074869 -0.2869866 -0.5596431 -0.004365184 0.7934696 -0.09467084 -0.7874043
0.6317105 -0.006604542 -0.43459895 -0.2177616 -0.488617 -0.41069368 0.06289192 0.11632264
-0.60734725 0.22997467 0.07396263 0.1199054 0.16556007 0.60848254 0.19994986 0.66381073
0.36386973 -0.57606727 0.20253775 -0.053892482 0.09328375 -0.30734167 -0.33713755 -0.19779962
0.2001789 0.23227215 0.43899652 0.8341042 -0.10989682 0.22337592 0.13620007 0.20812167
0.7579603 0.052707024 0.106398836 0.030972157 -0.6649812 0.04841913 -0.86247104 -0.2624854
0.30876666 0.12547687 -0.4701013 0.12615915 -0.056900144 -0.36787188 0.14710477 -0.19776703
-0.8785653 -0.08691999 -0.6546515 0.34510562 0.18589684 -0.044713028 0.012504638 -0.6213029
-0.33568522 -0.20977013 0.9678654 0.26619864 0.06947517 -0.40001294 -0.74682343 -0.2072097
-0.24556264 0.43716833 0.020952273 0.28271443 -0.34526297 -0.4775752 -0.46777856 -0.6509453
0.15272143 -0.31489193 0.25081924 -0.20056692 0.22620052 0.067061625 0.49064338 -0.83130336
0.7779651 -0.10922392 0.45335734 0.34313637 0.11943092 -0.37068182 -0.3406916 0.3040434
0.22360267 1.0083891 -0.46229175 -0.29905218 0.26552188 -0.24664342 -0.043203305 -0.51679057
-0.15132858 -0.11256367 -0.05934261 -0.033487435 -0.1332724 0.18971646 0.4927984 0.35188195
-0.23148903 0.53132653 -0.50791025 0.17129785 -0.79599184 0.1717295 0.09584994 -0.12527505
0.23695663 0.5681219 0.079413526 0.089696966 -0.10120712 0.65460354 0.05454827 0.48813933
0.31520805 -0.19133753 -0.13637468 0.14425643 -0.15097561 -0.21086682 -0.29210988 0.062178213
-0.45626625 -0.22462772 -0.40737104 0.0479971 0.70365787 0.21223807 -0.13220231 0.6737063
0.71145636 0.04075315 0.02153377 -0.44804063 0.20651239 -0.4127979 -0.10319755 0.41651478
0.35551825 0.39509776 0.063713074 1.0030317 0.08867151 -0.14094079 0.40382487 -0.00066361733
0.22041295 0.30700096 0.19615339 0.082117096 0.16767374 0.41093105 -0.23366323 -0.06835145
-0.018463152 -0.2847257 -0.009415862 -0.22225797 -0.11699579 -0.6796787 -0.25739306 -0.19099504
-0.41532528 -0.16819076 0.16110018 -0.4156945 0.095171615 -0.20455876 -0.41834846 0.062063135
-0.2797723 -0.25253084 -0.37872735 0.016864358 -0.37888038 -0.3988173 -0.36400256 0.050983563
0.12578118 0.19340353 0.019940786 0.70684355 0.09367106 -0.024858374 -0.29478142 -0.046444263
-0.41834232 -0.41535747 0.39317182 -0.14531085 0.4005526 0.20199955 -0.010110089 0.11798382
0.26250482 0.6284631 0.08333518 -0.07056257 -0.036384907 -0.036943294 -0.17446199 0.65545416
-0.19210197 0.47501847 -0.41018075 0.1006134 -0.04803518 0.12788646 -0.12906352 -0.30443677
00000000: 1aa9 f5bd 4edc d1be e59a 23be 770e 8cbe
00000010: 6477 113f e14c 27bf 4765 bdbc 51af b6be
00000020: d80b 2dbe b0b2 de3e cf87 ad3b 3b40 b83d
00000030: 1572 673e 26f2 f5be a323 ccbd 5952 f73e
00000040: 1ff4 f4bc 62f2 a83e e847 763d cf8c 373e
00000050: 5cd9 823d 2ad4 a5bd 266c 25be b264 903c
00000060: e84f 02bf 708b 43bf 9681 df3d a959 50bd
00000070: 31e1 da3d ec3c a0bd 62fe ffbe c26d 0e3e
00000080: 783e e63d 1fa2 d03e e8ef 92be c544 0fbf
00000090: d109 8fbb d320 4b3f c9e2 c1bd 5493 49bf
000000a0: c8b7 213f ea6a d8bb c183 debe e6fc 5ebe
000000b0: 022c fabe 7146 d2be 7bcd 803d 903a ee3d
000000c0: 1c7b 1bbf 7b7e 6b3e b879 973d f690 f53d
000000d0: 9488 293e 83c5 1b3f a8bf 4c3e 80ef 293f
000000e0: 224d ba3e 2579 13bf 0e66 4f3e 5dbe 5cbd
000000f0: 8d0b bf3d e35b 9dbe 4b9d acbe fc8b 4abe
00000100: b3fb 4c3e c0d8 6d3e 27c4 e03e da87 553f
00000110: 9511 e1bd a8bc 643e 0878 0b3e d91d 553e
00000120: b009 423f 52e3 573d a2e7 d93d 52b9 fd3c
00000130: 353c 2abf 2353 463d e7ca 5cbf 7d64 86be
00000140: aa16 9e3e 027d 003e 1eb1 f0be dd2f 013e
00000150: 2010 69bd b459 bcbe a2a2 163e 7183 4abe
00000160: a8e9 60bf 1c03 b2bd 3e97 27bf afb1 b03e
00000170: be5b 3e3e 0225 37bd 41e0 4c3c b50d 1fbf
00000180: efde abbe fbcd 56be 07c6 773f 304b 883e
00000190: ff48 8e3d 7fce ccbe d22f 3fbf c82e 54be
000001a0: c674 7bbe 87d4 df3e 1aa4 ab3c f2bf 903e
000001b0: 4fc6 b0be bd84 f4be ac80 efbe 5aa4 26bf
000001c0: 0263 1c3e 8439 a1be 616b 803e 6a61 4dbe
000001d0: 1ca1 673e 9b57 893d 9c35 fb3e 4cd0 54bf
000001e0: b928 473f cab0 dfbd 741e e83e 92af af3e
000001f0: 3398 f43d 02ca bdbe 216f aebe 94ab 9b3e
00000200: 19f8 643e e512 813f 81b1 ecbe 5e1d 99be
00000210: 7cf2 873e 1890 7cbe f3f5 30bd 634c 04bf
00000220: e1f5 1abe c887 e6bd 3d11 73bd 1f2a 09bd
00000230: 8f78 08be 0845 423e 1250 fc3e df29 b43e
00000240: 760b 6dbe 0405 083f 6806 02bf b468 2f3e
00000250: 1fc6 4bbf dcd9 2f3e f94c c43d 1a48 00be
00000260: c2a4 723e 7070 113f 8fa3 a23d 0bb3 b73d
00000270: ae45 cfbd 1994 273f 026e 5f3d 66ed f93e
00000280: f362 a13e fced 43be cea5 0bbe f5b7 133e
00000290: 5a99 1abe 79ed 57be 6d8f 95be 95ae 7e3d
000002a0: bb9b e9be cf04 66be f092 d0be 9b98 443d
000002b0: ec22 343f f054 593e 0b60 07be 0478 2c3f
000002c0: 0122 363f c6ec 263d 9767 b03c 9565 e5be
000002d0: fc77 533e 3f5a d3be 3d59 d3bd 6d41 d53e
000002e0: 7d06 b63e 414a ca3e 007c 823d 5863 803f
000002f0: 6999 b53d c852 10be 22c2 ce3e 9bf6 2dba
00000300: efb3 613e 3b2f 9d3e 6fdc 483e 022d a83d
00000310: aab2 2b3e 8e65 d23e 6a45 6fbe d8fb 8bbd
00000320: 0940 97bc 91c7 91be fd44 1abc 9897 63be
00000330: 7d9b efbd 6cff 2dbf 06c9 83be 3494 43be
00000340: 84a5 d4be 333a 2cbe 72f7 243e e9d5 d4be
00000350: 56e9 c23d da77 51be c531 d6be ea35 7e3d
00000360: 513e 8fbe b94b 81be 8de8 c1be 1f27 8a3c
00000370: 9cfc c1be c831 ccbe 8b5e babe 24d4 503d
00000380: c8cc 003e 930b 463e dc5a a33c b3f3 343f
00000390: 9dd6 bf3d caa3 cbbc 97ed 96be 573c 3ebd
000003a0: f730 d6be bca9 d4be d14d c93e 5ecc 14be
000003b0: 3b15 cd3e f8d8 4e3e c9a4 25bc 80a1 f13d
000003c0: 0867 863e f5e2 203f a3ab aa3d 1c83 90bd
000003d0: 5708 15bd da51 17bd 2aa6 32be d8cb 273f
000003e0: 61b6 44be 9f35 f33e 3603 d2be 660e ce3d
000003f0: 89c0 44bd abf4 023e 3a29 04be 23df 9bbe

network_body._body_endoder.seq_layers.0.bias f4 [128]
0.021039436 0.0038002967 0.0061192526 0.01805086 0.0040858993 0.014811255 0.012729795 -0.0030094616
0.019356776 -0.003330361 0.016702387 0.02052958 -0.010825421 0.03516355 0.031581957 0.00148822
0.011380946 0.015628863 0.042040005 0.025464484 0.019613007 0.0088317115 0.0058014602 0.027516084
0.0250468 0.013489534 0.0053840694 0.01216097 0.014740801 0.02167316 0.011828202 0.0030739647
0.004405337 0.002517841 0.032964356 -0.022177937 -0.0037159137 0.0031772342 -0.023835286 0.049589608
-0.010035895 0.040584676 0.021515042 0.007715062 0.017250994 0.020597147 0.0208456 0.019894842
0.015859414 0.0037743174 0.010204185 0.023831172 0.0011213078 0.033445388 0.0150683215 0.020672912
0.02519835 0.035424273 0.009502149 0.014804384 0.030182563 -0.032917358 0.033286117 0.00991338
0.022365818 0.017809626 -0.00060245075 0.019236585 -0.0043531545 0.0016399332 0.0022762392 0.0065259966
-0.008281984 0.0024670332 0.015142713 0.020837825 0.035684627 0.012702549 0.011972529 0.0016751299
0.01815577 0.002761828 0.012311365 0.012240077 0.019130087 0.023162344 -0.010525384 0.0058306777
0.019679623 0.015135027 0.0030958103 -0.00048879633 0.036916547 0.003991002 0.02190522 -0.006674285
0.05815792 0.020598585 0.023217827 0.0069513083 -0.030260988 0.021159107 -0.019972727 -0.037514266
-0.006037689 0.038304213 0.0146125695 0.01001167 -0.008216074 0.02067683 0.01655029 0.012522285
-0.01986512 -0.004572311 0.011730248 0.024100646 0.02416746 -0.024195649 0.03657486 0.037640166
0.015164295 0.015239118 0.009659966 0.0265746 0.001135428 -0.011100906 0.026991336 -0.0034952513
00000000: e55a ac3c 660e 793b 0384 c83b 66df 933c
00000010: 02e3 853b e8aa 723c a190 503c 633a 45bb
00000020: 1a92 9e3c 3042 5abb 72d3 883c a62d a83c
00000030: 1b5d 31bc a807 103d 155c 013d 6010 c33a
00000040: 2677 3a3c 1a08 803c 2432 2c3d e59a d03c
00000050: 75ab a03c e2b2 103c 2d1a be3b 6969 e13c
00000060: f22e cd3c 3503 5d3c d96c b03b ce3e 473c
00000070: 6783 713c e98b b13c 13cb 413c 9274 493b
00000080: a55a 903b 5d02 253b a205 073d 81ae b5bc
00000090: b086 73bb 2539 503b 3842 c3bc 791e 4b3d
000000a0: 986d 24bc 1e3c 263d 5040 b03c a1ce fc3b
000000b0: f551 8d3c 59bb a83c 64c4 aa3c 82fa a23c
000000c0: 9aeb 813c 8a5a 773b 742f 273c 9739 c33c
000000d0: d9f8 923a 08fe 083d 1fe1 763c 3d5a a93c
000000e0: c56c ce3c 0b19 113d e7ae 1b3c 168e 723c
000000f0: 6c41 f73c 5ad4 06bd 0657 083d bb6b 223c
00000100: 8538 b73c 7ee5 913c c9ed 1dba 0b96 9d3c
00000110: e8a4 8ebb 07f3 d63a f52c 153b 07d8 d53b
00000120: 29b1 07bc f3ad 213b 2419 783c 16b4 aa3c
00000130: 0b2a 123d 5a1e 503c 6d28 443c 0890 db3a
00000140: 69bb 943c c9ff 343b 9cb5 493c 9b8a 483c
00000150: b3b6 9c3c f5be bd3c a972 2cbc 450f bf3b
00000160: 2937 a13c e7f8 773c 14e3 4a3b 9122 00ba
00000170: ce35 173d f4c6 823b 9372 b33c f6b3 dabb
00000180: 0037 6e3d 5dbe a83c 5033 be3c cdc7 e33b
00000190: e4e5 f7bc dd55 ad3c d89d a3bc 8fa8 19bd
000001a0: ced7 c5bb e1e4 1c3d 8f69 6f3c fd07 243c
000001b0: b69c 06bc 7562 a93c 7994 873c 452a 4d3c
000001c0: 2dbc a2bc 53d3 95bb 3a30 403c b86e c53c
000001d0: d6fa c53c f435 c6bc 85cf 153d 932c 1a3d
000001e0: aa73 783c 7ead 793c d644 1e3c fab2 d93c
000001f0: a4d2 943a 93e0 35bc ef1c dd3c 9610 65bb

network_body._body_endoder.seq_layers.2.weight f4 [128, 128]
0.04551427 -0.038309008 -0.09212684 0.10089007 0.14585486 0.1087633 -0.10026209 -0.109498665
-0.11213171 0.05748093 -0.006227452 0.14163846 -0.04761242 0.069732614 -0.026088653 0.11025057
0.10324087 0.060797784 -0.16888507 -0.07571205 -0.020804245 -0.04919211 0.10960316 0.042224426
0.040973213 0.09550283 -0.108552255 0.060655404 -0.17909375 0.020527342 -0.06944688 -0.11644279
-0.069054864 0.074950725 -0.07114451 -0.07196485 0.0473559 -0.0220108 -0.05126637 -0.042495765
0.048101906 -0.08241851 0.011009759 0.0638119 -0.10632436 -0.15055792 0.105848394 0.012025977
0.15374485 0.12829316 0.12100468 -0.012280303 0.06687494 0.09422139 0.08814099 -0.065103285
-0.014350153 -0.12868017 0.058931448 0.08662829 -0.06368159 -0.1362839 0.14176247 -0.12285722
-0.18067794 -0.03974489 -0.005164084 0.017467866 0.07696596 -0.030789778 -0.14576218 -0.15760688
0.09415837 -0.057747617 0.022556825 0.05311171 0.08625291 0.10798219 0.02100233 -0.06625841
-0.050037056 0.0318856 0.1940588 -0.1253223 0.04341289 -0.009696859 0.3466292 0.036188915
0.10444742 0.2350248 -0.083265096 -0.13698712 -0.043699842 0.12400139 -0.07893749 0.109931774
0.0142136235 -0.016048152 -0.056762025 0.17077322 0.065117024 -0.009236924 0.07423638 -0.01599445
-0.15007514 0.21401335 0.051210947 -0.08328722 -0.16592114 -0.07283714 -0.05924784 -0.09520746
0.0036965231 -0.0071186274 -0.004283486 -0.026582543 0.03160454 -0.05348932 0.005557714 -0.025373459
0.11233748 -0.066850066 -0.097611435 0.13493636 0.11182955 0.10783773 0.13493592 -0.005712161
0.0003720194 -0.09056838 0.009107348 0.0349522 0.021566605 0.060431596 -0.011359348 -0.007573085
0.06954201 -0.048414048 -0.01646209 0.0097519485 -0.1774498 -0.09264673 -0.04020355 0.020287279
0.26406267 -0.11829802 0.039501473 0.0847172 -0.21062382 -0.070089385 -0.0130609395 0.14824377
0.06313592 -0.04547819 -0.033400927 0.11461967 -0.013330516 -0.10216298 0.1391442 -0.030023022
0.05704403 0.13339405 0.054704357 0.022137107 0.010981031 0.088233404 -0.011858649 0.115169615
0.077115424 -0.0050920183 -0.06797183 0.0072297105 -0.05156226 0.11887153 0.0043395143 -0.065712154
-0.040501535 -0.07077683 -0.124953605 0.0871999 -0.05899473 -0.08911141 -0.1189782 -0.12931931
-0.046055306 0.18803148 -0.13125816 -0.015247077 0.13401183 0.0006695178 -0.04982815 -0.033993345
0.04234477 -0.009353553 -0.0652502 -0.12462285 -0.073095284 0.077953525 0.008815019 -0.028798612
0.012086682 -0.2893329 -0.11425722 0.0062364354 0.11886863 -0.070158385 -0.12678835 -0.018832918
0.07231715 0.18725161 -0.026118373 0.002392778 -0.13129503 0.09967294 -0.0034498041 0.008807678
0.021711893 0.019003201 0.0730826 0.023189398 0.030702429 0.068753056 0.00867892 -0.025829429
-0.054030593 0.08079735 0.15032838 0.09807082 -0.120758064 0.02736776 0.077344574 -0.04647828
0.13438335 0.11313874 0.051641513 0.09475267 -0.099372506 -0.15898958 -0.07147371 0.013970714
-0.0508931 -0.15876628 -0.033435322 -0.021105938 -0.00232903 0.04885975 -0.08922814 0.020898275
0.12936498 -0.16333404 -0.12560868 0.07040951 -0.009864864 -0.018107899 -0.06955661 0.08750806
00000000: 2c6d 3a3d e8e9 1cbd ffac bcbd 749f ce3d
00000010: fa5a 153e 4bbf de3d 3656 cdbd d640 e0bd
00000020: 4fa5 e5bd 2071 6b3d a70f ccbb ac09 113e
00000030: 3e05 43bd f9cf 8e3d dfb7 d5bc 0dcb e13d
00000040: f36f d33d 1907 793d 35f0 2cbe eb0e 9bbd
00000050: aa6d aabc aa7d 49bd 9f77 e03d 85f3 2c3d
00000060: 87d3 273d fd96 c33d a550 debd cd71 783d
00000070: 5a64 37be f528 a83c 2a3a 8ebd 8f79 eebd
00000080: a36c 8dbd c47f 993d 36b4 91bd 4f62 93bd
00000090: 43f8 413d fe4f b4bc affc 51bd 0a10 2ebd
000000a0: 8106 453d 09cb a8bd 4762 343c d0af 823d
000000b0: 96c0 d9bd db2b 1abe 0bc7 d83d 9a08 453c
000000c0: 4a6f 1d3e 485f 033e 4dd1 f73d 5333 49bc
000000d0: bbf5 883d 25f7 c03d 4383 b43d df54 85bd
000000e0: e71c 6bbc bcc4 03be 1a62 713d 2c6a b13d
000000f0: 7e6b 82bd 028e 0bbe 2e2a 113e 919c fbbd
00000100: a303 39be 8acb 22bd 7a37 a9bb c518 8f3c
00000110: 54a0 9d3d d83a fcbc ae42 15be b363 21be
00000120: 1ad6 c03d c488 6cbd 17c9 b83c aa8b 593d
00000130: 5ea5 b03d c425 dd3d 140d ac3c 7db2 87bd
00000140: a8f3 4cbd 7a9a 023d 5ab7 463e 7d54 00be
00000150: b7d1 313d 93df 1ebc 6279 b13e d43a 143d
00000160: 87e8 d53d 57aa 703e e486 aabd 5a46 0cbe
00000170: 9bfe 32bd 71f4 fd3d fba9 a1bd e923 e13d
00000180: 42e0 683c 6a77 83bc 4c7f 68bd 2ddf 2e3e
00000190: 135c 853d 7856 17bc 3e09 983d cb06 83bc
000001a0: 4cad 19be 5126 5b3e 92c2 513d 7d92 aabd
000001b0: 3be7 29be a32b 95bd ddad 72bd 21fc c2bd
000001c0: 5e41 723b 6043 e9bb 7c5c 8cbb a2c3 d9bc
000001d0: c373 013d 9e17 5bbd 7c1d b63b 00dc cfbc
000001e0: 3111 e63d b0e8 88bd 81e8 c7bd c22c 0a3e
000001f0: e406 e53d 07da dc3d a42c 0a3e 142d bbbb
00000200: 990b c339 ea7b b9bd fc36 153c 0a2a 0f3d
00000210: 73ac b03c 1f87 773d 8f1c 3abc a427 f8bb
00000220: 0b6c 8e3d cf4d 46bd 81db 86bc a3c6 1f3c
00000230: 66b5 35be 92bd bdbd 7aac 24bd 8231 a63c
00000240: 3933 873e 3b46 f2bd 4ccc 213d 3680 ad3d
00000250: c5ad 57be 068b 8fbd 8dfd 55bc 37cd 173e
00000260: 684d 813d 5747 3abd 69cf 08bd b8bd ea3d
00000270: 3d68 5abc d33a d1bd d17b 0e3e d7f2 f5bc
00000280: 00a7 693d 7398 083e ad11 603d e158 b53c
00000290: c8e9 333c b7b3 b43d c74a 42bc 0cde eb3d
000002a0: b1ee 9d3d f2da a6bb d134 8bbd 35e7 ec3b
000002b0: f332 53bd eb72 f33d 7c32 8e3b 1894 86bd
000002c0: f0e4 25bd 71f3 90bd ade7 ffbd dc95 b23d
000002d0: 75a4 71bd 0b80 b6bd d8aa f3bd 486c 04be
000002e0: 7da4 3cbd 538b 403e 8a68 06be e0ce 79bc
000002f0: 663a 093e 9482 2f3a 9a18 4cbd 9b3c 0bbd
00000300: b671 2d3d a53f 19bc e6a1 85bd 443a ffbd
00000310: fbb2 95bd 19a6 9f3d df6c 103c 11eb ebbc
00000320: 3807 463c 7123 94be b0ff e9bd 035b cc3b
00000330: 6571 f33d 33af 8fbd ced4 01be 7e47 9abc
00000340: 041b 943d e3be 3f3e 33f6 d5bc 27d0 1c3b
00000350: 3472 06be 5421 cc3d 1c16 62bb 144e 103c
00000360: 24dd b13c 9aac 9b3c 55ac 953d b1f7 bd3c
00000370: a983 fb3c 67ce 8c3d 0732 0e3c 3d98 d3bc
00000380: 2f4f 5dbd 1579 a53d afef 193e 5bd9 c83d
00000390: 0150 f7bd 5a32 e03c d566 9e3d 0260 3ebd
000003a0: ca9b 093e 49b5 e73d 0d86 533d b00d c23d
000003b0: d083 cbbd 2ace 22be cf60 92bd 6ce5 643c
000003c0: 4975 50bd a193 22be 7af3 08bd 5ce6 acbc
000003d0: a4a2 18bb 2921 483d 3ebd b6bd dc32 ab3c
000003e0: 4178 043e 0a41 27be 909f 00be dc32 903d
000003f0: 3da0 21bc 0457 94bc b273 8ebd 6d37 b33d

network_body._body_endoder.seq_layers.2.bias f4 [128]
0.01788955 0.015997153 0.016699065 0.018579125 0.027653584 -2.936329e-05 0.022139983 0.013750427
0.018261123 0.018196959 0.009465351 0.025337856 0.025138035 0.0051653967 0.014994753 0.013259425
0.00024253693 0.011897713 0.02819201 0.009625773 -0.0005241488 0.024290016 -0.0033005846 0.0053123008
0.011906225 0.02784816 0.026822994 0.020934256 0.01906792 0.030733116 0.016346304 0.010336265
0.015447876 0.030297833 0.026394822 0.038760897 -0.011125051 -0.0038039912 0.013838802 0.0038333426
0.020164587 0.007088539 0.0050068884 0.0146084605 0.0035004623 -0.009094537 0.0049473243 0.013601761
-0.009460384 0.0137287425 0.0069744084 0.012306703 0.03228723 0.0015053771 -0.0070967725 0.006287939
0.02527627 -0.0041956916 0.014481833 -0.010485075 0.0047486103 0.022983434 0.013589866 0.01802701
-0.0010957944 0.018495135 -0.002315226 0.006779733 0.020376455 -0.004936844 0.0069706114 0.034030613
0.019773709 0.024308171 0.014627466 0.017039232 -0.0019629311 0.035405114 0.016680488 0.038238734
0.004972238 0.0019150624 0.012561503 0.00591136 0.003976462 0.015444879 -0.0084484685 0.011684718
-0.004383384 -0.0073978505 0.013391352 0.007404558 0.013693067 0.017328506 0.01584809 0.021157742
0.012753572 0.0022214358 0.009843152 0.0063893064 -0.0011718881 0.022007143 0.007612083 0.003061791
0.016312392 0.023818951 0.029240543 0.006123595 0.050770033 0.014549823 0.020291321 0.0031031973
-0.012904491 0.007048784 -0.0038351305 0.014629066 0.015371133 0.0117113665 0.0055962396 0.009283683
0.01178313 -0.0089184595 0.022207543 0.008167443 0.015082833 0.0047346707 -0.0072646798 0.020018447
00000000: 1b8d 923c 760c 833c 7acc 883c 4033 983c
00000010: c589 e23c 2f51 f6b7 e95e b53c 7949 613c
00000020: 5a98 953c ca11 953c 8f14 1b3c 5691 cf3c
00000030: 48ee cd3c 7d42 a93b 8dac 753c 0f3e 593c
00000040: 8351 7e39 a0ee 423c eef2 e63c 6bb5 1d3c
00000050: 0867 09ba dbfb c63c 9f4e 58bb cf12 ae3b
00000060: 5412 433c d321 e43c e5bb db3c 517e ab3c
00000070: 5434 9c3c 04c4 fb3c afe8 853c 7059 293c
00000080: 1719 7d3c 2933 f83c f439 d83c bfc3 1e3d
00000090: d945 36bc 624c 79bb 25bc 623c d138 7b3b
000000a0: 3430 a53c fa46 e83b d310 a43b 5358 6f3c
000000b0: 0368 653b 4101 15bc 2a1d a23b ecd9 5e3c
000000c0: baff 1abc 85ee 603c 9489 e43b 0ea2 493c
000000d0: 9d3f 043d 1350 c53a 0b8c e8bb 0e0b ce3b
000000e0: 2e10 cf3c 037c 89bb 3645 6d3c 98c9 2bbc
000000f0: 3b9a 9b3b c147 bc3c 08a8 5e3c 61ad 933c
00000100: c2a0 8fba 1c83 973c 0cbb 17bb 8628 de3b
00000110: 86ec a63c 40c5 a1bb ba69 e43b af63 0b3d
00000120: 79fc a13c ee21 c73c 0aa8 6f3c dc95 8b3c
00000130: 85a4 00bb f404 113d 85a5 883c 38a0 1c3d
00000140: 28ee a23b d502 fb3a c3ce 4d3c 15b4 c13b
00000150: fb4c 823b 850c 7d3c 726b 0abc 4271 3f3c
00000160: 7da2 8fbb ab69 f2bb 6767 5b3c efa1 f23b
00000170: e358 603c 83f4 8d3c dbd3 813c 0053 ad3c
00000180: 5cf4 503c 8295 113b 2c45 213c 635d d13b
00000190: 0a9a 99ba 5348 b43c c86e f93b 54a8 483b
000001a0: 91a1 853c f61f c33c dd89 ef3c 70a8 c83b
000001b0: 3df4 4f3d 6162 6e3c fc39 a63c 035f 4b3b
000001c0: 5c6d 53bc 7cf9 e63b d056 7bbb c0ae 6f3c
000001d0: 34d7 7b3c 08e1 3f3c a960 b73b 971a 183c
000001e0: 070e 413c bb1e 12bc 98ec b53c bdd0 053c
000001f0: fd1d 773c 4c25 9b3b 8d0c eebb bafd a33c

action_model._discrete_distribution.branches.0.weight f4 [3, 128]
-0.008966692 -0.003288952 0.004364221 -0.02231509 0.0021149532 0.005211525 -0.0047698705 -0.007469349
-0.02334359 0.0048176674 -0.011303099 0.008694821 -0.008473182 0.012973412 -2.1873784e-05 -0.018182427
-0.008541523 -0.0022448169 -0.009552049 -0.015172493 0.0019162057 -0.0038319062 0.016467042 0.0027486512
-0.018959044 -0.013888435 -0.012917006 0.0052641034 -0.023743115 -0.016346743 -0.02974696 0.011883803
-0.025333613 -0.0055588232 -0.0107815 -0.000656466 0.0036571403 0.010470819 -0.00828413 0.0011593483
-0.02370316 -0.0064526848 0.0077305655 -0.014357486 -0.001553398 0.001264398 -0.0024181043 -0.013000351
-0.0037345623 -0.0024011526 -0.0103181405 -0.011118319 -0.007609379 -0.0077763917 0.01660704 -0.006699168
-0.009871537 0.006023844 -0.0172625 0.0102259815 -0.01382867 0.005643562 -0.017719267 -0.004693049
-0.01118723 -0.010608463 0.012449236 0.0070872377 -0.010920621 0.022821745 0.02069696 -0.01092924
-0.016105544 -0.0089036925 -0.0030033637 -0.008687882 0.0007836507 -0.006099343 -0.013946411 -0.0022539825
0.00033805077 -0.01044006 -0.00022895855 -0.0038581456 0.0030286356 0.001431909 -0.0019611537 -0.0050558317
0.008946145 0.0075351596 -0.012361996 0.0047911005 -0.017034296 -0.009594663 -0.0024893428 -0.024721157
-0.015350287 0.007193971 -0.007360037 -0.0041225906 0.007230987 -0.0018933477 -0.0062608724 -0.0054387758
-0.020233784 -0.015618847 -0.011107236 -0.014391268 -0.009493342 0.0009390686 -0.014992908 0.00032087983
-0.008334428 -0.015114906 0.020911712 0.0023474318 -0.017638313 0.007565933 -0.006124962 0.007955842
-0.0030093852 0.0046148505 0.0021454962 0.008491835 -0.024853539 -0.026850855 0.0043678484 -0.0098782815
-0.028267818 0.021476906 -0.017802326 -0.02487588 -0.032464378 0.011137593 -0.025743118 -0.033467747
-0.021474918 0.017750617 -0.004845895 0.034530785 0.032233845 -0.019860467 0.02903918 0.023358496
-0.02559848 -0.022758033 -0.031323865 0.018019415 -0.029006695 0.026830625 0.009737097 0.020877756
0.033935573 0.030860197 0.037554458 0.028872639 -0.01361654 0.04884043 0.015415772 0.01723524
-0.009061278 0.030674243 0.04120284 0.07486086 -0.01939141 -0.021022959 -0.037616182 0.0076515703
-0.023054723 0.018610926 -0.030173948 -0.023738785 -0.018576955 -0.0102600865 -0.028831095 0.022055117
-0.010115336 0.027771328 -0.010224369 0.020853592 0.04531032 0.0058495994 -0.018221987 -0.024268275
0.030273734 -0.021238124 0.019219546 -0.017083447 0.020491173 0.040566415 0.022696659 0.03774434
-0.026027841 0.029971965 0.008286872 -0.015641864 0.020732742 0.0019049892 0.011426697 0.05001829
0.033206396 -0.020800877 0.017474065 0.029309552 -0.02170644 0.04675837 -0.03692317 0.049501345
0.013255015 -0.0044089044 0.027057245 0.007896012 -0.034005623 -0.030013505 0.0042933933 0.015951818
-0.012922568 0.0037925085 -0.028678123 0.014579715 0.0047633895 0.033091422 -0.051962696 0.032998014
0.021002641 -0.03877805 0.013734692 -0.02343423 -0.014616323 0.029781463 -0.004692181 0.015250961
0.018459486 0.048994243 0.044684824 -0.028570544 0.056665126 -0.03122122 -0.034471083 0.008721656
-0.007713842 0.01152599 0.01044159 0.02079997 0.019688265 -0.03184791 -0.014607864 0.029067297
0.023644207 -0.008303833 0.041911464 -0.024740295 -0.014643556 0.011420965 0.0017767381 0.038562108
00000000: 08e9 12bc 758b 57bb bd01 8f3b 23ce b6bc
00000010: 079b 0a3b 71c5 aa3b 934c 9cbb 71c1 f4bb
00000020: 0e3b bfbc 86dd 9d3b a230 39bc b974 0e3c
00000030: 1ad3 0abc 6f8e 543c 987d b7b7 50f3 94bc
00000040: bef1 0bbc c71d 13bb 3380 1cbc 0c96 78bc
00000050: 3229 fb3a b820 7bbb e4e5 863c b722 343b
00000060: ff4f 9bbc 528c 63bc daa1 53bc 807e ac3b
00000070: ec80 c2bc 9be9 85bc e6af f3bc 48b4 423c
00000080: 7088 cfbc ca26 b6bb e3a4 30bc b016 2cba
00000090: a2ac 6f3b cc8d 2b3c 29ba 07bc 46f5 973a
000000a0: 212d c2bc 0b71 d3bb af50 fd3b a93b 6bbc
000000b0: 639b cbba 28ba a53a 0f79 1ebb 6dff 54bc
000000c0: 8fbf 74bb a85c 1dbb 6b0d 29bc 9c29 36bc
000000d0: 1958 f9bb 1ad1 febb 7d0b 883c b284 dbbb
000000e0: 3abc 21bc aa63 c53b 166a 8dbc e08a 273c
000000f0: a591 62bc a1ed b83b ff27 91bc 26c8 99bb
00000100: a54a 37bc 1ecf 2dbc e1f7 4b3c 0f3c e83b
00000110: 68ec 32bc abf4 ba3c ac8c a93c 8e10 33bc
00000120: c6ef 83bc cbe0 11bc 15d4 44bb 9e57 0ebc
00000130: e96d 4d3a ffdc c7bb 7d7f 64bc 8db7 13bb
00000140: 683c b139 c90c 2bbc 9814 70b9 f1d8 7cbb
00000150: 137c 463b e5ae bb3a b386 00bb 64ab a5bb
00000160: da92 123c 80e9 f63b f889 4abc aafe 9c3b
00000170: 828b 8bbc ef32 1dbc 3e24 23bb 0684 cabc
00000180: c57f 7bbc 67bb eb3b 772c f1bb cc16 87bb
00000190: eaf1 ec3b 352a f8ba 0128 cdbb c237 b2bb
000001a0: 52c1 a5bc 31e6 7fbc 20fb 35bc 5ac9 6bbc
000001b0: f689 1bbc d42b 763a d0a4 75bc c33b a839
000001c0: 208d 08bc 83a4 77bc 0a4f ab3c 5fd7 193b
000001d0: 397e 90bc a5eb f73b e8b3 c8bb 3859 023c
000001e0: 1b39 45bb 2c38 973b 749b 0c3b 5621 0b3c
000001f0: a699 cbbc 53f6 dbbc 2b20 8f3b 84d8 21bc
00000200: e991 e7bc 56f0 af3c 2fd6 91bc 80c8 cbbc
00000210: 5ef9 04bd 737a 363c 3be3 d2bc 7a15 09bd
00000220: 2bec afbc be69 913c 50ca 9ebb 2770 0d3d
00000230: a307 043d 6bb2 a2bc 93e3 ed3c 515a bf3c
00000240: e7b3 d1bc 0e6f babc 744d 00bd 749d 933c
00000250: 739f edbc e6cb db3c 5888 1f3c d407 ab3c
00000260: 0700 0b3d 86ce fc3c b4d2 193d 5086 ec3c
00000270: e817 5fbc e70c 483d 6f92 7c3c eb30 8d3c
00000280: c175 14bc 8d48 fb3c 4fc4 283d a750 993d
00000290: bcda 9ebc 5738 acbc 6d13 1abd 06ba fa3b
000002a0: 42dd bcbc f175 983c 5b2f f7bc d777 c2bc
000002b0: b32e 98bc ec19 28bc 302f ecbc efac b43c
000002c0: cbba 25bc b280 e33c 1d84 27bc 27d5 aa3c
000002d0: 5097 393d ffad bf3b 4746 95bc 43ce c6bc
000002e0: 9f00 f83c 93fb adbc 4f72 9d3c 96f2 8bbc
000002f0: 1bdd a73c f828 263d 58ee b93c cf99 1a3d
00000300: 5738 d5bc c487 f53c a9c5 073c 5e23 80bc
00000310: b6d7 a93c d5b0 f93a 0a37 3b3c fadf 4c3d
00000320: 6e03 083d 9a66 aabc c525 8f3c 961a f03c
00000330: b4d1 b1bc b485 3f3d c03c 17bd ecc1 4a3d
00000340: 902b 593c 9278 90bb 28a7 dd3c 465e 013c
00000350: 7b49 0bbd e2de f5bc 98af 8c3b 63ad 823c
00000360: 2eb9 53bc bc8b 783b 62ee eabc c2df 6e3c
00000370: 3516 9c3b df8a 073d d6d6 54bd ed28 073d
00000380: bb0d ac3c bcd5 1ebd 7907 613c 24f9 bfbc
00000390: 4d79 6fbc 41f8 f33c dec0 99bb 2bdf 793c
000003a0: 5938 973c 30ae 483d 6f07 373d c60c eabc
000003b0: b119 683d a5c3 ffbc 8d31 0dbd 47e5 0e3c
000003c0: 66c4 fcbb 82d7 3c3c 3413 2b3c b364 aa3c
000003d0: 4949 a13c f472 02bd d355 6fbc 8a1e ee3c
000003e0: 7fb1 c13c cd0c 08bc 5bab 2b3d 29ac cabc
000003f0: 87eb 6fbc 001f 3b3c 70e1 e83a 4df3 1d3d

action_model._discrete_distribution.branches.0.bias f4 [3]
-0.00807062 0.010280133 -0.0028368013
00000000: a23a 04bc 016e 283c a1e9 39bb

exp_avg f4 [128, 8]
0.0003912946 -0.00021239859 0.00038275818 0.00023138076 -0.0004652118 0.00031223593 -0.00018369159 -0.0002910086
7.4020165e-05 8.841066e-05 -4.446844e-05 -9.663527e-05 0.00025975678 -0.0002828975 2.4077237e-05 0.00036620835
0.00014020342 0.00016424221 -6.279789e-05 -0.00010047671 0.00032535323 -0.00039310992 0.0001150974 0.0004329315
-2.5787864e-05 -0.00022112418 0.00016707263 0.00029776638 -0.0005067445 0.00034069593 -0.00025244904 -0.00032793434
2.346706e-05 5.5669374e-05 2.275083e-05 -0.00010469969 8.265073e-05 -6.6111614e-05 0.00013111206 5.0138915e-05
-5.3107968e-05 0.00010880362 -0.00015580637 -5.964009e-06 0.00014700288 -0.00012053054 8.778999e-05 0.00018966434
0.00012514129 0.00017255396 -0.0002661149 -0.00021496405 0.00037711943 -0.00017869008 0.000241723 0.0003598774
-9.731427e-05 -0.00016198013 -0.0001159343 7.701693e-05 -0.00035049708 0.00023945098 -0.0001613033 -0.00025905733
0.0004610374 0.00019731342 6.886852e-05 -8.2793355e-05 0.00051320856 -0.0004816131 0.00022405373 0.00062321115
-9.210872e-05 -9.0810914e-05 -2.0097055e-05 4.9405684e-05 -0.000102901744 0.00013253606 -7.875428e-05 -0.000106224754
-1.3438724e-05 0.00014155496 -0.00011012879 -4.632226e-05 0.00013234394 -0.00019056021 0.000111537025 0.00015486042
0.00030169156 -2.7760268e-05 0.00069604965 0.00040882497 -0.00034380116 0.00019790852 -0.0002334877 3.603604e-05
-5.1452684e-05 -7.56274e-05 -2.108668e-05 5.397593e-05 -0.0001696151 0.00012147365 -0.00011347262 -0.000104962186
0.00015506687 0.00014561258 0.00013870567 -9.615317e-05 0.00013714352 -0.000262919 0.00016591592 0.00015995956
0.00017975534 -0.00013567945 0.00027561514 8.151194e-05 -0.0003189136 5.7222398e-05 -0.00025895075 -7.2353025e-05
0.00011485418 -7.688846e-05 7.357367e-06 -2.5559924e-05 -0.0002618757 2.9124201e-05 -8.327795e-05 -7.370402e-05
6.9138005e-05 4.629463e-05 3.5435172e-05 -4.7130583e-05 2.1638281e-05 -8.2197825e-05 3.659718e-05 8.3316e-05
1.6866565e-05 0.00012764306 -0.00018241884 -0.00011582549 0.00021172088 -0.00011562125 0.00016269219 0.00011169077
6.8014415e-05 0.0005511826 -0.00071138353 -0.0005993441 0.0007935328 -0.0008290068 0.0009660898 0.000592078
0.0002434757 0.0001293572 -0.0001341759 -0.00010476533 0.00037492902 -0.00024718212 0.00022767301 0.00045653404
3.38263e-05 -7.347252e-06 -3.0444346e-05 5.357875e-05 -5.2764495e-05 1.0803888e-06 -2.6046011e-05 5.608145e-06
-1.807137e-05 -5.4957923e-06 1.457502e-05 6.784367e-05 -6.172739e-05 5.169669e-06 -5.699039e-05 -6.4834235e-06
1.3162193e-05 -5.071338e-05 -2.6465914e-06 -1.4926548e-05 -0.0001561633 1.9378367e-05 -1.0536061e-06 -0.00020404682
0.00023459835 0.0002903876 -0.00013028333 -5.2809337e-05 0.00047423513 -0.0004697027 0.00029958555 0.0006033757
0.00022283288 8.187825e-05 -7.944648e-05 -0.00012459203 0.00037276404 -0.00023946265 0.00025157272 0.00038417685
0.00027002784 -0.00019183038 0.00024180056 0.00021592132 -0.00043231965 0.00044716572 -0.00013534879 -0.00035865052
3.6195875e-06 -0.00013050392 0.00014538586 0.00012259094 -0.0002727571 0.00027468044 -0.00013356231 -0.00018864713
8.4585816e-05 5.5946624e-05 4.7404174e-05 5.5927147e-05 -2.3293656e-05 -2.2149363e-05 1.0234959e-05 5.9751346e-05
0.00026627348 0.00021402877 6.8010704e-05 -0.00013208369 0.000448419 -0.00036714136 0.00021964913 0.000428279
-1.6935197e-05 -0.00011040032 0.00016410486 0.00018915432 -0.00038795607 0.00023527317 -0.00021834864 -0.000191094
6.789343e-05 0.00011609067 -0.00012312205 -4.2126626e-06 0.00038755493 -0.00032935955 5.8013615e-05 0.00059032865
8.017574e-05 5.934595e-05 -1.9471217e-05 -0.00011633214 0.00014264348 -0.00014351174 0.00016279882 0.00016763357
00000000: ac26 cd39 50b7 5eb9 efac c839 cd9e 7239
00000010: ace7 f3b9 99b3 a339 569d 40b9 8392 98b9
00000020: 463b 9b38 1d69 b938 a083 3ab8 aaa8 cab8
00000030: f72f 8839 dc51 94b9 79f9 c937 a7ff bf39
00000040: 9203 1339 6f38 2c39 5cb2 83b8 06b7 d2b8
00000050: 2c94 aa39 521a ceb9 7260 f138 15fb e239
00000060: 0453 d8b7 92dd 67b9 3830 2f39 871d 9c39
00000070: 0cd7 04ba 6f9f b239 235b 84b9 9aee abb9
00000080: 21db c437 897e 6938 09d9 be37 3892 dbb8
00000090: c654 ad38 67a5 8ab8 207b 0939 404c 5238
000000a0: 3fc0 5eb8 802d e438 f45f 23b9 721e c8b6
000000b0: c924 1a39 57c5 fcb8 e41b b838 a2e0 4639
000000c0: 5c38 0339 9aef 3439 5685 8bb9 f967 61b9
000000d0: 1db8 c539 c15e 3bb9 0677 7d39 edad bc39
000000e0: 3315 ccb8 36d9 29b9 c121 f3b8 2684 a138
000000f0: ecc2 b7b9 2215 7b39 8623 29b9 16d2 87b9
00000100: 64b7 f139 ebe5 4e39 816d 9038 58a1 adb8
00000110: d888 063a 0481 fcb9 f7ef 6a39 fe5e 233a
00000120: 7e2a c1b8 bd71 beb8 1996 a8b7 f338 4f38
00000130: f4cc d7b8 61f9 0a39 e228 a5b8 fbc4 deb8
00000140: e176 61b7 5f6e 1439 f2f4 e6b8 264a 42b8
00000150: cec5 0a39 1ed1 47b9 fce8 e938 0762 2239
00000160: 5b2c 9e39 b9de e8b7 1a77 363a 8f57 d639
00000170: 3640 b4b9 aa85 4f39 61d4 74b9 6725 1738
00000180: e6ce 57b8 279a 9eb8 4de3 b0b7 3764 6238
00000190: b5da 31b9 abbf fe38 26f8 edb8 251f dcb8
000001a0: 7299 2239 94af 1839 8571 1139 d7a5 c9b8
000001b0: 2fce 0f39 64d8 89b9 b7f9 2d39 d1ba 2739
000001c0: b57c 3c39 2d45 0eb9 7080 9039 64f1 aa38
000001d0: dc33 a7b9 1502 7038 c8c3 87b9 3cbc 97b8
000001e0: dedd f038 2d3f a1b8 4ddf f636 8569 d6b7
000001f0: 5d4c 89b9 bf4f f437 82a5 aeb8 8b91 9ab8
00000200: 2ffe 9038 7b2c 4238 3aa0 1438 14ae 45b8
00000210: db83 b537 9f61 acb8 ec7f 1938 f0b9 ae38
00000220: ac7c 8d37 ecd7 0539 af47 3fb9 56e7 f2b8
00000230: 6401 5e39 b079 f2b8 5a98 2a39 873b ea38
00000240: f6a2 8e38 3d7d 103a 247c 3aba 4d1d 1dba
00000250: 1605 503a b451 59ba 3041 7d3a af35 1b3a
00000260: 834d 7f39 0fa4 0739 92b1 0cb9 75b5 dbb8
00000270: 1f92 c439 3998 81b9 82bb 6e39 f65a ef39
00000280: b7e0 0d38 6a88 f6b6 bc62 ffb7 bfb9 6038
00000290: 724f 5db8 e001 9135 627d dab7 992d bc36
000002a0: f997 97b7 7f68 b8b6 3c87 7437 4b47 8e38
000002b0: a473 81b8 1e77 ad36 f708 6fb8 2f8c d9b6
000002c0: 30d3 5c37 14b5 54b8 189c 31b6 096d 7ab7
000002d0: c4bf 23b9 ba8e a237 a169 8db5 67f5 55b9
000002e0: 84fe 7539 2a3f 9839 aa9c 08b9 987f 5db8
000002f0: c3a2 f839 6e42 f6b9 b111 9d39 dc2b 1e3a
00000300: 3fa8 6939 0db6 ab38 819c a6b8 eba4 02b9
00000310: 8b6f c339 4418 7bb9 85e5 8339 586b c939
00000320: 8692 8d39 1326 49b9 d88b 7d39 f068 6239
00000330: f6a8 e2b9 9171 ea39 6aec 0db9 4209 bcb9
00000340: 0ae8 7236 e1d7 08b9 b872 1839 c18b 0039
00000350: d700 8fb9 fc02 9039 dc0c 0cb9 94cf 45b9
00000360: aa63 b138 3ba8 6a38 d8d3 4638 5193 6a38
00000370: bf66 c3b7 65cd b9b7 d0b6 2b37 859d 7a38
00000380: 9f9a 8b39 e96c 6039 f8a0 8e38 f27f 0ab9
00000390: c819 eb39 e17c c0b9 9d51 6639 a28a e039
000003a0: 0f10 8eb7 b886 e7b8 9013 2c39 ba57 4639
000003b0: 9566 cbb9 a9b3 7639 84f4 64b9 6860 48b9
000003c0: 0262 8e38 b475 f338 531a 01b9 7f5a 8db6
000003d0: be30 cb39 e4ad acb9 a553 7338 49c0 1a3a
000003e0: 0624 a838 3bea 7838 1f56 a3b7 58f7 f3b8
000003f0: 9192 1539 a47b 16b9 fab4 2a39 cbc6 2f39

exp_avg_sq f4 [128, 8]
3.2734752e-07 2.8105435e-07 3.8029077e-07 2.1016726e-07 1.4496118e-07 3.163131e-07 3.633807e-07 2.829829e-07
1.7224723e-07 1.3468734e-07 1.833245e-07 1.0380504e-07 7.0390236e-08 1.4479194e-07 1.5263028e-07 1.4148185e-07
1.9569832e-07 1.7162112e-07 2.2733528e-07 1.1594654e-07 7.67418e-08 1.6974184e-07 1.8156803e-07 1.6090594e-07
2.46507e-07 2.1995372e-07 2.7143187e-07 1.6095458e-07 1.3077928e-07 2.0649664e-07 3.5198406e-07 2.0882827e-07
3.2449048e-08 2.5630495e-08 3.7115292e-08 2.0436595e-08 1.2134528e-08 3.32634e-08 3.2406316e-08 2.5948982e-08
5.3889295e-08 4.904848e-08 6.143258e-08 3.5208046e-08 2.4859593e-08 4.934375e-08 6.3376994e-08 5.0495167e-08
2.419654e-07 1.613718e-07 2.3977012e-07 1.3927965e-07 7.982421e-08 1.8023096e-07 1.7761586e-07 1.665686e-07
1.1825749e-07 7.7690316e-08 1.4179344e-07 6.529186e-08 5.6500056e-08 1.02558985e-07 1.3491768e-07 1.0272868e-07
5.6577426e-07 4.2809202e-07 6.059472e-07 3.716071e-07 2.030797e-07 4.859946e-07 4.5675912e-07 4.4767881e-07
1.3544248e-08 1.5720685e-08 1.7230446e-08 9.239694e-09 9.109253e-09 1.5123621e-08 2.4865773e-08 1.270268e-08
6.742372e-08 6.871796e-08 7.3632194e-08 4.5007557e-08 2.9004065e-08 6.656526e-08 7.449204e-08 6.0890535e-08
2.4287397e-07 1.719316e-07 2.5866163e-07 1.12581766e-07 7.853299e-08 1.9213726e-07 2.0897426e-07 1.8040726e-07
2.5099233e-08 2.1327185e-08 2.9744626e-08 1.4331766e-08 1.2024546e-08 2.163994e-08 3.0178427e-08 2.2760942e-08
4.28163e-08 3.4757022e-08 4.858021e-08 2.2301522e-08 1.4756941e-08 3.4139575e-08 3.5409986e-08 3.27448e-08
1.17662616e-07 1.2179822e-07 1.4949507e-07 9.343783e-08 6.029797e-08 1.2513343e-07 1.4052254e-07 1.17411496e-07
8.4713434e-08 7.170954e-08 8.99789e-08 4.6288125e-08 4.0469324e-08 6.323175e-08 1.06915266e-07 6.616018e-08
1.8954044e-08 1.9147137e-08 2.0227308e-08 1.1405735e-08 6.2379857e-09 1.6046453e-08 1.5382183e-08 1.6458268e-08
8.968219e-08 7.114155e-08 8.957403e-08 6.493645e-08 3.2804834e-08 7.2614625e-08 8.0119605e-08 7.3403164e-08
1.0698034e-06 8.069037e-07 1.2506578e-06 5.4091237e-07 3.84765e-07 8.372736e-07 1.0427955e-06 7.445294e-07
2.8564386e-07 2.3847738e-07 3.012287e-07 1.6049147e-07 9.534243e-08 2.4890815e-07 2.2459213e-07 2.0104079e-07
8.287291e-09 1.0239946e-08 7.832413e-09 6.0109193e-09 3.5326848e-09 6.5634937e-09 1.1095586e-08 7.189198e-09
7.214025e-09 4.8240754e-09 6.3219945e-09 3.8799803e-09 2.2359128e-09 5.2611133e-09 4.9698112e-09 4.6681143e-09
3.807135e-08 2.92967e-08 3.5437644e-08 3.098113e-08 1.3531922e-08 2.8240505e-08 3.3738782e-08 2.9339995e-08
6.214618e-07 5.45532e-07 6.347856e-07 3.9089073e-07 2.2594836e-07 5.5262177e-07 5.310603e-07 4.9804345e-07
2.5502638e-07 2.2141761e-07 2.794287e-07 1.5973575e-07 9.00139e-08 2.398427e-07 2.2646321e-07 1.9181287e-07
3.0265508e-07 2.8030993e-07 3.4763198e-07 2.3255144e-07 1.3941002e-07 2.735079e-07 3.7630429e-07 2.8723898e-07
8.813745e-08 6.1866906e-08 9.458228e-08 6.0451534e-08 3.8422098e-08 6.9278144e-08 9.566583e-08 7.0705994e-08
1.5746101e-08 1.5661652e-08 1.3211202e-08 1.1823378e-08 5.058507e-09 1.1841531e-08 1.4066076e-08 1.3022994e-08
2.2471183e-07 1.5639091e-07 2.2376112e-07 1.5324171e-07 8.973682e-08 1.934675e-07 2.2092479e-07 1.7219476e-07
1.1483632e-07 1.0628138e-07 1.259405e-07 8.7540194e-08 5.3291867e-08 1.0170592e-07 1.298477e-07 9.525037e-08
2.9121128e-07 2.404934e-07 3.1227557e-07 1.6277329e-07 1.036147e-07 2.4157634e-07 2.328079e-07 2.2078864e-07
2.5288085e-08 1.6089224e-08 2.8172291e-08 1.1567619e-08 1.0349475e-08 2.100027e-08 2.9077416e-08 1.8497435e-08
00000000: 4dbe af34 d1e3 9634 c42a cc34 56aa 6134
00000010: a0a6 1b34 bed1 a934 aa16 c334 e0ec 9734
00000020: f5f2 3834 939e 1034 dbd7 4434 6deb de33
00000030: 7129 9733 1b78 1b34 b1e2 2334 3cea 1734
00000040: 2521 5234 db46 3834 7219 7434 49fe f833
00000050: 40cd a433 4842 3634 0af5 4234 7dc5 2c34
00000060: aa57 8434 6b2c 6c34 50b9 9134 dcd2 2c34
00000070: 566c 0c34 5db9 5d34 52f8 bc34 473a 6034
00000080: 1b5e 0b33 0e2a dc32 b268 1f33 8c8c af32
00000090: 3878 5032 7fdd 0e33 1f2f 0b33 6ae6 de32
000000a0: e873 6733 60a9 5233 ebec 8333 a837 1733
000000b0: d38a d532 07ee 5333 df19 8833 06e0 5833
000000c0: 79e7 8134 8b45 2d34 c1b9 8034 e68c 1534
000000d0: d36b ab33 8285 4134 adb6 3e34 07da 3234
000000e0: bef4 fd33 b4d6 a633 e23f 1834 9436 8c33
000000f0: 78aa 7233 663e dc33 e4dd 1034 b09b dc33
00000100: b6df 1735 85d4 e534 60a8 2235 4a81 c734
00000110: 1f0e 5a34 4b75 0235 7f38 f534 8258 f034
00000120: 3cb0 6832 270a 8732 2702 9432 9bbc 1e32
00000130: eb7e 1c32 32e9 8132 6a98 d532 fa3a 5a32
00000140: 95ca 9033 1992 9333 ba1f 9e33 554e 4133
00000150: 9d24 f932 a4f2 8e33 6ff8 9f33 edc2 8233
00000160: 5864 8234 339c 3834 2fde 8a34 7bc4 f133
00000170: f8a5 a833 4a4e 4e34 6862 6034 f8b5 4134
00000180: cc99 d732 fa32 b732 2081 ff32 c637 7632
00000190: 8394 4e32 bbe2 b932 889d 0133 d783 c332
000001a0: 05e5 3733 c047 1533 81a6 5033 9191 bf32
000001b0: b685 7d32 dca0 1233 b115 1833 4aa3 0c33
000001c0: b5ad fc33 a4c7 0234 e484 2034 fea7 c833
000001d0: 297d 8133 6a5c 0634 8be2 1634 a723 fc33
000001e0: b4eb b533 bdfe 9933 6c3a c133 55ce 4633
000001f0: 7ed0 2d33 06ca 8733 4a99 e533 f213 8e33
00000200: 62d0 a232 0079 a432 52c0 ad32 f4f2 4332
00000210: e755 d631 86d6 8932 c721 8432 1d60 8d32
00000220: 4e97 c033 7bc6 9833 d85b c033 3173 8b33
00000230: 4ce5 0c33 50f0 9b33 380e ac33 d1a1 9d33
00000240: 2a96 8f35 009a 5835 46dc a735 3733 1135
00000250: b391 ce34 01c1 6035 2ef6 8b35 acdb 4735
00000260: 985a 9934 1508 8034 8fb8 a134 8f53 2c34
00000270: 0ebf cc33 ada1 8534 6a27 7134 acdd 5734
00000280: e45f 0e32 c2eb 2f32 518f 0632 9b88 ce31
00000290: a6c3 7231 1a85 e131 e79e 3e32 db04 f731
000002a0: 3cdf f731 04c1 a531 da38 d931 ab50 8531
000002b0: 98a6 1931 3ec5 b431 ecc2 aa31 2b65 a031
000002c0: e483 2333 20a8 fb32 1a34 1833 1d10 0533
000002d0: 067a 6832 8795 f232 2fe8 1033 5507 fc32
000002e0: 88d2 2635 ac70 1235 2266 2a35 9ddb d134
000002f0: 369c 7234 e157 1435 308e 0e35 49b1 0535
00000300: 8fea 8834 cfbe 6d34 6304 9634 d483 2b34
00000310: aa4d c133 bbc3 8034 bc29 7334 1ff5 4d34
00000320: 997c a234 817d 9634 2da2 ba34 41b3 7934
00000330: bcb0 1534 a4d6 9234 de06 ca34 d335 9a34
00000340: 1346 bd33 b1db 8433 291d cb33 95d1 8133
00000350: 8b05 2533 10c6 9433 d970 cd33 08d7 9733
00000360: 0b42 8732 5688 8632 7bf7 6232 c41f 4b32
00000370: 19cf ad31 9b6f 4b32 42a7 7132 bcbb 5f32
00000380: 5148 7134 68ec 2734 fd42 7034 c38a 2434
00000390: 57b5 c033 f1bb 4f34 5837 6d34 89e4 3834
000003a0: ef9b f633 ce3c e433 433a 0734 bbfd bb33
000003b0: 07e3 6433 6c69 da33 446c 0b34 728c cc33
000003c0: c657 9c34 291d 8134 d4a6 a734 c8c6 2e34
000003d0: c982 de33 00b2 8134 c0f9 7934 eb11 6d34
000003e0: 1639 d932 9434 8a32 86ff f132 edba 4632
000003f0: 79cd 3132 1564 b432 eac5 f932 4ae4 9e32

exp_avg f4 [128]
-0.00055928185 0.00042309004 0.00029270412 -5.1274317e-05 -1.3470735e-05 0.00015008962 0.0002625614 -6.3453794e-05
0.00020402443 4.1751147e-05 0.0001644192 -0.00038707693 3.8388072e-05 -5.0395796e-05 -6.915124e-05 4.935821e-05
1.5569998e-05 0.00015128264 0.00013588397 0.00027202544 4.3090335e-05 -3.310599e-05 -0.00014726132 0.00044286455
7.132941e-05 -0.00030337117 -0.00014128505 -8.049042e-06 7.926024e-05 -0.00016868574 0.0004461837 -4.6748657e-05
0.00019499958 -0.00022493381 0.00019448693 -6.865113e-05 -0.00010734474 -0.0001872074 3.4301123e-05 0.0003242635
-5.2624375e-05 0.0002620171 -0.00025693612 8.308629e-05 0.00017978747 0.00013815709 0.0005574187 0.00016436834
-0.00013153545 -5.921948e-05 -0.0002148599 -5.6631823e-05 -4.8086662e-05 8.8495806e-05 -0.00021095692 0.00038347603
0.00029783061 0.00029417628 3.8540955e-05 -0.0001943387 0.00022718005 0.00012897332 -0.00019578965 0.000200808
0.0002732266 -0.000110462 -0.00021752137 7.6962424e-05 3.0407622e-05 -8.157948e-05 0.00016270777 0.00019533241
-8.477471e-05 -0.00028040435 0.00013642877 -9.250978e-06 9.959187e-05 0.0003331209 7.2369694e-05 -0.000118313146
-1.2879731e-05 7.257232e-05 -0.00043767577 0.00026489352 -0.0003924486 -0.00019691382 -5.5221106e-05 0.0002757104
2.6730555e-05 -6.5754946e-05 8.522892e-05 -1.5506725e-05 0.0003184115 -7.3501906e-05 -1.409316e-06 0.00012628407
-0.00012989933 -0.00025200954 -0.00020070207 1.5916518e-06 4.9315808e-05 -0.00010918818 -0.000112671914 -6.744764e-05
-1.5430243e-05 -0.00080454716 9.874605e-05 -0.0003521099 -0.00011559214 -3.9889833e-06 -9.56055e-05 -9.074341e-05
5.2580144e-06 -0.00015754472 -0.00020015024 -7.686625e-06 -5.941945e-05 0.00011140636 -0.00044596565 -0.0002927337
0.00019776549 -0.00010391743 7.762813e-06 -9.631889e-05 -7.948585e-05 -3.52662e-05 3.3139084e-05 0.00010423303
00000000: c59c 12ba 2fd2 dd39 1576 9939 610f 57b8
00000010: 5e00 62b7 6061 1d39 65a8 8939 7f12 85b8
00000020: 64ef 5539 f41d 2f38 f167 2c39 96f0 cab9
00000030: e102 2138 1360 53b8 4a05 91b8 f905 4f38
00000040: 519c 8237 a0a1 1e39 137c 0e39 a39e 8e39
00000050: e5bb 3438 49db 0ab8 296a 1ab9 4630 e839
00000060: af96 9538 ca0d 9fb9 eb25 14b9 5f0a 07b7
00000070: 8438 a638 3ce1 30b9 c3ed e939 fd13 44b8
00000080: cd78 4c39 36dc 6bb9 30ef 4b39 cbf8 8fb8
00000090: 451e e1b8 1b4d 44b9 8dde 0f38 e901 aa39
000000a0: feb8 5cb8 575f 8939 62b5 86b9 9d3e ae38
000000b0: 5585 3c39 43de 1039 bc1f 123a 4a5a 2c39
000000c0: c7ec 09b9 6f62 78b8 044c 61b9 f587 6db8
000000d0: a9b0 49b8 d396 b938 5134 5db9 480d c939
000000e0: 2626 9c39 ac3b 9a39 09a7 2138 66c7 4bb9
000000f0: 2e37 6e39 033d 0739 e24c 4db9 fd8f 5239
00000100: da3f 8f39 d6a7 e7b8 7316 64b9 e366 a138
00000110: df13 ff37 a615 abb8 899c 2a39 25d2 4c39
00000120: 13c9 b1b8 3c03 93b9 520e 0f39 a634 1bb7
00000130: fadb d038 bba6 ae39 2fc5 9738 e31e f8b8
00000140: 0616 58b7 f831 9838 d977 e5b9 68e1 8a39
00000150: 8fc1 cdb9 a77a 4eb9 369d 67b8 398d 9039
00000160: 6e3b e037 ebe5 89b8 eebc b238 7014 82b7
00000170: 78f0 a639 0925 9ab8 bb27 bdb5 1f6b 0439
00000180: 9635 08b9 2620 84b9 8d73 52b9 bda0 d535
00000190: 72d8 4e38 f5fb e4b8 464a ecb8 ad72 8db8
000001a0: 3270 81b7 3fe8 52ba e215 cf38 649b b8b9
000001b0: 0f6a f2b8 1bd9 85b6 d07f c8b8 7f4d beb8
000001c0: 006e b036 9732 25b9 6cdf 51b9 cef5 00b7
000001d0: 2639 79b8 d6a2 e938 7fd0 e9b9 0d7a 99b9
000001e0: 455f 4f39 3fee d9b8 073d 0237 cffe c9b8
000001f0: a4b1 a6b8 cbea 13b8 d2fe 0a38 af97 da38

exp_avg_sq f4 [128]
3.0335542e-07 1.4710139e-07 1.8221284e-07 2.1198079e-07 2.7736949e-08 4.8249237e-08 1.7101144e-07 1.0350483e-07
4.9722047e-07 1.4067567e-08 6.211805e-08 1.6535735e-07 2.2530934e-08 3.668422e-08 1.2160332e-07 6.70704e-08
1.6809341e-08 6.9880564e-08 8.2220134e-07 2.3627999e-07 7.399917e-09 5.044174e-09 3.2248906e-08 5.483602e-07
2.2616362e-07 2.7570456e-07 7.188299e-08 1.2619584e-08 1.9046709e-07 9.471257e-08 2.3913682e-07 2.0346437e-08
8.999155e-08 1.8322933e-07 5.4266076e-07 5.9534248e-08 2.003983e-08 1.4295394e-07 1.2351858e-08 3.082205e-07
4.6398996e-09 3.8965524e-07 2.3267172e-07 2.5117924e-08 1.5291921e-07 1.984836e-07 2.8035706e-07 4.301937e-07
4.1739793e-07 1.16505795e-07 4.744597e-08 8.60209e-08 9.230215e-09 3.517176e-08 1.2999797e-07 3.274422e-07
1.9862676e-07 4.1526607e-07 1.4743596e-07 1.8635114e-07 3.2579624e-07 3.693043e-08 1.2933026e-07 8.176671e-08
1.3319385e-07 2.9378086e-07 2.2007935e-08 2.4780226e-07 1.0487881e-07 5.0094158e-08 4.8023367e-08 1.2491829e-07
4.2723453e-08 1.3081912e-07 1.5120584e-07 1.0064596e-08 7.572545e-07 1.6827941e-07 3.967454e-08 5.2387733e-08
8.19783e-08 7.824055e-08 3.8357888e-07 9.863146e-08 3.8024362e-07 8.7860535e-08 7.016449e-08 9.980672e-08
1.8201355e-08 2.557775e-07 3.1776008e-08 5.140633e-09 4.1267324e-07 6.6612884e-08 1.241605e-07 3.2367705e-08
9.47798e-08 3.560027e-08 1.3500969e-07 3.423109e-08 1.3214391e-08 2.4419755e-08 4.4576165e-08 1.6469775e-08
1.3559856e-08 7.37566e-07 1.5863516e-07 7.0919384e-08 4.5989427e-08 9.943002e-09 8.2657486e-08 8.174252e-09
2.2452989e-08 4.908594e-08 1.7410323e-07 3.2643506e-08 2.6011924e-07 2.3963848e-08 2.3869018e-07 4.3905973e-07
8.4205006e-08 2.6707227e-08 6.832113e-09 1.3897149e-07 8.044664e-08 1.2249492e-08 1.0187119e-08 2.6917379e-08
00000000: dadc a234 ecf2 1d34 49a6 4334 d69c 6334
00000010: 3242 ee32 993a 4f33 449f 3734 6246 de33
00000020: bb78 0535 d0ad 7132 c265 8533 158d 3134
00000030: 0c8a c132 ba8e 1d33 1192 0234 5808 9033
00000040: 2264 9032 3f11 9633 3fb5 5c35 26b4 7d34
00000050: 5c42 fe31 0651 ad31 0c82 0a33 0733 1335
00000060: 62d7 7234 8c04 9434 175e 9a33 84cd 5832
00000070: 3283 4c34 c964 cb33 b762 8034 4ac6 ae32
00000080: 6141 c133 b2bd 4434 5dab 1135 99b2 7f33
00000090: 0d24 ac32 e17e 1934 0c34 5432 8179 a534
000000a0: fd6c 9f31 cf31 d134 51d4 7934 e6c2 d732
000000b0: 1d32 2434 c21e 5534 fb83 9634 5ff5 e634
000000c0: bc16 e034 bd31 fa33 65c7 4b33 7dba b833
000000d0: ea92 1e32 c20f 1733 9295 0b34 50cb af34
000000e0: 1c46 5534 bcf1 de34 e34e 1e34 d017 4834
000000f0: 18e9 ae34 709d 1e33 08de 0a34 b997 af33
00000100: 0c04 0f34 efb8 9d34 f60b bd32 af09 8534
00000110: bc39 e133 1c27 5733 4042 4e33 4721 0634
00000120: ef7e 3733 4977 0c34 255b 2234 90e8 2c32
00000130: 2246 4b35 4bb0 3434 9e66 2a33 ec00 6133
00000140: 0c0c b033 3205 a833 aeee cd34 38cf d333
00000150: 4924 cc34 d7ad bc33 56ad 9633 5355 d633
00000160: 3459 9c32 cb51 8934 177a 0833 7ca1 b031
00000170: 618d dd34 d20c 8f33 fa50 0534 ab04 0b33
00000180: bf89 cb33 e9e6 1833 2ef7 1034 7b05 1333
00000190: 8205 6332 9cc3 d132 0374 3f33 6b79 8d32
000001a0: e1f4 6832 26fd 4535 4d55 2a34 584c 9833
000001b0: e985 4533 c9d1 2a32 6f81 b133 be6e 0c32
000001c0: a5de c032 90d2 5233 22f1 3a34 ea33 0c33
000001d0: 84a6 8b34 0fd9 cd32 5425 8034 e9b7 eb34
000001e0: 31d4 b433 d069 e532 e7bf ea31 3138 1534
000001f0: 02c2 ac33 d671 5232 6c03 2f32 f137 e732
