results/BTB_v2/Pong/Pong-161120.onnx (onnx, 75505 bytes, 8 tensors)

network_body.observation_encoder.processors.0.normalizer.running_mean f4 [8]
00000000: 614e c83b 2c9e 9c3d 9bb9 2e3d da7f 0abc
00000010: 171e bf3d 404c a0bc 5735 da3d 9bff ff3e
0.006112859 0.076473564 0.042657476 -0.008453334 0.09331911 -0.019567609 0.10654705 0.499997

network_body._body_endoder.seq_layers.0.weight f4 [128, 8]
00000000: 87f0 993d 101a d23d 8a6b 243f 7604 e53d
00000010: a485 1dbe f732 803e 1978 dcbe 04c1 9c3e
00000020: 4d0d 4bbe 8ea6 67be a844 c9be c41a 63be
00000030: 3e92 fe3e 289d 143f b84e 71bd 9b41 f5be
00000040: f940 32bf 3b70 483e d906 a03e 452e 5f3e
00000050: 965a f73e d524 a0bd b57e dd3e b83a 36be
00000060: 53ef 30be 99b7 10bf 2ecb a2be 41fc 4c3e
00000070: 81d3 30be c152 433e b359 47bd e0a8 4a3d
00000080: 2264 023e ba9b 583f 5918 04bf 137d b33e
00000090: f120 963e ed62 6fbe abab a7bd 88b0 cdbe
000000a0: 9d2f 693e 18c9 2bbf 2022 95be adaf 443e
000000b0: 2be5 d5bd b2a4 4a3e 2a0d d6bd eecc 503e
000000c0: 9bde babe 180a 4fbf eac6 eabd 6504 013f
000000d0: 7f1f fd3a 5b91 6b3f d6d6 12bc 1501 283e
000000e0: 360b d83c 21d3 00bf 7847 603d 9b1c dcbe
000000f0: 653d 063f 4519 01bf 2261 86bd 60b0 4a3f
00000100: 5254 bf3d 8611 e13d 3150 0a3d f2e0 7dbe
00000110: cd51 7cbe 6afb 1dbe b351 bcbe 74e3 20be
00000120: 7769 ceb9 28cc a73d 8bc7 57be 9b16 253f
00000130: 4530 2cbe b413 35bc b9c1 fcbd f46a 9cbe
00000140: 2e0c 2e3d ba6d 6d3e e6d4 ca3d 8ff4 c0bd
00000150: 0c27 4bbe d726 633c 2ff8 99bd 8cdd 08be
00000160: f3da 22be 3eb4 1dbf 1cf9 c43e 84f0 953e
00000170: ef23 05be e9e6 a93e dd27 37be e266 28be
00000180: dcb3 e13e 619f 75be 65ed 04bf b346 283f
00000190: 5185 3abe 326a 87be 5210 553e d967 8abd
000001a0: cf33 ebbd 5c19 b6be 7e26 2d3e bf8a f53d
000001b0: 83cd 6ebe a21b 0f3d a8f6 c63b a0d5 1abc
000001c0: 56ac 1abc 6f90 7c3e 5b5b 223e 6a0f 2bbf
000001d0: 6211 243e a1b0 d9be c7d1 aa3e 2ab4 15bf
000001e0: f06e 723e 0ace 9abe 8d67 163f 47c9 b9bb
000001f0: 4ab9 cd3e aef1 4abf ceaf 903c a4d6 bebe
00000200: 943a 06be e88e 163f b267 6f3e 6884 8dbd
00000210: a6d8 1d3d 5828 b9be 86d9 193f 70d1 d3be
00000220: 2cf1 923e 40b7 1fbe 948f afbe 68a0 213f
00000230: 690c 853e 8017 263e 5813 3a3d 5ebf bebe
00000240: 9c28 8bbe 41cf 34be 5c18 853e 3b2a 383d
00000250: 3682 4fbe a59d 0bbf e751 81bd 0f6e 9b3e
00000260: 740d 9d3d f8a1 77be 4ad5 a3bd 8ee4 c53e
00000270: 11fc 8a3e 2ad3 133e 374b 8b3d cd02 f23e
00000280: 123f 84bd eddf 5ebe 26fc ab3e aef8 073e
00000290: 36fb f53c b79b 00be 1892 45be 5c37 833a
000002a0: b7cc 413e 34eb 2a3f f47c e1be d6b5 e6be
000002b0: ac23 5f3e 1b3a 88be d121 b73e 5012 c13e
000002c0: 5d65 c1be 054c 5bbe 5812 c2bc f241 923c
000002d0: 105a df3d 02c2 58be 011e 403f 86cd 32be
000002e0: 74ed 63be 4bab 8d3e 05d7 e4bd b803 ed3d
000002f0: 912a 2f3f 6269 92bb 1c02 1cbf ba0d 9d3e
00000300: 7ff9 86be 38ea 763d 7448 3abe 7934 603d
00000310: 260a b8be fe67 14be 57dd 493e 5a9f d23e
00000320: 9bf1 fbbe 48a4 01bf f04d ad3e c0c8 22bf
00000330: bc7b 293e 5b5b 07be 78bd 5e3e ebe1 a9be
00000340: d943 b03e 6712 723d ff72 26bf dd4c 87bc
00000350: 10f5 37bf 94f9 14be 96da c0bd 1cf9 913d
00000360: c8c1 91be 68de 043d 4ed1 82be df95 163f
00000370: 412a 20be ef49 ff3c 0bdf 34be eba3 96bc
00000380: ecd3 543e e620 143e 8bfb dc3c f805 623e
00000390: 8f46 df3e 146d 043e 75a3 07bf 024b a7be
000003a0: 8170 3cbf 6dce f6bc e462 94bd ff4e 0fbe
000003b0: c3ce a3be fbd1 d3bd 2cb0 a0be f4e6 513d
000003c0: 42b6 a53d 89f8 04bf 514f 12be 7bfd af3a
000003d0: 71ce 4d3e 1559 72be 8685 e13e b2d4 1ebf
000003e0: c7ab 52bd ef66 933c dc8b 373e cc5b ffbe
000003f0: c71f a23e 3625 71be be4a 43be af56 823e
0.0751658 0.10258877 0.6422659 0.111824915 -0.15383011 0.25038883 -0.43060377 0.3061601
-0.19829293 -0.2262213 -0.39310193 -0.22178179 0.4972095 0.580523 -0.058912963 -0.47901616
-0.6963039 0.19574063 0.31255224 0.21794994 0.483113 -0.07819525 0.43260732 -0.17795837
-0.17278795 -0.5653015 -0.3179564 0.20018102 -0.17268182 0.19074537 -0.04866953 0.049477458
0.1273351 0.8461262 -0.5159965 0.35056362 0.29322007 -0.23377581 -0.0818704 -0.40173745
0.2277207 -0.6710372 -0.29127598 0.1920764 -0.10444101 0.19789389 -0.104517296 0.20390674
-0.3649796 -0.80874777 -0.11463721 0.5039733 0.0019311755 0.9201867 -0.008962354 0.16406663
0.026372533 -0.5032216 0.054755658 -0.42990574 0.5243743 -0.50429183 -0.06561495 0.79175377
0.09342255 0.109896705 0.033767883 -0.24792841 -0.2464058 -0.15427938 -0.36781082 -0.15711766
-0.0003936996 0.081932366 -0.21072213 0.6448762 -0.16815288 -0.011052061 -0.12341637 -0.3055035
0.042492084 0.23186389 0.099038884 -0.09421646 -0.19839114 0.013864241 -0.075180404 -0.13365763
-0.15903835 -0.6160315 0.38471305 0.2928506 -0.13001989 0.33183983 -0.178863 -0.16445497
0.44082534 -0.2398658 -0.51924735 0.6573288 -0.18214919 -0.26448208 0.20807007 -0.067580886
-0.11484491 -0.35566223 0.16909215 0.11989354 -0.23320584 0.034938462 0.006071884 -0.009450346
-0.009440502 0.24664472 0.15855162 -0.66820395 0.16022256 -0.4251757 0.33363172 -0.58478034
0.23675132 -0.3023532 0.58751756 -0.005669746 0.40180427 -0.79275024 0.017661955 -0.37273133
-0.13108283 0.5881181 0.233794 -0.0691002 0.03853669 -0.36163592 0.6009754 -0.41370726
0.28699625 -0.15597248 -0.3428923 0.63135386 0.2598603 0.16219902 0.045428604 -0.37255377
-0.2717942 -0.17657186 0.25995147 0.04496215 -0.20264515 -0.5453742 -0.0631445 0.30357406
0.076685816 -0.2418288 -0.07999666 0.38650936 0.27145436 0.14436021 0.068014555 0.47267762
-0.06457342 -0.21765108 0.33590811 0.13278458 0.030027013 -0.125594 -0.19294012 0.0010011005
0.18925749 0.6676514 -0.44040644 -0.45060605 0.21790951 -0.2660683 0.35767987 0.37709284
-0.37772647 -0.21415718 -0.023690388 0.01785371 0.1090585 -0.21167758 0.7504578 -0.17461213
-0.2225855 0.2766975 -0.11173824 0.11572975 0.68424326 -0.004468129 -0.6094072 0.30674535
-0.26362225 0.060281962 -0.18191701 0.05473754 -0.35945243 -0.14492795 0.1971334 0.411372
-0.49207768 -0.506413 0.33848524 -0.6358757 0.16551107 -0.13218443 0.21751964 -0.33180174
0.34426764 0.05909958 -0.6501922 -0.016516143 -0.7185831 -0.14548331 -0.09416692 0.07127592
-0.28468156 0.032438666 -0.25550312 0.58822435 -0.15641119 0.031163184 -0.17663209 -0.018388709
0.20783967 0.14465675 0.026975414 0.2207259 0.4360852 0.12932235 -0.5298379 -0.32674414
-0.7360917 -0.030127728 -0.072454244 -0.13994978 -0.31993684 -0.10342785 -0.31384408 0.051245645
0.080914035 -0.51941735 -0.1428807 0.0013426983 0.20098282 -0.23666795 0.44047183 -0.620433
-0.05143335 0.017993418 0.17924446 -0.49874723 0.3166487 -0.23549351 -0.1907148 0.2545676

network_body._body_endoder.seq_layers.0.bias f4 [128]
00000000: 1587 9d3b c35e d03b 6cf7 933c 76dc bf3b
00000010: 95ef a23c 6cfc 9fbb cf68 a8bb 93a0 173b
00000020: 0572 003b 17a3 7c3c 0201 833b f187 7e3a
00000030: b5ae bcbb 910f 88bb 5a1e 1cbc 2817 8dbc
00000040: a4fd f03b a4c6 133c c962 de3b df3b 613b
00000050: 19b5 85bb ee7d f93b 94b2 b3bb 3b98 623c
00000060: 4f14 203c 55b4 903c a262 90b8 ad4d 493c
00000070: f64e 8bbb 2c98 d33b 8126 2a3a 6215 403a
00000080: d788 713c 2c22 c53c 9b6d ea39 6c29 493c
00000090: 5b51 623c fe35 e13b 4f14 013b 3812 9b3b
000000a0: 5ca4 a5ba d54b 303c 6b03 c53c d29b ac3b
000000b0: 58ad af39 7e31 b43b f00c 06bb e768 d13b
000000c0: 5499 d43b 6c21 e4bb 52d1 52bb ca2d 493c
000000d0: 0eb8 c3bb eb7f 9fbb 3b48 133c f7d4 5c3c
000000e0: 4496 1dbc 9c38 c6ba 860b 753c 4ee0 733b
000000f0: 626e 7eb9 1b1f 0ebb 7dae cd3a d263 733c
00000100: 467d f43b 0c72 633b 0491 fe3b 718d a93c
00000110: 45ea 4c3c 7269 9bba 6fcb 36bc 95e2 083c
00000120: 3525 073c 3735 e3bb 36f7 93bb be2e 3b3c
00000130: 080e 273c 27eb 8d3c ca63 c0b8 ca07 be3b
00000140: 3865 673c a444 34b9 4f5c c03a 2550 8cbb
00000150: 49e9 b6b9 6f00 e23b 2bac ba3b 00fd df3b
00000160: bf72 8d3c 36f5 9a3b 31c7 4abb faf9 2dbc
00000170: cfdc 5fbc 5c2c 6b37 fd5d 5a3c ebfc 6b3c
00000180: ab00 5b3c 10fd ccbb 1fd9 593c e6be e73b
00000190: 6181 483c 9d7e d73b 3d32 993b ea2f 0f3c
000001a0: e3d0 833c fdfc 213b 07ac db3a 6102 6c3c
000001b0: d548 cb3a 61ff 923c 4c13 743b 2a1b ec3b
000001c0: e520 db3b ca5f aabb 4179 9fbb 0adf 573a
000001d0: ac1a 46bb 1580 653c 6d3b c73a 6226 0cbb
000001e0: b0d6 933b 0533 e0bb e6b7 d93b 936e 10ba
000001f0: 93de 813c 46ff 763b 1ed8 123c 5736 1c3c
0.004807363 0.0063589527 0.018062316 0.0058551384 0.019889632 -0.004882386 -0.0051394473 0.0023136481
0.001959921 0.015419743 0.003997923 0.0009709588 -0.0057581314 -0.0041522463 -0.009528721 -0.017222956
0.007354455 0.009019528 0.0067866785 0.0034367961 -0.0040804264 0.007613889 -0.0054839347 0.01383024
0.009770467 0.017664114 -6.884827e-05 0.012286586 -0.0042513562 0.0064573493 0.0006490723 0.0007327405
0.014742098 0.024064146 0.0004471362 0.012277942 0.013813342 0.0068728914 0.0019695943 0.0047323965
-0.0012637484 0.010760267 0.024049481 0.0052675987 0.00033507752 0.005499064 -0.0020454489 0.006390679
0.0064880047 -0.006961992 -0.0032168222 0.012278983 -0.0059728688 -0.004867544 0.008989389 0.013478509
-0.009618346 -0.0015123072 0.014956361 0.0037212553 -0.00024264448 -0.002168602 0.001569226 0.014855342
0.007461223 0.0034705428 0.007768752 0.020697327 0.012507026 -0.0011856987 -0.011156901 0.008354803
0.008248617 -0.006933834 -0.004515554 0.011424718 0.010196216 0.017324043 -9.1738606e-05 0.0057992684
0.0141232535 -0.00017191708 0.0014675948 -0.004282015 -0.00034887556 0.0068970243 0.0056967936 0.00683558
0.01726663 0.0047289385 -0.0030941481 -0.010618681 -0.013663485 1.401742e-05 0.013328073 0.014403562
0.0133668585 -0.0062557533 0.013296395 0.0070723174 0.012237878 0.006576373 0.0046751783 0.008739451
0.016090816 0.0024717443 0.0016759642 0.014404864 0.0015509377 0.01794404 0.0037242947 0.0072053866
0.006687271 -0.005199407 -0.0048667495 0.00082348345 -0.00302283 0.014007588 0.0015200205 -0.0021385183
0.0045116767 -0.0068420195 0.006644237 -0.0005509641 0.015853202 0.0037688776 0.008962659 0.00953444

network_body._body_endoder.seq_layers.2.weight f4 [128, 128]
00000000: 8d89 fb3a ac1f a33b 94dc c73d 630c 603d
00000010: 85bf f53b cb4d 313d 267a 933d c2aa 293e
00000020: e713 ae3c b219 7bbd 9bf8 18be eccd a23d
00000030: 4817 5dbd f90c 313d 5932 bcbb 18b8 b9bd
00000040: fa95 8d3d 8a33 52bd 0678 e1bd 0396 833d
00000050: ebf4 b13d a3c5 db3d a682 0bbd 15d8 fc3d
00000060: 6be9 343d cf10 c9bd 5259 533e fcfc af3d
00000070: a66c 7cbe 6f84 303e a73a 43bd 947d 0e3d
00000080: 5dc3 95bd f785 80bd cd7e 3a3c ecba 9d3d
00000090: b4e6 1ebe 85b4 8cbd 0582 863d 2b36 7ebd
000000a0: 393f a2bc bcba c3bd fe37 a5bc d282 543e
000000b0: 53c1 d93c 5282 983c a537 8f3e 246e efbc
000000c0: 5113 643c e60c c7bc 73db 0fbe d638 1cbe
000000d0: 6412 053e b853 5abd 9cce 9ebd 0684 b73a
000000e0: 594d 473d a211 80bd 0d9d 853d 6ec4 9cbd
000000f0: 8432 a0bd 03ec f73d 5c05 223e fc6e 91bd
00000100: 644b 043e 7b0d 1fbe 954a 673d 073a a93d
00000110: 5575 1bbb d2db e23d d107 0f3d 1c21 0e3e
00000120: 6602 4abd 7673 61bd acb8 0abd a2f4 66bd
00000130: 2b2b e93d 7226 833c c5cb 8a3d 7db8 063c
00000140: ebb5 2cbd b245 8bbd 0814 303d fc45 03be
00000150: ab1a 113e 7ccf 983d 0247 cb3c 35dc a73d
00000160: fd5d 983d 6081 c0bd 95f1 803d 5a2f 93bd
00000170: dee8 cbbc c869 b83d bf1b 95bd 6774 ae3c
00000180: ebe8 adbd d76d 653b 80ba dcbd 614e 6d3b
00000190: 65c9 86bd 908b 193e e0f8 543a 7138 11be
000001a0: 35d8 d93d cb69 7a3c 4bda 993d 4ec0 4f3d
000001b0: 96d1 49bd 1529 103d 2902 583d ffb2 b2bd
000001c0: b94b 22bd 0e64 cd3d 8e07 34bd a4da b1bd
000001d0: 465e af3d 17eb 76bd b094 82bd 8cb0 d8bd
000001e0: 9d9f 35bd 5e11 cabc b8e9 0b3d d710 aebc
000001f0: 6ab4 07bc f635 993d da94 c7bd bd53 8fbd
00000200: 66c3 653a ae2c 35bc 2a26 b33d db57 abbd
00000210: a0e5 303c d1b4 43bd adda bc3d e33d a73d
00000220: 245c 0bbe 013f b6bc 569a cabd b733 07be
00000230: 21c1 c73d a981 0dbd ca6e 5cbd 766b 0c3e
00000240: 5ae2 21be 11d2 48bc 0a47 8abc f1fc 423e
00000250: 84f6 d93d 20a1 12bd fcab 85bd bbf0 653d
00000260: b6e1 903d 832c 923d 64f6 593d 87ef 86bd
00000270: 7aba 413d 207d 3e3d 8854 7c3d 140e 293b
00000280: e90e 373d b708 0cbd 0fde 083d add4 83bc
00000290: c484 34bd 961b a73d e01f 9cbd 2025 f6bc
000002a0: 6e02 69bd 6ff9 23be bbbd ff3d 80ea 433e
000002b0: 8b90 463b 701f c23b 5e80 233d ef4f 503e
000002c0: fcef d7bb 0493 1e3e d0a3 383e 6316 133c
000002d0: 8455 fabd 385f 83bd 76af 3f3d 9ae2 3fbe
000002e0: cafc 55bc 3a5b 06be 1c85 e63b 6e3e 063e
000002f0: 7560 07bd df91 04be 727a 013e ed2d 003e
00000300: eee2 49bd c1ff cc3c baf2 52bd 6d48 4e3e
00000310: dc48 b03d 3518 5cbd f494 dc3c 35ac d7bd
00000320: de7f 3c3d b771 073d f1a0 e23d 01de 0c3e
00000330: 7bf2 893d 953a 293d 0660 c23c 02f1 9abd
00000340: 20d2 f8bc 42b3 80be 9ecf acbd f6d5 52bd
00000350: ccdb e93c ff3b c93d 43cb 91bc 4e8e 293e
00000360: 7414 0cbd 51c8 9c3b 704f 3fbe d736 f5bc
00000370: c34f cdbc 49d5 30be 3dc6 503d f511 373d
00000380: cc77 a9bd 90f3 73be 0688 13be 16d9 913c
00000390: a55d 99bd e0b4 13bd 044b a4bd 7b44 863c
000003a0: 6468 f7bb e498 a93d eca6 bf3d a08b b53d
000003b0: 9086 993c ccb2 363e e8fe 74bd 2088 4dbe
000003c0: 290f f9bd cff5 123c bef8 dcbd b194 9c3d
000003d0: 362d e13c 60b9 3dbd 0191 463d a73a ed3d
000003e0: f662 1dbe 7b08 163e 0556 173e ee5d 5d3d
000003f0: fac4 d43d 9413 993c 505a 223d 3378 7fbd
0.0019190774 0.004978141 0.09758869 0.054699313 0.0074996375 0.04328708 0.07201032 0.16569045
0.021249725 -0.0613038 -0.14938585 0.07949433 -0.05397728 0.043225262 -0.0057433066 -0.09068316
0.069133714 -0.051318683 -0.11009221 0.06425097 0.086892925 0.107310556 -0.034060143 0.12345902
0.044167917 -0.09817659 0.20639542 0.08593175 -0.24650821 0.1723802 -0.047663357 0.03478773
-0.07312653 -0.06275552 0.011382771 0.07701668 -0.15517694 -0.06870369 0.06567768 -0.062063377
-0.019805538 -0.09557101 -0.0201683 0.20753029 0.026581442 0.018616829 0.2797214 -0.029227324
0.013920621 -0.024298143 -0.14048557 -0.15256056 0.12995297 -0.053302497 -0.07754251 0.0014001138
0.04865775 -0.06253363 0.06524096 -0.076546535 -0.07822135 0.121055625 0.15822357 -0.07101247
0.12919384 -0.15532486 0.05646761 0.08263021 -0.0023721058 0.11077084 0.034919564 0.13879818
-0.049318694 -0.055041753 -0.033867523 -0.056385644 0.11385187 0.016009543 0.06777147 0.008222696
-0.042165678 -0.06800403 0.042987853 -0.12819666 0.1417033 0.074614495 0.024814133 0.08196298
0.07439802 -0.09399676 0.06296078 -0.07186766 -0.024891313 0.09004551 -0.07280683 0.02129574
-0.08491691 0.0035008097 -0.107777596 0.0036210048 -0.06581382 0.14994645 0.00081242435 -0.14181687
0.10636941 0.015284012 0.07512339 0.050720505 -0.049272142 0.03519543 0.052736435 -0.08725547
-0.039622996 0.100288495 -0.043952517 -0.086842805 0.08562903 -0.060282793 -0.06376016 -0.10580549
-0.044341672 -0.024666484 0.03415844 -0.021248264 -0.00828276 0.07480995 -0.09745188 -0.06998394
0.00087647734 -0.011058016 0.087475136 -0.083663665 0.010796934 -0.04777986 0.092213966 0.08166101
-0.13609368 -0.02224684 -0.098927185 -0.13203321 0.09753633 -0.03454748 -0.053816594 0.13712868
-0.15809003 -0.012257115 -0.016879577 0.19041802 0.10642722 -0.035798192 -0.06526944 0.05613778
0.07074301 0.07137396 0.053213492 -0.06588655 0.04729698 0.046506047 0.061604053 0.0025795745
0.044691954 -0.034188 0.033414897 -0.016092623 -0.044071928 0.081595585 -0.07623267 -0.030047
-0.056887083 -0.1601312 0.1248736 0.19132423 0.0030298557 0.005924158 0.039917342 0.20342992
-0.0065898877 0.1548577 0.1803124 0.008977505 -0.12223342 -0.06414646 0.046798192 -0.18738785
-0.013060758 -0.13120738 0.007034911 0.13109753 -0.033050973 -0.1294627 0.12644365 0.1251752
-0.049288683 0.025024297 -0.051501013 0.20144816 0.08607647 -0.053734023 0.026926495 -0.10530893
0.04602038 0.03306743 0.110658534 0.13756563 0.067357026 0.041315634 0.023727428 -0.075655
-0.030373633 -0.25136763 -0.08438037 -0.05147358 0.02854719 0.098258965 -0.017797118 0.16558191
-0.034199193 0.0047846218 -0.18682647 -0.029933376 -0.025062447 -0.17268862 0.050970305 0.04469486
-0.082748026 -0.2382338 -0.14407358 0.01780371 -0.074885644 -0.036061168 -0.080221206 0.016390076
-0.007550286 0.08281115 0.0935801 0.08864522 0.018740922 0.17841643 -0.05981341 -0.20071459
-0.12161095 0.008969738 -0.10789631 0.07645548 0.027487379 -0.046319366 0.04847813 0.11583453
-0.15369782 0.14651673 0.14778908 0.054044656 0.10389133 0.018686093 0.03963691 -0.06237049

network_body._body_endoder.seq_layers.2.bias f4 [128]
00000000: 423c b63b b8ba a5ba 4d44 023c 11b5 e63a
00000010: cd58 323c 6450 213c e397 463a 9c67 a9b8
00000020: 7724 8cbb f45a 4fbb e3df 57bb 3e76 393b
00000030: 9475 a9bb ad0f b8bb 4e6e 3f3c e81c a9ba
00000040: ad3b a53b fee6 a33b cff7 cdbb fa4f 963c
00000050: 367e f53b 51d6 513a 72e0 4c3c 49d8 023c
00000060: 2a95 533c 7f25 b1bb 2c27 f13b 53bd 383c
00000070: 4125 ef3b 219f 91bb c24d 69bb 622d f9b9
00000080: 05a3 7f3c 4313 5b3b 8ff3 093c 59d6 d53a
00000090: ac3a 863b aad8 b5bb da59 e53b 43d0 3339
000000a0: 46d1 cbbb 175d 993b 1144 97bb b124 9d3b
000000b0: 0a85 8ebb 144c 953a a075 a73b 5dbd cb3b
000000c0: 0891 ef3b 36ce 3d3c 77cd 523c 6918 603b
000000d0: 3f53 a63b 4c92 093c e765 3a3c 1c44 013b
000000e0: 27f6 c0bb e24b fb3b 2805 813c be02 4fbb
000000f0: f17a b53b 7fe9 6f3b c782 ce3b 01f1 ac3b
00000100: 17e4 54bb ed42 c3b9 6619 84ba 9c5a 1a39
00000110: 7f7a 95bb 1539 fbba 3163 143c 39ad 803c
00000120: fae3 1a3c d91e 48bb f240 ab3b 8187 cb3b
00000130: f97b 453a 32b5 213c cd05 c03b 8949 81bb
00000140: 8797 e9bb 2419 f03b 80ea 46bb d585 eeb9
00000150: fd9a 433b f60b 153c 5d40 bdbb 7009 ba3b
00000160: 396a a43b 19c5 603b c6f5 cabb af2e c53b
00000170: bf54 24bb 249c 9d3b 3d4b 84bb bf27 113c
00000180: 9aa5 4d3b 8818 143c c5af 1cba 11e1 633a
00000190: e9cf da3b cd3a 17bb ada2 4d3c 3f63 163c
000001a0: 8dcb 943b b14e 313c cd6d 2a3a 1e99 bbbb
000001b0: d79e f23b a9cb 4bba 8b7d 503c ba9a bf3a
000001c0: 0b57 ec3b d169 ee3b ed72 5c3b 5162 e83b
000001d0: bf87 8239 9de8 3f3c 4ab8 f63b db6a b73b
000001e0: 057f ef3b 9d79 733b ed28 d23b 939b d03b
000001f0: aa7f d7ba 8a64 8abb 8d46 103c 36fc 9b3b
0.0055613825 -0.0012644148 0.0079508545 0.0017601569 0.01088543 0.009845827 0.00075757335 -8.077847e-05
-0.004276808 -0.0031639906 -0.0032939843 0.0028299238 -0.005171487 -0.005617103 0.0116840135 -0.0012902291
0.0050425143 0.0050019016 -0.0062856446 0.018348683 0.007491852 0.0008004653 0.012504684 0.007986137
0.012913981 -0.005406081 0.007359406 0.011275607 0.007298142 -0.0044440185 -0.0035599326 -0.00047526794
0.015602832 0.003342823 0.008419885 0.0016314491 0.0040963497 -0.00554951 0.0069992365 0.00017148354
-0.0062200157 0.0046802866 -0.0046162684 0.0047956337 -0.0043493556 0.0011390471 0.0051104575 0.006217642
0.0073109902 0.011584809 0.012866369 0.0034194237 0.0050758417 0.008396696 0.0113768345 0.0019724434
-0.0058887186 0.007668958 0.015749529 -0.0031587328 0.0055383374 0.003660768 0.006302211 0.0052777533
-0.0032484585 -0.00037243162 -0.001007837 0.00014720339 -0.004561722 -0.0019166792 0.009056852 0.015707599
0.009453768 -0.0030535965 0.005226248 0.0062112217 0.0007533427 0.0098698605 0.0058600665 -0.0039455337
-0.007128659 0.0073272157 -0.0030352175 -0.0004549461 0.002984702 0.00909709 -0.005775495 0.0056773946
0.0050175455 0.0034297167 -0.0061938493 0.006017528 -0.0025074927 0.004809873 -0.0040372894 0.008859574
0.0031379224 0.009039052 -0.00059771194 0.00086929003 0.006677617 -0.002307582 0.012550992 0.009178936
0.0045408667 0.010821984 0.0006501347 -0.00572504 0.007404189 -0.0007774183 0.012725244 0.0014618256
0.007212525 0.007275798 0.0033637837 0.0070917984 0.0002489667 0.011713174 0.007529293 0.005597455
0.007308843 0.0037151345 0.00641357 0.006366202 -0.0016441245 -0.004223411 0.008805883 0.0047602905

action_model._discrete_distribution.branches.0.weight f4 [3, 128]
00000000: 6587 543b 713f 18bb baad df3b 958a 983b
00000010: a283 0a3b 6425 b1ba f568 303b 88c4 233c
00000020: 95fc 5f3c 5d7a b4bb f2f8 663c 6839 1cbc
00000030: 8f89 9b3b 7268 3a3c 67d9 8ebc d9af 08bc
00000040: f58c ed3b 3e78 e53b 567f 103c 2820 fbbb
00000050: c6a1 51bc 238a f53a acb7 b43b c615 3bbb
00000060: 21c9 2abc 78d1 ef3b 7056 2d3c 207e 93bc
00000070: 01e6 23bc f689 df3a 60b1 403a 005c b13b
00000080: e177 f63b 3a99 043c ca87 5bbc 9a1f dcbb
00000090: 3931 8bbc df32 093c ab7b d3bb 08a2 3037
000000a0: 3c8e d53c 279a 973b 3fa0 a23c 870b d63b
000000b0: 5f9d 5d3c 17d6 98b9 8cee 3ebc cab6 023b
000000c0: bda0 5dbc 0447 9abc c898 c1bb 65dc bd3b
000000d0: 2aa4 383c a9fc 40bc 1b4c c13a f6c2 80bc
000000e0: c8fe fb3b 34f7 09bc 1bc2 ca3b c200 163c
000000f0: 0432 4ebc fd13 cebb 3b32 25bc 2273 15bc
00000100: 25d9 f43b 5f98 d03b d1d4 063b 4b95 25bb
00000110: 375b a53b c75a bd3c 07aa 09bc 2385 f63b
00000120: 290b 87bc d1af 933c 3ad3 97bc 01d6 97bc
00000130: e936 bb3b 26be 5ebc 8a1c a6bb f46e 623c
00000140: d5ee d23b 6a15 10bc e91f 283c f723 32bc
00000150: 2a24 14bc 78a0 43bb abe9 af3c c45a 66bc
00000160: 3b9b d7bb 5cdb 9c3a fb0a f7bb 61f2 0fbc
00000170: 30c4 a83b 2519 1a3b da1f 423c e3f3 29bc
00000180: 3643 19bb 5a95 413c 7978 bb3b 9fbf a2bb
00000190: 8327 34bb d326 fa3a 6af5 52bc f68b 9bbb
000001a0: d156 29bb 5082 86bb 063d d73a f9f7 bf3b
000001b0: a30f 79bc 8bea 28bc 1a56 173b 8353 23bc
000001c0: f8b9 2abc f178 f0bb cec2 0a3c 272c c9bc
000001d0: d7fb 573c e6ca 6c3c 5810 25bc 83d0 8cbb
000001e0: bc9c b3b9 3d50 9f3b d27f fdbb 20c5 d239
000001f0: 0227 bf3b 5c33 393c d944 5bbc c546 2ebc
00000200: 7198 5c3c d89f e7bb ae3b ad3c 2116 58bb
00000210: 4b64 b93c 5479 b23c 5b84 da3b 9e1a 313c
00000220: 0635 f33b 5d9b 4dbc 2ddc b13b 96fe a7bc
00000230: ddda b3bb d14e 9bbb d4cf 15bc f563 afbb
00000240: 76b0 19bc bcd5 743c 7197 de3b 6d19 ccbc
00000250: 8712 8e3c d544 84ba 14e2 1e3d c46b 053c
00000260: 6ecf 273c acd2 fcb8 41d5 bf3c bb62 c8bc
00000270: fffc c13c 4ef4 0cbb 0dee 63bb 303c e43b
00000280: bb4d b03c a8af 263c 6f98 fb3b 9b21 52bc
00000290: cbd8 d2bb 008b 82bb 1479 513c 31e9 93bc
000002a0: 4978 6cbc 9817 6d3c de2f f1bb 3247 8f3c
000002b0: bc54 63ba e212 76bc 1849 15bb 4ca7 883c
000002c0: cc3f e2bb 4b41 2bbc 4155 9cbc c6fc 6b3c
000002d0: 738e e53c 8504 483c fff7 8c3c 1d3d 21bc
000002e0: 9825 27bb 1c77 763b 8c5e e63c 8323 68bc
000002f0: 8d22 aebb 1da8 893b f05d 943c 9b0a c63b
00000300: 7950 cb3a 3f0e 133c f936 b8bb c773 363a
00000310: 8fa9 babb 0636 473c b6f1 263d 3969 053d
00000320: 89c2 843c 13b9 3dbc 93f0 503c 9fe2 373c
00000330: bf89 053c b095 22bc f8c2 d7bc a1e4 84ba
00000340: f583 de3a 8a73 823c 930a 983b c726 60bc
00000350: f8d5 82bc d504 1abb 5f2a 82b9 857a 5ebb
00000360: 3998 0d3c 6d72 94bc 4fa3 8bbc 26df 263c
00000370: 1a10 173b 3f10 8c3c 4199 09bb a6b8 08bc
00000380: 814a a4bc c4cb 603c ac56 3f3c b04d 323a
00000390: 85c0 2d3c fc5a fdbc 65de 5bbb 55e7 253b
000003a0: 81a9 523c 0388 953c b011 81ba f8d9 33bb
000003b0: ade4 843c e70d f0bb 1030 d63c 5d6d c3bc
000003c0: 5912 bb3b 8900 0139 6b07 a03c 4f48 4fbc
000003d0: 4282 753c 24c4 cb3c 70f2 fabb d6b2 8abc
000003e0: 3a1d b43c 8233 7f3c a300 30bb 3ae3 923c
000003f0: 7a32 af3b 41ca 88bb 842e 28bc e76d ef3b
0.0032429334 -0.0023231173 0.0068261297 0.004655192 0.0021135588 -0.0013515172 0.0026918028 0.009995587
0.01367106 -0.005507751 0.014097439 -0.009535171 0.004746623 0.011377441 -0.01743765 -0.008342707
0.0072494694 0.0070028594 0.008819422 -0.0076637454 -0.012794917 0.0018733185 0.0055150595 -0.0028546914
-0.010423929 0.007318672 0.01057969 -0.018004477 -0.010003568 0.0017054665 0.00073506497 0.0054125786
0.007521615 0.008093173 -0.013399074 -0.0067176344 -0.016991245 0.008373945 -0.0064539514 1.0528143e-05
0.0260688 0.0046265307 0.019851802 0.006532136 0.01352629 -0.0002915121 -0.011653554 0.0019945377
-0.0135270925 -0.018832691 -0.0059081055 0.0057940953 0.0112696085 -0.011778989 0.0014747413 -0.015717965
0.0076902844 -0.008420754 0.00618769 0.009155454 -0.012585167 -0.006289004 -0.010082777 -0.009121688
0.0074721747 0.0063658203 0.0020573626 -0.0025265987 0.005046274 0.023114575 -0.008402354 0.0075231954
-0.016484814 0.018028172 -0.018533338 -0.018534662 0.005713333 -0.01359514 -0.00506932 0.013820399
0.0064371624 -0.008794168 0.010261514 -0.0108728325 -0.009041825 -0.0029850286 0.021473726 -0.014059726
-0.006579784 0.001196723 -0.007539151 -0.008785815 0.0051503405 0.0023513522 0.011848414 -0.0103730885
-0.0023386008 0.011815393 0.0057211486 -0.0049666907 -0.002748937 0.0019085057 -0.012875894 -0.0047469093
-0.00258391 -0.00410489 0.0016421385 0.005858418 -0.015201482 -0.010309826 0.0023092092 -0.009968641
-0.010420315 -0.007338636 0.008469297 -0.024557186 0.013182602 0.014452672 -0.010074697 -0.0042973175
-0.00034258317 0.00486186 -0.0077361846 0.0004020119 0.0058335075 0.011303749 -0.013383114 -0.01063699
0.013464079 -0.0070686154 0.021146622 -0.0032972174 0.022630831 0.02178637 0.00666861 0.010809569
0.0074220924 -0.0125492485 0.0054278583 -0.020507138 -0.005488737 -0.0047396203 -0.009143788 -0.005352492
-0.0093804505 0.014943536 0.0067929556 -0.024914468 0.017342819 -0.0010091314 0.038789824 0.008143369
0.010242326 -0.00012055537 0.023417117 -0.02446114 0.023680208 -0.0021507922 -0.003477934 0.0069651827
0.02152144 0.010173716 0.0076780836 -0.012825395 -0.006434535 -0.0039838552 0.012785215 -0.01805553
-0.014432975 0.014470957 -0.0073604425 0.017490003 -0.0008671989 -0.01501915 -0.0022779163 0.016681336
-0.006904578 -0.010452579 -0.019083621 0.014403528 0.028022027 0.012208109 0.017208098 -0.009841231
-0.0025504585 0.0037607616 0.028121255 -0.014168623 -0.0053141774 0.004200949 0.0181112 0.0060437447
0.0015511654 0.0089755645 -0.0056217876 0.0006960001 -0.0056964825 0.012158876 0.040757857 0.03257105
0.016206043 -0.01157977 0.01275267 0.011223464 0.008150517 -0.009923384 -0.026338086 -0.0010138938
0.0016976582 0.015924234 0.0046399324 -0.01368112 -0.015971169 -0.0023501415 -0.000248271 -0.003394754
0.00864225 -0.018120969 -0.017045645 0.010185039 0.0023050369 0.01709759 -0.0020995887 -0.008344805
-0.020055057 0.0137204565 0.011678379 0.00068017375 0.010604982 -0.030927174 -0.0033549306 0.0025314887
0.012857796 0.018253332 -0.000984719 -0.0027443152 0.016222322 -0.007325876 0.026145965 -0.02385586
0.0057089743 0.00012302598 0.019534787 -0.012651517 0.014984669 0.0248738 -0.0076582953 -0.016930979
0.021986593 0.015576245 -0.0026855848 0.017930616 0.0053465934 -0.004174501 -0.010264996 0.0073068026

action_model._discrete_distribution.branches.0.bias f4 [3]
00000000: 89fe c5bb 3936 a73b b69a 403a
-0.006042306 0.0051028994 0.00073472725

onnx::Div_52 f4 [8]
00000000: 3206 2740 0b68 983f e734 b640 4c91 8040
00000010: 48a1 2540 750b cb40 616b a73f 6800 003f
2.6097531 1.1906751 5.693958 4.0177364 2.5879688 6.3451486 1.3079644 0.5000062
