results/BTB_v2/Pong/Pong-160674.pt (torch, 447378 bytes, 41 tensors)

network_body.observation_encoder.processors.0.normalizer.running_mean f4 [8]
0	0x3ccbb853	0.024868166
1	0x3d6933a7	0.056934025
2	0xbcfbf7b0	-0.030757755
3	0xbb881d16	-0.004153858
4	0xbb861844	-0.004092248
5	0x3d191f02	0.037383087
6	0x3af190ff	0.0018430053
7	0x3effff93	0.49999675

network_body.observation_encoder.processors.0.normalizer.running_variance f4 [8]
0	0x498593c0	1.094264e+06
1	0x485e60de	227715.47
2	0x4aa1fcb8	5.307996e+06
3	0x4a1a6c4c	2.530067e+06
4	0x49056c85	546504.3
5	0x4ac81456	6.556203e+06
6	0x4886d700	276152.0
7	0x471ce9c0	40169.75

network_body.processors.0.normalizer.running_mean f4 [8]
0	0x3ccbb853	0.024868166
1	0x3d6933a7	0.056934025
2	0xbcfbf7b0	-0.030757755
3	0xbb881d16	-0.004153858
4	0xbb861844	-0.004092248
5	0x3d191f02	0.037383087
6	0x3af190ff	0.0018430053
7	0x3effff93	0.49999675

network_body.processors.0.normalizer.running_variance f4 [8]
0	0x498593c0	1.094264e+06
1	0x485e60de	227715.47
2	0x4aa1fcb8	5.307996e+06
3	0x4a1a6c4c	2.530067e+06
4	0x49056c85	546504.3
5	0x4ac81456	6.556203e+06
6	0x4886d700	276152.0
7	0x471ce9c0	40169.75

network_body._body_endoder.seq_layers.0.weight f4 [128, 8]
0	0x3d2f2089	0.042755637
1	0xbeeebd6d	-0.46628895
2	0xbc67272d	-0.014108461
3	0xbeab08a4	-0.3340503
4	0xbefe9f4a	-0.49730903
5	0xbe1d669d	-0.15371175
6	0x3eec7b70	0.46187925
7	0xbf36a7c7	-0.7134976
8	0x3dc66b3e	0.096884236
9	0x3ddfb0df	0.10922407
10	0xbf5e0b74	-0.86736226
11	0xbf20057c	-0.6250837
12	0x3e470cb1	0.19438435
13	0xbe89dc4c	-0.26925886
14	0xbd4b8b26	-0.04969325
15	0xbeae9339	-0.34096697
16	0xbe9150af	-0.2838187
17	0xbf05b336	-0.5222658
18	0xbef819d9	-0.4845722
19	0xbe2aeea1	-0.16692592
20	0x3d6a8cb6	0.0572631
21	0xbe9a3326	-0.30117148
22	0x3e705d5f	0.23473118
23	0xbd17c4e0	-0.03705299
24	0x3f6de7de	0.92931926
25	0x3eccca68	0.39998174
26	0xbe5c7abb	-0.21531193
27	0x3d75286b	0.059853
28	0x3e9751c6	0.29554576
29	0x3daa6521	0.0832007
30	0x3b8777d8	0.0041341595
31	0xbd0bc7ac	-0.03412597
32	0x3d4f6a0f	0.050638255
33	0xbd11c6f1	-0.035590116
34	0xbd875b7b	-0.066092454
35	0xbd2f5c00	-0.042812347
36	0x3eb6b1a6	0.3568241
37	0x3e909f23	0.28246412
38	0xbe47f7a1	-0.19528057
39	0x3f322d56	0.6960043
40	0xbdd5b962	-0.104357496
41	0x3e8da5f3	0.27665672
42	0xbea25746	-0.3170721
43	0xbea31ced	-0.31858006
44	0x3e845b9c	0.25851142
45	0xbe676792	-0.22598103
46	0x3eba8f27	0.36437342
47	0x3f106fb0	0.5642042
48	0xbe2a66e7	-0.16640817
49	0x3ebcd496	0.3688094
50	0xbe89819f	-0.26856706
51	0x3e17a815	0.14810212
52	0xbe25ca01	-0.1619034
53	0xbef33f0c	-0.47509038
54	0xbddf75d6	-0.10911147
55	0x3e69c4dd	0.22829004
56	0x3e7e7962	0.24850991
57	0x3e438cae	0.19096634
58	0x3db67da7	0.08910685
59	0x3dd6dc79	0.104912706
60	0x3ed8804b	0.4228538
61	0x3eabac42	0.3352986
62	0xbce98080	-0.028503656
63	0x3ef1bfc9	0.47216633
64	0x3ea1a7ac	0.31573236
65	0xbdb30dac	-0.08742842
66	0xbe1684bf	-0.14699076
67	0x3f7a2320	0.97709846
68	0x3c8f7a30	0.017514318
69	0xbd5b6dbb	-0.053571444
70	0xbea04495	-0.31302324
71	0xbe4a2bc7	-0.19743262
72	0x3e1b3395	0.15156396
73	0xbee4dee6	-0.44701308
74	0xbc86d711	-0.016459974
75	0xbcc8e366	-0.024522495
76	0xbd0c366d	-0.034231592
77	0xbd88eee5	-0.066861905
78	0xbe6fbc66	-0.23411712
79	0x3db31d91	0.08745874
80	0xbdbb836c	-0.09155926
81	0x3ca6f498	0.020380303
82	0x3eade351	0.3396249
83	0xbd2ff71e	-0.04296028
84	0xbebdd9d7	-0.3708026
85	0xbe2cbad2	-0.16868141
86	0x3eca0af9	0.39461496
87	0xbdda703c	-0.10665938
88	0xbf017268	-0.50565195
89	0x3e1c70f7	0.15277468
90	0xbe4cc261	-0.19996025
91	0x3f4bd1c1	0.79616934
92	0x3e90025b	0.28126797
93	0x3e14cc3c	0.14531034
94	0xbd630ef6	-0.05543419
95	0xbe814f88	-0.2525599
96	0xbee5160f	-0.44743392
97	0x3bc9571b	0.006144417
98	0xbf2fa4ab	-0.6861064
99	0x3ed24250	0.41066217
100	0xbe80fc03	-0.2519227
101	0xbe9ed115	-0.31018892
102	0x3ea96634	0.33085787
103	0x3f0ccda0	0.5500126
104	0x3e726f2d	0.23675223
105	0xbf0200b4	-0.5078232
106	0xbe272203	-0.16321568
107	0xbe9ea453	-0.30984744
108	0xbec3d6ff	-0.38249967
109	0xbf0414a8	-0.5159402
110	0xbdc9dae2	-0.09856202
111	0xbe89e10e	-0.26929516
112	0x3ec494e7	0.38394853
113	0x3efa5033	0.48889312
114	0x3f0af03e	0.5427283
115	0xbd66467f	-0.056219574
116	0xbea99b07	-0.3312609
117	0xbe975451	-0.29556516
118	0x3e486305	0.19569023
119	0x3e506c7e	0.20353886
120	0xbed7e16a	-0.42164165
121	0xbe367a4d	-0.17820092
122	0x3dca4481	0.09876347
123	0x3c827620	0.015925467
124	0x3e215b61	0.15757515
125	0xbe008f69	-0.12554707
126	0x3e57bb66	0.2106758
127	0x3e5f086c	0.21780556
128	0x3e3c1039	0.18365563
129	0xbe466896	-0.19375834
130	0x3c805d4c	0.015669487
131	0x3d8d10f8	0.06888002
132	0xbcf93347	-0.030419959
133	0x3b517307	0.003195943
134	0x3e8edf3b	0.27904686
135	0xbec70071	-0.38867524
136	0x3f0e74d9	0.55647045
137	0x3f275984	0.65370965
138	0xbb66298b	-0.0035119976
139	0x3dd4d301	0.10391808
140	0xbf18ddb4	-0.5971329
141	0x3ea784d1	0.32718518
142	0xbcfb44ca	-0.03067245
143	0x3e27788d	0.1635458
144	0x3f1885c9	0.5957914
145	0x3e131a37	0.14365469
146	0x3a68e748	0.0008884561
147	0xbed93d45	-0.42429557
148	0x3ce41d5f	0.027846036
149	0x3f34611e	0.7046069
150	0xbf2e9b7b	-0.68205994
151	0xbf11cd47	-0.56953853
152	0xbe3a94fe	-0.18220899
153	0x3eedfbb1	0.46481088
154	0xbf1f093d	-0.6212347
155	0xbe82b41c	-0.25528038
156	0xbea48052	-0.3212915
157	0xbf1a23ac	-0.6021068
158	0x3f02b54d	0.51057893
159	0x3e8543e9	0.26028374
160	0x3dea100c	0.11428842
161	0x3dc6072b	0.09669336
162	0x3f0116a5	0.5042518
163	0x3e269321	0.16267063
164	0x3ea69bcd	0.32540742
165	0x3e2b3469	0.16719212
166	0xbd804811	-0.062637456
167	0x3e207022	0.15667775
168	0x3e935f09	0.28783444
169	0x3e34e181	0.17664148
170	0x3e87cf49	0.26525334
171	0x3ea66a46	0.32502955
172	0xbee0dc4b	-0.4391807
173	0xbd7ba892	-0.061440058
174	0x3c8283bf	0.015931962
175	0xbd6301d5	-0.05542167
176	0x3f228033	0.63476866
177	0xbe844157	-0.258311
178	0x3e0413ba	0.1289815
179	0x3f6485ae	0.8926648
180	0xbeb92839	-0.361635
181	0x3bcd0a60	0.0062573403
182	0xbf33fc75	-0.70307094
183	0xbe5fbc37	-0.21849142
184	0x3d458152	0.048219033
185	0x3e7b5284	0.24543196
186	0xbd0337ac	-0.032035515
187	0xbea6dc37	-0.32589886
188	0xbe863d8d	-0.26218835
189	0xbe2bcc10	-0.16777062
190	0x3c00e0e4	0.007866118
191	0x3e35c80e	0.17752096
192	0xbedb18fd	-0.42792502
193	0xbca1ea37	-0.019765003
194	0xbdd0c062	-0.10192944
195	0xbe453e4b	-0.19262044
196	0x3d889a60	0.0667007
197	0x3d9b6302	0.075872436
198	0xbeecb7de	-0.4623403
199	0x3eacedee	0.33775276
200	0x3e92cfe6	0.2867424
201	0x3ef4205f	0.47680947
202	0x3e8041fa	0.25050336
203	0x3e887694	0.26652968
204	0x3f864649	1.0490199
205	0xbde091b3	-0.1096529
206	0x3e2ecd3c	0.17070478
207	0xbee21251	-0.441546
208	0xbe938a1e	-0.28816313
209	0x3dddf2c5	0.1083732
210	0x3e036beb	0.12834136
211	0xbe70c3f8	-0.23512256
212	0xbea18c47	-0.31552336
213	0x3ea02462	0.31277758
214	0xbf23459f	-0.6377811
215	0xbe709b8f	-0.23496841
216	0xbe846e00	-0.25865173
217	0xbc14960f	-0.00906898
218	0xbce79772	-0.028270457
219	0x3e09bfed	0.1345212
220	0xbf4add21	-0.79243666
221	0xbeca57e3	-0.39520177
222	0xbf68b4d0	-0.909009
223	0xbddfad0d	-0.10921679
224	0x3e39b77b	0.18136398
225	0x3d4f1ccd	0.050564576
226	0xbcccaf42	-0.024985913
227	0xbe497e66	-0.19677123
228	0xbe9efdb4	-0.31052935
229	0xbef028b0	-0.46906042
230	0x3e805b04	0.2506944
231	0x3ee32c1c	0.4436959
232	0x3e9d6389	0.30740002
233	0x3e91e951	0.2849832
234	0x3dfeea69	0.12447054
235	0x3e89beb1	0.26903298
236	0x3dff0757	0.12452572
237	0x3d623984	0.055230632
238	0xbe6c6818	-0.23086584
239	0xbee61320	-0.44936466
240	0xbeba8785	-0.36431518
241	0xbe8e1026	-0.27746695
242	0xbf62dff5	-0.8862298
243	0x3ee2dd00	0.44309235
244	0xbe32514c	-0.17413825
245	0x3c94333a	0.018090833
246	0xbeabfc75	-0.33591047
247	0x3f2ef37a	0.68340266
248	0xbe2f56dd	-0.1712298
249	0xbe548037	-0.20752035
250	0x3dfe63c6	0.12421374
251	0x3ec25186	0.37952822
252	0xbc12f30f	-0.0089690825
253	0xbe8c2c7c	-0.2737769
254	0xbe092580	-0.13393211
255	0x3da645b4	0.081187636

network_body._body_endoder.seq_layers.0.bias f4 [128]
0	0x3ca7c76a	0.02048083
1	0xbbaa06bc	-0.005188791
2	0x3c74f256	0.0149503555
3	0x3c9759d1	0.018475445
4	0x3b6d893e	0.0036245133
5	0x3b58d175	0.003308383
6	0xbc1e0069	-0.0096436525
7	0x3c14c188	0.009079345
8	0x3bba4db4	0.0056855325
9	0x3cd16652	0.025561485
10	0x3bbba022	0.0057258764
11	0x3b671201	0.0035258534
12	0x3b2f1029	0.0026712513
13	0x3caf6a69	0.021413045
14	0x3c30ff93	0.010803121
15	0x3c6f2b22	0.014597686
16	0xbcdbad99	-0.026816176
17	0x3c6df3fa	0.014523501
18	0xbaa08128	-0.0012245523
19	0x3c748777	0.014924875
20	0x3c8c73e3	0.017145103
21	0x3bb44302	0.005501152
22	0x3c91f91d	0.017818982
23	0xbbe31593	-0.006930062
24	0xbb7b28b9	-0.0038323833
25	0x3bb3f296	0.005491565
26	0x3bde91fd	0.0067923055
27	0x3b0ebb66	0.0021779179
28	0x3ba56594	0.0050475094
29	0xbb7ff2c9	-0.0039054623
30	0x3bf96a80	0.0076115727
31	0x3c0731f6	0.008251658
32	0xbba29391	-0.004961439
33	0x3c8734ee	0.016504731
34	0x3c3adddd	0.011405435
35	0x3caab8aa	0.020840008
36	0x3c33a1db	0.010963882
37	0x3c3bc68f	0.011460914
38	0x3b358784	0.0027699182
39	0xbc0dbf1f	-0.008651524
40	0x3b3bed39	0.0028675331
41	0xbb502d85	-0.0031765413
42	0x3b515b92	0.003194545
43	0xba23144e	-0.0006220982
44	0x3c688ee5	0.014194225
45	0xbb304653	-0.0026897385
46	0x3beebce1	0.0072856997
47	0x3c17457d	0.009232876
48	0x3abcdc16	0.0014408852
49	0x3c287180	0.010280967
50	0xbb632799	-0.0034661053
51	0xbb0ea6e7	-0.0021766962
52	0x3bd95d6b	0.0066334507
53	0xbb9d36dd	-0.0047978
54	0x3c52d614	0.012868423
55	0x3ad73ec2	0.0016421902
56	0x3c42ae53	0.011882382
57	0x3c7103c2	0.014710369
58	0x3bc395e4	0.005968796
59	0x3bc90435	0.0061345347
60	0x3cbf9740	0.023387551
61	0xbbb6d9c4	-0.005580159
62	0x3cc58b7b	0.024114361
63	0x3c88276a	0.016620357
64	0x3c84ed56	0.016226452
65	0x3c0c22ae	0.00855319
66	0xbad7109d	-0.0016408149
67	0x3c20f5db	0.0098242415
68	0x3c4216c6	0.01184625
69	0x3bb2e694	0.005459616
70	0x3bcbc5ac	0.0062186327
71	0x3c9d3418	0.01918988
72	0x3c79fc50	0.01525791
73	0x3b4c0d43	0.0031135834
74	0xbc9ee659	-0.019396948
75	0x3c35f4cf	0.01110573
76	0x3c1c7fd4	0.009551961
77	0xbc16427f	-0.009171127
78	0x3c43bd4c	0.011946987
79	0x3c2f7fe4	0.010711644
80	0x3c6c58af	0.014425441
81	0x3bc5b0cb	0.0060330383
82	0x3c370458	0.011170469
83	0xbb4b65db	-0.0031036052
84	0x3c1af77e	0.009458421
85	0xbb3139b9	-0.0027042462
86	0xbc2d0d62	-0.010562273
87	0x3c2ca230	0.010536715
88	0xba1ffb62	-0.00061028276
89	0xbc0c9941	-0.00858146
90	0xb9d6275d	-0.0004084659
91	0x3cf9fe9f	0.03051692
92	0x3cd5fcf4	0.026121594
93	0x3b960d95	0.004579256
94	0xbbf52473	-0.0074811517
95	0x3ca66fa9	0.020316916
96	0xbbc34737	-0.005959417
97	0xbbb9cc97	-0.005670141
98	0xba9d67fe	-0.0012009142
99	0x3b9e65fa	0.004833934
100	0x3c6d4b19	0.014483237
101	0x3ca49570	0.020090789
102	0xbc156a33	-0.009119558
103	0x3c49b8dd	0.012312141
104	0xbbebf8cc	-0.0072012898
105	0xb9f2e858	-0.00046330946
106	0x3cbe157c	0.023203604
107	0x3a2603e8	0.00063329795
108	0x3ba96512	0.005169519
109	0xbb4f7293	-0.0031653985
110	0x3c5f712c	0.013637822
111	0xbb0f50b6	-0.0021868176
112	0x3c75413d	0.014969167
113	0xb976de42	-0.00023543186
114	0x3c9770b3	0.018486356
115	0x3b5a1bbb	0.0033280689
116	0x3ca07c61	0.019590558
117	0x3aae8968	0.0013316097
118	0xbc79cf44	-0.01524717
119	0x3ca4480c	0.020053886
120	0xbc062598	-0.008187674
121	0x3c496cb1	0.01229398
122	0x3b4f9027	0.0031671615
123	0xb94c023a	-0.00019455786
124	0x3cc37eee	0.023864236
125	0x3b191e22	0.0023363908
126	0x3c488b00	0.012240171
127	0x3c848ef6	0.01618145

network_body._body_endoder.seq_layers.2.weight f4 [128, 128]
0	0xbcb0429e	-0.02151614
1	0xbdc6045d	-0.09668801
2	0x3d91a3a3	0.07111289
3	0x3b9632af	0.0045836787
4	0x3cc8b770	0.024501532
5	0xbe646736	-0.22304997
6	0x3c26a34f	0.010170772
7	0xbd49e3d8	-0.049289554
8	0x3de02dea	0.109462574
9	0x3cf26590	0.029589444
10	0xbb46faf4	-0.0030361982
11	0xbcbcea9f	-0.023061095
12	0x3c32e1e5	0.010918115
13	0xbcb251fe	-0.021767613
14	0xbe71bf78	-0.23608196
15	0xbd68b0ac	-0.056809112
16	0x3d22df53	0.03976376
17	0xbd63c600	-0.05560875
18	0x3dc9a84a	0.09846552
19	0xbde10d02	-0.10988809
20	0x3cc8ca77	0.024510605
21	0xbdc74647	-0.09730201
22	0xbd01cf59	-0.031691883
23	0x3e056d09	0.13029875
24	0x3e5a16cd	0.2129776
25	0xbcca38ea	-0.024685342
26	0xbb552f32	-0.0032529351
27	0xbde17389	-0.11008365
28	0xbce1a8d2	-0.02754632
29	0x3d870343	0.06592419
30	0x3e117f2e	0.14208671
31	0x3e0e46bc	0.1389417
32	0x3dcc8fe4	0.099883825
33	0x3cbf9c51	0.023389967
34	0xbd83b6a4	-0.0643132
35	0xbc10797d	-0.008818028
36	0xbc2fa334	-0.010720063
37	0x3cf42ea0	0.029807389
38	0xbd60ccce	-0.054882817
39	0x3e732dce	0.23747942
40	0x3d91b686	0.07114892
41	0x3ca3e3c0	0.02000606
42	0xbe097c81	-0.134264
43	0xbdf320f3	-0.11871519
44	0x3da0a411	0.07843793
45	0x3e1c28ca	0.15249935
46	0x3e25be27	0.16185819
47	0x3d4adbc0	0.049525976
48	0x3e021a5b	0.12705366
49	0xbd3f4d20	-0.04670441
50	0xbc18e4d9	-0.009331905
51	0x3da34018	0.07971209
52	0xbc581a9a	-0.013189936
53	0xbe966933	-0.29377136
54	0x3ce18a45	0.027531752
55	0x3dd5f78e	0.10447608
56	0xbd92b7e7	-0.07163983
57	0xbad9f955	-0.0016630093
58	0x3c7024f8	0.014657252
59	0x3cd83954	0.026394524
60	0x3d0dda71	0.03463215
61	0x3e48febd	0.19628425
62	0xbbb9c8b4	-0.0056696776
63	0x3d0e2b0e	0.03470903
64	0x3e1148d0	0.14187932
65	0xbdce6f83	-0.10079863
66	0xbc8a82bb	-0.01690804
67	0xbca8879d	-0.020572478
68	0x3d8714e7	0.06595784
69	0xbd04861b	-0.032354455
70	0xbe45764f	-0.19283412
71	0xbe198c17	-0.14994846
72	0xbd888bc0	-0.0666728
73	0xbe4c293c	-0.19937605
74	0x3e3af41e	0.18257186
75	0x3cd4978d	0.025951171
76	0xbd0b59ce	-0.03402119
77	0x3daa8ecc	0.083280176
78	0xbd303922	-0.043023236
79	0x3d5fc0ff	0.054627415
80	0x3d586ad2	0.052836247
81	0x3db08bf3	0.08620443
82	0xbd81ff22	-0.06347491
83	0x3db3dcdf	0.08782362
84	0x3df5e3d3	0.12006345
85	0xbe27e834	-0.16397172
86	0xbb334dbe	-0.002735957
87	0x3d787601	0.060659412
88	0xbda792ab	-0.081822716
89	0xbc0b0ac9	-0.008486458
90	0x3e53031b	0.20606653
91	0xbe166443	-0.14686684
92	0x3d792075	0.06082197
93	0x3d7fae11	0.062421862
94	0xbd97eaf4	-0.074178606
95	0xbd6946d2	-0.056952305
96	0xbdc3c262	-0.0955856
97	0x3d57c89f	0.05268156
98	0xbdd7dad8	-0.10539788
99	0xbd80cdd9	-0.06289262
100	0xbdf3b764	-0.11900213
101	0xbe2481f1	-0.16065194
102	0x3d2d9bff	0.042385098
103	0xbc45d98a	-0.012075791
104	0xbd95cbbc	-0.0731425
105	0xbb41007e	-0.0029449756
106	0x3cce8e50	0.025214344
107	0x3c81f27f	0.015862701
108	0x3d018f35	0.031630713
109	0xbe12e637	-0.14345632
110	0x3c02b58f	0.007977857
111	0x3d57a8a7	0.052651074
112	0xbd5b5e5e	-0.053556792
113	0xbd680095	-0.05664118
114	0xbdb97714	-0.090559155
115	0xbdb5941c	-0.0886614
116	0x3cc34af8	0.023839459
117	0xbe18f402	-0.14936832
118	0x3d7ebb77	0.0621905
119	0xbd91b24a	-0.07114084
120	0x3ce56a4d	0.02800479
121	0xbd89c6b0	-0.0672735
122	0xbe276888	-0.1634847
123	0xbd84798f	-0.06468498
124	0xbdd5542f	-0.10416447
125	0xbce5ffe8	-0.028076127
126	0x3da3110a	0.07962234
127	0x3d6af171	0.057359163
128	0xbcd2b4cf	-0.025720982
129	0x3d847f3f	0.06469583
130	0xbd9616f8	-0.073286
131	0x3dcb3613	0.09922423
132	0x3de680f1	0.11255062
133	0xbdf576f5	-0.1198558
134	0x3e585192	0.21124867
135	0xbc0eacdf	-0.008708208
136	0xbd6fa97c	-0.058511242
137	0x3e07120c	0.13190478
138	0xbdac9cd1	-0.08428348
139	0xbd92b3c3	-0.07163193
140	0xbce9b47b	-0.028528443
141	0xbe1805bf	-0.14845942
142	0xbe0a7164	-0.13519818
143	0xbce95e24	-0.028487273
144	0x3d906384	0.07050231
145	0x3d671dd5	0.056424934
146	0xbe14ea24	-0.14542443
147	0x3db7116b	0.08938869
148	0x3d1ef91c	0.038811788
149	0xbd28376d	-0.041068483
150	0x3dc2bf69	0.09509165
151	0xbba47a2d	-0.0050194473
152	0x3bab7b69	0.0052332175
153	0xbcd4c90c	-0.025974773
154	0x3d9733da	0.07382937
155	0x3de52019	0.11187763
156	0x3e13276b	0.14370506
157	0x3cdf2802	0.027240757
158	0xbd0ea5d3	-0.03482611
159	0x3acaaca6	0.001546283
160	0xbc4dff93	-0.012573141
161	0x3d62706c	0.055282995
162	0x3d1c8702	0.03821469
163	0xbdb1a5f4	-0.08674231
164	0x3cab67d8	0.02092354
165	0xbd3d199e	-0.04616701
166	0xbd770bde	-0.06031405
167	0xbd2a4390	-0.04156834
168	0xbe2ad656	-0.16683325
169	0x3d8d5285	0.06900505
170	0x3d8b6274	0.06805888
171	0xbd0d9b03	-0.03457166
172	0x399b07c6	0.00029569695
173	0xbd863d76	-0.065546915
174	0xbd166a3c	-0.036722407
175	0xbe156116	-0.14587817
176	0xbdfe6b51	-0.12422813
177	0xbd007420	-0.031360745
178	0xbdd0051b	-0.10157224
179	0x3dae060e	0.084972486
180	0xbca253a4	-0.019815274
181	0xbd05683e	-0.032570116
182	0x3dba5f37	0.09100192
183	0x3c529b3c	0.012854394
184	0xbd9133a1	-0.070899256
185	0x3d3edcbc	0.046597227
186	0xbe0d20fe	-0.13782117
187	0x3bb25f31	0.0054434766
188	0xbb954d60	-0.004556343
189	0xbd8b924d	-0.06815014
190	0x3e103bca	0.14085308
191	0xbd658552	-0.056035347
192	0x3e115286	0.14191636
193	0xbd08d0e1	-0.033402327
194	0x39ed0e65	0.00045214887
195	0x3e1403dd	0.14454599
196	0xbd118f68	-0.035537153
197	0xbc7548ec	-0.014970999
198	0x3d8625f4	0.06550208
199	0xbe202676	-0.15639672
200	0x3e06867a	0.13137236
201	0x3cc0262e	0.023455705
202	0x3dc246cc	0.0948616
203	0xbd2885c9	-0.041143212
204	0x3d7c62de	0.061617725
205	0x3e2aecb0	0.16691852
206	0xbbcbdf49	-0.006221686
207	0x3c8dd24a	0.017312188
208	0x3e02fab6	0.12790951
209	0xbdd8034c	-0.10547504
210	0xbd8f48eb	-0.0699633
211	0xbdb6f315	-0.08933083
212	0x3e594d14	0.21220809
213	0xbd52e5ec	-0.0514888
214	0x3dd9f507	0.106424384
215	0xbd03f13f	-0.032212492
216	0xbd3f728a	-0.046740092
217	0xbe2caafd	-0.16862102
218	0x3d6daed8	0.058028072
219	0x3d82a6cd	0.06379471
220	0xbcd2d1f1	-0.025734873
221	0x3e01e8b0	0.1268642
222	0xbda1ae9b	-0.078946315
223	0xbc44e4c0	-0.012017429
224	0xbdc73f21	-0.09728838
225	0xbc0c4559	-0.008561456
226	0x3bffdb95	0.0078081586
227	0xbcf2fa96	-0.029660504
228	0xbdb2f2ef	-0.08737742
229	0xbd5111d4	-0.051042393
230	0x3d8b27ea	0.067947224
231	0xbc121065	-0.008915042
232	0xbcbe99cf	-0.023266701
233	0x3d7d07ee	0.06177514
234	0x3e59daca	0.21274868
235	0x3dae3e58	0.08507985
236	0xbde68b7f	-0.112570755
237	0x3dfba953	0.122881554
238	0xbdae9c8a	-0.08525951
239	0x3dbd6599	0.09247894
240	0xbd68c399	-0.05682716
241	0x3d854348	0.065069735
242	0x3d478750	0.04871303
243	0x3d457270	0.04820484
244	0x3e25aec8	0.16179955
245	0x3d3db657	0.04631647
246	0xbd92d31f	-0.071691744
247	0xbe00ede9	-0.12590756
248	0x3e2f71b1	0.17133214
249	0xbd266f91	-0.04063374
250	0x3d878882	0.06617834
251	0xbcd7a1ea	-0.026322324
252	0xbe2afaf2	-0.1669729
253	0xbb574536	-0.003284765
254	0xbdc8b0ea	-0.09799369
255	0xbdb0dfbe	-0.086364254

network_body._body_endoder.seq_layers.2.bias f4 [128]
0	0xbaaf04e6	-0.00133529
1	0x3c31fdec	0.010863762
2	0x3c9b8444	0.018983968
3	0x3b11f891	0.0022273401
4	0x3a6966a0	0.0008903537
5	0x3c228ab9	0.009920769
6	0x3c92e507	0.017931474
7	0x3b79225f	0.0038014872
8	0xbbbb4119	-0.0057145474
9	0xbbca09fe	-0.006165742
10	0x3ca3a0fb	0.019974222
11	0x3bf79714	0.0075558517
12	0x3c223f4b	0.0099027855
13	0x3b759d75	0.0037477885
14	0xbc0db292	-0.0086485315
15	0x3c0cc3fc	0.008591648
16	0x3c72936c	0.014805656
17	0x3bd60e22	0.0065324465
18	0x3c932257	0.01796071
19	0x3be26095	0.006908486
20	0x3a56f82d	0.0008200433
21	0x3b40b108	0.0029402394
22	0xbb083f1d	-0.0020789572
23	0x3aa69ff0	0.001271246
24	0x3d00130a	0.031268157
25	0xbc0f3ed2	-0.008743005
26	0x3b678195	0.003532504
27	0x3c03aa94	0.008036274
28	0x3bf000db	0.0073243207
29	0xb9b91ef3	-0.0003530901
30	0xbbff8451	-0.0077977558
31	0xb9bc70ec	-0.00035942288
32	0x3c239a3a	0.009985501
33	0x3bf10d66	0.0073563335
34	0x3cb8273a	0.022479642
35	0x3bc35ca3	0.005961971
36	0x3bdef2f4	0.0068038646
37	0xbc0c3eba	-0.008559877
38	0xbbf10733	-0.0073555945
39	0x3c3d63a3	0.0115594
40	0x3b8da62e	0.0043227887
41	0x3c02f9a6	0.007994091
42	0xbbd70f5d	-0.0065631107
43	0x3c9a763e	0.01885521
44	0x37ec10ea	2.8141269e-05
45	0x3c066e5b	0.008205022
46	0xbbb774d3	-0.0055986433
47	0xbba95294	-0.005167315
48	0x3b812d13	0.003942141
49	0x3c615bb9	0.013754779
50	0x3c772a7e	0.0150858145
51	0xbabf6e41	-0.0014605002
52	0x3c91ffb1	0.017822118
53	0xbbc517b1	-0.006014787
54	0x3915196c	0.00014219218
55	0xbc34e773	-0.01104151
56	0x3ca5186a	0.020153243
57	0x3c0ef0f6	0.008724442
58	0x3beb7d76	0.007186587
59	0x3b57ef5c	0.0032949066
60	0x3b945e96	0.004527877
61	0x3c447310	0.011990324
62	0xbb395606	-0.0028280034
63	0x3c097f14	0.008392114
64	0x3c1fa060	0.009742826
65	0xbbfaaa64	-0.0076497067
66	0x3cca1988	0.024670377
67	0xbb7c9809	-0.0038542768
68	0x3b85d3bc	0.0040840786
69	0x3c25b467	0.010113812
70	0xbb8eeb09	-0.0043615145
71	0x3c4abd55	0.012374242
72	0xbbb139ae	-0.0054084873
73	0x3c20464a	0.009782383
74	0x3c40cdf1	0.01176785
75	0xbbf1266c	-0.0073593166
76	0x3ba301b8	0.00497457
77	0x38190766	3.6484933e-05
78	0x3cbb833e	0.02288973
79	0x3c284d5c	0.01027235
80	0x3bdd8b95	0.0067610242
81	0xbb7cb4cc	-0.0038559912
82	0xbb539e1c	-0.0032290285
83	0x3b15d4ff	0.0022862551
84	0xbb0b0284	-0.0021211216
85	0x3c8b6e44	0.017020352
86	0x3c24fe6f	0.010070427
87	0x3bbdc295	0.0057910183
88	0xbb365989	-0.0027824363
89	0x3b975af4	0.0046189968
90	0xbbfe2a76	-0.0077565266
91	0x3c962fad	0.01833328
92	0x3b8b37ee	0.0042486107
93	0x3c28ad9d	0.010295299
94	0x3c37a921	0.011209757
95	0xbb592ad5	-0.0033137102
96	0x3c2fb6b1	0.010724709
97	0x3c0e4377	0.008683077
98	0x3c2b1358	0.010441624
99	0x3c0d8dbf	0.008639752
100	0xbb65b939	-0.0035053028
101	0xbb86e280	-0.0041163564
102	0xbb3c93bb	-0.0028774578
103	0x3c02da27	0.007986582
104	0x3c321b3b	0.01087075
105	0x3bf08565	0.0073401206
106	0x3c718dc9	0.014743277
107	0xba2b42f9	-0.0006533112
108	0xbb43fecd	-0.0029906512
109	0xbb96b00d	-0.0045986236
110	0x3b35e598	0.0027755257
111	0x3bb0c808	0.0053949393
112	0x3bb9b5bf	0.005667418
113	0x3c2808d7	0.010256014
114	0x3ca2bb6c	0.01986476
115	0xbb475cad	-0.003042023
116	0x3c4fb2a6	0.01267687
117	0xbb6d16f4	-0.0036177011
118	0x3bccbaf7	0.006247874
119	0x3c9edb38	0.019391641
120	0x3bb51bae	0.0055269813
121	0x3c459443	0.012059274
122	0xbb59e928	-0.0033250544
123	0x3c596adf	0.013270109
124	0x3b7b0c47	0.0038306878
125	0xbb7daa6f	-0.0038706323
126	0x3c020a67	0.00793705
127	0x3a5e3b87	0.0008477498

action_model._discrete_distribution.branches.0.weight f4 [3, 128]
0	0x3b6ca18a	0.0036107027
1	0xbc8b7b6d	-0.017026627
2	0xbc2d5cc7	-0.010581202
3	0x3c9e53dc	0.019327097
4	0x3a7cf685	0.00096497714
5	0xbc135aec	-0.008993845
6	0xbc142c64	-0.009043787
7	0x3b40d157	0.0029421651
8	0x3c87b124	0.01656396
9	0x3c06a7a3	0.008218679
10	0xbc02e9f0	-0.007990345
11	0x3c09e5fb	0.008416648
12	0xbaad51f4	-0.0013223276
13	0x3aa69cc0	0.001271151
14	0x3a373979	0.000698946
15	0x3b07b5a2	0.0020707627
16	0xbc5e2b2a	-0.013560096
17	0x3c08a1fe	0.008339403
18	0xbbb53a3e	-0.0055306247
19	0xbb68641f	-0.0035460067
20	0xba2f2d75	-0.0006682494
21	0xbb967da8	-0.004592616
22	0x3c054500	0.008134127
23	0xbb82a1a0	-0.0039865524
24	0xbb88230c	-0.0041545685
25	0x3c449c51	0.012000159
26	0x3c9f294b	0.01942887
27	0x3b777b1b	0.0037762586
28	0xba3542a1	-0.00069145305
29	0x3ad50e98	0.001625496
30	0x3b92e9d2	0.00448344
31	0xbba34c7e	-0.004983484
32	0xbbf86ac3	-0.0075810864
33	0xbb365335	-0.0027820591
34	0xbcf4b5a6	-0.029871773
35	0x39e4a7c3	0.0004361254
36	0x3b840e4c	0.0040300246
37	0x3c4e74dd	0.012601105
38	0x3c0432c1	0.008068741
39	0xbc86421f	-0.01638895
40	0xbbd18f2f	-0.0063952426
41	0x3c9e6777	0.019336445
42	0x3be7d19e	0.007074549
43	0xbc3f30c8	-0.011669345
44	0xbace8d6b	-0.0015758699
45	0xbc877643	-0.016535884
46	0x3b1f4393	0.0024301752
47	0x3b7bb5c0	0.0038407892
48	0xbc73176f	-0.01483713
49	0xbbc854eb	-0.0061136386
50	0xbc989aa6	-0.01862843
51	0x3c9b2dea	0.018942792
52	0xbbac3e21	-0.00525643
53	0x3c6038b3	0.013685393
54	0x3b9c25f0	0.0047652647
55	0x3cac7b75	0.021054963
56	0xbc3e36b0	-0.011609718
57	0xbc40089c	-0.011720803
58	0xbab47236	-0.0013766948
59	0xbb3880b8	-0.0028152894
60	0x3c0fcb48	0.008776493
61	0x3ad0035c	0.0015870142
62	0x3be7a632	0.0070693726
63	0x3c523e8e	0.012832297
64	0xbc631776	-0.013860574
65	0x3c33e8b4	0.010980774
66	0xbc561515	-0.01306655
67	0x3c3f331b	0.011669899
68	0xbb48df12	-0.0030650538
69	0xbc3f58c6	-0.01167888
70	0x3b2c9fef	0.0026340445
71	0xbc91a881	-0.017780544
72	0x3c8cbafa	0.017179001
73	0xbc4dca97	-0.012560508
74	0xbc72ccc3	-0.014819327
75	0x3b89767f	0.004195034
76	0xbbc5bb52	-0.006034293
77	0x3beea4a3	0.00728281
78	0xbc65fa50	-0.01403673
79	0x3b73196e	0.0037094015
80	0xbc5d7c39	-0.0135183865
81	0x3c0ee27f	0.008720993
82	0x3c653e30	0.013991877
83	0xbbf8ccbd	-0.007592766
84	0x3c0a64ff	0.008446931
85	0xbc6fd458	-0.014638029
86	0xbc244c21	-0.010027916
87	0xbc009a43	-0.007849279
88	0xbaa26db2	-0.0012392311
89	0x3b5af157	0.003340801
90	0x3bcfab75	0.006337578
91	0xbbc5660e	-0.0060241288
92	0xbb36a8ac	-0.0027871532
93	0xbc07817b	-0.008270617
94	0xbc20f6c5	-0.009824459
95	0x3c4183c1	0.011811198
96	0xbcdbcfdf	-0.02683252
97	0xbcc79672	-0.02436373
98	0xb9e986b7	-0.00044541594
99	0xbb679f66	-0.0035342812
100	0x3c1ce8da	0.0095770005
101	0x3bdee71e	0.0068024537
102	0x3c77b6e3	0.015119287
103	0xbc1d50e9	-0.00960181
104	0xbbbc2dae	-0.00574275
105	0xbcdbc919	-0.02682929
106	0xbb61939a	-0.0034420253
107	0x3bc127d1	0.005894639
108	0x3ba6c3fc	0.005089281
109	0x3b1410e8	0.0022593085
110	0xbaa75d00	-0.0012768805
111	0x3ae9d851	0.0017840957
112	0x3a925113	0.0011163078
113	0x3bfbc101	0.00768292
114	0xbbe6f753	-0.0070485263
115	0xbc89c18f	-0.016815929
116	0xbc51d301	-0.012806655
117	0x3c7fadca	0.015605399
118	0xbbb45dfa	-0.005504367
119	0xbba9df73	-0.005184108
120	0x3bf6b8e0	0.007529363
121	0xbacc6676	-0.0015594501
122	0x3c650020	0.013977081
123	0x3aa64d08	0.0012687752
124	0xbb8ab25d	-0.0042326883
125	0x3c755121	0.014972956
126	0xbc142db9	-0.009044104
127	0xbb4bbd8d	-0.0031088323
128	0xbc8bab0a	-0.017049331
129	0xbc34ef16	-0.011043331
130	0xbc8f3e69	-0.017485814
131	0x3ccfe827	0.025379254
132	0x3bf7e8a5	0.007565575
133	0xbc590c89	-0.0132476175
134	0xbc1f4724	-0.009721551
135	0xbcc181b8	-0.023621425
136	0x3b002844	0.001955525
137	0xbbcfbc24	-0.006339567
138	0xbcf9504d	-0.030433798
139	0xbc03b0fd	-0.008037803
140	0x3c5b06bd	0.013368306
141	0xbcba35cc	-0.02273073
142	0xbbb5657a	-0.0055357786
143	0x3ce658a4	0.028118439
144	0xbca3e6d8	-0.020007536
145	0x3ca05479	0.01957153
146	0xbca4180e	-0.020031001
147	0x3c930d08	0.01795055
148	0x3be66490	0.007031031
149	0x3c70aaf5	0.014689197
150	0x3c6a3742	0.014295401
151	0xbb9db1d3	-0.004812458
152	0xbccf04da	-0.025270868
153	0xbbacfcac	-0.0052791443
154	0xbcac291f	-0.021015702
155	0x3c945828	0.018108442
156	0xbbed65c6	-0.0072447984
157	0x3b975fe1	0.004619584
158	0xbb07951a	-0.0020688237
159	0xbb85779c	-0.0040730964
160	0x3c76388f	0.015028133
161	0x3d06cc8c	0.032909915
162	0xbce3c273	-0.027802682
163	0x3cbf1c7c	0.023329012
164	0xbc412461	-0.011788459
165	0xbb4730fc	-0.0030394187
166	0xbc0d1f0c	-0.008613359
167	0x3ccf3878	0.025295481
168	0x3c343eb4	0.011001278
169	0xba31ee2a	-0.00067875034
170	0xba985560	-0.0011622123
171	0xbc98266a	-0.018573005
172	0xbb83c2ff	-0.004021048
173	0xbc14cced	-0.009082061
174	0x3b5a8c14	0.0033347653
175	0x3bdf5efd	0.0068167434
176	0x3c362390	0.011116877
177	0xbd02b952	-0.031915016
178	0xbc6d8ffb	-0.01449966
179	0x3c7f6377	0.015587679
180	0xbc8ee605	-0.017443666
181	0x3bfc98aa	0.0077086287
182	0x3c9081f5	0.017640093
183	0x3940aff0	0.00018376089
184	0xbc84db9b	-0.016217997
185	0x3b1af793	0.00236461
186	0xbc8b1cc5	-0.016981492
187	0x3cb059a9	0.021527128
188	0xbc9870f4	-0.018608548
189	0xbca0be5e	-0.019622024
190	0x3bb50aa8	0.005524952
191	0xbc3dc701	-0.011583091
192	0xbc68a678	-0.0141998455
193	0xbac7c5fe	-0.0015241501
194	0xbcc4a26b	-0.024003228
195	0x3b00e7d3	0.0019669428
196	0xb9b45bb0	-0.00034400588
197	0xbc55d69e	-0.013051657
198	0x3b032385	0.0020010185
199	0xbb41ca1e	-0.0029569934
200	0x3c8afab0	0.01696524
201	0x3cd56e41	0.02605355
202	0x3d02a822	0.031898625
203	0x399424f0	0.0002825628
204	0x3b9801f7	0.004638906
205	0x3cce2a52	0.025166664
206	0xbcce2440	-0.02516377
207	0xbd09e607	-0.033666637
208	0x3c7caa2a	0.01542143
209	0x3cbe838f	0.023256091
210	0xbb94483f	-0.004525214
211	0xbc8a4754	-0.016879715
212	0x3c93260d	0.01796248
213	0xbcf758e4	-0.030193754
214	0x3d0b0edd	0.03394972
215	0x3c78b0c5	0.015178864
216	0xbc48bcec	-0.012252074
217	0x3cc14bb4	0.023595668
218	0xb71396a9	-8.796961e-06
219	0xbcaf0c79	-0.021368252
220	0x3c85c058	0.016327068
221	0x3ce70a2a	0.028203089
222	0x3c929426	0.017892908
223	0x3c8ea169	0.01741095
224	0xbb9e9b47	-0.004840288
225	0x3c9b194d	0.018932963
226	0xbbdc40d8	-0.006721597
227	0xbcb61219	-0.022225427
228	0xbbe34a1c	-0.0069363248
229	0xbc190975	-0.009340634
230	0x3cd5a7ac	0.026080929
231	0x3c5bdf14	0.013419885
232	0xbb87fd04	-0.004150035
233	0x3c2c178b	0.01050366
234	0xbc2ce61c	-0.010552909
235	0x3c5efde0	0.013610333
236	0x3c020bd5	0.007937391
237	0x3b5f331e	0.0034057568
238	0x3cbee680	0.02330327
239	0xbaec0a26	-0.0018008396
240	0x3bec3c08	0.0072093047
241	0x3d2042b8	0.039126128
242	0xbc97387f	-0.018459557
243	0xbc99f76d	-0.01879474
244	0xba655358	-0.0008748076
245	0x3c3dc5a9	0.01158277
246	0xba55e373	-0.0008159198
247	0xba95c7cb	-0.0011427341
248	0x3cbaf894	0.02282361
249	0xbc77d618	-0.0151267275
250	0x3bbf1c31	0.005832218
251	0x3c8d9ea4	0.01728756
252	0x3c3e50c3	0.011615935
253	0xbcbc8c1d	-0.02301603
254	0x3cadb95c	0.02120655
255	0x3bf27983	0.007399739

action_model._discrete_distribution.branches.0.bias f4 [3]
0	0xbc076dcb	-0.008265923
1	0x3948c4e4	0.00019146834
2	0x3c04d488	0.008107312

exp_avg f4 [128, 8]
0	0xb8302e81	-4.200498e-05
1	0x39a1823a	0.0003080534
2	0xb7ab9064	-2.0452026e-05
3	0x39834b9f	0.0002504261
4	0xb916b4f1	-0.0001437252
5	0xb612e8a3	-2.1891108e-06
6	0x391e6480	0.00015105493
7	0xb8875a58	-6.4541295e-05
8	0x3840ac63	4.5936915e-05
9	0xb81b3b35	-3.701002e-05
10	0x38746406	5.8267287e-05
11	0xb740cba6	-1.1491507e-05
12	0x37677af4	1.37973e-05
13	0xb80c0066	-3.3378972e-05
14	0xb786b9d1	-1.6060572e-05
15	0x34b4555d	3.3589723e-07
16	0xb999b4e5	-0.0002931721
17	0x395cedc7	0.00021069414
18	0xb97f7cdf	-0.00024365213
19	0x39d9b98d	0.0004152771
20	0xb9561dd2	-0.0002041974
21	0x35bb4e6c	1.395541e-06
22	0x38cf1e32	9.8761535e-05
23	0x38a8bd35	8.046107e-05
24	0xb7837350	-1.5670113e-05
25	0xb900bdc9	-0.00012277732
26	0x38083203	3.2471504e-05
27	0xb8913b4e	-6.925185e-05
28	0x378ba59b	1.6647207e-05
29	0xb83e39d2	-4.535338e-05
30	0xb8ca20db	-9.6382304e-05
31	0x3843084f	4.649936e-05
32	0xb83a3216	-4.4392502e-05
33	0x395089e6	0.00019887797
34	0x36b63450	5.4301127e-06
35	0x390cb806	0.00013419995
36	0xb7de02ab	-2.6465705e-05
37	0x37fb69e8	2.9970848e-05
38	0x38a6a304	7.945861e-05
39	0x387e1baa	6.0584083e-05
40	0x3800e1a0	3.0727708e-05
41	0xb8139b51	-3.519218e-05
42	0x36e29af0	6.753362e-06
43	0xb77dd4bb	-1.5129505e-05
44	0xb6e4de1f	-6.820788e-06
45	0x370a21cf	8.233313e-06
46	0xb7ce97e7	-2.4627849e-05
47	0xb825adad	-3.9500814e-05
48	0xb7d79ab9	-2.5702046e-05
49	0x3809ede0	3.2884884e-05
50	0xb801afb6	-3.091964e-05
51	0xb739c539	-1.1072779e-05
52	0x3805c9cf	3.189762e-05
53	0xb6b50fe9	-5.3960725e-06
54	0x3715b90b	8.924176e-06
55	0xb83743c1	-4.36937e-05
56	0x3884d869	6.33456e-05
57	0xb954d031	-0.00020295453
58	0x3854738b	5.0652347e-05
59	0xb8b9abb8	-8.8534725e-05
60	0x378e0048	1.692785e-05
61	0x37d4a581	2.5349438e-05
62	0xb8cf9eaf	-9.900086e-05
63	0xb6bb95a8	-5.5904566e-06
64	0x38b7478c	8.739447e-05
65	0xb9507db6	-0.00019883257
66	0x38ee2a8a	0.00011356648
67	0xb986f61c	-0.00025741837
68	0x3900972a	0.00012263344
69	0x37e83a81	2.7683798e-05
70	0x37cede59	2.4660652e-05
71	0x38842635	6.301367e-05
72	0xb8d076e8	-9.940361e-05
73	0x39964a27	0.00028665477
74	0xb881a601	-6.18212e-05
75	0x39a253f8	0.0003096161
76	0xb8a2f8a3	-7.771074e-05
77	0x387b84ea	5.996685e-05
78	0x38f01092	0.00011447178
79	0x38044117	3.1531872e-05
80	0xb6f8d445	-7.4156874e-06
81	0x391746fe	0.00014426929
82	0x37d94d6f	2.5904474e-05
83	0x3855c241	5.096407e-05
84	0xb7b9abce	-2.2133721e-05
85	0x348a90ba	2.5809805e-07
86	0x38542d53	5.058695e-05
87	0x3726ee68	9.949879e-06
88	0x393a7924	0.0001778347
89	0xb913b276	-0.00014085494
90	0x388b0659	6.629219e-05
91	0xb950f3cb	-0.00019927246
92	0x3907bf76	0.00012945928
93	0xb94cfead	-0.0001954983
94	0x38cd396b	9.785857e-05
95	0xb8a39586	-7.8002966e-05
96	0x39324f23	0.00017004884
97	0xb8a2d8de	-7.7651566e-05
98	0x390d001a	0.00013446846
99	0xb8e6b7ed	-0.000110015135
100	0x38efd519	0.000114361006
101	0xb714acfe	-8.861765e-06
102	0x37ecccff	2.8228851e-05
103	0xb89ea502	-7.564762e-05
104	0xb823a0aa	-3.901186e-05
105	0x39cb84a4	0.00038818002
106	0xb8add116	-8.288228e-05
107	0x39d38132	0.00040341314
108	0xb957ff35	-0.0002059907
109	0xb9237f2b	-0.00015592265
110	0x39362bc4	0.00017373177
111	0xb843ff5a	-4.6729438e-05
112	0xb88e99a1	-6.799703e-05
113	0xb934ff94	-0.00017261348
114	0xb8c72387	-9.495677e-05
115	0xb816c0b3	-3.5942252e-05
116	0x382ec146	4.1664833e-05
117	0x38976cd0	7.220509e-05
118	0xb8b6e621	-8.721301e-05
119	0xb83b5b84	-4.4669505e-05
120	0x37ac5511	2.054361e-05
121	0x38913551	6.92407e-05
122	0x385aba50	5.2148767e-05
123	0x38693588	5.5601384e-05
124	0xb7c78bc8	-2.378774e-05
125	0x379d7eae	1.8774848e-05
126	0x37e05061	2.674031e-05
127	0x379b6afa	1.8527255e-05
128	0x372203e8	9.656862e-06
129	0x38010a8b	3.0765816e-05
130	0xb7c69ddd	-2.367695e-05
131	0x37adf136	2.073553e-05
132	0x356e05ce	8.8670356e-07
133	0xb7d39a3e	-2.5224985e-05
134	0x380058a3	3.0600128e-05
135	0xb6100d0a	-2.1465262e-06
136	0xb56ccc69	-8.8214307e-07
137	0xb9ebc761	-0.00044971242
138	0x380a0f8f	3.2916254e-05
139	0xb921ef06	-0.000154432
140	0x38ccdfa4	9.769134e-05
141	0xb78a6516	-1.6497954e-05
142	0xb92f5c67	-0.00016723723
143	0xb61dfae0	-2.3540852e-06
144	0xb88eba6e	-6.805813e-05
145	0x39462766	0.00018897429
146	0xb82b9847	-4.0911396e-05
147	0x38c52209	9.4000316e-05
148	0xb7d28d9a	-2.509989e-05
149	0x38b75a31	8.7429195e-05
150	0x38296437	4.0386072e-05
151	0xb8b8c5d5	-8.810653e-05
152	0x368694ca	4.0108325e-06
153	0xb8398078	-4.4227083e-05
154	0x3834ccbc	4.3106018e-05
155	0x37e62205	2.7433978e-05
156	0xb76be866	-1.4061201e-05
157	0xb8137b47	-3.5162342e-05
158	0x362c37d3	2.5662491e-06
159	0x38a6213c	7.921687e-05
160	0xb8284ef7	-4.0127863e-05
161	0xb8bb539e	-8.93243e-05
162	0xb77fab27	-1.5239034e-05
163	0xb8816fb9	-6.172009e-05
164	0xb7148e31	-8.854594e-06
165	0x37f7a9b6	2.9523722e-05
166	0xb83d24e7	-4.509548e-05
167	0x36390b3b	2.7573685e-06
168	0x36d9ecf8	6.4946908e-06
169	0xb975e1b4	-0.00023449102
170	0x381d8747	3.7557704e-05
171	0xb9165182	-0.00014335479
172	0x38ad35d0	8.259306e-05
173	0x38a91237	8.061941e-05
174	0xb90158b0	-0.00012335437
175	0x38904000	6.878376e-05
176	0xb8a5e0ec	-7.909708e-05
177	0xb87673db	-5.875887e-05
178	0xb8895cff	-6.549991e-05
179	0xb892e991	-7.005328e-05
180	0x366e4e2e	3.551027e-06
181	0x38b74430	8.738821e-05
182	0xb8373a21	-4.3684737e-05
183	0x38482369	4.7716694e-05
184	0x379838f1	1.8146327e-05
185	0xb7861717	-1.5984797e-05
186	0xb78e471b	-1.696083e-05
187	0xb701352d	-7.70138e-06
188	0x35b2f026	1.3331926e-06
189	0x3636222b	2.7140002e-06
190	0x37a34a75	1.9465786e-05
191	0xb7f4dfeb	-2.9191337e-05
192	0xb7f7b163	-2.9527297e-05
193	0x386ef6a4	5.6973324e-05
194	0xb7c85105	-2.3879586e-05
195	0x387f73c1	6.0904542e-05
196	0xb7853185	-1.5877895e-05
197	0x37a84618	2.00598e-05
198	0x37e518b1	2.7310425e-05
199	0x372c7e3a	1.0281388e-05
200	0xb7f955ab	-2.9723005e-05
201	0xb8a6b983	-7.950051e-05
202	0xb82a4e16	-4.060388e-05
203	0xb8b06f00	-8.413009e-05
204	0x36d3fe49	6.3178927e-06
205	0xb695b2ee	-4.461376e-06
206	0xb880e740	-6.146589e-05
207	0x38224cf9	3.8695496e-05
208	0x385721f0	5.12916e-05
209	0xb795d60b	-1.7861856e-05
210	0x388ff9a0	6.865268e-05
211	0x380ab51d	3.307044e-05
212	0x37e6ccdf	2.7513537e-05
213	0xb7cfd7f6	-2.4776888e-05
214	0x3864ff82	5.4597396e-05
215	0x38318240	4.2321393e-05
216	0xb920d0d2	-0.0001533658
217	0x3934c41e	0.00017239197
218	0xb9035db3	-0.00012528039
219	0x3978e229	0.00023735374
220	0xb907fd9e	-0.00012969083
221	0xb82b0bd5	-4.0780596e-05
222	0x36d30ee9	6.290026e-06
223	0x376d4c3e	1.4144052e-05
224	0x38736695	5.803125e-05
225	0xb7533732	-1.2589431e-05
226	0x385ca3c1	5.2604595e-05
227	0xb7f89371	-2.9632562e-05
228	0x3782c452	1.5588626e-05
229	0x387bfbfa	6.0077735e-05
230	0xb82925ea	-4.032805e-05
231	0xb81c8a08	-3.732185e-05
232	0xb7b21002	-2.1226708e-05
233	0xb9166482	-0.00014342557
234	0xb71acc15	-9.226632e-06
235	0xb8dc2914	-0.00010498069
236	0x38201dd9	3.817477e-05
237	0xb791fcc5	-1.7403052e-05
238	0xb823ce83	-3.9054557e-05
239	0x383e71cb	4.5405508e-05
240	0xb93af385	-0.0001782906
241	0x3920831b	0.0001530763
242	0xb91ee606	-0.00015153745
243	0x396be010	0.00022494816
244	0xb906e705	-0.00012865297
245	0x37fee131	3.0384022e-05
246	0x38322932	4.2476873e-05
247	0x38481ec8	4.7712383e-05
248	0xb7eab886	-2.79809e-05
249	0x37653021	1.36606695e-05
250	0xb73ede46	-1.1376635e-05
251	0x381419bf	3.5309928e-05
252	0xb7a5048a	-1.9671646e-05
253	0x339a2dac	7.1794915e-08
254	0x37accd93	2.0599726e-05
255	0x37f0d6fa	2.8710336e-05

exp_avg_sq f4 [128, 8]
0	0x32b3aed0	2.0917838e-08
1	0x330eca42	3.3245904e-08
2	0x3291e556	1.6984512e-08
3	0x32a47a63	1.9147768e-08
4	0x321ef081	9.251495e-09
5	0x32d9cd5d	2.5355513e-08
6	0x329b1c51	1.8057252e-08
7	0x329c77bb	1.8215237e-08
8	0x315a9a79	3.1810983e-09
9	0x3195598a	4.34665e-09
10	0x314df788	2.9972131e-09
11	0x3164b9a5	3.3283893e-09
12	0x30859848	9.720305e-10
13	0x314aa838	2.949049e-09
14	0x314e168e	2.9989766e-09
15	0x312747ca	2.4342506e-09
16	0x32ebd15a	2.7452803e-08
17	0x332c7570	4.015368e-08
18	0x32dbb467	2.5576993e-08
19	0x32deb2a3	2.5925436e-08
20	0x323823e2	1.0718368e-08
21	0x33006188	2.9891027e-08
22	0x32df352d	2.5984798e-08
23	0x32bddab1	2.2101945e-08
24	0x31d5a109	6.2174235e-09
25	0x3206ac9a	7.839072e-09
26	0x31bdfe3a	5.529526e-09
27	0x318ae585	4.042422e-09
28	0x311d068e	2.2850233e-09
29	0x31d8f9cd	6.3148264e-09
30	0x31b7b715	5.346815e-09
31	0x31b3c1be	5.2316116e-09
32	0x3223b85c	9.529767e-09
33	0x32938b3c	1.7176369e-08
34	0x3211478c	8.456379e-09
35	0x322c1225	1.0015843e-08
36	0x3162a10b	3.297887e-09
37	0x3220bee5	9.35663e-09
38	0x322bce5c	1.0000431e-08
39	0x31f13fa1	7.021257e-09
40	0x30ad5ffb	1.2614686e-09
41	0x30b41de9	1.3105225e-09
42	0x30a62510	1.2088623e-09
43	0x307e97f7	9.2620617e-10
44	0x2fbe7a5a	3.4647735e-10
45	0x30aab4ad	1.2420479e-09
46	0x308c30cc	1.020021e-09
47	0x308f6664	1.043372e-09
48	0x31bd049b	5.5011475e-09
49	0x3202f4d7	7.622666e-09
50	0x31bb68bb	5.4543228e-09
51	0x31ade5fe	5.0611098e-09
52	0x30bbe7f2	1.3671964e-09
53	0x31aababe	4.9688813e-09
54	0x31a6d324	4.8552398e-09
55	0x31a2ee3a	4.7419038e-09
56	0x323ae6b6	1.08790825e-08
57	0x32834931	1.528369e-08
58	0x322d12e1	1.0074218e-08
59	0x320bdf10	8.141583e-09
60	0x31778a5f	3.6021885e-09
61	0x32363107	1.0604942e-08
62	0x32174c9c	8.806776e-09
63	0x32262553	9.670958e-09
64	0x329fb965	1.8594344e-08
65	0x32fb9415	2.9287586e-08
66	0x32aa0c26	1.979613e-08
67	0x329895f0	1.7763313e-08
68	0x32267e7b	9.69123e-09
69	0x32c0bf7a	2.2438815e-08
70	0x32be2c6f	2.2139117e-08
71	0x3297b1f2	1.7659634e-08
72	0x32b86878	2.1467926e-08
73	0x332b85aa	3.9935607e-08
74	0x32aed7a9	2.0354337e-08
75	0x32b3fc8a	2.0953184e-08
76	0x32369af1	1.0629024e-08
77	0x32d242cf	2.4477599e-08
78	0x32eef0ee	2.7816409e-08
79	0x3297da6d	1.7678042e-08
80	0x31d050d1	6.0627845e-09
81	0x31e55a9c	6.6750783e-09
82	0x31b6995f	5.3143334e-09
83	0x3195182e	4.3392197e-09
84	0x3105043f	1.935646e-09
85	0x31c0387a	5.594356e-09
86	0x31a07269	4.66962e-09
87	0x31a8cf79	4.9130304e-09
88	0x328a2cbf	1.6085663e-08
89	0x3295c6cc	1.7436285e-08
90	0x325bd4ae	1.27958355e-08
91	0x3277a589	1.4414931e-08
92	0x31f45600	7.1111117e-09
93	0x3291bcde	1.6966109e-08
94	0x32705370	1.398881e-08
95	0x326e6f1f	1.3878689e-08
96	0x323a0ed3	1.0829996e-08
97	0x324eb034	1.2030842e-08
98	0x32171a9f	8.79541e-09
99	0x321ca6cf	9.118323e-09
100	0x317c7180	3.6735344e-09
101	0x322b5a65	9.974063e-09
102	0x3221823f	9.401048e-09
103	0x3215c789	8.7183105e-09
104	0x3316c1d2	3.5100875e-08
105	0x337e1282	5.9155816e-08
106	0x33025656	3.0346506e-08
107	0x3323e316	3.815793e-08
108	0x328532d9	1.550636e-08
109	0x33377049	4.271013e-08
110	0x331f886a	3.714414e-08
111	0x3315feed	3.492362e-08
112	0x31b25076	5.189629e-09
113	0x3209e23a	8.0258875e-09
114	0x319d32ad	4.5750626e-09
115	0x318e411c	4.140146e-09
116	0x30ec1722	1.7177835e-09
117	0x31b338d7	5.2160476e-09
118	0x3188325a	3.9638453e-09
119	0x31a3ca63	4.766933e-09
120	0x3122057b	2.3577218e-09
121	0x3149fb49	2.9392189e-09
122	0x312cb390	2.5131364e-09
123	0x3106fe4e	1.9644122e-09
124	0x308a8eba	1.0081387e-09
125	0x314874b9	2.917018e-09
126	0x3126b27f	2.4257643e-09
127	0x3126fc55	2.4299613e-09
128	0x3032f1db	6.509972e-10
129	0x301d9fbe	5.7343275e-10
130	0x301f78b3	5.8015387e-10
131	0x30061650	4.8780624e-10
132	0x2f753876	2.2302679e-10
133	0x301b4209	5.6482513e-10
134	0x303f87f5	6.96786e-10
135	0x30062686	4.880366e-10
136	0x32af03b4	2.0374365e-08
137	0x332b9422	3.9948766e-08
138	0x32a6e72e	1.9430072e-08
139	0x32a25a07	1.8900222e-08
140	0x320be7ca	8.143568e-09
141	0x32b6f796	2.1300178e-08
142	0x32977060	1.7629816e-08
143	0x32ac5a74	2.0064569e-08
144	0x321e3811	9.2095584e-09
145	0x32728319	1.4116062e-08
146	0x320a65ef	8.055834e-09
147	0x31ffdf19	7.44684e-09
148	0x31928d18	4.2651997e-09
149	0x3233cdc0	1.0465953e-08
150	0x32309387	1.0278092e-08
151	0x321f2f29	9.265741e-09
152	0x310c6ed5	2.0435682e-09
153	0x310163a0	1.88286e-09
154	0x310d2a43	2.0542223e-09
155	0x30e673b8	1.6767592e-09
156	0x301d068c	5.712557e-10
157	0x3119cc78	2.2380657e-09
158	0x310fc159	2.0919144e-09
159	0x3107500b	1.9690585e-09
160	0x31c8040c	5.821226e-09
161	0x31c0b15c	5.608099e-09
162	0x31a6c356	4.853443e-09
163	0x3153d3c0	3.0824907e-09
164	0x30faa6d2	1.8237307e-09
165	0x319f67e9	4.6393223e-09
166	0x3173abc9	3.5458803e-09
167	0x3190943c	4.207804e-09
168	0x3252b89f	1.2265587e-08
169	0x32b03e6f	2.0517488e-08
170	0x32410b23	1.1236611e-08
171	0x3233918b	1.0452264e-08
172	0x31aef145	5.0914957e-09
173	0x3289ad99	1.6027842e-08
174	0x324b234e	1.18241825e-08
175	0x324517ba	1.1472304e-08
176	0x321a4087	8.978652e-09
177	0x320a04f6	8.033785e-09
178	0x31e93aa8	6.787861e-09
179	0x31d4812c	6.184697e-09
180	0x313df4f7	2.7642366e-09
181	0x320bcd7a	8.137585e-09
182	0x31f5ff2e	7.159449e-09
183	0x31deb4fc	6.481626e-09
184	0x3097e34e	1.10513e-09
185	0x307716c3	8.9890423e-10
186	0x30836126	9.559116e-10
187	0x302d98d4	6.3154215e-10
188	0x2fb6d36f	3.325584e-10
189	0x308495ba	9.646819e-10
190	0x308e5c81	1.0358151e-09
191	0x307a45d1	9.1048685e-10
192	0x3148826c	2.9177967e-09
193	0x3162b44b	3.2989813e-09
194	0x312104e4	2.3431364e-09
195	0x31196372	2.2320958e-09
196	0x301bb1bf	5.6641264e-10
197	0x3121c8e5	2.3542779e-09
198	0x31135464	2.1439286e-09
199	0x311d52c1	2.2893547e-09
200	0x30b923b5	1.347067e-09
201	0x30e9e105	1.7016936e-09
202	0x30dd3af8	1.6096626e-09
203	0x30bc4b54	1.370021e-09
204	0x3014c01a	5.411508e-10
205	0x30e47951	1.6623664e-09
206	0x30cf52cf	1.5084768e-09
207	0x30a75b91	1.2176874e-09
208	0x317a70d2	3.644392e-09
209	0x3195e137	4.3620747e-09
210	0x314a98da	2.9481755e-09
211	0x315a27d3	3.1745813e-09
212	0x30995e37	1.1158993e-09
213	0x31746cc5	3.5568501e-09
214	0x3164b3b0	3.3280507e-09
215	0x31547a42	3.0919556e-09
216	0x32813286	1.5040552e-08
217	0x32b80496	2.1422505e-08
218	0x325e0354	1.29228575e-08
219	0x324986fe	1.17304335e-08
220	0x31e96769	6.792949e-09
221	0x3290b055	1.6843993e-08
222	0x32a1d0d1	1.8837826e-08
223	0x325ac1a3	1.2733298e-08
224	0x31552d71	3.102141e-09
225	0x31504a09	3.0310068e-09
226	0x31542d27	3.0875726e-09
227	0x3110c4d1	2.1066635e-09
228	0x308498f9	9.647741e-10
229	0x31400d04	2.7947076e-09
230	0x314acb7c	2.9510536e-09
231	0x3147517d	2.9004632e-09
232	0x3139904f	2.7003073e-09
233	0x31955ad0	4.346795e-09
234	0x3132c308	2.6013272e-09
235	0x312e0312	2.5322078e-09
236	0x30902dfa	1.0490446e-09
237	0x315cc058	3.2123548e-09
238	0x313ecb12	2.776407e-09
239	0x3133e6f4	2.617921e-09
240	0x32825f01	1.5177195e-08
241	0x32d57e95	2.4854026e-08
242	0x32850643	1.5486085e-08
243	0x32700ac5	1.3972287e-08
244	0x31ce532e	6.0048455e-09
245	0x3289783f	1.600358e-08
246	0x3295db90	1.7445728e-08
247	0x3250a311	1.21442705e-08
248	0x30b816b5	1.3394216e-09
249	0x30c37220	1.4220554e-09
250	0x308e1b77	1.0339666e-09
251	0x305a0ad8	7.932335e-10
252	0x2fc13fa4	3.5151715e-10
253	0x309e67d9	1.1525528e-09
254	0x30900882	1.0479797e-09
255	0x30815ef0	9.412968e-10

exp_avg f4 [128]
0	0x3902b842	0.00012466407
1	0xb88f7fa9	-6.84255e-05
2	0x3961c313	0.00021530343
3	0xb8bea361	-9.090338e-05
4	0x38903333	6.875992e-05
5	0xb858a6c0	-5.165371e-05
6	0x383e23e4	4.5332956e-05
7	0xb91d28c1	-0.00014987869
8	0xb98c3c68	-0.00026747887
9	0xb7610982	-1.3413259e-05
10	0x38976085	7.218219e-05
11	0xb98a484a	-0.0002637527
12	0xb954fade	-0.00020311351
13	0x38ebd790	0.00011245825
14	0xb92dfdd3	-0.00016593123
15	0xb8696fb7	-5.565557e-05
16	0x3855a058	5.093249e-05
17	0xb9c704ad	-0.00037959722
18	0x3884f854	6.340505e-05
19	0xb808dfea	-3.2633463e-05
20	0xb8d0c919	-9.95567e-05
21	0xb96c30d8	-0.0002252491
22	0xb8eb0573	-0.00011206688
23	0xb7d83128	-2.5772097e-05
24	0xb7240d45	-9.778251e-06
25	0xb8f40b6e	-0.000116369556
26	0xb910c505	-0.00013806306
27	0x3942bbe2	0.00018571274
28	0xb8d292e6	-0.00010040942
29	0xb8c1311a	-9.212103e-05
30	0x38dafb9b	0.00010441915
31	0x37387759	1.0995042e-05
32	0x38cff540	9.9162105e-05
33	0x37e655f7	2.7458167e-05
34	0x398de789	0.00027066123
35	0xba59e8dc	-0.0008312592
36	0xb8d5be37	-0.00010192062
37	0x39677ad4	0.00022075634
38	0xb97e907c	-0.00024277152
39	0x3897e7c3	7.24341e-05
40	0xb99b4270	-0.00029613404
41	0xb8e95cdf	-0.000111276044
42	0x3945b425	0.00018854493
43	0xb8ede7e0	-0.00011344231
44	0x37df771d	2.6639138e-05
45	0xb862e0b0	-5.4091855e-05
46	0xb9af2c2d	-0.00033411515
47	0xb9ba2be1	-0.00035509377
48	0x37c7c8c0	2.381613e-05
49	0xb92ab9dd	-0.00016281703
50	0xb863ef96	-5.434415e-05
51	0x361256c2	2.1806195e-06
52	0xb8847549	-6.3160966e-05
53	0x37145592	8.841411e-06
54	0xb9fcd61a	-0.00048224704
55	0xb77784b1	-1.4753242e-05
56	0x385bb807	5.2385058e-05
57	0x38c0710d	9.176331e-05
58	0x378326ee	1.5634545e-05
59	0x396e9379	0.00022752387
60	0xb6367fb0	-2.7194437e-06
61	0x38ad4327	8.261791e-05
62	0x380e68f4	3.3953183e-05
63	0x37ade66e	2.073051e-05
64	0xb9cc0736	-0.00038915285
65	0xb9522931	-0.00020042506
66	0x388984c0	6.557396e-05
67	0x38b4ad13	8.6153064e-05
68	0x385ec71c	5.311436e-05
69	0xb8799e28	-5.951352e-05
70	0xb9672a2d	-0.00022045588
71	0xb80032e3	-3.056497e-05
72	0x3726c161	9.939396e-06
73	0x378b50c6	1.6607704e-05
74	0x38c902cc	9.584948e-05
75	0xb989cb2c	-0.0002628205
76	0xb91bbd95	-0.00014852577
77	0xb8a60e19	-7.918123e-05
78	0xb9c99b94	-0.00038453622
79	0xb9b3cebb	-0.00034295567
80	0xb8968041	-7.1764465e-05
81	0xb96304cb	-0.00021650193
82	0xb97d1d4a	-0.00024138871
83	0x389a9ac1	7.3721174e-05
84	0xb95db73f	-0.00021144467
85	0xb8ff29c0	-0.00012167124
86	0x389f7666	7.603764e-05
87	0xb857fa91	-5.1493353e-05
88	0xb8b29f41	-8.517365e-05
89	0xb5eb9390	-1.7551811e-06
90	0xb93d0787	-0.00018027249
91	0xb7d0050d	-2.4797884e-05
92	0xb6112bcb	-2.1632175e-06
93	0x381d1615	3.7452282e-05
94	0x38406a15	4.5875164e-05
95	0x36ad78f3	5.169882e-06
96	0xb8ec5fff	-0.000112712376
97	0xb87931f4	-5.941275e-05
98	0x3970e742	0.00022974334
99	0xb942e83d	-0.00018587797
100	0xb83fb3ce	-4.5705405e-05
101	0xb995651d	-0.0002849483
102	0xb8d6d962	-0.00010244806
103	0x370eccf8	8.511583e-06
104	0x393f1fee	0.00018227074
105	0xb80023fc	-3.055109e-05
106	0x38fd1d9b	0.000120694946
107	0x38f12d63	0.000115002294
108	0x389b3b02	7.401967e-05
109	0x38eadbe2	0.00011198946
110	0xb90aa4af	-0.00013222055
111	0x37fdb97b	3.0246321e-05
112	0x38278dca	3.9947954e-05
113	0x38b02e31	8.400938e-05
114	0xb9aaa855	-0.00032550344
115	0x390bf6ff	0.00013348086
116	0x38b0ae4f	8.4248015e-05
117	0x38ac3817	8.212047e-05
118	0x36e27ef1	6.750103e-06
119	0xba03761f	-0.0005014855
120	0x390a3af0	0.00013182661
121	0x386cd5f2	5.6466037e-05
122	0x3916312e	0.00014323436
123	0xb79c758b	-1.8651384e-05
124	0xb8a33e18	-7.7840115e-05
125	0x37fb775d	2.9977115e-05
126	0x382775a1	3.9925453e-05
127	0x39001bcd	0.00012217388

exp_avg_sq f4 [128]
0	0x32b8ab9c	2.1498458e-08
1	0x31563d70	3.1176022e-09
2	0x32e9fa56	2.723861e-08
3	0x31e162cc	6.5595938e-09
4	0x31df31a8	6.4957995e-09
5	0x30902666	1.0488292e-09
6	0x31bd7630	5.5140603e-09
7	0x322d62f5	1.0092426e-08
8	0x329c6664	1.8207352e-08
9	0x32c7cb79	2.3259178e-08
10	0x31b7a5b9	5.3448415e-09
11	0x328c1626	1.6308217e-08
12	0x321d440c	9.154075e-09
13	0x3330d448	4.1171262e-08
14	0x31b012fb	5.124432e-09
15	0x3157ce99	3.1404055e-09
16	0x30531358	7.678884e-10
17	0x32bd1414	2.2011626e-08
18	0x31fc470f	7.3422437e-09
19	0x31116a84	2.1160824e-09
20	0x31c3d6df	5.699675e-09
21	0x323f9f02	1.1153817e-08
22	0x3210e1c8	8.43324e-09
23	0x30557d16	7.7666706e-10
24	0x310b9b6c	2.031551e-09
25	0x30e636cf	1.675028e-09
26	0x317c4ce7	3.671454e-09
27	0x32527b23	1.2251607e-08
28	0x315ed025	3.2423568e-09
29	0x3122bb82	2.3680689e-09
30	0x325da766	1.2901955e-08
31	0x307ba5d7	9.154894e-10
32	0x316735f9	3.3645604e-09
33	0x31cc5412	5.946739e-09
34	0x332c7cda	4.0160423e-08
35	0x339a11b9	7.1744076e-08
36	0x31a94ed5	4.9275095e-09
37	0x32b6affc	2.1267617e-08
38	0x322ec9c0	1.0174006e-08
39	0x310c5f59	2.042688e-09
40	0x32cf487a	2.413093e-08
41	0x30f5d3cc	1.7886292e-09
42	0x328b6fb9	1.6232535e-08
43	0x31070c8f	1.9652224e-09
44	0x3282ff7c	1.5250173e-08
45	0x3193f473	4.3060537e-09
46	0x32a2163c	1.8869393e-08
47	0x3271f4bc	1.4083692e-08
48	0x30827b68	9.493819e-10
49	0x317a1861	3.6393646e-09
50	0x317941ed	3.6271743e-09
51	0x31397d8f	2.6992415e-09
52	0x30f795ca	1.8014188e-09
53	0x30722935	8.8097646e-10
54	0x32db02c3	2.5496211e-08
55	0x3101eda5	1.8907056e-09
56	0x325325fd	1.2290454e-08
57	0x3297292f	1.7597442e-08
58	0x311559d4	2.1733415e-09
59	0x32db61c8	2.5539421e-08
60	0x31cb7dd4	5.9223826e-09
61	0x30f37f9c	1.7716846e-09
62	0x3328b5d9	3.9280938e-08
63	0x33168983	3.5049663e-08
64	0x32a19310	1.8809743e-08
65	0x31d864db	6.2978933e-09
66	0x31814546	3.7622696e-09
67	0x322b2ed5	9.964158e-09
68	0x3219abdf	8.944851e-09
69	0x311e9f74	2.3082665e-09
70	0x3216c9d5	8.77704e-09
71	0x3291f42e	1.6991262e-08
72	0x330c870c	3.2719115e-08
73	0x30cb6546	1.4798978e-09
74	0x30dc8da4	1.6047363e-09
75	0x3234da3b	1.0526999e-08
76	0x31c3d7d3	5.6997833e-09
77	0x31760635	3.580124e-09
78	0x32aeaa5a	2.0333733e-08
79	0x329b707f	1.8095532e-08
80	0x31373bd5	2.6664015e-09
81	0x32894122	1.5978518e-08
82	0x326cf02a	1.3791615e-08
83	0x319e3152	4.6040123e-09
84	0x31e65d4a	6.7044867e-09
85	0x31e9aba1	6.8007044e-09
86	0x31590658	3.1581262e-09
87	0x31865e26	3.9106167e-09
88	0x3168db24	3.388501e-09
89	0x30ce0d5f	1.4992273e-09
90	0x328f7533	1.6700687e-08
91	0x32a358c4	1.9016063e-08
92	0x33839c6c	6.128616e-08
93	0x31465d59	2.8865854e-09
94	0x310b43e6	2.0265758e-09
95	0x32a7b2f9	1.9522746e-08
96	0x31c95cbc	5.8604126e-09
97	0x310f1ae3	2.0824522e-09
98	0x32354db7	1.0553257e-08
99	0x322a5842	9.91537e-09
100	0x31002a86	1.8650623e-09
101	0x3235b4a5	1.057666e-08
102	0x31727668	3.528294e-09
103	0x31e2db7a	6.6024173e-09
104	0x31ae2d0c	5.0691877e-09
105	0x30bcdc1b	1.3741358e-09
106	0x32f23c51	2.8199937e-08
107	0x3154f0e1	3.0986984e-09
108	0x314cca7d	2.9801008e-09
109	0x31c05e2c	5.5986416e-09
110	0x316c653c	3.4400065e-09
111	0x31385150	2.6821745e-09
112	0x31caa8f7	5.898183e-09
113	0x3146f2a5	2.895072e-09
114	0x32e1d99e	2.6292408e-08
115	0x317f8324	3.7181929e-09
116	0x32d36290	2.4608454e-08
117	0x3204cffe	7.730703e-09
118	0x31346bfe	2.6254834e-09
119	0x33135d57	3.4310997e-08
120	0x31a99ff5	4.9367324e-09
121	0x31df4105	6.497546e-09
122	0x31e240c3	6.5848282e-09
123	0x309582d7	1.0878364e-09
124	0x32691f09	1.3569442e-08
125	0x324ae0ec	1.1809089e-08
126	0x313a7388	2.7132234e-09
127	0x32bcf0c7	2.1995573e-08
