results/BTB_v2/Pong/Pong-400330.onnx (onnx, 75505 bytes, 8 tensors)

network_body.observation_encoder.processors.0.normalizer.running_mean f4 [8]
00000000: 25f8 9e3c fea9 0e3e 3767 9e3d 6077 c5bc
00000010: 0b93 b03e 0cfa e7be bec1 b63e d8ff ff3e
0.019405434 0.13932034 0.077345304 -0.024104774 0.34487185 -0.45307958 0.3569469 0.4999988

network_body._body_endoder.seq_layers.0.weight f4 [128, 8]
00000000: f685 fbbd 112a d1be 7775 25be 7e9c 8ebe
00000010: 4080 123f 3e9e 28bf eb63 9dbc 6abc b7be
00000020: 4551 2dbe 49ae de3e 9ec1 983b 9a37 bf3d
00000030: 2c33 643e 0f28 f4be 4385 d0bd 20df f73e
00000040: 1b49 fcbc 5b3d a83e 2bcd 743d 7cf5 3b3e
00000050: 934e 703d 21b6 9dbd 0380 29be 91cd 9b3c
00000060: 8353 02bf caa2 42bf bd91 dd3d 54cc 65bd
00000070: c54f e63d a8a1 adbd d6ac fdbe 1b82 0e3e
00000080: 075f e43d b133 cf3e d235 93be 5f98 0ebf
00000090: 884f 14bc 1287 4b3f 315a ccbd 1247 49bf
000000a0: b603 223f 198c 00bc c13b debe 5753 5bbe
000000b0: ce58 fcbe c38a d0be 7236 743d 831e ef3d
000000c0: cfda 1bbf 21f8 683e c4c9 963d d6cb fd3d
000000d0: 2a41 243e 19ca 1c3f 1e44 483e f973 2a3f
000000e0: d439 ba3e b67a 12bf c802 4f3e f672 71bd
000000f0: 1b6f cd3d acf6 9fbe a2f8 a9be 428c 49be
00000100: 9bbe 4b3e 259f 6b3e 76ee e03e e4b3 563f
00000110: a3cd eebd bfe6 673e f6d0 063e 78b1 553e
00000120: 2671 423f 43d6 643d ced9 da3d 530f e53c
00000130: d72c 29bf 149d 313d 74c4 5bbf 5df8 85be
00000140: 0c6c 9e3e 37be ff3d 4070 f0be 7b5e 043e
00000150: c251 76bd fb28 bbbe 1967 133e 8a36 48be
00000160: 73ef 61bf 1724 adbd 5ac6 28bf b8c6 ad3e
00000170: 5b38 423e 8147 4dbd ac88 893c 5915 20bf
00000180: c2a4 abbe b1f1 53be 4fa7 773f 5cc3 853e
00000190: af0a 9b3d 7f49 cfbe 4f1e 3ebf 2ff8 51be
000001a0: 2a63 7dbe 5ac6 de3e ced0 a03c 4661 923e
000001b0: 7d81 b3be 32c5 f2be a546 f1be 709f 26bf
000001c0: 8f1d 193e 0a33 a0be c907 7d3e b6e1 51be
000001d0: e14c 6d3e ad51 7e3d 100a fe3e 0ef1 54bf
000001e0: 4912 473f e08a d8bd 76d4 e73e deab ad3e
000001f0: b68b 003e ef18 c0be af42 acbe f9ea 9c3e
00000200: d1c2 613e b333 813f 3623 eebe 401b 99be
00000210: e9ab 873e 40ed 7fbe 154e 30bd 1167 04bf
00000220: 6a42 1bbe bfaa eabd 88a0 6fbd 646e efbc
00000230: ac74 0dbe 3765 463e 9adb f93e 9471 b53e
00000240: 473c 6cbe 5d62 073f 4b9a 01bf 32b6 343e
00000250: 0341 4dbf 5a67 343e e427 ba3d bf9a fbbd
00000260: cf30 713e 8206 113f 66a8 a13d 1d64 bf3d
00000270: 6cb8 dbbd 7024 283f 6b16 4c3d 12e6 fa3e
00000280: 236f a23e 1912 43be 5268 09be b234 123e
00000290: a97b 1abe 71da 5abe 88fd 94be c251 853d
000002a0: 5135 eabe fe5f 62be 4977 d1be acc3 323d
000002b0: 05df 353f 7e3d 553e 2ad3 02be 6543 2c3f
000002c0: 817c 363f d7da 293d 0dc0 d03c 9cf9 e6be
000002d0: 9fd2 573e 97da d5be 5fb6 ccbd d539 d63e
000002e0: fdeb b53e 45ce c93e 9291 833d acdb 803f
000002f0: 1f81 ab3d a669 0ebe 8731 cd3e 5c9e bd39
00000300: d7f5 603e daf4 9b3e 1c5c 493e 93e0 b03d
00000310: d9b5 243e 8b0d d43e c4a2 74be de32 8abd
00000320: bede aabc 6d04 91be bab7 33bc a747 69be
00000330: 4ead e5bd 30b0 2fbf daa0 81be cc17 44be
00000340: bdce d4be 8d6f 29be dd9d 233e 6a4e d7be
00000350: aea0 cd3d eea4 58be 04d6 d3be 4bcb 783d
00000360: 75a7 90be 0234 81be 3d0f c3be 1bad 6c3c
00000370: 5119 c2be e3df ccbe fc07 babe ed19 4c3d
00000380: 7639 003e 8305 423e bf65 a73c 6743 363f
00000390: fbe0 af3d 2180 a6bc 68b8 99be a7a6 3bbd
000003a0: 34fc d5be 9613 d3be 4fae c83e 6b5a 1abe
000003b0: 8052 d03e 8f41 483e 8e99 96bb a42d f03d
000003c0: 29ed 853e 5fc6 203f b56d a83d 4d13 89bd
000003d0: 2ebd 28bd db33 09bd d3d4 35be 9af7 273f
000003e0: 307f 45be 115c f13e 25c7 d1be 0eba d73d
000003f0: ac8e 5dbd ace8 073e 84fa 08be 3c64 9cbe
-0.122814104 -0.40852407 -0.1615809 -0.2785377 0.57226944 -0.6586646 -0.019212684 -0.35885936
-0.16925533 0.43492344 0.004661753 0.09336777 0.22285146 -0.47686812 -0.10181668 0.48412418
-0.030796578 0.3285931 0.059765976 0.18355364 0.058668684 -0.07700754 -0.16552739 0.01901892
-0.5090868 -0.76029646 0.10818813 -0.056103066 0.112456836 -0.08478099 -0.49545926 0.13916819
0.111509375 0.40469125 -0.28752 -0.5570125 -0.009052165 0.79502976 -0.0997814 -0.7862407
0.6328691 -0.007845902 -0.43404964 -0.2141851 -0.49286503 -0.40730867 0.059622236 0.116757415
-0.6088075 0.22750904 0.073627025 0.12392394 0.16040483 0.61245877 0.19557235 0.6658321
0.36372244 -0.5721849 0.20215905 -0.058947526 0.10030957 -0.31242883 -0.33197504 -0.1968241
0.19896929 0.23009928 0.4393193 0.8386824 -0.11660316 0.22646616 0.1316565 0.2086848
0.759539 0.0558684 0.10686074 0.027961409 -0.66084045 0.043362692 -0.8584664 -0.2616605
0.30941808 0.124874525 -0.4696064 0.12926666 -0.060136564 -0.36554703 0.14394797 -0.19552055
-0.88255996 -0.08454149 -0.6592766 0.33940673 0.1896681 -0.05011702 0.016788803 -0.62532574
-0.33524138 -0.20697667 0.9673967 0.2612561 0.07570397 -0.4048576 -0.74265 -0.20504831
-0.2474486 0.43510705 0.019630816 0.2858984 -0.3505973 -0.47416073 -0.4712421 -0.6508703
0.14952682 -0.3128894 0.24710001 -0.20496258 0.23173858 0.06208961 0.49617052 -0.8318032
0.77762276 -0.10573363 0.45279282 0.33920187 0.12553295 -0.37519023 -0.33644626 0.3064802
0.22046973 1.0093902 -0.4651124 -0.29903603 0.26498345 -0.24992847 -0.043043215 -0.51719767
-0.15162054 -0.114583485 -0.058502704 -0.029227443 -0.13814038 0.19374548 0.48800355 0.35438216
-0.23069869 0.52884465 -0.5062606 0.17647627 -0.80177325 0.1761755 0.0908964 -0.12285375
0.23553775 0.56650555 0.078934476 0.09345267 -0.10728535 0.656806 0.049826067 0.49003655
0.31725416 -0.19049872 -0.13418701 0.14277914 -0.15086235 -0.21372391 -0.2909968 0.06509735
-0.45743802 -0.2210693 -0.4091132 0.04364364 0.71043426 0.20824239 -0.12775865 0.67290336
0.7128373 0.041468468 0.025482202 -0.45112312 0.2107644 -0.41768333 -0.09995722 0.41840997
0.35531607 0.39415184 0.0642425 1.0067039 0.08374237 -0.13907489 0.4007685 0.00036166876
0.2196878 0.30460244 0.19664043 0.08636584 0.16084994 0.41416582 -0.23890215 -0.067479834
-0.020858165 -0.2832369 -0.010969097 -0.2278124 -0.11214696 -0.68628216 -0.25318033 -0.19149703
-0.4156398 -0.1654646 0.15978189 -0.42052013 0.10040413 -0.21156666 -0.41374218 0.06074075
-0.2825276 -0.2523499 -0.38097563 0.014445568 -0.3790994 -0.40014562 -0.36334217 0.049829412
0.1252192 0.18947415 0.020434259 0.711966 0.085878335 -0.020324768 -0.30023503 -0.04581323
-0.41793978 -0.4122588 0.39195487 -0.15073554 0.40687943 0.19556259 -0.004595942 0.11727455
0.261575 0.6280269 0.0822405 -0.066931345 -0.04119604 -0.03349672 -0.17756967 0.65612185
-0.192868 0.47140554 -0.40972248 0.10533534 -0.05409114 0.13272351 -0.13376814 -0.30545223

network_body._body_endoder.seq_layers.0.bias f4 [128]
00000000: 9b3d cf3c 3556 033b 7785 d73b a427 7e3c
00000010: 4d22 8e3b 0bb1 753c fb29 683c 94d4 94bb
00000020: fc76 b53c 39d0 e0bb d747 7c3c d783 bc3c
00000030: 4a41 55bc d88f 163d 4aa3 0b3d f448 87b9
00000040: 5470 6d3c e55d 813c 69e9 313d 3f89 e23c
00000050: 2d68 b03c 4589 3a3c 2ec6 143c 3204 e23c
00000060: 49e6 e13c 0854 813c 3293 a83b 16ba 873c
00000070: ae0e 953c 4f5b b23c 6523 483c 670b ae3b
00000080: 2100 1f3b 7724 2ab6 eb15 083d df53 c7bc
00000090: 63fe 60bb 9c81 ef3a 2331 c3bc 036c 513d
000000a0: e87b 27bc b008 2f3d 3759 ac3c 2921 f23b
000000b0: 8645 953c 32e4 b93c e7d2 9f3c dde2 b63c
000000c0: 8b4c 5c3c c010 213b ec54 5e3c 9de2 c53c
000000d0: b8e6 853b 04e5 043d ca7e 873c b809 953c
000000e0: aa2c d23c 9fd7 1c3d f467 093c 4ab0 6e3c
000000f0: 82c2 fa3c 18e7 0fbd b4d1 0d3d 3702 1d3c
00000100: 76b9 bb3c a11c 933c 4d59 1c3b f271 9f3c
00000110: 5ae9 eabb 0e4f e03b b042 1d3b c71c 0b3c
00000120: a83c 12bc 9716 283b 41df 6b3c e3d1 b63c
00000130: 0f49 163d 27bc 213c 708a 4d3c 6948 6c3b
00000140: 7aa8 ba3c 8500 193b 9f80 693c bfd6 5e3c
00000150: 3128 ad3c 3eba dc3c b2c9 51bc eedd 6e3b
00000160: 7df8 ab3c fbea 4d3c 6291 e73a 3c84 943b
00000170: 4d20 203d d025 543b a1e0 b63c 95ee 1cbc
00000180: 18bb 803d 6f94 cb3c 0cf9 e83c d80f f73b
00000190: ec9b 07bd 483e c93c 2057 a5bc cf21 15bd
000001a0: 4cc6 9bbb 846d 203d 4761 6b3c b076 583c
000001b0: 902e 10bc a0b7 b73c ed7d 793c a4c5 823c
000001c0: a227 a8bc 57c3 87bb bf78 6b3c 9d2f da3c
000001d0: cbaa b63c 02cb e0bc 336b 253d 43d4 263d
000001e0: d9c9 6f3c 2efa 903c ad30 1a3c fb68 fe3c
000001f0: 3602 97b9 db46 e4bb a4ac e63c 71cc c6bb
0.02529793 0.0020040397 0.0065771895 0.015512381 0.004337585 0.014995824 0.014170165 -0.004541943
0.022151463 -0.0068607596 0.015397987 0.023012085 -0.013016054 0.036758274 0.03409127 -0.0002580356
0.014492113 0.015791843 0.043435488 0.027653335 0.02153405 0.011385267 0.009080453 0.027589891
0.027575629 0.01578714 0.0051445 0.016568225 0.018195476 0.021772055 0.01221547 0.005311418
0.0024261551 -2.53532e-06 0.033224028 -0.024331985 -0.0034331314 0.001827288 -0.023827141 0.0511284
-0.010222413 0.042732894 0.021038635 0.007389207 0.018221628 0.02269182 0.019509746 0.022324974
0.013445984 0.0024576634 0.013570052 0.02415591 0.0040863417 0.03244497 0.01653995 0.01819311
0.025656063 0.03829157 0.008386601 0.014568398 0.030610327 -0.035132498 0.034623817 0.009583048
0.022915583 0.017957987 0.0023856938 0.019463513 -0.007168931 0.0068453616 0.0023996048 0.008490748
-0.008925594 0.002564823 0.01439649 0.022316879 0.036690768 0.009871519 0.012545213 0.0036053902
0.022785414 0.0023346257 0.014251857 0.013601004 0.021137329 0.026944276 -0.012804436 0.0036448198
0.020992512 0.012568231 0.0017667229 0.004532365 0.039093304 0.003237117 0.022323908 -0.009578367
0.06285685 0.024851052 0.028439067 0.0075397305 -0.033107683 0.02456583 -0.020183146 -0.036409196
-0.0047538634 0.039166942 0.014366454 0.013211891 -0.008800164 0.022426426 0.015227777 0.015963383
-0.02052671 -0.0041431594 0.01437205 0.026634032 0.022298237 -0.027440552 0.040385436 0.040729772
0.014635527 0.01769742 0.009411019 0.031055918 -0.00028802612 -0.0069664544 0.028158493 -0.006066852

network_body._body_endoder.seq_layers.2.weight f4 [128, 128]
00000000: 781d 543d c2c7 0bbd d3de bcbd 9fa4 c83d
00000010: f290 153e f3c6 e03d a994 d2bd 31d5 e3bd
00000020: 1ac0 eebd 9f4b 593d 4def faba 7c91 143e
00000030: bc04 50bd 6af7 8d3d 8e1d c1bc 9e4b e03d
00000040: 3dd6 dc3d c1ca 7e3d 6d0b 2dbe f041 a1bd
00000050: e02c c7bc bed6 4abd aa9d e63d a6c3 2d3d
00000060: 7f41 173d 7af0 c93d fab7 dbbd 614c 763d
00000070: 2bbc 3cbe f4b3 9e3c 423a 8cbd ab93 e8bd
00000080: 6630 8bbd 9e49 933d b497 91bd 3af8 96bd
00000090: 3e87 373d 4d8e c1bc cd3d 5fbd d2fe 33bd
000000a0: 3446 453d b6ed b0bd f6ce 223c fe86 863d
000000b0: 8169 ddbd 444d 1fbe 4613 e03d 86f9 1a3c
000000c0: 6e1e 1b3e cbad fa3d 1b2d 003e cab1 2abc
000000d0: 2c19 823d 40df ba3d 6b62 bb3d 4af1 76bd
000000e0: 3678 74bc ec38 09be 1388 683d 42ff b03d
000000f0: a419 7ebd a173 09be e544 143e 65bc f1bd
00000100: c054 37be 93a7 21bd 0d8e eaba 2370 bf3c
00000110: 82db 8f3d 013a 19bd 5ed2 14be 54c6 22be
00000120: cd96 be3d bce2 69bd f0c0 e33c 43fd 5b3d
00000130: 616f b13d 0c5b e73d 4c1a a43c fcf1 91bd
00000140: ea18 5fbd cac4 103d 4bc8 4a3e 7e51 01be
00000150: e454 3c3d a3b8 a4bb 54aa ae3e b01c 293d
00000160: b565 cd3d e187 6e3e 2046 a4bd e673 09be
00000170: 01c1 3bbd bf37 f53d 4cef 94bd 2d1e eb3d
00000180: b5f6 1a3c e53c 42bc f3a8 7ebd b43a 2c3e
00000190: 197a 8a3d 8256 b7bb 2400 963d 358e a7bc
000001a0: 1291 1cbe 62f0 5b3e 0210 5a3d 537f a3bd
000001b0: dd07 2bbe d961 97bd 1067 80bd 90c6 c5bd
000001c0: 5530 963b 3043 b6bb 670a 5a39 3bc3 b9bc
000001d0: bc3b df3c 5d9a 45bd 5233 143c 4b44 febc
000001e0: 83d4 ea3d 4096 82bd d4bb c0bd 3bf6 033e
000001f0: 9b61 db3d 2631 d43d 34cf 083e c8bc 4136
00000200: 3f9a a3bb dd26 bcbd de18 2a3c cd0d 223d
00000210: e51f b23c 024d 763d 85bd 14bc 8d3d c5bb
00000220: 2fcd 953d 1a1d 36bd 2df4 95bc 5f11 223c
00000230: 5454 31be aff5 babd 5a55 2ebd d6d1 b33c
00000240: 5a66 863e f6af f2bd 240e 2b3d c56e b23d
00000250: 45d5 54be 1524 8ebd 95ed 6ebc bc03 193e
00000260: 25a6 853d 4afb 41bd fcf8 07bd 6159 ee3d
00000270: 2c69 1bbc 9305 cebd ecae 0f3e c1ca f2bc
00000280: 1c36 673d 51a2 0b3e a2c4 643d 424e c63c
00000290: 32a5 463c 8f42 b93d 1e9d 0fbc ed1d f03d
000002a0: 04f0 9c3d 423e 6bba b236 88bd 7f77 db3b
000002b0: a8a7 4fbd 140c fc3d f2a6 4f3b 4469 80bd
000002c0: 7c4d 11bd 8b5d 83bd 3bbf 01be 879c b23d
000002d0: efa2 66bd 9860 b2bd d53c f9bd acf3 05be
000002e0: bd05 37bd e554 443e 57d1 04be 17e9 6cbc
000002f0: 75fd 093e 2d02 72b9 e056 4ebd e9a6 11bd
00000300: 75f5 2c3d 5a80 28bc b363 8bbd ff11 03be
00000310: 76e0 87bd d9ca ac3d ba56 173c bc26 d8bc
00000320: 9bca 563c 7026 94be 46cf eebd 05d5 f13b
00000330: 3091 f63d 5e56 94bd 124e 01be b05a 7bbc
00000340: 9079 9b3d 0761 3f3e e98b eabc 23bb 683b
00000350: 3b04 0abe 0281 c43d 61cd ee3a 08e4 db3b
00000360: 1b5a d33c 639d b13c 5d86 943d a612 bc3c
00000370: e41b 073d 19f7 943d 0517 d33b f84f e7bc
00000380: 8f63 49bd 2773 9d3d d57b 1e3e 0009 d03d
00000390: 6c2b fbbd 4ccb cc3c c74e 9e3d 66e3 34bd
000003a0: 946f 0b3e e988 e63d 6a33 543d 37fd bb3d
000003b0: ea5b c8bd 43d0 21be dcb8 8abd 7fe7 803c
000003c0: d127 54bd a863 24be 0e49 19bd e1f9 b5bc
000003d0: 5628 353b 6736 403d cdc9 bfbd 009f cd3c
000003e0: d7b3 033e 9ce5 2abe d710 03be 0074 9c3d
000003f0: 5f26 f3bb 6f91 73bc 1584 88bd d269 ac3d
0.051785916 -0.03412605 -0.09222188 0.09797024 0.14606073 0.109754466 -0.10282261 -0.111246474
-0.11657734 0.053050634 -0.0019144804 0.14508623 -0.050785765 0.06931956 -0.023573663 0.10951923
0.1078305 0.06220508 -0.1689889 -0.07873905 -0.02431339 -0.0495212 0.11260541 0.042422913
0.036927696 0.098603204 -0.1072845 0.060131434 -0.18431155 0.019372918 -0.06847049 -0.113562904
-0.06796341 0.07191776 -0.07109013 -0.07371564 0.04480671 -0.023627425 -0.054502297 -0.043944187
0.048162654 -0.0863909 0.009937039 0.065687165 -0.10811139 -0.15556818 0.10941176 0.009458905
0.15148327 0.1224018 0.12517206 -0.010418365 0.063524574 0.09124613 0.09149631 -0.060288705
-0.014921239 -0.1340062 0.056770395 0.086424366 -0.06203617 -0.13423015 0.14479406 -0.118035115
-0.17903423 -0.03946645 -0.0017895118 0.0233689 0.0702429 -0.037408832 -0.14533374 -0.15895969
0.09306107 -0.057100996 0.02780196 0.053708326 0.08663822 0.11296663 0.02003207 -0.07126233
-0.05446712 0.035343923 0.19802968 -0.12628743 0.045979396 -0.005026893 0.34114325 0.041287124
0.10029165 0.23294021 -0.08021188 -0.13423118 -0.04583836 0.11973523 -0.07272205 0.11480365
0.009458234 -0.011855339 -0.06217284 0.16819268 0.067615695 -0.0055950293 0.073242456 -0.020453552
-0.15289715 0.21478418 0.053237922 -0.079832695 -0.16702218 -0.0739171 -0.062696576 -0.096570134
0.0045833983 -0.0055622086 0.00020793975 -0.022676101 0.027250163 -0.048242915 0.009045439 -0.031038424
0.11466315 -0.06376314 -0.09410825 0.12886898 0.10711976 0.10360937 0.13360292 2.8869126e-06
-0.004992753 -0.091871 0.010381905 0.039563943 0.021743724 0.060132034 -0.009078388 -0.0060193003
0.07314526 -0.044461347 -0.018304909 0.009891837 -0.17317325 -0.09128892 -0.042561866 0.021950644
0.26249963 -0.11849968 0.041761532 0.08712534 -0.20784481 -0.06940476 -0.014583011 0.14942831
0.0652583 -0.04735879 -0.033196434 0.116381414 -0.009485524 -0.10059657 0.14031571 -0.029637696
0.056448087 0.13636138 0.055851586 0.024207238 0.012124347 0.09045898 -0.008765487 0.11724458
0.07662967 -0.0008973816 -0.06651057 0.0066975947 -0.050697 0.12306991 0.00316852 -0.06270078
-0.035474285 -0.06414326 -0.12670605 0.087212615 -0.05630773 -0.0870983 -0.12169806 -0.13081235
-0.044683207 0.1917301 -0.12970482 -0.01445987 0.13475592 -0.00023079729 -0.05037582 -0.03555957
0.042226274 -0.010284508 -0.068061255 -0.12799834 -0.066346094 0.084371276 0.009236986 -0.026385657
0.013109828 -0.28935575 -0.11660628 0.0073801302 0.12039411 -0.07243036 -0.12627438 -0.015341446
0.075915456 0.18689357 -0.028631167 0.0035511933 -0.13478176 0.09594919 0.0018219167 0.006710533
0.025799802 0.021681493 0.0725219 0.022958111 0.032985583 0.07273693 0.006441953 -0.028236374
-0.049167212 0.07687979 0.15476926 0.101579666 -0.122641414 0.024999283 0.07729869 -0.044162177
0.13616782 0.11256582 0.051806845 0.09179156 -0.09783156 -0.15802102 -0.067735404 0.015735386
-0.051795784 -0.16053641 -0.037423186 -0.022213878 0.002764245 0.046926882 -0.09364662 0.025100231
0.12861572 -0.16689152 -0.12799393 0.07639313 -0.0074203457 -0.014866217 -0.06665818 0.08418621

network_body._body_endoder.seq_layers.2.bias f4 [128]
00000000: 54bf 943c c078 943c 3984 833c d83e ab3c
00000010: 6e41 ef3c a035 8f39 6d28 c23c c5a5 723c
00000020: f294 a83c 892e a53c 176e 233c 670f db3c
00000030: ee33 d53c e53c 8d3b c1fd 823c 47c5 4e3c
00000040: fb30 ca37 9b6c 2c3c 1284 e23c a0e7 463c
00000050: 7bcb 873a db24 e33c 0ac3 6bbb 77e9 cb3b
00000060: 6f65 363c 5e1f e43c 4527 dd3c 0a47 bd3c
00000070: a2cf b03c f730 fe3c 5835 873c 9484 6b3c
00000080: 91e5 8a3c 838f fa3c a93c df3c a945 263d
00000090: e30f 3dbc e6c5 4ebb 75e1 653c 0210 733b
000000a0: 99f2 b53c 38c5 053c de3b d83b 14d4 7e3c
000000b0: 8e0e 883b 8e3b 24bc aed3 8d3b 26cd 503c
000000c0: 90bf 17bc 9dbb 603c 65b6 1e3c e992 553c
000000d0: d5d4 023d 1808 3c3b 0dc6 e6bb 3c2e a93b
000000e0: d656 c93c 009f bcbb 4b79 613c 0e73 13bc
000000f0: 534b 873b 9190 b63c 60c2 653c 8a67 993c
00000100: 2ce7 433a f13b 953c bee2 87bb 2e09 d83b
00000110: e222 ab3c 7446 65bb 0d03 e73b 9c42 133d
00000120: c526 b63c b1e4 c13c 67ec 703c da36 8e3c
00000130: 2d72 83ba 1bbb 1a3d c2e2 8a3c b31e 1b3d
00000140: 1daf b93b 95fe 923a ea11 723c 7a5a 203c
00000150: 9602 873b fcdc 7b3c e162 e1bb baf1 433c
00000160: 86fa 85bb 5b42 b7bb 5aa1 863c 0744 0a3c
00000170: f0a4 6a3c bffa 953c f072 8d3c 2bcc a83c
00000180: 2fc7 4e3c f3b6 103b 62f5 233c 8743 143c
00000190: b416 3aba ad27 c53c 9b1c ef3b 062b 4c3b
000001a0: 448a 813c 1ae7 c63c 0a7d fa3c ccca fe3b
000001b0: d787 583d 1ded 823c f4bd b83c d553 e23b
000001c0: 14b9 31bc 783a d73b 677d 2ebb 419b 933c
000001d0: c6f0 7e3c dc4f 593c 9cb9 f53b 81f4 293c
000001e0: 864b 513c 836c 28bc b660 c53c ce74 f73b
000001f0: 9495 863c 70e6 a13b 5448 c2bb f9da b33c
0.018157639 0.018123984 0.01605426 0.02090399 0.029206004 0.0002731504 0.023700917 0.01481003
0.020578835 0.020163791 0.009974978 0.026740743 0.026025739 0.0043102377 0.01599014 0.012620277
2.4103085e-05 0.01052394 0.027650867 0.012140185 0.0010360325 0.027727535 -0.0035974407 0.0062228995
0.011132582 0.027846988 0.026996264 0.023105163 0.021583382 0.031029208 0.016504928 0.014374871
0.016955169 0.03058601 0.027250605 0.040593777 -0.011539432 -0.0031551062 0.014030804 0.0037088399
0.022210406 0.008164696 0.0065989336 0.015553493 0.0041521257 -0.010023965 0.0043282127 0.012744224
-0.009261981 0.0137166055 0.009687041 0.013035514 0.031941254 0.0028691348 -0.0070426525 0.0051629823
0.02457754 -0.005756259 0.013761829 -0.008999599 0.0041288524 0.022285732 0.014023393 0.01872613
0.0007473107 0.018217059 -0.004146903 0.006592891 0.020890657 -0.003498462 0.007049924 0.035952196
0.022235284 0.023668619 0.0147048 0.01736014 -0.0010028534 0.037776094 0.01695383 0.037871074
0.005666627 0.0011214787 0.014774779 0.009787196 0.0041201813 0.015372511 -0.0068782424 0.011959488
-0.0040887026 -0.005592627 0.01643436 0.008439071 0.014321551 0.018308042 0.01726672 0.020605167
0.012620731 0.0022081702 0.010007234 0.009049303 -0.000709872 0.02406677 0.007297111 0.0031153574
0.015813 0.02428012 0.030577201 0.00777564 0.052863922 0.015982205 0.022551514 0.006906966
-0.010847349 0.0065682493 -0.0026625039 0.018018367 0.015560335 0.013263669 0.007498933 0.010373236
0.012774354 -0.010279777 0.024093967 0.007551766 0.016428746 0.0049408004 -0.0059290323 0.021955

action_model._discrete_distribution.branches.0.weight f4 [3, 128]
00000000: 22f1 fbbb f4c4 a8bb 6b31 da3b 730c b7bc
00000010: 76fb 013b 9ce2 d73b d130 33bb 9259 19bc
00000020: 1cbf cdbc 9f85 303b 8d11 4ebc 14da c73b
00000030: 61fd 12bc 54b7 633c 3b08 b9b8 1e15 9cbc
00000040: 2200 f9bb d015 55ba 6882 ffbb ef96 7ebc
00000050: ecde 343b 9b58 bcbb 54ee 7a3c f040 e53a
00000060: 23e4 91bc 2add 6fbc 16d6 5bbc 7f8b 5e3b
00000070: b445 cabc d184 91bc 215f fabc 2c2a 403c
00000080: 25c9 d1bc 3594 ecbb 64b3 34bc 203c 21bb
00000090: 7151 873a 7f87 423c 40fe 02bc 1b14 933a
000000a0: 55b4 cebc f613 d5bb a829 063c ba6d 81bc
000000b0: fdad 2dbb 8eae 673b bcb4 1abb 4b3b 63bc
000000c0: 81e3 9abb 0f35 82bb 1adf 20bc 7ebb 61bc
000000d0: a844 05bc dd0e 23bc ae31 983c 4471 72bb
000000e0: b583 30bc d8ce 993b 5c7e 88bc 5e57 503c
000000f0: 09bd 63bc efe2 b93b a9fb a2bc 8036 f4bb
00000100: 1bfd 62bc 18d1 2abc 109d 3f3c 6b6c ee3b
00000110: 672b 4dbc 6b96 cf3c 79f8 993c 16e7 3abc
00000120: 91f4 87bc 8a6e 01bc d4e9 8cbb 2820 27bc
00000130: 4acd 8cb9 82a2 fbbb baa9 44bc 45d6 8ebb
00000140: 8dec bd3a be27 28bc a3c1 16ba 8271 14bb
00000150: db25 653b b4bd 223b f9e8 0dbb 2f97 cfbb
00000160: 6145 283c f037 143c 173c 52bc 5274 4b3b
00000170: d2fa 8cbc 1892 42bc 2540 4dbb 634e c6bc
00000180: d80b 8cbc 8b49 213c 8ccd fcbb 3ed3 5abb
00000190: c2c3 d23b eb53 98bb 04fd bcbb 4c36 abbb
000001a0: 0483 a2bc 2291 85bc 42f5 3ebc 53db 4fbc
000001b0: ce04 36bc 188b 2d3b 71b7 8abc ba73 2cba
000001c0: 80f7 b8bb b87d 60bc aa52 b13c 18c9 a43a
000001d0: da5f 89bc 0de3 053c 6743 ecbb 81f9 ac3b
000001e0: df65 babb 32b5 cd3b 8274 483b e8fe 253c
000001f0: 314c d4bc 583b ddbc 35bb c63b 0e61 2dbc
00000200: 12c1 e6bc 217f cc3c 3707 92bc 74a9 edbc
00000210: fcbe 0ebd cc96 313c ada5 f2bc 0308 0dbd
00000220: 9173 d3bc 4c30 a83c 8fd9 8fbb a866 1b3d
00000230: 981d 0b3d 9a92 9bbc e475 fd3c fdfb ba3c
00000240: 3cef cebc 6f4b b0bc d8f3 febc 6a3b bf3c
00000250: 0b6c 01bd f061 013d 5dc2 243c 2a59 be3c
00000260: 7ad2 053d 1f38 023d 5d76 1a3d b186 043d
00000270: 8fc1 94bc 8156 4c3d b066 5a3c 8fde b53c
00000280: fd25 47bc 5b25 043d 453f 2f3d c62c a03d
00000290: 6f5f 97bc f831 b1bc 208d 18bd 0758 e83b
000002a0: e8e8 d2bc 5b94 a13c 0b12 07bd d811 d7bc
000002b0: de3a a5bc a817 1cbc 3958 f3bc 33b5 a53c
000002c0: 54d7 32bc 8664 ef3c cf63 7abc f50b b63c
000002d0: 7050 393d 513f 063c 0970 8bbc 1f60 c7bc
000002e0: bdd5 ec3c 3b72 9dbc ca60 933c db9a 99bc
000002f0: 0c1b 963c 129d 233d fcee c13c 8cc6 203d
00000300: 8c93 f4bc 3536 ee3c 301e 093c 1ef6 77bc
00000310: ac0e b33c 1fc4 1d3b 0b64 663c 9418 593d
00000320: 1055 183d 8efc a2bc 6127 9b3c 558b fa3c
00000330: 6b0d c1bc 309a 4d3d 6fb9 1dbd d0ec 4c3d
00000340: 11c7 5c3c 83b9 1cbb d945 fb3c fc9c 4e3c
00000350: b42d 0cbd e897 fcbc 804d bc3b 5c5e 663c
00000360: 5f4f 63bc c0e9 ad3b e852 11bd 310e 8d3c
00000370: 6e3b 263b 4ddc 103d 4f4a 5fbd 4421 013d
00000380: 8076 a73c 0df6 1fbd 9e44 6e3c d5f2 e4bc
00000390: a8cd 7fbc 4071 093d f4f4 d5bb 795e 763c
000003a0: 3b31 973c d349 4d3d b33b 403d a970 04bd
000003b0: 37a3 753d 2899 0ebd d4d7 1cbd 9d25 5d3c
000003c0: 6637 fbbb ab7d 273c a239 543c 3d87 d83c
000003d0: 4768 a73c 28a0 0fbd 1e84 8dbc 6bc5 003d
000003e0: 19a1 d53c ac8e bfbb 2584 363d 35a1 c5bc
000003f0: a0ff 97bc 2e29 243c a5dd 043b 3240 2b3d
-0.0076886574 -0.0051504318 0.006658723 -0.022344803 0.001983372 0.0065882932 -0.002734233 -0.009359734
-0.025115542 0.0026935113 -0.012577427 0.006098995 -0.008971543 0.013898689 -8.8230205e-05 -0.019053038
-0.007598893 -0.00081285555 -0.007797528 -0.015538915 0.0027598692 -0.0057478673 0.015315611 0.0017490666
-0.01780898 -0.014640132 -0.013417741 0.0033957658 -0.02469144 -0.017763527 -0.03056294 0.011728805
-0.025608608 -0.007219816 -0.011029098 -0.0024602488 0.0010323954 0.011873125 -0.007995188 0.0011221202
-0.025232473 -0.0065026237 0.008188643 -0.015799392 -0.002650141 0.0035351845 -0.0023606261 -0.013869117
-0.0047268276 -0.0039736102 -0.009818817 -0.013777612 -0.008134045 -0.009952274 0.018578377 -0.003699378
-0.010773589 0.004693847 -0.016661815 0.012716142 -0.01390005 0.0056728045 -0.019895392 -0.007452786
-0.01385429 -0.010425828 0.011695161 0.007276108 -0.012522555 0.02534028 0.018795239 -0.011407634
-0.01659611 -0.00789989 -0.0043003354 -0.010200538 -0.00026855833 -0.0076792846 -0.012003357 -0.004359039
0.0014490053 -0.0102633815 -0.00057509 -0.0022650664 0.003496519 0.002483231 -0.0021653755 -0.006335161
0.0102704475 0.00904654 -0.012831709 0.0031044674 -0.017209444 -0.011875652 -0.003131875 -0.0242073
-0.017095491 0.009844194 -0.007714933 -0.003339007 0.0064320276 -0.0046486757 -0.0057674665 -0.0052249786
-0.019837864 -0.016304556 -0.011655154 -0.012686568 -0.011109544 0.0026480611 -0.016933175 -0.0006578524
-0.0056447387 -0.013701849 0.021645863 0.0012572138 -0.016769338 0.008171809 -0.0072101834 0.0052787666
-0.0056884135 0.0062777037 0.0030587022 0.010131575 -0.025915237 -0.027005836 0.0060647973 -0.010582222
-0.028168235 0.024962964 -0.017825706 -0.029011466 -0.034850106 0.010839175 -0.029620016 -0.03443147
-0.025811942 0.020530842 -0.0043899487 0.037939698 0.03396377 -0.018990804 0.030940004 0.022825236
-0.02526056 -0.021520345 -0.031122133 0.02334376 -0.03159718 0.03158754 0.010056105 0.023235876
0.03267143 0.031791802 0.037710536 0.032355014 -0.018158702 0.049887184 0.013330147 0.02220085
-0.012155053 0.032262187 0.042784948 0.0782104 -0.018478123 -0.021630272 -0.037243962 0.007090572
-0.025745824 0.019724062 -0.03297619 -0.026253626 -0.020169672 -0.009527124 -0.029705154 0.020228004
-0.010915596 0.029222738 -0.015282585 0.022222498 0.045242727 0.008193807 -0.017021196 -0.024337826
0.028910512 -0.019219508 0.017990489 -0.018750599 0.018323444 0.039944716 0.023673527 0.03925185
-0.029855512 0.029078582 0.008369014 -0.0151343625 0.021857582 0.0024073196 0.014061938 0.053001955
0.037190497 -0.019895818 0.018939676 0.030584017 -0.023565968 0.050195873 -0.03850692 0.05003053
0.0134751955 -0.0023914285 0.030672954 0.01261067 -0.034223273 -0.030834153 0.0057465434 0.014060583
-0.013873904 0.005307406 -0.035479456 0.017218681 0.0025365013 0.035366345 -0.054514226 0.031525865
0.020442247 -0.03905301 0.014542727 -0.027947823 -0.015612997 0.03355527 -0.006529445 0.0150371725
0.018456092 0.050119232 0.046931934 -0.032334004 0.059970107 -0.03481403 -0.038291767 0.013497737
-0.007666516 0.010222833 0.012953194 0.026431674 0.020435465 -0.035064846 -0.017274912 0.031438272
0.026077794 -0.0058458652 0.044559617 -0.024124721 -0.018554509 0.010019584 0.0020273712 0.04180927

action_model._discrete_distribution.branches.0.bias f4 [3]
00000000: a048 06bc 8e57 2a3c 852e 39bb
-0.008196026 0.010396851 -0.0028256488

onnx::Div_52 f4 [8]
00000000: 103b 2540 7ee1 a43f 55dc 9a40 495a 9240
00000010: 4e5c 2740 1bd2 d840 82f4 bb3f 2a00 003f
2.58173 1.2881315 4.839396 4.573521 2.6150088 6.7756476 1.4683993 0.5000025
