results/BTB_v2/Pong/Pong-58532.pt (torch, 447378 bytes, 41 tensors)

network_body.observation_encoder.processors.0.normalizer.running_mean f4 [8]
0	0x3a398e99	0.00070784386
1	0x3d7ad04b	0.0612338
2	0x3db806c3	0.08985665
3	0xbb17b017	-0.002314573
4	0x3d88a47d	0.06671999
5	0x3c78e23a	0.015190655
6	0x3da0df77	0.078551225
7	0x3efffedf	0.4999914

network_body.observation_encoder.processors.0.normalizer.running_variance f4 [8]
0	0x48c2dc02	399072.06
1	0x479f8d18	81690.19
2	0x49ec80dc	1.9374355e+06
3	0x496833d4	951101.25
4	0x48b2ffdf	366590.97
5	0x4a0da6a8	2.32081e+06
6	0x47c06de8	98523.81
7	0x4664a901	14634.251

network_body.processors.0.normalizer.running_mean f4 [8]
0	0x3a398e99	0.00070784386
1	0x3d7ad04b	0.0612338
2	0x3db806c3	0.08985665
3	0xbb17b017	-0.002314573
4	0x3d88a47d	0.06671999
5	0x3c78e23a	0.015190655
6	0x3da0df77	0.078551225
7	0x3efffedf	0.4999914

network_body.processors.0.normalizer.running_variance f4 [8]
0	0x48c2dc02	399072.06
1	0x479f8d18	81690.19
2	0x49ec80dc	1.9374355e+06
3	0x496833d4	951101.25
4	0x48b2ffdf	366590.97
5	0x4a0da6a8	2.32081e+06
6	0x47c06de8	98523.81
7	0x4664a901	14634.251

network_body._body_endoder.seq_layers.0.weight f4 [128, 8]
0	0x3d8d3142	0.06894161
1	0x3def5080	0.11685276
2	0x3f233e85	0.6376727
3	0x3dfb8712	0.12281622
4	0xbe27974e	-0.16366312
5	0x3e7fe803	0.24990849
6	0xbedc9e2d	-0.4308943
7	0x3e9b0230	0.30275106
8	0xbe4b08a4	-0.19827515
9	0xbe5ab6a9	-0.21358742
10	0xbec77612	-0.38957268
11	0xbe5826eb	-0.21108596
12	0x3efb07ee	0.49029487
13	0x3f14a2a6	0.5806068
14	0xbd74941d	-0.059711564
15	0xbef1758a	-0.47159988
16	0xbf2fc5ca	-0.6866118
17	0x3e40d44f	0.1883099
18	0x3ea3c03c	0.319826
19	0x3e59ad05	0.21257408
20	0x3ef7d6eb	0.48406157
21	0xbdaacd40	-0.083399296
22	0x3ede092a	0.43366367
23	0xbe307988	-0.1723386
24	0xbe31a086	-0.17346391
25	0xbf0cfb3f	-0.5507087
26	0xbea40556	-0.3203532
27	0x3e5a62d9	0.2132677
28	0xbe39e68f	-0.18154357
29	0x3e470304	0.19434744
30	0xbd4f0444	-0.050541177
31	0x3d5c322b	0.05375878
32	0x3e0573a0	0.13032389
33	0x3f538448	0.8262372
34	0xbf0261b2	-0.5093032
35	0x3eaae241	0.33375743
36	0x3e9b4aa5	0.30330387
37	0xbe751c52	-0.23936585
38	0xbda45a94	-0.08025089
39	0xbece6e07	-0.4031832
40	0x3e68dab9	0.22739686
41	0xbf2acbe6	-0.66717374
42	0xbe9581e1	-0.29200652
43	0x3e4ae4bf	0.19813822
44	0xbde3b8d2	-0.11119236
45	0x3e4cd5b2	0.20003393
46	0xbddba09d	-0.10723994
47	0x3e51c950	0.20486951
48	0xbebadde7	-0.36497423
49	0xbf4f9b61	-0.81096464
50	0xbde9e3e5	-0.114204206
51	0x3f011f79	0.5043865
52	0x387ead6e	6.0719838e-05
53	0x3f6ca54a	0.9243971
54	0xbc0906d1	-0.008363442
55	0x3e255538	0.1614579
56	0x3cd35187	0.025795711
57	0xbefea922	-0.49738413
58	0x3d591963	0.053002726
59	0xbed99e1e	-0.42503446
60	0x3f050585	0.5196155
61	0xbf0050ac	-0.50123096
62	0xbd83a6cc	-0.06428298
63	0x3f4b9474	0.79523396
64	0x3dc2fc59	0.09520788
65	0x3dcbd88b	0.09953412
66	0x3d124bb8	0.035716742
67	0xbe84ea0b	-0.2595981
68	0xbe7935ed	-0.24336977
69	0xbe21664f	-0.15761684
70	0xbebc9faa	-0.36840564
71	0xbe21ab27	-0.15787946
72	0x3a5a21f1	0.00083210977
73	0x3d828041	0.06372119
74	0xbe555773	-0.2083414
75	0x3f2112e2	0.6291944
76	0xbe22c114	-0.15893966
77	0xbc8dbb1a	-0.017301131
78	0xbdf575d4	-0.119853646
79	0xbe9be900	-0.30451202
80	0x3d312438	0.04324743
81	0x3e55ecad	0.20891066
82	0x3dc88ba6	0.09792261
83	0xbde8816b	-0.113528095
84	0xbe3f0ca0	-0.1865716
85	0x3c254f70	0.01008974
86	0xbd96a842	-0.073563114
87	0xbe0d46ae	-0.13796493
88	0xbe24e25a	-0.16101971
89	0xbf1d1438	-0.61358976
90	0x3ec4ba11	0.38423207
91	0x3e975ca6	0.29562873
92	0xbe09f4cd	-0.1347229
93	0x3eaa20ef	0.3322825
94	0xbe369e92	-0.17833927
95	0xbe279849	-0.16366686
96	0x3ee16b03	0.44026956
97	0xbe75f8fc	-0.24020761
98	0xbf059ff1	-0.52197176
99	0x3f289797	0.6585631
100	0xbe3d0f2c	-0.18462819
101	0xbe86f9f2	-0.26362568
102	0x3e5592de	0.20856807
103	0xbd8e585f	-0.06950449
104	0xbded9b71	-0.11601914
105	0xbeb68aef	-0.35652873
106	0x3e2c874d	0.16848488
107	0x3def402b	0.11682161
108	0xbe6db408	-0.23213208
109	0x3d19787c	0.03746842
110	0x3b2afb90	0.0026089884
111	0xbc288fa5	-0.010288154
112	0xbbea217d	-0.0071451054
113	0x3e862b48	0.26204896
114	0x3e1ea3c2	0.15492156
115	0xbf28ca71	-0.659339
116	0x3e1a98f1	0.15097405
117	0xbed851a1	-0.42249778
118	0x3eab868d	0.33501092
119	0xbf16382f	-0.5867948
120	0x3e7706e0	0.24123716
121	0xbea21077	-0.31653187
122	0x3f16ea2a	0.58951056
123	0xbc6be819	-0.014398598
124	0x3ecf290f	0.40461013
125	0xbf4c2768	-0.7974763
126	0x3c99684b	0.018726489
127	0xbebf2849	-0.37335423
128	0xbe0de0cc	-0.13855284
129	0x3f112e5f	0.5671138
130	0x3e6a549e	0.22883841
131	0xbdab8db5	-0.08376638
132	0x3d3f50c3	0.04670788
133	0xbebc68f5	-0.36798826
134	0x3f1a6037	0.6030306
135	0xbed7fca2	-0.4218493
136	0x3e934bb2	0.28768688
137	0xbe22e277	-0.15906702
138	0xbead7f60	-0.33886242
139	0x3f20c35f	0.6279811
140	0x3e864fba	0.26232702
141	0x3e230058	0.159181
142	0x3d37ae1d	0.04484378
143	0xbebcf2f9	-0.36904123
144	0xbe8b7a87	-0.27241918
145	0xbe31c605	-0.17360695
146	0x3e842cdc	0.25815475
147	0x3d46cf99	0.048537824
148	0xbe5382d8	-0.20655382
149	0xbf09be69	-0.5380617
150	0xbd82a21b	-0.063785754
151	0x3e9b8926	0.30378073
152	0x3da11041	0.07864428
153	0xbe800205	-0.2500154
154	0xbd9fc32d	-0.07800899
155	0x3ec2dca7	0.3805897
156	0x3e8db8f5	0.27680174
157	0x3e1237eb	0.14279144
158	0x3d8d11c2	0.06888153
159	0x3ef0c1b6	0.4702279
160	0xbd829c69	-0.06377489
161	0xbe50f2da	-0.2040514
162	0x3eadc16e	0.33936638
163	0x3e12a085	0.14319046
164	0x3cd6345c	0.026148014
165	0xbe002048	-0.12512314
166	0xbe497485	-0.19673355
167	0x3b9f3f67	0.004859853
168	0x3e3e2654	0.18569309
169	0x3f292fc2	0.660885
170	0xbee143fd	-0.43997183
171	0xbee87acd	-0.4540619
172	0x3e5e655f	0.21718358
173	0xbe88db6a	-0.267299
174	0x3eb44a5b	0.3521298
175	0x3ebfd960	0.3747053
176	0xbec231b0	-0.37928534
177	0xbe532005	-0.20617683
178	0xbcc7e3db	-0.024400642
179	0x3cb77c3d	0.022398109
180	0x3ddb5f0c	0.10711488
181	0xbe565f6e	-0.20934841
182	0x3f40ba73	0.752845
183	0xbe33f237	-0.17572866
184	0xbe626e63	-0.22112422
185	0x3e83033c	0.25588405
186	0xbde1aa51	-0.110188134
187	0x3dcdb80d	0.100448705
188	0x3f31930e	0.6936501
189	0xbbec1a23	-0.007205264
190	0xbf1b28d5	-0.6060918
191	0x3e9a1d9f	0.30100724
192	0xbe86c6fb	-0.26323685
193	0x3d2b375b	0.041800838
194	0xbe380be2	-0.17973283
195	0x3d2e0941	0.042489294
196	0xbeb3ed55	-0.35142007
197	0xbe15d4fc	-0.14632028
198	0x3e4c048f	0.19923614
199	0x3ed0bcec	0.40769136
200	0xbefb2dcb	-0.49058375
201	0xbefa6c29	-0.48910645
202	0x3eae7352	0.34072357
203	0xbf1f5db5	-0.6225236
204	0x3e1e7522	0.1547437
205	0xbe01fe50	-0.12694669
206	0x3e5c972b	0.21542041
207	0xbea7b340	-0.32753944
208	0x3eb1d274	0.34730875
209	0x3d443177	0.047898736
210	0xbf265cac	-0.64985156
211	0xbcb89325	-0.022531101
212	0xbf378611	-0.71688944
213	0xbe13698e	-0.14395735
214	0xbdbd59d7	-0.09245651
215	0x3d8cc5cd	0.06873665
216	0xbe90f97a	-0.28315336
217	0x3c2b297a	0.0104469005
218	0xbe81e50a	-0.25370055
219	0x3f1231be	0.5710715
220	0xbe15c9c0	-0.14627743
221	0x3cd10fbb	0.025520196
222	0xbe30ea2c	-0.1727683
223	0xbcb2ed55	-0.021841684
224	0x3e543710	0.2072413
225	0x3e19305a	0.14959851
226	0x3ce5d089	0.028053539
227	0x3e652213	0.2237628
228	0x3ede32ac	0.43398035
229	0x3e07150e	0.13191625
230	0xbf07c706	-0.5303806
231	0xbea70f30	-0.32628775
232	0xbf3b2e5d	-0.7311762
233	0xbc9aed5f	-0.018912015
234	0xbd875238	-0.06607479
235	0xbe058031	-0.13037182
236	0xbea5e1f0	-0.3239894
237	0xbdd0e5c4	-0.10200074
238	0xbea1c891	-0.31598333
239	0x3d76acb1	0.060223285
240	0x3da98c90	0.08278763
241	0xbf038ca3	-0.5138647
242	0xbe0fc08c	-0.14038295
243	0x3c0d3910	0.008619562
244	0x3e468dc0	0.19390011
245	0xbe717c6c	-0.2358262
246	0x3ee1e904	0.4412309
247	0xbf1e1e94	-0.6176541
248	0xbd54f93c	-0.0519955
249	0x3d207efe	0.03918361
250	0x3e386ce0	0.18010283
251	0xbef77715	-0.4833304
252	0x3e9cb215	0.30604616
253	0xbe6f8174	-0.23389226
254	0xbe416b39	-0.18888558
255	0x3e85bbb9	0.26119784

network_body._body_endoder.seq_layers.0.bias f4 [128]
0	0x3aa661f5	0.0012693988
1	0xba53921f	-0.0008070785
2	0x3b841f8c	0.004032081
3	0x3aa55c7a	0.0012616061
4	0x3b579019	0.0032892285
5	0xbb0cb584	-0.0021470496
6	0x3a6ea7b7	0.0009103971
7	0x3ad30fd3	0.0016102738
8	0x3abd4402	0.0014439824
9	0x3b651b53	0.0034958913
10	0x3a4caecc	0.0007808029
11	0xba32892e	-0.00068106025
12	0xba4e6ce3	-0.0007874502
13	0xbaf40226	-0.0018616363
14	0x3a05cc2f	0.0005103973
15	0xbb823349	-0.003973399
16	0x38378531	4.3754644e-05
17	0x3b0d3b00	0.002155006
18	0xba22a1d7	-0.00062039256
19	0x3a2fa25c	0.00066999136
20	0xbabb5728	-0.0014292942
21	0xbadb887c	-0.001674905
22	0xbaa2282d	-0.0012371592
23	0x3b527e89	0.0032118878
24	0x3b3490d2	0.002755214
25	0x3ad3539a	0.0016122938
26	0x39f510c3	0.0004674253
27	0x3b894649	0.004189287
28	0xbadaf17d	-0.0016704049
29	0xbb283080	-0.0025663674
30	0xba66d818	-0.0008806004
31	0x3aa500aa	0.0012588699
32	0x3b70cfd8	0.0036744978
33	0x3aee14c1	0.0018164144
34	0x3abbb6d9	0.0014321461
35	0x3b46d22b	0.0030337672
36	0x3b8bcf59	0.004266661
37	0x3b03e7e8	0.002012724
38	0xba09c359	-0.00052552443
39	0xba415768	-0.000737539
40	0xb92a65b2	-0.00016250348
41	0x3b28df24	0.0025767768
42	0x3ba2cc21	0.0049681817
43	0xba560552	-0.0008164245
44	0x39e59a95	0.00043793456
45	0xb929b02e	-0.00016182728
46	0xba9d28f5	-0.0011990356
47	0xbb5b3647	-0.00334491
48	0x39729976	0.00023136087
49	0x3a043877	0.00050438143
50	0xbb940397	-0.0045170295
51	0xba75a00b	-0.00093698566
52	0xbb05b705	-0.0020403278
53	0xb997cf7d	-0.00028955555
54	0x3abca326	0.0014391884
55	0x3b09dd3b	0.0021036405
56	0xbb38a54d	-0.0028174699
57	0xba1bd6c5	-0.0005944784
58	0x3ab022ca	0.0013438102
59	0x3a7d4f99	0.0009663045
60	0xbb447fef	-0.002998348
61	0xbb0a18d8	-0.0021071937
62	0xba2cd00e	-0.0006592282
63	0x3b0e29d6	0.0021692417
64	0x3ad50474	0.0016251937
65	0x3a4dbc39	0.0007848177
66	0x3ab9ed14	0.0014185035
67	0x3af256e0	0.0018489026
68	0x3ba14f56	0.0049227877
69	0xbaacf8f8	-0.0013196757
70	0xbb150806	-0.0022740378
71	0x383cd704	4.502294e-05
72	0xba934318	-0.0011235205
73	0x391e01d4	0.00015068735
74	0x38325f0f	4.2527037e-05
75	0xbab523d6	-0.0013819884
76	0x3a3e9c36	0.0007271202
77	0x3b40038f	0.0029298996
78	0x3a992016	0.0011682536
79	0xba41816d	-0.00073816517
80	0xbb7e9a3d	-0.0038849257
81	0xbae0a4d5	-0.0017138968
82	0xbaae09ce	-0.0013278069
83	0x3acebb80	0.0015772432
84	0xbb41056d	-0.0029452697
85	0xb89c65c6	-7.4576164e-05
86	0x3ada5e32	0.0016660152
87	0x39c4c4f2	0.0003753077
88	0x3bdb2794	0.0066880677
89	0xba963efe	-0.0011462865
90	0x39d4eb82	0.00040611258
91	0xba4debf4	-0.0007855289
92	0xba906e6c	-0.0011019236
93	0x3af39d4c	0.0018586307
94	0x3ab23eab	0.0013598999
95	0x3b2bcb60	0.002621375
96	0x3a8a9103	0.0010571781
97	0x3a8b7d39	0.0010642178
98	0x3a51f35f	0.00080089824
99	0x3915855b	0.00014259426
100	0xba942b06	-0.0011304326
101	0x3b172d44	0.0023067752
102	0xbab9b88e	-0.0014169381
103	0x38928ecc	6.9884205e-05
104	0xba087adf	-0.00052062975
105	0x3b260de0	0.002533786
106	0x3a155c72	0.00056976744
107	0x3ad32dd2	0.0016111678
108	0x3ac12416	0.0014735486
109	0x3b89007d	0.0041809664
110	0x39d727b8	0.00041037588
111	0x3a9f8a74	0.0012172
112	0xbae295c5	-0.0017287066
113	0xbae9a6db	-0.0017826216
114	0xba5f6b99	-0.0008522808
115	0xba9244a0	-0.0011159368
116	0xba710af7	-0.00091950543
117	0x3abfa073	0.0014619961
118	0x3a82d7f3	0.0009982571
119	0x3b6238fc	0.0034518829
120	0xba8817c0	-0.0010383055
121	0xbb07cc36	-0.0020721084
122	0x3b2e7c35	0.0026624326
123	0xbb2b2ac6	-0.0026118024
124	0x3b7d5e78	0.0038661044
125	0xbb300e88	-0.002686413
126	0xba0ea8e3	-0.0005442036
127	0x3b5c30e0	0.0033598468

network_body._body_endoder.seq_layers.2.weight f4 [128, 128]
0	0x3b5fabad	0.0034129426
1	0xbb83a993	-0.0040180176
2	0x3dc3d3a2	0.0956185
3	0x3d48150a	0.04884819
4	0x3c29b574	0.010358203
5	0x3d160dcf	0.036634263
6	0x3d8933d7	0.06699341
7	0x3e250d3e	0.16118333
8	0x3caf9f2e	0.021438207
9	0xbd6a64db	-0.05722509
10	0xbe1432b7	-0.14472471
11	0x3d96c191	0.073611386
12	0xbd627636	-0.055288516
13	0x3d1617f7	0.03664395
14	0xbc3ab81f	-0.011396437
15	0xbdc34c56	-0.09536044
16	0x3d8b17e7	0.067916684
17	0xbd5717ee	-0.052513056
18	0xbde1fe4f	-0.11034834
19	0x3d8036ea	0.06260474
20	0x3daf9c1c	0.085746974
21	0x3ddc908f	0.1076976
22	0xbd27ecec	-0.04099743
23	0x3e017c51	0.12645079
24	0x3d392758	0.045203537
25	0xbddd55a8	-0.10807353
26	0x3e5322c5	0.20618732
27	0x3db55111	0.08853353
28	0xbe795644	-0.24349314
29	0x3e2f45aa	0.17116418
30	0xbd7125d3	-0.058873963
31	0x3d05b3a7	0.032642033
32	0xbd8c57e2	-0.068527
33	0xbd693bf6	-0.05694195
34	0x3c277484	0.010220651
35	0x3da1ac8a	0.07894237
36	0xbe1a84a0	-0.15089655
37	0xbd943241	-0.07236148
38	0x3d78b6ac	0.060721084
39	0xbd6f3be1	-0.058406714
40	0xbcbd4714	-0.023105182
41	0xbdd6445d	-0.10462258
42	0xbce2a957	-0.027668638
43	0x3e545924	0.2073713
44	0x3ca1ab40	0.019734979
45	0x3c68e76c	0.0142153315
46	0x3e8e8b90	0.27840853
47	0xbcf22d87	-0.029562725
48	0x3c27ce7d	0.010242102
49	0xbcec8142	-0.028870229
50	0xbe137fca	-0.14404216
51	0xbe14e625	-0.14540918
52	0x3e01d011	0.12677027
53	0xbd495743	-0.049155485
54	0xbdad8df7	-0.08474343
55	0x3bbe5150	0.005808033
56	0x3d43d042	0.047806032
57	0xbd851125	-0.06497411
58	0x3d6fe3f9	0.05856702
59	0xbda8edb6	-0.08248465
60	0xbda9c61e	-0.08289741
61	0x3ded3992	0.11583246
62	0x3e1c4344	0.15260035
63	0xbd8b626f	-0.06805884
64	0x3df57169	0.11984522
65	0xbe22243b	-0.15834133
66	0x3d507bbb	0.05089925
67	0x3d9af575	0.075663485
68	0xbb76138e	-0.0037548277
69	0x3dea0506	0.114267394
70	0x3d14b706	0.036307357
71	0x3e0e81ed	0.1391675
72	0xbd3934c4	-0.045216337
73	0xbd6cd689	-0.057821784
74	0xbd0f5671	-0.034994546
75	0xbd57deca	-0.052702703
76	0x3df02f44	0.11727765
77	0x3bfba698	0.0076797716
78	0x3d6de351	0.058078114
79	0xba9e0e28	-0.0012058662
80	0xbd198fe4	-0.03749074
81	0xbd8cae63	-0.06869199
82	0x3d4d58f1	0.05013365
83	0xbe02caa6	-0.12772617
84	0x3e0d7426	0.13813838
85	0x3d918268	0.07104951
86	0x3cebf465	0.02880306
87	0x3d99bb1f	0.07506394
88	0x3d919b26	0.0710967
89	0xbdc395ee	-0.09550081
90	0x3d797e93	0.060911726
91	0xbd9cacdc	-0.07650158
92	0xbce46ca9	-0.027883844
93	0x3db8d44d	0.09024868
94	0xbda4785e	-0.08030771
95	0x3c81dbc2	0.015851859
96	0xbdad2176	-0.08453648
97	0xbb6f09cd	-0.0036474348
98	0xbdd04ecb	-0.101712786
99	0x3c0ea9c5	0.008707468
100	0xbd7838d3	-0.060601067
101	0x3e211aff	0.15732954
102	0xbba2a9f6	-0.0049641086
103	0xbe0e3c3c	-0.13890165
104	0x3de6befa	0.11266895
105	0x3c66690b	0.01406313
106	0x3d8f5c19	0.06999988
107	0x3d513aa3	0.05108131
108	0xbd513d28	-0.051083714
109	0x3d216049	0.039398465
110	0x3d54f5a2	0.051992066
111	0xbdb4a167	-0.088198476
112	0xbd316f03	-0.04331876
113	0x3dca6631	0.09882773
114	0xbd38129c	-0.044939622
115	0xbdb864f2	-0.09003629
116	0x3da1770d	0.07884035
117	0xbd6e2280	-0.05813837
118	0xbd803028	-0.06259185
119	0xbde7d352	-0.11319603
120	0xbd25514d	-0.040360738
121	0xbcabbf9f	-0.020965395
122	0x3cfd89b4	0.030949451
123	0xbcd9b900	-0.026577473
124	0xbbd576a9	-0.0065143895
125	0x3d87fc39	0.066399045
126	0xbdd5bd48	-0.10436493
127	0xbd8dbbbf	-0.06920575
128	0x3ae86158	0.0017729206
129	0xbc7f176d	-0.01556955
130	0x3db443d2	0.08801998
131	0xbdb3a368	-0.08771402
132	0x3cbac4aa	0.022798855
133	0xbd5d65c1	-0.05405212
134	0x3db93c43	0.09044697
135	0x3d970f22	0.07375933
136	0xbe0d7575	-0.13814338
137	0xbc3dd80c	-0.011587154
138	0xbdb92c6b	-0.09041675
139	0xbe0a95f7	-0.1353377
140	0x3dcbb374	0.09946337
141	0xbd26d452	-0.04072983
142	0xbd702b2c	-0.058634922
143	0x3e068688	0.13137257
144	0xbe1e0eb7	-0.15435301
145	0xbc14517a	-0.009052629
146	0xbcba1912	-0.022717033
147	0x3e424e26	0.18975124
148	0x3dcee249	0.10101754
149	0xbcf191c6	-0.029488456
150	0xbd913bdb	-0.07091495
151	0x3d7fb98f	0.06243282
152	0x3d96e3ce	0.07367669
153	0x3d7b067b	0.061285477
154	0x3d6eb0eb	0.05827419
155	0xbd6757ae	-0.056480102
156	0x3d50f776	0.051017247
157	0x3d443ece	0.047911458
158	0x3d5a9cae	0.053372078
159	0xbbdb5e73	-0.006694609
160	0x3d48c2c8	0.049013883
161	0xbca84e65	-0.020545194
162	0x3d0973af	0.03355759
163	0xbc29e093	-0.010368484
164	0xbd153f96	-0.036437593
165	0x3da786c3	0.08180001
166	0xbda33cc8	-0.079705775
167	0xbccb35c5	-0.024805913
168	0xbd6efdee	-0.058347635
169	0xbe2caffd	-0.16864009
170	0x3df185ba	0.117930844
171	0x3e481117	0.1953777
172	0xbb62a16d	-0.003458108
173	0x3c246a56	0.010035118
174	0x3d15003a	0.03637717
175	0x3e50aeaf	0.20379137
176	0xbc0875de	-0.008328883
177	0x3e19fabf	0.15037058
178	0x3e3b710e	0.18304846
179	0x3ca7de47	0.020491732
180	0xbdf9bc08	-0.12194067
181	0xbd791b43	-0.060817014
182	0x3d29c6f8	0.041449517
183	0xbe37bf22	-0.17944005
184	0xbc86c950	-0.016453415
185	0xbe066fbc	-0.13128561
186	0x3bbe73ab	0.0058121285
187	0x3e035261	0.12824394
188	0xbd1d5473	-0.038410615
189	0xbe099a46	-0.13437757
190	0x3dfa8990	0.12233269
191	0x3e0c13ac	0.13679379
192	0xbd5a1f3a	-0.053252436
193	0x3c9854f7	0.018595202
194	0xbd7566de	-0.059912555
195	0x3e4653e6	0.19367942
196	0x3db77763	0.08958318
197	0xbd314aa6	-0.04328408
198	0x3d14d261	0.036333445
199	0xbdddc867	-0.10829239
200	0x3d60e14d	0.054902364
201	0x3cf9f579	0.030512558
202	0x3dee1338	0.116247594
203	0x3e1969c4	0.14981753
204	0x3d96d35b	0.073645316
205	0x3d09be64	0.033628836
206	0x3c7006e0	0.014650077
207	0xbdb065f7	-0.08613198
208	0xbca2f789	-0.019893425
209	0xbe802f67	-0.25036165
210	0xbd8ee762	-0.069777265
211	0xbd3a22fe	-0.045443527
212	0x3cfa9ace	0.030591395
213	0x3dbee5ab	0.093211494
214	0xbc291b6b	-0.010321478
215	0x3e23d2d5	0.15998395
216	0xbd0ebaee	-0.03484624
217	0x3ba2c413	0.0049672215
218	0xbe42ee42	-0.190362
219	0xbce880c8	-0.02838172
220	0xbcd50632	-0.02600393
221	0xbe2c56e5	-0.16830023
222	0x3d369069	0.044571314
223	0x3d1a9eaa	0.03774897
224	0xbda80bfc	-0.08205411
225	0xbe772087	-0.24133502
226	0xbe0c49bf	-0.13700007
227	0x3ce4aada	0.0279135
228	0xbd88adf2	-0.066738024
229	0xbcf446ff	-0.02981901
230	0xbdafb3c3	-0.08579209
231	0x3cb92cc1	0.022604348
232	0x3b773b27	0.0037724467
233	0x3da6ce03	0.08144762
234	0x3db74b13	0.08949866
235	0x3dbd382a	0.09239228
236	0x3c63f0b4	0.013912369
237	0x3e3f5f2f	0.18688653
238	0xbd6c20a5	-0.05764832
239	0xbe457586	-0.19283113
240	0xbe00f661	-0.12593986
241	0x3bb117c1	0.005404443
242	0xbddd08c7	-0.1079269
243	0x3d9a2686	0.07526879
244	0x3cbfd8bf	0.023418782
245	0xbd1c7f8c	-0.038207576
246	0x3d6955df	0.05696666
247	0x3de0fa46	0.10985236
248	0xbe13025c	-0.14356369
249	0x3e177827	0.14791928
250	0x3e1b3af7	0.15159212
251	0x3d533c6c	0.051571295
252	0x3de6854c	0.11255893
253	0x3c676c23	0.014124903
254	0x3cf4d8e5	0.02988858
255	0xbd823feb	-0.06359848

network_body._body_endoder.seq_layers.2.bias f4 [128]
0	0xba400afa	-0.00073258544
1	0xba904c8b	-0.001100914
2	0x3b54b81b	0.0032458368
3	0xb85ef6dc	-5.315883e-05
4	0x3a3a2c60	0.00071019493
5	0x3a40fbc7	0.00073617365
6	0x3abbe2ba	0.0014334538
7	0x380d2ab2	3.3656783e-05
8	0xba237fd5	-0.0006237005
9	0xbb2530aa	-0.0025206008
10	0x3b33567e	0.0027364786
11	0x39a5a204	0.00031591963
12	0xba35bd04	-0.00069327676
13	0xb9cf05e5	-0.00039486508
14	0x3a33c138	0.00068571
15	0xbaae5eda	-0.0013303414
16	0xb9490be8	-0.00019173289
17	0x3b02f187	0.0019980387
18	0xbb574dbe	-0.0032852734
19	0x39a62318	0.00031688134
20	0x3b3ab533	0.002848935
21	0xbb63d46c	-0.0034764064
22	0x3ad59e45	0.0016297778
23	0x3abebde4	0.0014552441
24	0x3ae0a17a	0.0017137968
25	0xba2d713b	-0.0006616299
26	0x3a79febd	0.0009536555
27	0xba1fd13d	-0.00060965476
28	0x3afc9d99	0.0019273042
29	0xbaba598f	-0.0014217364
30	0x3acafa0d	0.0015485898
31	0xba6ab0bc	-0.0008952727
32	0xba0b8eff	-0.0005323737
33	0x399dd9d5	0.0003010767
34	0x3af0e536	0.0018378857
35	0xbab3bcef	-0.0013712923
36	0xba320adc	-0.00067917793
37	0xba7251fc	-0.0009243784
38	0x3965b8ff	0.00021908058
39	0x39dd822e	0.00042249396
40	0xbae6e831	-0.0017616806
41	0xb9996fac	-0.00029265636
42	0xba6aff0e	-0.0008964398
43	0xb9a846df	-0.0003209626
44	0x3a0f24dc	0.00054605096
45	0xbab78c9e	-0.0014003699
46	0x3976a894	0.00023523188
47	0x3a3578ef	0.00069226226
48	0x3a716367	0.00092082325
49	0x3ad84758	0.0016500754
50	0x3a57704b	0.0008218332
51	0x3a2bbce8	0.00065512815
52	0xbab3318d	-0.0013671383
53	0x3a92a9d9	0.0011189535
54	0x3ac6cf78	0.0015168032
55	0xba16eae5	-0.0005757048
56	0xb9d38dc1	-0.0004035067
57	0x3a992328	0.0011683451
58	0x3af71897	0.0018851933
59	0xba729e58	-0.00092551624
60	0x3ac211d3	0.0014806337
61	0x3a4a3311	0.0007713298
62	0xba82e58e	-0.0009986626
63	0x38d7055b	0.000102529964
64	0x3a98a592	0.0011646023
65	0x39bb9722	0.00035780022
66	0x3a3a957a	0.00071176107
67	0xb8047484	-3.1579766e-05
68	0xb9c0dc98	-0.0003678545
69	0xb89d0043	-7.486392e-05
70	0x3b57ea9d	0.0032946237
71	0x3a8bd16f	0.0010667274
72	0x39e50af5	0.00043686447
73	0x3a659d97	0.00087591395
74	0x39f94e9b	0.00047551547
75	0x39876ba7	0.00025829414
76	0xb84ea7ba	-4.9270435e-05
77	0x3aec87b1	0.001804581
78	0x38d6af97	0.00010237021
79	0x3abd9f84	0.0014467095
80	0xbb3fcff7	-0.0029268244
81	0x3ae2c52e	0.0017301196
82	0x3a904129	0.0011005747
83	0x3a259b93	0.0006317433
84	0xba712cef	-0.0009200116
85	0x39b00428	0.00033572433
86	0xba0a43b8	-0.0005274373
87	0x3aa65255	0.0012689332
88	0xba8caa40	-0.0010731891
89	0x3aeefa63	0.001823258
90	0xbac3742c	-0.0014911941
91	0x3afdf470	0.0019375216
92	0xba617a48	-0.000860129
93	0xba094489	-0.0005236348
94	0x38f7d7f4	0.00011818102
95	0x3aefea2f	0.0018304045
96	0xba8c1f0a	-0.0010690403
97	0xbab9c022	-0.001417164
98	0xb8f6b6d4	-0.000117642485
99	0x3a8946d5	0.001047338
100	0x3a8a8ae8	0.0010569962
101	0x39a42078	0.0003130471
102	0x3aa6795b	0.0012700962
103	0x3b6db148	0.0036268998
104	0x39b8bf7a	0.00035237876
105	0x3b0bac96	0.0021312586
106	0xbae6662d	-0.0017578058
107	0xba4d887f	-0.0007840469
108	0x3a764b65	0.000939539
109	0x3aa0ea01	0.001227677
110	0x3a9f509c	0.0012154761
111	0x3958ba6e	0.00020668816
112	0x3b13be0b	0.0022543694
113	0x3a4c36e8	0.0007790164
114	0x3984ee8a	0.00025354727
115	0x3ad92cfd	0.0016569194
116	0x3ab28494	0.0013619834
117	0x3b0bafb3	0.0021314442
118	0xbad5c35a	-0.001630883
119	0x3b032113	0.0020008727
120	0x39de97f0	0.00042456342
121	0xb9d9debb	-0.00041555412
122	0x3a8e3585	0.001084969
123	0x3ae11f40	0.0017175451
124	0xba3a78c8	-0.0007113335
125	0x3a0eca25	0.0005446992
126	0xb998bb4e	-0.00029131252
127	0x39e6401c	0.00043916784

action_model._discrete_distribution.branches.0.weight f4 [3, 128]
0	0x3bcd3b4c	0.0062631723
1	0x3ac088c9	0.0014689203
2	0x3c03dca3	0.008048209
3	0x3baa7fb9	0.005203214
4	0x3bd81f84	0.006595554
5	0xba9fd86e	-0.0012195238
6	0x3bbe5c8a	0.0058093714
7	0x3c617c8c	0.013762604
8	0x3c63d7d8	0.013906442
9	0xbbdfd888	-0.0068312325
10	0x3c87ccf0	0.016577214
11	0xbb7debbe	-0.003874525
12	0x3b936aa8	0.0044987984
13	0x3c7d5392	0.015461819
14	0xbc481c56	-0.012213787
15	0xbc0527d5	-0.0081271725
16	0x3c2b896d	0.010469777
17	0x3bc911ad	0.0061361403
18	0x3c27f0e1	0.010250301
19	0xba9dbcfe	-0.0012034473
20	0xbc48093f	-0.012209236
21	0xbb31879b	-0.0027088884
22	0x3b407aec	0.0029370142
23	0xbb9d0dec	-0.0047929194
24	0xbc276e62	-0.010219188
25	0x3bd575da	0.006514293
26	0x3c063d03	0.008193257
27	0xbc406989	-0.011743912
28	0xbbe72298	-0.0070536844
29	0x3b985f49	0.0046500308
30	0x3b672147	0.0035267638
31	0x3baff750	0.005370058
32	0x3bf5930f	0.0074943374
33	0x3ba14260	0.0049212426
34	0xbc589a9d	-0.013220456
35	0xbb951ffd	-0.0045509324
36	0xbc6a9c3c	-0.014319476
37	0x3c33f704	0.010984186
38	0xbbf492c6	-0.007463786
39	0x3b482cf3	0.003054437
40	0x3ce817ea	0.028331716
41	0x3bedebe1	0.007260785
42	0x3c8353c0	0.016031146
43	0x3bcf4afb	0.006326077
44	0x3c53cc3a	0.012927109
45	0x3b059f0d	0.002038899
46	0xbc181568	-0.009282447
47	0x3b836853	0.004010239
48	0xbc247c93	-0.010039466
49	0xbc47d71f	-0.012197285
50	0xba6f1049	-0.0009119553
51	0x3b806552	0.0039183283
52	0x3c3d1caf	0.011542483
53	0xbc2b6b5d	-0.010462609
54	0x3af702d1	0.0018845444
55	0xbc6a8db6	-0.014316013
56	0x3c00abd8	0.007853471
57	0xbb9a50b5	-0.004709328
58	0x3b8bbece	0.004264689
59	0x3c688688	0.014192231
60	0xbc7c9d2d	-0.015418333
61	0xbbcbabfb	-0.00621557
62	0xbc40f28a	-0.011776576
63	0xbb795ebd	-0.0038050853
64	0x3c2a5326	0.010395801
65	0x3c158dec	0.009128075
66	0x3bbe7fff	0.005813598
67	0xba306aca	-0.000672978
68	0x3b9de2d3	0.0048182993
69	0x3ca02b6c	0.019551955
70	0xbbc25294	-0.0059302542
71	0x3bc86e84	0.00611669
72	0xbc7477e8	-0.014921166
73	0x3ca70d3c	0.020392053
74	0xbc96fd43	-0.018431311
75	0xbc9e3090	-0.019310266
76	0x3bee2cac	0.007268509
77	0xbc1422f1	-0.009041534
78	0x39fda623	0.00048379702
79	0x3c8215a1	0.015879454
80	0x3bd9f64b	0.006651675
81	0xbbcd25dd	-0.006260617
82	0x3c7e9000	0.015537262
83	0xbc0609ae	-0.008181019
84	0xbc2fe6e4	-0.010736201
85	0xba9ca368	-0.0011950554
86	0x3ccf44af	0.025301306
87	0xbc5ca203	-0.013466361
88	0xbb915e1f	-0.004436269
89	0x3bfcf740	0.007719904
90	0xbb566ac5	-0.0032717448
91	0xbc19b69a	-0.0093819145
92	0x3b9f22ee	0.004856459
93	0x3a38cc9c	0.0007049532
94	0x3c208ab4	0.009798694
95	0xbbecd771	-0.007227831
96	0x3b0cb8cd	0.0021472455
97	0x3bd00678	0.0063484274
98	0x3c2dbf02	0.010604622
99	0xba9bcf10	-0.0011887271
100	0xba82e4b2	-0.0009986369
101	0x3b46ebcf	0.0030352955
102	0xbbf6f62b	-0.0075366697
103	0xbbf89173	-0.0075856983
104	0xb94afce0	-0.00019358424
105	0xbb946982	-0.004529179
106	0x3ab07b6a	0.0013464515
107	0x3bdfc402	0.006828786
108	0xbc2f8cc8	-0.010714717
109	0xbbc1e328	-0.0059169717
110	0x3aed95f7	0.0018126358
111	0xbbdfa8b1	-0.0068255295
112	0xbc2fe2f1	-0.010735259
113	0xbb3adbdc	-0.0028512394
114	0x3c2704d0	0.0101940185
115	0xbcb9d97e	-0.022686716
116	0x3c6294e6	0.0138294455
117	0x3c6fa46b	0.014626603
118	0xbbec41ff	-0.007210016
119	0xbb51eafe	-0.0032030935
120	0xba76671f	-0.00093995215
121	0x3b390c7c	0.00282362
122	0xbc1040e5	-0.008804535
123	0xb9d674f6	-0.00040904403
124	0x3c0f277f	0.008737444
125	0x3c5133b9	0.012768679
126	0xbc4dbdaf	-0.012557431
127	0xbb878da4	-0.004136758
128	0x3c8bc377	0.017060978
129	0xba32101f	-0.00067925634
130	0x3c6a5f9f	0.014305024
131	0xb96a9c77	-0.00022374267
132	0x3be0149f	0.0068383957
133	0x3c2d5720	0.010579854
134	0x3b104012	0.0022010845
135	0x3b10c50f	0.0022090112
136	0x3c299b0d	0.010351908
137	0xbc173a26	-0.009230172
138	0x3c1c66fd	0.009546039
139	0xbc85205c	-0.016250782
140	0xbb8df774	-0.004332477
141	0xba32f102	-0.0006826074
142	0xbaf9fe6d	-0.0019073017
143	0xbc1b11a0	-0.009464651
144	0xbaa6be85	-0.0012721574
145	0x3c2e5a5a	0.010641659
146	0x3bcdcc07	0.0062804255
147	0xbbc34d9e	-0.0059601804
148	0x3c437515	0.01192977
149	0xbb656ce4	-0.003500753
150	0x3cc8f7a1	0.024532141
151	0x3ba474c0	0.0050188005
152	0xbb613028	-0.0034360979
153	0xba51bc09	-0.00080007367
154	0x3c8fb631	0.01754293
155	0xbc8128c7	-0.015766514
156	0x3c87bd1d	0.016569668
157	0xbb436d31	-0.0029819722
158	0xbb810c4e	-0.0039382344
159	0x3baf0a60	0.005341813
160	0x3baa8c15	0.0052046874
161	0x3bb19081	0.0054188375
162	0x3bb5b1f2	0.0055448944
163	0xbbfc49a9	-0.0076992107
164	0xbbc401ab	-0.005981644
165	0xbb84bb95	-0.004050682
166	0x3c0e4923	0.008684429
167	0xbc7c50fd	-0.0154001685
168	0xbc6ae964	-0.014337871
169	0x3b34b0ce	0.0027571204
170	0x3b090bb9	0.0020911528
171	0x3c41327e	0.011791823
172	0xbadd80b8	-0.0016899323
173	0xbc033ed3	-0.008010584
174	0x3be26845	0.0069094026
175	0x3c632d44	0.013865773
176	0xb99333b2	-0.0002807654
177	0xbb2ab8ac	-0.0026050014
178	0xbbcf5f0d	-0.0063284696
179	0x3c6d01ac	0.014465731
180	0x3c864c9c	0.016393952
181	0x3b6f9eb8	0.003656311
182	0x3a6f88ae	0.00091374933
183	0xbc303e25	-0.010757004
184	0xbabd17b0	-0.0014426615
185	0x3b57b139	0.003291203
186	0x3c3e5c72	0.01161872
187	0xbc06b2ce	-0.008221341
188	0x3aa7d302	0.0012803974
189	0x3a9b39a7	0.0011842743
190	0x3be61d3d	0.0070225284
191	0x3b32d64b	0.0027288373
192	0x39825781	0.00024860728
193	0x3a56c081	0.00081921375
194	0xbc0139a2	-0.007887276
195	0xbb82b0c1	-0.003988356
196	0x3ad68e27	0.0016369269
197	0x3bb52bc5	0.0055288994
198	0x3d118f33	0.035536956
199	0x3c7cd9f9	0.015432828
200	0x3bb02742	0.0053757736
201	0xbc00883a	-0.007844979
202	0x3bb8636a	0.0056270855
203	0x3bbd3efb	0.00577533
204	0x3c59d57d	0.0132955285
205	0xbb9d08c6	-0.0047923056
206	0xbc71edb1	-0.014766143
207	0xbb131a66	-0.0022446155
208	0xbb0ff289	-0.002196463
209	0x3c678a6d	0.014132124
210	0x3b9181dd	0.0044405297
211	0xbca2e175	-0.019882897
212	0xbc02dccf	-0.007987215
213	0x3c230a5f	0.009951203
214	0x3bc6da17	0.006068479
215	0xbb558a41	-0.0032583626
216	0x3ad95756	0.0016581814
217	0xbc5c311a	-0.013439441
218	0xbc2893e9	-0.010289171
219	0x3c412c55	0.011790355
220	0xbb843941	-0.0040351455
221	0x3c49ac99	0.012309217
222	0x3a068feb	0.000513314
223	0xba9b01b1	-0.0011826066
224	0xbc25828b	-0.010101925
225	0x3bb75162	0.0055944184
226	0x3baf8a42	0.005357058
227	0xbb3e9819	-0.0029082356
228	0x3b5fb67c	0.0034135869
229	0xbcc3bf37	-0.02389489
230	0x3befb34a	0.007315074
231	0xbb18b923	-0.002330371
232	0x3c222c47	0.009898252
233	0x3bf423a0	0.007450536
234	0x3adf07f7	0.0017015924
235	0xbbf0150d	-0.007326728
236	0x3c46c92c	0.012132924
237	0xbc2cc103	-0.010544064
238	0x3c2380a8	0.0099794045
239	0xbca566e6	-0.020190667
240	0x3bd67f38	0.0065459274
241	0xb9b6206a	-0.00034737895
242	0x3c3340b4	0.010940719
243	0xbc1ff27f	-0.009762405
244	0x3c44f1f9	0.012020581
245	0x3c499cf6	0.012305489
246	0x3af7281d	0.0018856559
247	0xbc2dec6a	-0.010615448
248	0x3c7e8472	0.015534507
249	0x3c73a110	0.014869943
250	0x3c030a1a	0.007998014
251	0x3c5cba71	0.0134721855
252	0x3adadc83	0.0016697798
253	0xbbe14d85	-0.006875696
254	0xba423a02	-0.00074091565
255	0x39a3c289	0.00031234723

action_model._discrete_distribution.branches.0.bias f4 [3]
0	0xb9b220e9	-0.00033975326
1	0x3a8d73e4	0.0010791984
2	0xba63fe7c	-0.0008697284

exp_avg f4 [128, 8]
0	0xb891f020	-6.9588656e-05
1	0x3945cfde	0.0001886482
2	0xb90220d7	-0.0001241
3	0x3892cac2	6.999589e-05
4	0xb6832aa1	-3.909067e-06
5	0xb7d24c33	-2.5069434e-05
6	0x38ca916a	9.659196e-05
7	0x380158f8	3.0838855e-05
8	0xb81c21d5	-3.7224807e-05
9	0xb671a93b	-3.6010304e-06
10	0x35dcbfe0	1.644712e-06
11	0xb80560a5	-3.179968e-05
12	0xb70faf17	-8.5642305e-06
13	0xb8934eb2	-7.0241644e-05
14	0x378f25c2	1.706451e-05
15	0x379db351	1.879936e-05
16	0xb69c801e	-4.664077e-06
17	0xb795a1f8	-1.7837607e-05
18	0x37a12038	1.9207699e-05
19	0x3689839d	4.09824e-06
20	0xb739a44d	-1.10651135e-05
21	0x37466978	1.1826276e-05
22	0x37adbc3d	2.0710862e-05
23	0xb7161c9d	-8.947359e-06
24	0x377afe83	1.4960419e-05
25	0x376c271c	1.4075802e-05
26	0xb69f29e9	-4.7434482e-06
27	0x37a34e51	1.9467583e-05
28	0xb6d76fbe	-6.420508e-06
29	0x37167205	8.967244e-06
30	0xb6dcbb33	-6.578304e-06
31	0xb6d30eb3	-6.2900012e-06
32	0xb7e9fcff	-2.7893575e-05
33	0xb7ad4134	-2.065357e-05
34	0xb5cf66d3	-1.5452628e-06
35	0xb7a66432	-1.98354e-05
36	0x3733a524	1.0707681e-05
37	0xb7d17da3	-2.4973246e-05
38	0xb6f8c0c2	-7.413416e-06
39	0x36aa8814	5.0822364e-06
40	0xb7a7e4b2	-2.0014446e-05
41	0xb7858f90	-1.5921687e-05
42	0xb619258b	-2.282063e-06
43	0xb789e7d1	-1.643962e-05
44	0x3612ddf4	2.188489e-06
45	0xb818debc	-3.644706e-05
46	0x38129918	3.4951692e-05
47	0x383189b6	4.232834e-05
48	0xb68a6471	-4.1244134e-06
49	0xb8aa8650	-8.131249e-05
50	0x37451bef	1.1748619e-05
51	0xb8242920	-3.9138948e-05
52	0xb767522c	-1.3787805e-05
53	0x37ab5770	2.0425505e-05
54	0xb7a3cbc5	-1.9526002e-05
55	0xb7f498fc	-2.9158306e-05
56	0xb7a4e6af	-1.9657744e-05
57	0xb861954d	-5.3783227e-05
58	0xb85070f5	-4.9696264e-05
59	0xb7040509	-7.868985e-06
60	0xb6533224	-3.1470636e-06
61	0x36ca54a2	6.0299217e-06
62	0x388822a3	6.491437e-05
63	0x38a27c53	7.747919e-05
64	0xb8196b60	-3.6578043e-05
65	0x3710d7c7	8.633308e-06
66	0xb7a6282f	-1.9807454e-05
67	0xb79b962c	-1.854737e-05
68	0xb44dcaba	-1.9165864e-07
69	0xb7856703	-1.5902804e-05
70	0x35be0c05	1.4159601e-06
71	0xb6251c78	-2.4603487e-06
72	0x371d6312	9.380996e-06
73	0xb8728744	-5.7823272e-05
74	0x37526831	1.2541234e-05
75	0xb7ff159b	-3.040843e-05
76	0x35a92f5c	1.2605265e-06
77	0x381225f9	3.4844477e-05
78	0xb7f0187e	-2.8621635e-05
79	0xb8498d3f	-4.805368e-05
80	0x373721d3	1.0915525e-05
81	0xb8824543	-6.211784e-05
82	0x381c7cb6	3.7309444e-05
83	0xb80acd5d	-3.3093023e-05
84	0x366393d7	3.391169e-06
85	0x3702df78	7.800634e-06
86	0xb808f1cb	-3.2650114e-05
87	0xb8271732	-3.9837505e-05
88	0xb82955d8	-4.0372688e-05
89	0xb6574fb5	-3.2083892e-06
90	0xb7748182	-1.4573687e-05
91	0xb5dff64e	-1.6686479e-06
92	0xb6863138	-3.999241e-06
93	0xb7b3e39f	-2.1444457e-05
94	0x38225f8d	3.87128e-05
95	0x374fae6d	1.2378773e-05
96	0xb6b49938	-5.382255e-06
97	0xb79fc35e	-1.9045252e-05
98	0x36d06ae1	6.2113254e-06
99	0xb78caab8	-1.6768798e-05
100	0x34c65eab	3.6949254e-07
101	0xb7cacaa0	-2.4174631e-05
102	0x37e8ad83	2.7737353e-05
103	0x382a8b21	4.0660732e-05
104	0x36f0ca9b	7.1761438e-06
105	0xb8415351	-4.609238e-05
106	0x37a40f90	1.955757e-05
107	0xb82996ef	-4.0433308e-05
108	0x36a43288	4.8934635e-06
109	0xb74bfc58	-1.2158496e-05
110	0xb79b346a	-1.8501847e-05
111	0xb7c819ec	-2.3853929e-05
112	0xb785a4af	-1.5931522e-05
113	0x377f2234	1.5207148e-05
114	0xb8388a77	-4.3997974e-05
115	0x372541a8	9.850053e-06
116	0xb6800887	-3.81569e-06
117	0x374f9d12	1.2374732e-05
118	0x3707930b	8.080863e-06
119	0x3800aeee	3.0680494e-05
120	0x37845010	1.5772908e-05
121	0xb80cb974	-3.3551318e-05
122	0x36d6c74a	6.4008973e-06
123	0xb7ee2135	-2.8387274e-05
124	0x3734397f	1.0742223e-05
125	0xb474f022	-2.281163e-07
126	0xb71b12ea	-9.243124e-06
127	0x3785e965	1.5963518e-05
128	0xb7640a36	-1.3592236e-05
129	0xb83c6707	-4.4918645e-05
130	0x35a2f2ad	1.2140569e-06
131	0xb82aabe4	-4.0691244e-05
132	0x37891714	1.634242e-05
133	0xb7dc3954	-2.625274e-05
134	0x36d37ca0	6.3027983e-06
135	0xb794b4fe	-1.7727256e-05
136	0xb720df01	-9.588665e-06
137	0x371540ac	8.89615e-06
138	0xb81a4e69	-3.6789486e-05
139	0xb6ae981e	-5.203313e-06
140	0x3608779f	2.0335208e-06
141	0x38427dda	4.6370413e-05
142	0x34e788b5	4.312657e-07
143	0xb6c280dd	-5.796652e-06
144	0x35f8a4fa	1.8525454e-06
145	0xb705f7a4	-7.985076e-06
146	0xb7888d82	-1.6278358e-05
147	0x35e63428	1.7151515e-06
148	0x3684690a	3.9461347e-06
149	0x377137cd	1.43777115e-05
150	0x37c08d9c	2.2954126e-05
151	0x384580ab	4.708829e-05
152	0x382f8352	4.1845553e-05
153	0xb7c89b40	-2.3914152e-05
154	0x37f550d6	2.9243918e-05
155	0xb7aa2d2b	-2.0286612e-05
156	0x3722027d	9.656532e-06
157	0x38dc63f2	0.00010509034
158	0xb8a5e1cf	-7.909873e-05
159	0xb827e712	-4.0031104e-05
160	0x38130532	3.505237e-05
161	0x380fc206	3.4274555e-05
162	0x37e55e8e	2.7342958e-05
163	0x37908aff	1.7230863e-05
164	0xb6320f73	-2.653306e-06
165	0x3765fc33	1.3708183e-05
166	0x36745246	3.6406723e-06
167	0x352e51b0	6.493892e-07
168	0x37abd9d3	2.048622e-05
169	0x37c22119	2.3142014e-05
170	0x379d31a9	1.8738983e-05
171	0x378b081f	1.6573873e-05
172	0xb571c5bf	-9.0067255e-07
173	0x373ff4a8	1.1441451e-05
174	0xb71a25f9	-9.1879565e-06
175	0xb7920086	-1.74048e-05
176	0xb709c26d	-8.211105e-06
177	0xb6be2da5	-5.667755e-06
178	0xb77a8f68	-1.4934551e-05
179	0x3729ef03	1.0128834e-05
180	0xb5cb4419	-1.5144498e-06
181	0x36a1db04	4.8236707e-06
182	0x36d1d1fb	6.2531303e-06
183	0x3869ad8e	5.5713164e-05
184	0xb84a074e	-4.8167356e-05
185	0xb857db50	-5.1464245e-05
186	0xb7b7002b	-2.1815378e-05
187	0xb88feed2	-6.863255e-05
188	0x368b1b84	4.145726e-06
189	0xb8064725	-3.2014348e-05
190	0xb84c2f7a	-4.8681606e-05
191	0xb7eefea7	-2.8490393e-05
192	0xb71af2bf	-9.235634e-06
193	0xb84e58c9	-4.9196915e-05
194	0xb6314521	-2.6415294e-06
195	0xb85edf1f	-5.3136722e-05
196	0xb5a9666c	-1.262129e-06
197	0xb786d135	-1.6071464e-05
198	0x370a4ce5	8.243344e-06
199	0x37adb905	2.0709364e-05
200	0xb7b3fde1	-2.1456684e-05
201	0x37cd744f	2.4492065e-05
202	0xb87409eb	-5.818337e-05
203	0x37f48b30	2.915188e-05
204	0xb6a6793a	-4.961298e-06
205	0x381d774d	3.7542824e-05
206	0x37bd7239	2.2583745e-05
207	0x38aed3e1	8.336432e-05
208	0xb73f92b5	-1.1418645e-05
209	0xb7c4c115	-2.3454932e-05
210	0xb786f3e9	-1.6087624e-05
211	0xb7adb8b1	-2.070921e-05
212	0x36150078	2.2203003e-06
213	0x35ad6662	1.2919302e-06
214	0x3514d2c7	5.544102e-07
215	0x37b5f11a	2.1689153e-05
216	0xb82ab05d	-4.069541e-05
217	0xb888257c	-6.491967e-05
218	0x36d17e70	6.2434046e-06
219	0xb83c1783	-4.484459e-05
220	0xb53ee0f6	-7.1107877e-07
221	0xb7a7288e	-1.9926836e-05
222	0xb79990a8	-1.8306382e-05
223	0xb81bfc72	-3.7189988e-05
224	0x36059ca9	1.9909733e-06
225	0x384f7078	4.945739e-05
226	0xb7b57869	-2.1632952e-05
227	0x381c1c87	3.7219866e-05
228	0xb707cc56	-8.094203e-06
229	0x370eb64c	8.506304e-06
230	0x384300f4	4.649251e-05
231	0x3831639a	4.229285e-05
232	0x380f45a6	3.4158722e-05
233	0x380ccbb3	3.356831e-05
234	0x3763c33d	1.3575712e-05
235	0x3840d573	4.5975157e-05
236	0x365c74cb	3.2850537e-06
237	0xb5185d09	-5.6759797e-07
238	0x37b246cb	2.1252219e-05
239	0x372e665c	1.0395041e-05
240	0x3516c9cc	5.617301e-07
241	0xb841ffff	-4.62532e-05
242	0x343cd234	1.7585336e-07
243	0xb80766b9	-3.2282176e-05
244	0x36452eac	2.9382454e-06
245	0xb7511507	-1.2462267e-05
246	0x37f48379	2.9148288e-05
247	0x37a62dd3	1.981008e-05
248	0xb8115f8c	-3.465968e-05
249	0x38768bfe	5.878135e-05
250	0xb846acb2	-4.7367714e-05
251	0x383d8365	4.5183482e-05
252	0xb735d0e7	-1.083708e-05
253	0xb74e0c7a	-1.2281462e-05
254	0x38750d65	5.8425027e-05
255	0x380557d6	3.1791475e-05

exp_avg_sq f4 [128, 8]
0	0x3181edc7	3.7814263e-09
1	0x3179a93b	3.6330465e-09
2	0x3157911c	3.1369103e-09
3	0x30cdeb33	1.4982561e-09
4	0x2fbb5aac	3.4079528e-10
5	0x3143fefa	2.8521172e-09
6	0x3156cbbe	3.1256913e-09
7	0x31280a68	2.4453133e-09
8	0x30c3f4b8	1.4257671e-09
9	0x30a437a5	1.1948386e-09
10	0x30ec9e2d	1.7216216e-09
11	0x304a11f1	7.351267e-10
12	0x2f652d14	2.0843444e-10
13	0x3088770d	9.929139e-10
14	0x3092352e	1.0638013e-09
15	0x309be2fd	1.1342248e-09
16	0x2fa43c83	2.9874422e-10
17	0x2fb67476	3.3188358e-10
18	0x2f8b5c99	2.5349747e-10
19	0x2f808e3b	2.3384125e-10
20	0x2e4df7c1	4.6831653e-11
21	0x2f5a59d5	1.9858899e-10
22	0x2fb7e042	3.344685e-10
23	0x2f9f3952	2.896266e-10
24	0x2f6b8157	2.1419076e-10
25	0x2f938fd6	2.6841346e-10
26	0x2f86b4ba	2.4502872e-10
27	0x2f39d917	1.6902778e-10
28	0x2e0ffd30	3.273931e-11
29	0x2f78a963	2.2615647e-10
30	0x2f3f42ed	1.7395126e-10
31	0x2f474ec7	1.8126932e-10
32	0x309e8245	1.1533038e-09
33	0x30dd792a	1.6114303e-09
34	0x30b61baa	1.3250105e-09
35	0x3039ad2d	6.7548706e-10
36	0x2f435572	1.7765503e-10
37	0x30735a6a	8.853137e-10
38	0x3096fddd	1.0986089e-09
39	0x3083e5f7	9.596864e-10
40	0x314394d3	2.8460831e-09
41	0x3116052e	2.1830817e-09
42	0x3133fa8f	2.6190354e-09
43	0x30d9d9d3	1.5850737e-09
44	0x2ff5276e	4.4593257e-10
45	0x310b5a04	2.027833e-09
46	0x3115caeb	2.17977e-09
47	0x31117571	2.1167035e-09
48	0x3096fee3	1.098638e-09
49	0x30d85f5e	1.5743173e-09
50	0x306b2a6d	8.555279e-10
51	0x3025a6f5	6.026391e-10
52	0x2f2a0dd3	1.5466321e-10
53	0x3064e426	8.3270135e-10
54	0x308b33ff	1.0128359e-09
55	0x3086774c	9.783689e-10
56	0x31aa7514	4.9609614e-09
57	0x319bc795	4.5337836e-09
58	0x31ba1a84	5.416327e-09
59	0x312eede4	2.5455558e-09
60	0x305919b5	7.898067e-10
61	0x3181c712	3.777026e-09
62	0x317c3436	3.6700505e-09
63	0x31987cc8	4.437968e-09
64	0x30159509	5.4417676e-10
65	0x2ff0a919	4.3775897e-10
66	0x2fd64410	3.8974735e-10
67	0x2f779566	2.2517596e-10
68	0x2e487ca5	4.558544e-11
69	0x2ffa37fd	4.5514517e-10
70	0x2fd01f2a	3.7857123e-10
71	0x2fb9c670	3.3792302e-10
72	0x3068650e	8.4544716e-10
73	0x30961547	1.0919984e-09
74	0x3059c9de	7.923101e-10
75	0x3034957d	6.5696054e-10
76	0x2f1976fe	1.3957543e-10
77	0x30393161	6.737278e-10
78	0x308dc843	1.0316018e-09
79	0x30642041	8.299175e-10
80	0x300d75b6	5.146278e-10
81	0x30208e1a	5.84096e-10
82	0x300c78ee	5.1103555e-10
83	0x2fa7f4c4	3.055104e-10
84	0x2ea73be0	7.604917e-11
85	0x2fe2bc93	4.124315e-10
86	0x3025443d	6.012362e-10
87	0x30093fff	4.9931254e-10
88	0x3100295a	1.8649957e-09
89	0x30b596a9	1.3212303e-09
90	0x3104fda8	1.9352715e-09
91	0x309fbfff	1.1623341e-09
92	0x2f923947	2.6597943e-10
93	0x30b97bbc	1.3495689e-09
94	0x30c62a1d	1.4418365e-09
95	0x30cf663f	1.5090292e-09
96	0x31060a51	1.950543e-09
97	0x310dc55a	2.0630382e-09
98	0x311441b9	2.1574194e-09
99	0x30d06013	1.5161298e-09
100	0x2fc3542a	3.5530096e-10
101	0x30ed9fd7	1.7289449e-09
102	0x30dd6ac0	1.6110207e-09
103	0x30c70d06	1.4482857e-09
104	0x2fb7c9c2	3.3430864e-10
105	0x2fbf9dc9	3.485481e-10
106	0x2faee8ed	3.181592e-10
107	0x2f8e7e99	2.5919603e-10
108	0x2e160f20	3.4119485e-11
109	0x2f938b41	2.683809e-10
110	0x2f966c75	2.7361904e-10
111	0x2f973280	2.7502622e-10
112	0x2f476836	1.8135968e-10
113	0x2f3e5da7	1.7313671e-10
114	0x2f4e48eb	1.8761497e-10
115	0x2edeaca3	1.01260576e-10
116	0x2e0ed0a5	3.2472375e-11
117	0x2f3ecc2d	1.7352937e-10
118	0x2f3190ad	1.6149455e-10
119	0x2f252fd5	1.5023656e-10
120	0x2ffda3d6	4.6136844e-10
121	0x2fda554d	3.971458e-10
122	0x2fe14f17	4.0983458e-10
123	0x2f95871f	2.7198951e-10
124	0x2eba58cb	8.4740735e-11
125	0x2fbfe55d	3.490567e-10
126	0x300165af	4.707443e-10
127	0x2ff8030c	4.5113102e-10
128	0x309c9584	1.1392989e-09
129	0x30c4a95c	1.4309012e-09
130	0x30a6b029	1.2128157e-09
131	0x3056ffb3	7.8216117e-10
132	0x2f63d5e8	2.0721524e-10
133	0x30a712fe	1.2156247e-09
134	0x309a24d1	1.1215439e-09
135	0x30a0b2e3	1.1692375e-09
136	0x310dcbf8	2.0634143e-09
137	0x3101c8b3	1.8886055e-09
138	0x3101861a	1.8848199e-09
139	0x30d2590a	1.5304817e-09
140	0x2fa1d887	2.943958e-10
141	0x30fa6663	1.8218994e-09
142	0x30c90097	1.4624842e-09
143	0x30c2c0ff	1.4170211e-09
144	0x3087edc8	9.890124e-10
145	0x307694b6	8.970561e-10
146	0x308b14a6	1.011945e-09
147	0x303baab2	6.8272776e-10
148	0x2f4196f2	1.7606874e-10
149	0x305664cb	7.799598e-10
150	0x305e3581	8.0839163e-10
151	0x3068cc03	8.4691026e-10
152	0x3161ccce	3.2858227e-09
153	0x318c05a6	4.0751784e-09
154	0x318725fc	3.9333354e-09
155	0x312920fb	2.4611484e-09
156	0x3010e4d7	5.2712096e-10
157	0x31511ee6	3.0431067e-09
158	0x31589a5f	3.1519887e-09
159	0x3154c7fa	3.0963734e-09
160	0x308f9178	1.0445964e-09
161	0x30682779	8.44572e-10
162	0x308193f8	9.428041e-10
163	0x300ea618	5.189533e-10
164	0x2f206816	1.4588894e-10
165	0x306cc39f	8.6134294e-10
166	0x30525fde	7.653379e-10
167	0x306548ba	8.3413065e-10
168	0x30223fc9	5.90259e-10
169	0x30099c66	5.0062565e-10
170	0x3023aee5	5.9547595e-10
171	0x2fa3a62a	2.9767594e-10
172	0x2eacee6d	7.8640074e-11
173	0x2feecac6	4.3436027e-10
174	0x2fd77db8	3.91976e-10
175	0x3000ef9a	4.6906623e-10
176	0x309667c0	1.0943424e-09
177	0x30ae3845	1.2676159e-09
178	0x30a51cfb	1.2013567e-09
179	0x305f2349	8.117707e-10
180	0x2f61eccf	2.0547762e-10
181	0x3095f242	1.0910031e-09
182	0x3078d510	9.0524654e-10
183	0x30966b3f	1.0944418e-09
184	0x30b16f41	1.2910065e-09
185	0x30c8dec0	1.4615225e-09
186	0x30ba540c	1.3557169e-09
187	0x30856064	9.70442e-10
188	0x2f34c3be	1.6440446e-10
189	0x307467c9	8.891417e-10
190	0x30af90e5	1.2774107e-09
191	0x308bbe23	1.0167621e-09
192	0x30908fde	1.0518268e-09
193	0x30c17ec7	1.407863e-09
194	0x30b11e72	1.2887098e-09
195	0x304ddd88	7.489338e-10
196	0x2f0fd806	1.3082521e-10
197	0x306ca47c	8.6090046e-10
198	0x30835f5d	9.558608e-10
199	0x308bd53f	1.0174189e-09
200	0x30c6ae2d	1.44559e-09
201	0x30c086dc	1.4008168e-09
202	0x30bd7052	1.3783483e-09
203	0x305edf3a	8.1080354e-10
204	0x2f6de7c1	2.163736e-10
205	0x3094cb57	1.082621e-09
206	0x3087ae5d	9.8721e-10
207	0x30cbbdfe	1.4824193e-09
208	0x30603087	8.1559687e-10
209	0x30311431	6.442092e-10
210	0x3043bdb0	7.121015e-10
211	0x2fe21962	4.1127196e-10
212	0x2efad287	1.1406081e-10
213	0x301018ed	5.2422316e-10
214	0x3026671e	6.0536987e-10
215	0x3018177a	5.533064e-10
216	0x3087e9d8	9.889005e-10
217	0x30a3e267	1.1924158e-09
218	0x30820f62	9.463117e-10
219	0x30102dca	5.2451965e-10
220	0x2f0db41b	1.2887862e-10
221	0x302b4021	6.230057e-10
222	0x306cf7fb	8.62087e-10
223	0x304f4f10	7.5418516e-10
224	0x307bdc6a	9.1626495e-10
225	0x309bdc4b	1.1340345e-09
226	0x30634d6f	8.269216e-10
227	0x3030bd8f	6.4297806e-10
228	0x2ef08f8e	1.0939437e-10
229	0x305fbb17	8.13928e-10
230	0x3086b3d0	9.800889e-10
231	0x303f53f1	6.9604683e-10
232	0x30a4f0ad	1.2000975e-09
233	0x309bdd3d	1.1340614e-09
234	0x308e0ff4	1.0336394e-09
235	0x303cf9ea	6.874915e-10
236	0x2ef78d8e	1.1257405e-10
237	0x3061b7d2	8.211575e-10
238	0x303b6706	6.817661e-10
239	0x3038d628	6.7243144e-10
240	0x30955c02	1.0867327e-09
241	0x30a90b8d	1.2299651e-09
242	0x30a377e8	1.189389e-09
243	0x3052755b	7.6564327e-10
244	0x2f464982	1.803411e-10
245	0x3076ca75	8.978199e-10
246	0x3099a931	1.1180302e-09
247	0x308058f3	9.338507e-10
248	0x308cf56a	1.0256092e-09
249	0x30804399	9.332438e-10
250	0x307a8901	9.1144164e-10
251	0x3022bd73	5.920448e-10
252	0x2f13df17	1.344883e-10
253	0x30514256	7.6128026e-10
254	0x306e13c3	8.661198e-10
255	0x30652c2d	8.337249e-10

exp_avg f4 [128]
0	0xb90beb22	-0.00013343667
1	0xb85babaf	-5.237356e-05
2	0x37740a11	1.4545877e-05
3	0xb7bc5369	-2.2450187e-05
4	0x37fc95bd	3.0110468e-05
5	0xb7d7a176	-2.5705183e-05
6	0x38759a1c	5.8556077e-05
7	0x37807edc	1.5317863e-05
8	0x350b3a98	5.18668e-07
9	0x3865e143	5.4807646e-05
10	0x38721ffa	5.7727077e-05
11	0xb803c679	-3.1417676e-05
12	0xb6557796	-3.1809082e-06
13	0x381fb5b8	3.8077793e-05
14	0xb7e3739f	-2.7114349e-05
15	0x38017d10	3.087247e-05
16	0x3841c566	4.6198627e-05
17	0x38098c26	3.279387e-05
18	0xb69c9940	-4.667003e-06
19	0x387a64f8	5.969868e-05
20	0xb6882436	-4.0573314e-06
21	0xb6528254	-3.13683e-06
22	0xb7a9027a	-2.0147523e-05
23	0x38298392	4.0415274e-05
24	0x3833a960	4.283467e-05
25	0xb893827f	-7.033813e-05
26	0x378dd283	1.6906537e-05
27	0x385fc889	5.3354106e-05
28	0xb8218216	-3.8506543e-05
29	0xb823b119	-3.9027163e-05
30	0x38099729	3.2804124e-05
31	0xb8ac5cc3	-8.218877e-05
32	0x381b9787	3.7096e-05
33	0xb7908c8b	-1.7231583e-05
34	0x37db4760	2.6140071e-05
35	0x3880288e	6.1110695e-05
36	0x38688e96	5.5445904e-05
37	0xb813c552	-3.52313e-05
38	0xb814a9d7	-3.5444125e-05
39	0xb837a1e2	-4.3781365e-05
40	0x3929d8b2	0.00016197821
41	0xb93e8d14	-0.00018172368
42	0xb7c6e8ba	-2.3711811e-05
43	0x38186545	3.633394e-05
44	0xb75bfb3c	-1.3111912e-05
45	0x37ea2cca	2.791583e-05
46	0x37f860b3	2.9608933e-05
47	0x371b23db	9.247068e-06
48	0x3783689d	1.5665131e-05
49	0x3820a762	3.830286e-05
50	0xb811c195	-3.475098e-05
51	0x37bdde05	2.2633942e-05
52	0xb7ce2035	-2.4572111e-05
53	0x37d21588	2.5043977e-05
54	0x38264936	3.9645667e-05
55	0x37625eb2	1.3492698e-05
56	0x38764210	5.8712496e-05
57	0xb8b250ff	-8.502788e-05
58	0xb8d1f9a1	-0.000100123936
59	0x37fd6ffb	3.0212095e-05
60	0xb78a2bbe	-1.6471251e-05
61	0x36b38d8b	5.3510935e-06
62	0xb8b8285b	-8.7813205e-05
63	0x38a109ca	7.6789016e-05
64	0x3821c109	3.856517e-05
65	0x38d4414e	0.00010121112
66	0x382f71e6	4.1829328e-05
67	0xb7d4215a	-2.52879e-05
68	0x381243b3	3.4872162e-05
69	0x3755b01c	1.2736793e-05
70	0xb7e87562	-2.7711216e-05
71	0x382ac453	4.0714e-05
72	0xb81834f3	-3.6288937e-05
73	0xb75a58a0	-1.3014447e-05
74	0xb78d60a7	-1.6853517e-05
75	0xb7bf9c10	-2.2841647e-05
76	0x383091e9	4.209756e-05
77	0xb7d9da6d	-2.5970128e-05
78	0x381ba709	3.7110443e-05
79	0xb77657b5	-1.46831635e-05
80	0xb7afe674	-2.0968939e-05
81	0xb8545dc2	-5.0632058e-05
82	0xb7943eb1	-1.7672168e-05
83	0xb849a9e4	-4.8080357e-05
84	0x3453a997	1.9712603e-07
85	0xb790e251	-1.7271524e-05
86	0xb7eeeebe	-2.8482984e-05
87	0xb76b8626	-1.4038325e-05
88	0xb86c0ab7	-5.6276764e-05
89	0xb853821b	-5.042749e-05
90	0x389092d2	6.8938025e-05
91	0x37d3e7b6	2.5261059e-05
92	0x3804ecca	3.169178e-05
93	0x383b36ea	4.4635417e-05
94	0xb87a9af5	-5.974896e-05
95	0x3742e74f	1.1617157e-05
96	0xb8142f75	-3.5330148e-05
97	0x3840e6df	4.5991383e-05
98	0x382f146d	4.1742274e-05
99	0xb67ddb74	-3.7827676e-06
100	0x377d9e29	1.51168e-05
101	0x380bfb7c	3.3374396e-05
102	0xb8102c5e	-3.4373596e-05
103	0x37f73320	2.9468501e-05
104	0x37010bf0	7.691779e-06
105	0xb829d0de	-4.0487263e-05
106	0xb83484e7	-4.303912e-05
107	0x37ff0910	3.0402589e-05
108	0x375b55e3	1.3073414e-05
109	0x38791d58	5.9393555e-05
110	0x387d31c2	6.036624e-05
111	0x3837eb2b	4.3849617e-05
112	0xb72119e9	-9.6023805e-06
113	0x360055c3	1.9123406e-06
114	0xb8a6d76a	-7.955621e-05
115	0x38c8c225	9.5729054e-05
116	0xb615d0a2	-2.232417e-06
117	0x380c6008	3.3468037e-05
118	0x38993d86	7.307068e-05
119	0x38cbadd4	9.712172e-05
120	0x37c8f4eb	2.3955907e-05
121	0xb848ddbb	-4.789022e-05
122	0x3866d790	5.503703e-05
123	0xb83e2549	-4.5334255e-05
124	0x380b8e2b	3.3272587e-05
125	0xb8b59407	-8.658325e-05
126	0xb7f961a1	-2.9728575e-05
127	0x381c8569	3.7317546e-05
