results/BTB_v2/Pong/Pong-171456.onnx (onnx, 75505 bytes, 8 tensors)

network_body.observation_encoder.processors.0.normalizer.running_mean f4 [8]
0	0x3dcf30b3	0.101167105
1	0x3d97dd49	0.07415254
2	0x3cb12361	0.021623315
3	0xbc3443b6	-0.011002472
4	0x3e95b775	0.2924153
5	0xbe89697f	-0.268383
6	0x3e99bca0	0.30026722
7	0x3effff9f	0.4999971

network_body._body_endoder.seq_layers.0.weight f4 [128, 8]
0	0xbdf77a0f	-0.12083828
1	0xbed00003	-0.4062501
2	0xbe22d14d	-0.15900154
3	0xbe88a5af	-0.26688907
4	0x3f0e3c44	0.5556071
5	0xbf26221c	-0.64895797
6	0xbcfe1a6a	-0.031018455
7	0xbeb5487c	-0.35406864
8	0xbe2d420f	-0.1691973
9	0x3eddd8f9	0.433296
10	0x3c0c967f	0.008580803
11	0x3dadad94	0.08480373
12	0x3e713ab5	0.23557551
13	0xbef8b278	-0.4857366
14	0xbdc443a0	-0.09583211
15	0x3ef7e23d	0.48414794
16	0xbcf06f4a	-0.029349942
17	0x3ea7cff5	0.32775846
18	0x3d7dd123	0.061967026
19	0x3e334975	0.1750849
20	0x3d938896	0.07203786
21	0xbdb1b775	-0.0867757
22	0xbe21d94a	-0.15805545
23	0x3c927072	0.017875884
24	0xbf0292ad	-0.5100506
25	0xbf4310ce	-0.76197517
26	0x3dd3bc9d	0.103387095
27	0xbd3c85b1	-0.046025936
28	0x3dc313e7	0.095252804
29	0xbd9ac11d	-0.07556365
30	0xbf0138d3	-0.5047733
31	0x3e0cc973	0.13748722
32	0x3de98c40	0.11403704
33	0x3ecee788	0.4041102
34	0xbe92d77d	-0.2868003
35	0xbf1026ad	-0.56309015
36	0x3b150832	0.002274048
37	0x3f4a3fa0	0.79003334
38	0xbdb4e26c	-0.08832249
39	0xbf4a5fbc	-0.7905233
40	0x3f237e73	0.6386482
41	0xbc14993b	-0.009069736
42	0xbedc845a	-0.43069726
43	0xbe62e555	-0.22157796
44	0xbef64e2c	-0.48106515
45	0xbed4589b	-0.4147385
46	0x3d8a901b	0.06765767
47	0x3de58f3e	0.11208962
48	0xbf1c7b64	-0.6112578
49	0x3e686021	0.2269292
50	0x3d9cc404	0.076545745
51	0x3dee6805	0.11640934
52	0x3e355bd7	0.17710815
53	0x3f1b03c1	0.60552603
54	0x3e5286a2	0.20559171
55	0x3f29fbbb	0.66399735
56	0x3eb697cf	0.35662696
57	0xbf128a17	-0.5724196
58	0x3e4c3db5	0.19945414
59	0xbd42e303	-0.047579776
60	0x3daa8613	0.08326354
61	0xbe9a4da6	-0.30137366
62	0xbeaf41d0	-0.34229898
63	0xbe48689d	-0.19571157
64	0x3e4d7dfb	0.20067589
65	0x3e6b0ab3	0.229533
66	0x3ee0df34	0.4392029
67	0x3f54e702	0.8316499
68	0xbdd3989d	-0.10331843
69	0x3e61b224	0.22040612
70	0x3e0e7cb0	0.13914752
71	0x3e54601d	0.2073979
72	0x3f4089b1	0.752101
73	0x3d528f77	0.05140635
74	0x3dc9331d	0.09824202
75	0x3d109d88	0.035306484
76	0xbf2c055c	-0.6719568
77	0x3d5ef667	0.054434206
78	0xbf5df98a	-0.8670889
79	0xbe87c3ea	-0.26516658
80	0x3e9f2853	0.31085452
81	0x3e000a19	0.12503852
82	0xbef0cc93	-0.47031078
83	0x3df93589	0.12168414
84	0xbd47dc3a	-0.04879401
85	0xbebebfe4	-0.37255776
86	0x3e1d15ca	0.15340343
87	0xbe4d3532	-0.20039824
88	0xbf5f4fff	-0.8723144
89	0xbdabbee3	-0.08386018
90	0xbf262420	-0.6489887
91	0x3eb2c161	0.3491316
92	0x3e352296	0.17688975
93	0xbd35815e	-0.044312827
94	0x3bc466cf	0.005993701
95	0xbf1d120e	-0.61355674
96	0xbeae6d1f	-0.34067628
97	0xbe54cb08	-0.20780575
98	0x3f774863	0.9659483
99	0x3e8a3740	0.26995277
100	0x3d7e72a7	0.06212106
101	0xbecb771c	-0.3973931
102	0xbf3f64b9	-0.74763066
103	0xbe577779	-0.21041669
104	0xbe74a148	-0.23889649
105	0x3ee06305	0.43825546
106	0x3ce60099	0.028076457
107	0x3e8f590c	0.27997625
108	0xbeab26ca	-0.3342803
109	0xbef6188b	-0.480656
110	0xbeecb35e	-0.46230596
111	0xbf24c700	-0.6436615
112	0x3e1cd388	0.15315068
113	0xbe9e3143	-0.3089696
114	0x3e8314df	0.2560186
115	0xbe483d83	-0.19554715
116	0x3e6021be	0.21887872
117	0x3d8de503	0.06928446
118	0x3ef829c9	0.4846938
119	0xbf53e207	-0.82766765
120	0x3f454b57	0.77068084
121	0xbdd6853b	-0.104746304
122	0x3ee60304	0.44924176
123	0x3eb123a8	0.34597516
124	0x3deb24aa	0.114816025
125	0xbebc72cb	-0.3680633
126	0xbeae7386	-0.34072512
127	0x3e9a9bb8	0.3019693
128	0x3e679e23	0.22618918
129	0x3f80ef47	1.0073022
130	0xbeeb27a3	-0.45928678
131	0xbe996d0f	-0.29966018
132	0x3e8a4ae9	0.27010277
133	0xbe803bec	-0.25045717
134	0xbd21a83e	-0.03946709
135	0xbf032dfe	-0.51242054
136	0xbe1d327f	-0.15351294
137	0xbdebfc7d	-0.11522768
138	0xbd72df8b	-0.05929522
139	0xbd196228	-0.037447125
140	0xbdfa29d3	-0.122150086
141	0x3e3f6a47	0.18692885
142	0x3effd6ce	0.4996857
143	0x3eb31205	0.34974685
144	0xbe6c1e7b	-0.23058502
145	0x3f07c9e5	0.5304244
146	0xbf019bd7	-0.5062842
147	0x3e2bbcec	0.16771287
148	0xbf486e79	-0.7829357
149	0x3e2be1d5	0.16785367
150	0x3dd6b982	0.104846016
151	0xbe0268fc	-0.12735361
152	0x3e7203e0	0.2363429
153	0x3f10b43e	0.5652503
154	0x3da56bc7	0.080771975
155	0x3dafd9a6	0.08586435
156	0xbdbffe16	-0.09374635
157	0x3f264b12	0.649583
158	0x3d73667e	0.059423916
159	0x3ef92d9d	0.48667613
160	0x3e9d4935	0.30719915
161	0xbe412394	-0.18861228
162	0xbe1515a4	-0.14559036
163	0x3e16eff6	0.14739975
164	0xbe1e5632	-0.15462568
165	0xbe53c92d	-0.20682211
166	0xbe959674	-0.2921635
167	0x3d60c6ef	0.054877218
168	0xbeeb81c6	-0.45997447
169	0xbe64287e	-0.22281072
170	0xbed17e2e	-0.4091658
171	0x3d5897ba	0.052879073
172	0x3f3368e4	0.70081925
173	0x3e5954d1	0.21223761
174	0xbe08ff5b	-0.1337866
175	0x3f2cc121	0.6748219
176	0x3f33c203	0.70217913
177	0x3d3a6370	0.045504987
178	0x3c4960a1	0.0122911045
179	0xbee3babe	-0.4447841
180	0x3e4f1c36	0.20225605
181	0xbed1a407	-0.40945455
182	0xbdd56c01	-0.10420991
183	0x3ed2a882	0.41144186
184	0x3eb662b9	0.35622194
185	0x3ec8e273	0.39235267
186	0x3d7df3b2	0.061999984
187	0x3f801d55	1.0008951
188	0x3dc23605	0.0948296
189	0xbe134341	-0.14381124
190	0x3ed1128d	0.40834466
191	0xbafc5fd9	-0.0019254639
192	0x3e62598a	0.22104469
193	0x3e9ba9d9	0.3040302
194	0x3e4a56e3	0.19759707
195	0x3da1b030	0.07894933
196	0x3e3273fa	0.17427054
197	0x3ed05198	0.4068725
198	0xbe6b070e	-0.2295191
199	0xbd8e2683	-0.06940939
200	0xbcb5d6d0	-0.022197157
201	0xbe901d52	-0.2814737
202	0xbc408a8e	-0.011751784
203	0xbe5cfa67	-0.21579896
204	0xbe01e4e4	-0.12684971
205	0xbf2ca25d	-0.67435247
206	0xbe85d642	-0.26140028
207	0xbe423e32	-0.18969038
208	0xbed41981	-0.41425708
209	0xbe29fbc0	-0.16599941
210	0x3e21a575	0.15785773
211	0xbed20ac8	-0.4102385
212	0x3dab606f	0.083680026
213	0xbe4d871b	-0.2007107
214	0xbed82a4b	-0.42219767
215	0x3d7725b3	0.060338687
216	0xbe8e4d37	-0.27793285
217	0xbe8056f3	-0.25066337
218	0xbec05177	-0.37562153
219	0x3ca15648	0.019694462
220	0xbec305ec	-0.38090456
221	0xbecbbd75	-0.39792982
222	0xbebb0634	-0.3652817
223	0x3d5aa766	0.0533823
224	0x3e01b520	0.1266675
225	0x3e433f42	0.190671
226	0x3cae53d2	0.021280203
227	0x3f343bd2	0.7040378
228	0x3dd2e253	0.10297074
229	0xbceffe93	-0.029296195
230	0xbe9441d4	-0.28956473
231	0xbd459af9	-0.048243497
232	0xbed47563	-0.4149581
233	0xbed25106	-0.4107744
234	0x3ec91cab	0.39279684
235	0xbe0f30a3	-0.13983397
236	0x3ec7b384	0.39004147
237	0x3e5085d5	0.20363553
238	0xbc6f2cdf	-0.0145981
239	0x3def5cd8	0.116876304
240	0x3e874467	0.26419374
241	0x3f201322	0.62529194
242	0x3db5e4a7	0.088815026
243	0xbd9b6891	-0.07588304
244	0xbce812c8	-0.028329268
245	0xbd2dba37	-0.042413916
246	0xbe300b65	-0.17191847
247	0x3f27bf4a	0.6552626
248	0xbe3e3faf	-0.18578981
249	0x3ef33c27	0.4750683
250	0xbece059c	-0.40238655
251	0x3dc6a1f1	0.096988566
252	0xbd10086f	-0.035164293
253	0x3e0051da	0.12531224
254	0xbdf9248f	-0.12165176
255	0xbe9ace50	-0.3023553

network_body._body_endoder.seq_layers.0.bias f4 [128]
0	0x3c44ed39	0.012019449
1	0x3be55da6	0.006999689
2	0x3bd621b6	0.0065347804
3	0x3c8e0342	0.017335538
4	0x3b4dd6ff	0.0031408665
5	0x3c6f8ba7	0.014620698
6	0x3c4497e1	0.011999101
7	0xbbb43876	-0.0054998947
8	0x3c95f60e	0.018305805
9	0x3a46169d	0.000755647
10	0x3c93fa70	0.018063754
11	0x3c789228	0.015171565
12	0xbc2f2d08	-0.010691889
13	0x3ce95540	0.028483033
14	0x3cabfcc2	0.020994548
15	0xbb44c522	-0.0030024727
16	0x3bf57bb2	0.0074915523
17	0x3c93ed08	0.018057361
18	0x3d1e7cc6	0.038693212
19	0x3cbd8d57	0.023138685
20	0x3c55fff5	0.013061513
21	0x3bed2fd9	0.00723837
22	0xbb2ce91a	-0.0026384057
23	0x3ce40962	0.027836505
24	0x3cbdcc37	0.023168666
25	0x3c019893	0.007909912
26	0x3b3a90ab	0.0028467576
27	0x3bdffcfb	0.0068355775
28	0x3c4ae94a	0.012384722
29	0x3c81647f	0.01579499
30	0x3c48540f	0.012227072
31	0xba9d3869	-0.0011994961
32	0x3baae0cd	0.0052147866
33	0x3b1d2a72	0.0023981598
34	0x3d04d7ac	0.032432243
35	0xbca02067	-0.0195467
36	0xba02aa06	-0.0004984442
37	0x3a5894ca	0.00082619174
38	0xbc928fa0	-0.017890751
39	0x3d3ca1e5	0.046052832
40	0xbbbd20a1	-0.005771712
41	0x3d1cbb9f	0.038264867
42	0x3c9a1d2d	0.01881274
43	0x3bf487c3	0.007462473
44	0x3c850274	0.016236521
45	0x3c9ca37a	0.01912092
46	0x3cc597e4	0.024120279
47	0x3c8800ae	0.016601887
48	0x3c6bfe92	0.014403956
49	0x3b72d53f	0.0037053374
50	0x3b98cca6	0.004663068
51	0x3cbc459e	0.022982415
52	0xba14e521	-0.0005679895
53	0x3ce7f6de	0.028315958
54	0x3c1f7586	0.00973261
55	0x3cb8421a	0.022492457
56	0x3cce1ae9	0.025159316
57	0x3d033bc0	0.032039404
58	0x3b5b7605	0.0033487093
59	0x3c3404f8	0.010987513
60	0x3cf4cf61	0.029884042
61	0xbccdfa75	-0.025143841
62	0x3cd9b021	0.026573243
63	0x3c45e7d5	0.012079199
64	0x3cb347a5	0.021884749
65	0x3c4e5ca2	0.012595328
66	0xbbd82170	-0.006595783
67	0x3c96a2a3	0.018388098
68	0xbb5216ab	-0.0032056968
69	0x3a74e5bb	0.0009342094
70	0x3b222528	0.0024741385
71	0x3baca63e	0.005268841
72	0xbc158eef	-0.009128316
73	0x39a49dee	0.00031398184
74	0x3c857772	0.016292308
75	0x3c684ed6	0.014178952
76	0x3d04524e	0.032305054
77	0x3c8e3937	0.017361267
78	0x3c1b163d	0.009465751
79	0x3a172743	0.00057660433
80	0x3c407fd4	0.011749227
81	0x3b4196a5	0.0029539254
82	0x3bee665e	0.0072753867
83	0x3c4ec6ba	0.012620622
84	0x3c30265c	0.010751333
85	0x3c87258e	0.0164974
86	0xbc05b6bb	-0.008161242
87	0x3c1e0858	0.009645544
88	0x3c6cd47a	0.014454955
89	0x3c668b38	0.014071278
90	0x3b779946	0.0037780567
91	0xbbd2f6a4	-0.0064380933
92	0x3d08e276	0.033419095
93	0x3b60219c	0.003419972
94	0x3c9d39a5	0.019192526
95	0xba9c4dc4	-0.0011925031
96	0x3d43fa75	0.047846276
97	0x3c123221	0.0089230845
98	0x3c8616f3	0.016368365
99	0x3afbf81d	0.0019223724
100	0xbcd4b834	-0.025966741
101	0x3c3d4073	0.01155101
102	0xbc8f5975	-0.017498711
103	0xbd0eb5dc	-0.034841403
104	0xbbccf920	-0.006255284
105	0x3d00fb20	0.03148949
106	0x3c5c80f5	0.01345848
107	0x3b3d6cf7	0.002890406
108	0xbc31b8bd	-0.010847268
109	0x3c92edcb	0.017935654
110	0x3c469c58	0.012122236
111	0x3bd3c68f	0.006462879
112	0xbc834fe1	-0.0160293
113	0xbb8c2f99	-0.004278135
114	0x3bd571e5	0.0065138214
115	0x3ca2c55b	0.019869497
116	0x3cb1f714	0.021724261
117	0xbc8e0a27	-0.017338825
118	0x3ccf5628	0.025309637
119	0x3d072d13	0.03300197
120	0x3c856953	0.016285574
121	0x3bd3a82a	0.0064592557
122	0x3bd518d6	0.006503205
123	0x3ca58973	0.020207142
124	0xb9b551c4	-0.0003458393
125	0xbc53282e	-0.012887998
126	0x3cadb984	0.021206625
127	0x3b2da11c	0.0026493734

network_body._body_endoder.seq_layers.2.weight f4 [128, 128]
0	0x3d153857	0.036430683
1	0xbd1ff093	-0.03904779
2	0xbdaee1e8	-0.08539182
3	0x3dcc541b	0.09976979
4	0x3e1237c3	0.14279084
5	0x3dd56d1e	0.10421203
6	0xbdcffd78	-0.10155767
7	0xbdea92d0	-0.114537835
8	0xbddf5d44	-0.10906461
9	0x3d70f5f4	0.05882831
10	0xbc58108a	-0.013187537
11	0x3e0b5bf0	0.1360929
12	0xbd46397d	-0.04839467
13	0x3d966f6d	0.073454715
14	0xbd069213	-0.03285415
15	0x3dd74344	0.10510877
16	0x3dc8c1e3	0.09802606
17	0x3d6b45ac	0.05743949
18	0xbe247b8b	-0.16062753
19	0xbd8fc970	-0.07020843
20	0xbca3147b	-0.019907227
21	0xbd55fb53	-0.052241635
22	0x3dd085b1	0.101817496
23	0x3d2b8e83	0.041883957
24	0x3d3162af	0.043307003
25	0x3dbb8347	0.091558985
26	0xbde4893a	-0.111589864
27	0x3d825c8d	0.06365309
28	0xbe326f4e	-0.17425272
29	0x3c54eaf9	0.012995475
30	0xbd897265	-0.06711272
31	0xbdeb1a6e	-0.114796504
32	0xbd93076d	-0.07179151
33	0x3d93c487	0.07215219
34	0xbd8ab982	-0.06773664
35	0xbd92da6a	-0.071705654
36	0x3d3f06b0	0.046637237
37	0xbcd6eac1	-0.026234986
38	0xbd47a5e9	-0.04874221
39	0xbd02eabb	-0.031962138
40	0x3d2b6eb8	0.041853637
41	0xbd9566bd	-0.072949864
42	0x3c00bdfb	0.007857795
43	0x3d7418f5	0.059594113
44	0xbdd4ec87	-0.103966765
45	0xbe11eff4	-0.14251691
46	0x3dcf9176	0.10135166
47	0x3c99b0e1	0.0187611
48	0x3e1a0134	0.15039521
49	0x3e05c5e3	0.13063769
50	0x3de5b9aa	0.11217053
51	0xbc8f0f10	-0.017463237
52	0x3d8a6811	0.0675813
53	0x3dbc0418	0.09180468
54	0x3da6a2d5	0.081365265
55	0xbd89b8d4	-0.06724706
56	0xbc6566a8	-0.014001526
57	0xbdf63c12	-0.12023176
58	0x3d65444b	0.055973332
59	0x3dae7755	0.085188545
60	0xbd841a11	-0.06450284
61	0xbe0c7212	-0.1371539
62	0x3e091620	0.13387346
63	0xbdfc780b	-0.12327584
64	0xbe37ea09	-0.17960371
65	0xbd3febb1	-0.046855632
66	0xbc2dda29	-0.0106110955
67	0x3c116a28	0.008875407
68	0x3da14613	0.07874694
69	0xbce1db7b	-0.027570477
70	0xbe108c13	-0.14115934
71	0xbe1e481a	-0.15457192
72	0x3dbf0efc	0.0932903
73	0xbd7272df	-0.05919158
74	0x3c811faf	0.015762178
75	0x3d4c5a6f	0.04989093
76	0x3dbc9037	0.09207194
77	0x3dd06df0	0.10177219
78	0x3c90a775	0.017657975
79	0xbd841acc	-0.064504236
80	0xbd2d2469	-0.04227105
81	0x3cf11789	0.029430168
82	0x3e3dc41e	0.18531844
83	0xbdfd8ab7	-0.123799734
84	0x3d0afbea	0.03393165
85	0xbca0ad34	-0.01961384
86	0x3eb1ec7b	0.34750733
87	0x3d0c7888	0.034294635
88	0x3dd30f8d	0.103057005
89	0x3e6f25a8	0.23354208
90	0xbdb1e150	-0.08685553
91	0xbe0f576a	-0.1399819
92	0xbd18a129	-0.03726307
93	0x3e03ac4b	0.12858693
94	0xbda923a4	-0.08258751
95	0x3ddc1cda	0.107476905
96	0x3cb65185	0.022255668
97	0xbcc6a7f5	-0.02425001
98	0xbd47a9c8	-0.0487459
99	0x3e2d5b9c	0.16929477
100	0x3d743c55	0.05962785
101	0xbc6eeccf	-0.014582827
102	0x3d8c66d2	0.06855549
103	0xbc793486	-0.0152102765
104	0xbe162a8c	-0.14664668
105	0x3e550fc9	0.20806803
106	0x3d555196	0.05207976
107	0xbdbaccec	-0.09121117
108	0xbe2be5ab	-0.1678683
109	0xbd9da1a7	-0.07696848
110	0xbd7b5e1d	-0.06136905
111	0xbdbdd6a2	-0.092694536
112	0x3aea3858	0.0017869575
113	0xbc54a689	-0.012979158
114	0xbc2e914a	-0.010654757
115	0xbcef514d	-0.029213572
116	0x3cf52c17	0.02992825
117	0xbd6bdb1b	-0.057582002
118	0xbb20f363	-0.0024559132
119	0xbc950d1f	-0.018194733
120	0x3de5d3e5	0.11222056
121	0xbd99d8f2	-0.07512082
122	0xbdd23455	-0.10263888
123	0x3e0db6fd	0.13839336
124	0x3de483d6	0.11157958
125	0x3de77103	0.11300852
126	0x3e0838e8	0.13302958
127	0xbc30914a	-0.010776827
128	0x3c17862d	0.009248299
129	0xbdb943f6	-0.09046166
130	0x3bc2f37c	0.0059494358
131	0x3d07d692	0.033163615
132	0x3c9ed123	0.019386834
133	0x3d8235af	0.063578956
134	0xbc447a4f	-0.011992051
135	0xbb1340cf	-0.002246905
136	0x3d8a38ee	0.0674914
137	0xbd4c3d75	-0.049863297
138	0xbc5f49aa	-0.013628403
139	0x3bcd9335	0.006273652
140	0xbe381ccd	-0.17979737
141	0xbdc77318	-0.09738749
142	0xbd1181de	-0.03552424
143	0x3cad6042	0.021164063
144	0x3e870f97	0.26379082
145	0xbdefb473	-0.1170434
146	0x3d02b855	0.031914074
147	0x3da5794c	0.08079776
148	0xbe582242	-0.21106818
149	0xbd8db52e	-0.06919323
150	0xbc1bccb3	-0.009509253
151	0x3e17a7cf	0.14810108
152	0x3d775732	0.06038589
153	0xbd2dd50f	-0.042439517
154	0xbd05885c	-0.032600746
155	0x3dde837b	0.10864922
156	0xbc78bb0e	-0.015181316
157	0xbdc3b708	-0.09556395
158	0x3e0b60ce	0.13611147
159	0xbd106ea2	-0.035261758
160	0x3d6f8cac	0.058483765
161	0x3e05b10e	0.13055822
162	0x3d57792c	0.052605793
163	0x3c9ae194	0.018906392
164	0x3c36abe9	0.011149385
165	0x3db7ca07	0.089740805
166	0xbc8ff816	-0.017574351
167	0x3ddfe1e2	0.109317556
168	0x3da71e7a	0.0816011
169	0xbc2b74aa	-0.010464827
170	0xbd8ccf79	-0.0687551
171	0x3c187bf1	0.009306894
172	0xbd5e186b	-0.054222506
173	0x3de97937	0.11400073
174	0x3bb68656	0.0055702133
175	0xbd92ccfc	-0.07168004
176	0xbd1fa10b	-0.038971942
177	0xbd9b9336	-0.07596438
178	0xbdfaf5a8	-0.122538865
179	0x3db4299e	0.08797
180	0xbd780f6c	-0.060561582
181	0xbdb2d5a7	-0.08732157
182	0xbdeee39b	-0.11664506
183	0xbe052945	-0.13004024
184	0xbd3dfebc	-0.04638551
185	0x3e3b108b	0.1826803
186	0xbe08d3d7	-0.1336206
187	0xbc89dfd6	-0.016830366
188	0x3e07115f	0.1319022
189	0xbaa53aa6	-0.001260598
190	0xbd48da23	-0.049036156
191	0xbd0b179d	-0.033958066
192	0x3d208959	0.039193485
193	0x393bca33	0.00017909035
194	0xbd7b4cf5	-0.06135269
195	0xbdf883fe	-0.121345505
196	0xbd9b5ed7	-0.07586449
197	0x3d981639	0.07426114
198	0x3b84b847	0.004050288
199	0xbd012c1b	-0.031536203
200	0x3c364a93	0.011126178
201	0xbe943bf0	-0.2895198
202	0xbde948b3	-0.113908194
203	0x3be3f4f9	0.0069566933
204	0x3de90f31	0.11379851
205	0xbd8c5350	-0.06851828
206	0xbe020c9e	-0.12700126
207	0xbcb1e9da	-0.021717954
208	0x3d877562	0.06614186
209	0x3e3f5b27	0.18687116
210	0xbca039f0	-0.019558877
211	0xb72abbe2	-1.01765345e-05
212	0xbdf96898	-0.12178153
213	0x3de128a7	0.10994082
214	0xbbda6de6	-0.006665933
215	0x3c0fdf09	0.008781203
216	0x3ca091f3	0.019600844
217	0x3c9547ae	0.018222656
218	0x3d94e76a	0.07270701
219	0x3ca3da01	0.020001413
220	0x3ce1e588	0.02757527
221	0x3d814a3b	0.063129865
222	0x3b9308f3	0.004487151
223	0xbcc98a1f	-0.024601994
224	0xbd81fdd3	-0.06347241
225	0x3dafc9e2	0.08583428
226	0x3e1409ad	0.14456816
227	0x3dc60572	0.09669007
228	0xbdf30f4b	-0.11868151
229	0x3cea3f2b	0.028594574
230	0x3da6e9a5	0.08150033
231	0xbd3ed398	-0.04658851
232	0x3e06ced2	0.13164833
233	0x3ded6ad7	0.11592644
234	0x3d4c8707	0.04993346
235	0x3dd0690c	0.10176286
236	0xbdc8eba5	-0.098105706
237	0xbe1f9cdf	-0.15587185
238	0xbd942b30	-0.072348
239	0x3c032b8f	0.008005991
240	0xbd50441e	-0.05084621
241	0xbe1f8bc2	-0.15580657
242	0xbce3a091	-0.027786525
243	0xbcc094f2	-0.023508523
244	0xbb61666d	-0.0034393326
245	0x3d51daa9	0.05123392
246	0xbda6f5d0	-0.08152354
247	0x3c80a45e	0.015703376
248	0x3e04b658	0.12960184
249	0xbe203017	-0.15643345
250	0xbdfb54e2	-0.122720495
251	0x3d862acf	0.06551134
252	0xbc401275	-0.0117231505
253	0xbcaaa092	-0.020828519
254	0xbd8dde6e	-0.06927191
255	0x3db8e518	0.09028071

network_body._body_endoder.seq_layers.2.bias f4 [128]
0	0x3c425b32	0.011862563
1	0x3c60aa3b	0.013712461
2	0x3c3f9665	0.011693572
3	0x3c264f0e	0.010150684
4	0x3cb1ae8b	0.021689674
5	0x3b0380ea	0.0020065852
6	0x3c603b72	0.013686048
7	0x3c098431	0.008393333
8	0x3c51778d	0.012784851
9	0x3c8e42f6	0.017365914
10	0x3b93e8cb	0.004513835
11	0x3cbfac5e	0.02339762
12	0x3ccaf6f9	0.024775969
13	0x3b586c57	0.003302356
14	0x3c6f9e93	0.014625209
15	0x3c77ba3c	0.015120085
16	0xbb38160a	-0.0028089308
17	0x3bfd20e5	0.0077248686
18	0x3cb46841	0.022022368
19	0x3bf73865	0.0075445645
20	0xbbaf986c	-0.0053587463
21	0x3cb67557	0.022272749
22	0xb98d2b72	-0.00026925985
23	0x3bdb68b0	0.0066958293
24	0x3c3c0ffd	0.011478421
25	0x3cdf68a8	0.027271584
26	0x3cd8321d	0.026391083
27	0x3c998d1a	0.01874404
28	0x3c488af9	0.012240165
29	0x3cf2518b	0.029579898
30	0x3c7a013f	0.015259086
31	0x3c1ec5ac	0.009690683
32	0x3c26dd0f	0.01018454
33	0x3cf1799e	0.029476937
34	0x3cc9be09	0.024626749
35	0x3d0ef414	0.03490074
36	0xbc45f420	-0.01208213
37	0xba831fac	-0.0010003946
38	0x3c078dec	0.008273583
39	0x3bb6205b	0.0055580563
40	0x3c46420f	0.0121007105
41	0x3beeb719	0.0072850105
42	0x3a71172e	0.00091968745
43	0x3c15952b	0.009129803
44	0xbb14dd6c	-0.0022714986
45	0xbc2ad23f	-0.010426103
46	0x3b119e4b	0.0022219594
47	0x3c745714	0.014913339
48	0xbc3b112a	-0.011417666
49	0x3c6d783f	0.014494001
50	0xb82eb240	-4.165084e-05
51	0x3c473390	0.01215829
52	0x3d018de8	0.031629473
53	0x3b1ce017	0.002393728
54	0xbbaa42c0	-0.0051959455
55	0x3b04d3a4	0.002026775
56	0x3cd12229	0.025528984
57	0xbb58be08	-0.0033072252
58	0x3c7ce926	0.015436446
59	0xbc2abf8b	-0.010421644
60	0x3bb120c4	0.0054055173
61	0x3cbfe0b0	0.023422569
62	0x3c525584	0.012837771
63	0x3c8a2600	0.016863823
64	0xbbb7daa9	-0.005610783
65	0x3c8cba84	0.017178781
66	0xba187416	-0.0005815638
67	0x3b3d7b57	0.0028912628
68	0x3ca93814	0.020656623
69	0xbb06ef97	-0.0020589584
70	0x3c0deb31	0.008662031
71	0x3cffb6be	0.031215068
72	0x3c89b3b5	0.016809324
73	0x3c90a7f2	0.017658208
74	0x3c887516	0.016657393
75	0x3c807e8d	0.015685344
76	0xbbc4690c	-0.005993968
77	0x3d005a93	0.03133638
78	0x3c317186	0.010830289
79	0x3d1a0068	0.037598044
80	0x3bfba30c	0.007679349
81	0xbb52ba95	-0.0032154669
82	0x3c3bfd30	0.011473939
83	0x3bc9a6ea	0.006153931
84	0xba0d5ef7	-0.0005392874
85	0x3c25c781	0.010118366
86	0xbbe2519b	-0.006906701
87	0x3c3c118b	0.011478792
88	0xbbdfe9eb	-0.006833305
89	0xbbcf150b	-0.006319647
90	0x3b5f6208	0.003408553
91	0x3c155991	0.009115593
92	0x3c1a0f7e	0.009403108
93	0x3c860c2b	0.016363224
94	0x3c20cdd2	0.009814696
95	0x3ca75ace	0.020429041
96	0x3c531cf6	0.012885323
97	0xba826f27	-0.0009951339
98	0x3c24ccb4	0.010058571
99	0x393d5fa3	0.00018060072
100	0xbba2161e	-0.004946484
101	0x3c9db86b	0.019252976
102	0x3c0aa12b	0.008461277
103	0x3b51ecf5	0.0032032107
104	0x3c8c3733	0.017116165
105	0x3cc0ec18	0.023550078
106	0x3cd9de33	0.02659521
107	0x3a7ca7b0	0.00096380245
108	0x3d3ce325	0.04611506
109	0x3c00033e	0.007813273
110	0x3c4df2eb	0.012570123
111	0x3b3c6d1f	0.0028751565
112	0xbc2882f7	-0.010285131
113	0x3bdfc782	0.006829203
114	0xbaac52c7	-0.0013147228
115	0x3c32a152	0.01090272
116	0x3c854437	0.016267879
117	0x3ba08887	0.004899088
118	0xb93cf337	-0.00018019682
119	0x3c0f09e0	0.008730382
120	0x3c3bc76f	0.011461123
121	0xbc0af0ef	-0.008480295
122	0x3ca99912	0.020702872
123	0x3b96f88b	0.0046072653
124	0x3c1088fb	0.008821721
125	0x3b4e4d89	0.003147932
126	0xbbb41e9c	-0.005496813
127	0x3c98e9c4	0.018666156

action_model._discrete_distribution.branches.0.weight f4 [3, 128]
0	0xbbb8082f	-0.00561621
1	0xbb0a66ce	-0.0021118405
2	0x3c054060	0.008133024
3	0xbca43f48	-0.020049706
4	0x3bae6e2a	0.005323191
5	0x3b8b8c43	0.004258664
6	0xbaba0ea3	-0.0014195036
7	0xbb9c641f	-0.0047726776
8	0xbcb05ae0	-0.021527708
9	0x3b437a2f	0.0029827466
10	0xbc172747	-0.009225673
11	0x3baa37e5	0.0051946514
12	0xbbda025e	-0.006653114
13	0x3c820728	0.015872553
14	0xb8d81ca1	-0.00010305015
15	0xbc98a49d	-0.018633181
16	0xbbe4bc28	-0.006980438
17	0x3a088d10	0.0005209008
18	0xbbc28525	-0.005936282
19	0xbc7f0093	-0.015564102
20	0x3b46bd2f	0.0030325165
21	0xbb9d3127	-0.004797119
22	0x3c80b276	0.015710097
23	0x3bca77fa	0.006178853
24	0xbc8db5a7	-0.017298533
25	0xbc836ccc	-0.01604309
26	0xbc6dc059	-0.014511191
27	0x3b822e63	0.003972815
28	0xbcacbbe2	-0.021085683
29	0xbc877856	-0.016536873
30	0xbcedb72d	-0.02901801
31	0x3c4f53da	0.012654269
32	0xbcce788e	-0.02520397
33	0xbb8a56c4	-0.004221769
34	0xbc2d22e0	-0.010567397
35	0x3a7adcf2	0.00095696666
36	0x3a96a6d4	0.001149381
37	0x3c4e1511	0.012578265
38	0xbba21b70	-0.0049471185
39	0x3b526c4f	0.0032108014
40	0xbca90914	-0.020634212
41	0xbbcdfa84	-0.0062859673
42	0x3c1b8858	0.009492956
43	0xbc50e0a7	-0.012748874
44	0x3aedebbe	0.0018151922
45	0x3b79a555	0.003809293
46	0x3a86931c	0.0010267231
47	0xbc6968f6	-0.014246216
48	0xbb931e59	-0.0044897017
49	0xbb4599f9	-0.003015159
50	0xbc17c490	-0.009263173
51	0xbc35bcb7	-0.011092356
52	0xbbf6ce60	-0.007531926
53	0xbc10397c	-0.008802768
54	0x3ca6c4d9	0.020357536
55	0xbb6f204c	-0.0036487756
56	0xbc1b87d6	-0.009492835
57	0x3b448f30	0.0029992573
58	0xbc9464d8	-0.018114492
59	0x3c3ae194	0.011406321
60	0xbc836af7	-0.016042216
61	0x3bad7c90	0.00529439
62	0xbc855e47	-0.016280307
63	0xbba9abdd	-0.0051779584
64	0xbbf36a4c	-0.007428443
65	0xbc1e346d	-0.009656054
66	0x3c19c3e8	0.009385087
67	0x3c27262b	0.010201971
68	0xbc3cebf7	-0.011530868
69	0x3cb69bad	0.022291029
70	0x3c9f34e3	0.019434398
71	0xbc1cb353	-0.009564239
72	0xbc7e2c2d	-0.015513462
73	0xbbc7bce3	-0.006095515
74	0xbb62fe85	-0.0034636569
75	0xbc1eac74	-0.009684671
76	0x3ba4d305	0.0050300383
77	0xbbbc40ea	-0.005745043
78	0xbc5461e1	-0.012962789
79	0xbb45e46e	-0.003019597
80	0x3b9b5198	0.0047399513
81	0xbbd4bf0e	-0.006492502
82	0xbaa0ae59	-0.0012258991
83	0xbb080390	-0.0020754077
84	0x3b824e26	0.003976601
85	0x3b0ec476	0.002178458
86	0xbab079cf	-0.0013464036
87	0xbbdf5363	-0.0068153604
88	0x3c6b8f7b	0.01437747
89	0x3beb2c2e	0.0071768975
90	0xbbfa335b	-0.0076355166
91	0x3b097b7f	0.002097815
92	0xbc78a745	-0.015176599
93	0xbc1035cc	-0.008801889
94	0xb9f62ed8	-0.00046955678
95	0xbcc53134	-0.024071313
96	0xbc7fea1c	-0.015619781
97	0x3c10ea55	0.008844932
98	0xbbd8552f	-0.0066019516
99	0xbab6961b	-0.0013930233
100	0x3c2367e8	0.009973504
101	0xbb0a917b	-0.0021143842
102	0xbc0322f4	-0.008003939
103	0xbbd112ca	-0.0063804137
104	0xbca450f3	-0.02005813
105	0xbc84ec32	-0.016225908
106	0xbc1eb989	-0.00968779
107	0xbc3e6723	-0.011621269
108	0xbc21e6cc	-0.009881686
109	0x3a9ddb8e	0.0012043582
110	0xbc3bbb75	-0.011458267
111	0x38db7146	0.000104638326
112	0xbc086db9	-0.008326941
113	0xbc893483	-0.016748672
114	0x3cb3366f	0.021876542
115	0x3acf6ee0	0.001582589
116	0xbc8fbf4a	-0.017547268
117	0x3c2f2af8	0.010691397
118	0xbbbf5429	-0.00583889
119	0x3b136a98	0.0022493955
120	0xba3bcae0	-0.00071637146
121	0x3c076b55	0.008265336
122	0x3b5ae76b	0.0033402096
123	0x3c4b49e6	0.0124077555
124	0xbcbf56bb	-0.023356786
125	0xbce37468	-0.027765468
126	0x3b8b9581	0.0042597656
127	0xbbbee57d	-0.005825697
128	0xbccdf845	-0.025142798
129	0x3c801e33	0.0156394
130	0xbc8410cd	-0.016121292
131	0xbc90e2d0	-0.017686278
132	0xbce71e3b	-0.028212657
133	0x3c339923	0.010961804
134	0xbc9e2fd8	-0.019309923
135	0xbcfca4c9	-0.030840294
136	0xbc58afbe	-0.013225494
137	0x3c825147	0.015907897
138	0xbb46d86e	-0.0030341404
139	0x3cf95542	0.030436162
140	0x3ce6a1c2	0.028153304
141	0xbc96976a	-0.018382747
142	0x3cdf4b8b	0.027257701
143	0x3cd0c76d	0.025485719
144	0xbcca455a	-0.024691273
145	0xbcadc11d	-0.021210248
146	0xbce3831b	-0.027772477
147	0x3c5efdeb	0.013610343
148	0xbcce71a8	-0.02520068
149	0x3cb88ef2	0.0225291
150	0x3c4428ad	0.0119725885
151	0x3c801eed	0.015639747
152	0x3d0b9fb0	0.034087837
153	0x3ceb939c	0.02875691
154	0x3d178816	0.036995016
155	0x3ccc5e31	0.024947258
156	0xbbcb6b9f	-0.006207898
157	0x3d412f3e	0.047164194
158	0x3c8a84e3	0.016909068
159	0x3c231530	0.009953782
160	0xbb0eecc8	-0.0021808613
161	0x3cd8994a	0.026440281
162	0x3d1bc295	0.038027365
163	0x3d893632	0.0669979
164	0xbc99176b	-0.018687924
165	0xbca84ba4	-0.02054388
166	0xbd0f9350	-0.035052598
167	0x3c056a17	0.00814297
168	0xbc887f17	-0.016662164
169	0x3c92c964	0.017918296
170	0xbccf608d	-0.025314594
171	0xbc9cf19d	-0.019158179
172	0xbc680c5f	-0.014163106
173	0xbc28693c	-0.010278996
174	0xbcd07f5e	-0.025451358
175	0x3cd0ace3	0.025473064
176	0xbc07fe42	-0.008300366
177	0x3cd69aed	0.026196921
178	0xbb90de94	-0.0044210646
179	0x3c97e386	0.018541109
180	0x3d30b298	0.04313907
181	0x3bdd18e5	0.0067473524
182	0xbca76f14	-0.020438708
183	0xbcb680ed	-0.022278273
184	0x3cfe7c1f	0.031065045
185	0xbcb37d96	-0.02191047
186	0x3ca6b961	0.020352067
187	0xbc7d4277	-0.015457741
188	0x3cba751a	0.022760917
189	0x3d23ec82	0.040020473
190	0x3c90ca0c	0.017674468
191	0x3d0e97ae	0.03481262
192	0xbcbac33d	-0.022798175
193	0x3cf0841a	0.029359866
194	0x3bdd5205	0.0067541623
195	0xbc785f52	-0.015159445
196	0x3caef838	0.021358594
197	0x3abc37e2	0.0014359916
198	0x3c1e4b04	0.00966144
199	0x3d346a6b	0.0440468
200	0x3cd9ed0c	0.02660229
201	0xbc90c581	-0.017672302
202	0x3c90c1cd	0.017670536
203	0x3cd19a74	0.025586344
204	0xbc998019	-0.01873784
205	0x3d25ffcf	0.04052716
206	0xbd05f625	-0.032705445
207	0x3d425817	0.04744729
208	0x3c351b64	0.011053894
209	0xbb832e0a	-0.004003291
210	0x3cbf5fbf	0.023361085
211	0x3b5fe024	0.0034160698
212	0xbcf920ce	-0.03041115
213	0xbcd9c7c8	-0.026584521
214	0x3a3a9de7	0.0007118866
215	0x3ca6b492	0.020349775
216	0xbc4b1347	-0.012394733
217	0x3b089134	0.00208385
218	0xbc984938	-0.0185896
219	0x3c728201	0.014801503
220	0x3c0c9097	0.008579395
221	0x3cef3a80	0.0292027
222	0xbd3dd612	-0.04634673
223	0x3d01f086	0.03172352
224	0x3cb84b71	0.02249691
225	0xbd0e385f	-0.03472173
226	0x3c6f2e54	0.014598448
227	0xbcab11c8	-0.020882502
228	0xbc54a685	-0.0129791545
229	0x3cc5579d	0.024089629
230	0xbb33a1c3	-0.002740965
231	0x3c7f8b89	0.015597233
232	0x3c835acb	0.016034504
233	0x3d4313f1	0.04762644
234	0x3d240752	0.040046044
235	0xbcd1551b	-0.025553277
236	0x3d4d0ffd	0.050064076
237	0xbcca3317	-0.024682565
238	0xbcdc2eac	-0.026877724
239	0x3b862983	0.004094304
240	0xbc0c42d0	-0.008560851
241	0x3c496348	0.012291737
242	0x3bb682b0	0.0055697784
243	0x3c497dfd	0.012298104
244	0x3ca87a06	0.020565998
245	0xbccb0224	-0.024781294
246	0xbc1a5576	-0.00941979
247	0x3ce303c9	0.027711766
248	0x3ca7ad98	0.020468518
249	0xbc1b4452	-0.009476738
250	0x3d144f55	0.03620847
251	0xbcc0e521	-0.023546757
252	0xbbfc3f2e	-0.0076979613
253	0x3c507eb4	0.012725521
254	0x3a140198	0.00056459894
255	0x3d03cd78	0.032178372

action_model._discrete_distribution.branches.0.bias f4 [3]
0	0xbbaf5ca8	-0.0053516217
1	0x3c322327	0.010872639
2	0xbbcdf756	-0.0062855883

onnx::Div_52 f4 [8]
0	0x4025551a	2.5833192
1	0x3f9ea7a6	1.2394912
2	0x409abc2c	4.83547
3	0x40a0e63e	5.0281057
4	0x400f6d94	2.241063
5	0x40d32df7	6.599361
6	0x3fb02335	1.3760744
7	0x3f000062	0.50000584
