results/BTB_v2/Pong/Pong-171456.pt (torch, 447378 bytes, 41 tensors)

network_body.observation_encoder.processors.0.normalizer.running_mean f4 [8]
00000000: b330 cf3d 49dd 973d 6123 b13c b643 34bc
00000010: 75b7 953e 7f69 89be a0bc 993e 9fff ff3e
0.101167105 0.07415254 0.021623315 -0.011002472 0.2924153 -0.268383 0.30026722 0.4999971

network_body.observation_encoder.processors.0.normalizer.running_variance f4 [8]
00000000: 07ad 8b49 009f 8048 21b0 744a 3b49 844a
00000010: f63b 5249 aae1 e34a 7687 9e48 4071 2747
1.1442249e+06 263416.0 4.0089682e+06 4.3347495e+06 861119.4 7.467221e+06 324667.7 42865.25

network_body.processors.0.normalizer.running_mean f4 [8]
00000000: b330 cf3d 49dd 973d 6123 b13c b643 34bc
00000010: 75b7 953e 7f69 89be a0bc 993e 9fff ff3e
0.101167105 0.07415254 0.021623315 -0.011002472 0.2924153 -0.268383 0.30026722 0.4999971

network_body.processors.0.normalizer.running_variance f4 [8]
00000000: 07ad 8b49 009f 8048 21b0 744a 3b49 844a
00000010: f63b 5249 aae1 e34a 7687 9e48 4071 2747
1.1442249e+06 263416.0 4.0089682e+06 4.3347495e+06 861119.4 7.467221e+06 324667.7 42865.25

network_body._body_endoder.seq_layers.0.weight f4 [128, 8]
00000000: 0f7a f7bd 0300 d0be 4dd1 22be afa5 88be
00000010: 443c 0e3f 1c22 26bf 6a1a febc 7c48 b5be
00000020: 0f42 2dbe f9d8 dd3e 7f96 0c3c 94ad ad3d
00000030: b53a 713e 78b2 f8be a043 c4bd 3de2 f73e
00000040: 4a6f f0bc f5cf a73e 23d1 7d3d 7549 333e
00000050: 9688 933d 75b7 b1bd 4ad9 21be 7270 923c
00000060: ad92 02bf ce10 43bf 9dbc d33d b185 3cbd
00000070: e713 c33d 1dc1 9abd d338 01bf 73c9 0c3e
00000080: 408c e93d 88e7 ce3e 7dd7 92be ad26 10bf
00000090: 3208 153b a03f 4a3f 6ce2 b4bd bc5f 4abf
000000a0: 737e 233f 3b99 14bc 5a84 dcbe 55e5 62be
000000b0: 2c4e f6be 9b58 d4be 1b90 8a3d 3e8f e53d
000000c0: 647b 1cbf 2160 683e 04c4 9c3d 0568 ee3d
000000d0: d75b 353e c103 1b3f a286 523e bbfb 293f
000000e0: cf97 b63e 178a 12bf b53d 4c3e 03e3 42bd
000000f0: 1386 aa3d a64d 9abe d041 afbe 9d68 48be
00000100: fb7d 4d3e b30a 6b3e 34df e03e 02e7 543f
00000110: 9d98 d3bd 24b2 613e b07c 0e3e 1d60 543e
00000120: b189 403f 778f 523d 1d33 c93d 889d 103d
00000130: 5c05 2cbf 67f6 5e3d 8af9 5dbf eac3 87be
00000140: 5328 9f3e 190a 003e 93cc f0be 8935 f93d
00000150: 3adc 47bd e4bf bebe ca15 1d3e 3235 4dbe
00000160: ff4f 5fbf e3be abbd 2024 26bf 61c1 b23e
00000170: 9622 353e 5e81 35bd cf66 c43b 0e12 1dbf
00000180: 1f6d aebe 08cb 54be 6348 773f 4037 8a3e
00000190: a772 7e3d 1c77 cbbe b964 3fbf 7977 57be
000001a0: 48a1 74be 0563 e03e 9900 e63c 0c59 8f3e
000001b0: ca26 abbe 8b18 f6be 5eb3 ecbe 00c7 24bf
000001c0: 88d3 1c3e 4331 9ebe df14 833e 833d 48be
000001d0: be21 603e 03e5 8d3d c929 f83e 07e2 53bf
000001e0: 574b 453f 3b85 d6bd 0403 e63e a823 b13e
000001f0: aa24 eb3d cb72 bcbe 8673 aebe b89b 9a3e
00000200: 239e 673e 47ef 803f a327 ebbe 0f6d 99be
00000210: e94a 8a3e ec3b 80be 3ea8 21bd fe2d 03bf
00000220: 7f32 1dbe 7dfc ebbd 8bdf 72bd 2862 19bd
00000230: d329 fabd 476a 3f3e ced6 ff3e 0512 b33e
00000240: 7b1e 6cbe e5c9 073f d79b 01bf ecbc 2b3e
00000250: 796e 48bf d5e1 2b3e 82b9 d63d fc68 02be
00000260: e003 723e 3eb4 103f c76b a53d a6d9 af3d
00000270: 16fe bfbd 124b 263f 7e66 733d 9d2d f93e
00000280: 3549 9d3e 9423 41be a415 15be f6ef 163e
00000290: 3256 1ebe 2dc9 53be 7496 95be efc6 603d
000002a0: c681 ebbe 7e28 64be 2e7e d1be ba97 583d
000002b0: e468 333f d154 593e 5bff 08be 21c1 2c3f
000002c0: 03c2 333f 7063 3a3d a160 493c beba e3be
000002d0: 361c 4f3e 07a4 d1be 016c d5bd 82a8 d23e
000002e0: b962 b63e 73e2 c83e b2f3 7d3d 551d 803f
000002f0: 0536 c23d 4143 13be 8d12 d13e d95f fcba
00000300: 8a59 623e d9a9 9b3e e356 4a3e 30b0 a13d
00000310: fa73 323e 9851 d03e 0e07 6bbe 8326 8ebd
00000320: d0d6 b5bc 521d 90be 8e8a 40bc 67fa 5cbe
00000330: e4e4 01be 5da2 2cbf 42d6 85be 323e 42be
00000340: 8119 d4be c0fb 29be 75a5 213e c80a d2be
00000350: 6f60 ab3d 1b87 4dbe 4b2a d8be b325 773d
00000360: 374d 8ebe f356 80be 7751 c0be 4856 a13c
00000370: ec05 c3be 75bd cbbe 3406 bbbe 66a7 5a3d
00000380: 20b5 013e 423f 433e d253 ae3c d23b 343f
00000390: 53e2 d23d 93fe efbc d441 94be f99a 45bd
000003a0: 6375 d4be 0651 d2be ab1c c93e a330 0fbe
000003b0: 84b3 c73e d585 503e df2c 6fbc d85c ef3d
000003c0: 6744 873e 2213 203f a7e4 b53d 9168 9bbd
000003d0: c812 e8bc 37ba 2dbd 650b 30be 4abf 273f
000003e0: af3f 3ebe 273c f33e 9c05 cebe f1a1 c63d
000003f0: 6f08 10bd da51 003e 8f24 f9bd 50ce 9abe
-0.12083828 -0.4062501 -0.15900154 -0.26688907 0.5556071 -0.64895797 -0.031018455 -0.35406864
-0.1691973 0.433296 0.008580803 0.08480373 0.23557551 -0.4857366 -0.09583211 0.48414794
-0.029349942 0.32775846 0.061967026 0.1750849 0.07203786 -0.0867757 -0.15805545 0.017875884
-0.5100506 -0.76197517 0.103387095 -0.046025936 0.095252804 -0.07556365 -0.5047733 0.13748722
0.11403704 0.4041102 -0.2868003 -0.56309015 0.002274048 0.79003334 -0.08832249 -0.7905233
0.6386482 -0.009069736 -0.43069726 -0.22157796 -0.48106515 -0.4147385 0.06765767 0.11208962
-0.6112578 0.2269292 0.076545745 0.11640934 0.17710815 0.60552603 0.20559171 0.66399735
0.35662696 -0.5724196 0.19945414 -0.047579776 0.08326354 -0.30137366 -0.34229898 -0.19571157
0.20067589 0.229533 0.4392029 0.8316499 -0.10331843 0.22040612 0.13914752 0.2073979
0.752101 0.05140635 0.09824202 0.035306484 -0.6719568 0.054434206 -0.8670889 -0.26516658
0.31085452 0.12503852 -0.47031078 0.12168414 -0.04879401 -0.37255776 0.15340343 -0.20039824
-0.8723144 -0.08386018 -0.6489887 0.3491316 0.17688975 -0.044312827 0.005993701 -0.61355674
-0.34067628 -0.20780575 0.9659483 0.26995277 0.06212106 -0.3973931 -0.74763066 -0.21041669
-0.23889649 0.43825546 0.028076457 0.27997625 -0.3342803 -0.480656 -0.46230596 -0.6436615
0.15315068 -0.3089696 0.2560186 -0.19554715 0.21887872 0.06928446 0.4846938 -0.82766765
0.77068084 -0.104746304 0.44924176 0.34597516 0.114816025 -0.3680633 -0.34072512 0.3019693
0.22618918 1.0073022 -0.45928678 -0.29966018 0.27010277 -0.25045717 -0.03946709 -0.51242054
-0.15351294 -0.11522768 -0.05929522 -0.037447125 -0.122150086 0.18692885 0.4996857 0.34974685
-0.23058502 0.5304244 -0.5062842 0.16771287 -0.7829357 0.16785367 0.104846016 -0.12735361
0.2363429 0.5652503 0.080771975 0.08586435 -0.09374635 0.649583 0.059423916 0.48667613
0.30719915 -0.18861228 -0.14559036 0.14739975 -0.15462568 -0.20682211 -0.2921635 0.054877218
-0.45997447 -0.22281072 -0.4091658 0.052879073 0.70081925 0.21223761 -0.1337866 0.6748219
0.70217913 0.045504987 0.0122911045 -0.4447841 0.20225605 -0.40945455 -0.10420991 0.41144186
0.35622194 0.39235267 0.061999984 1.0008951 0.0948296 -0.14381124 0.40834466 -0.0019254639
0.22104469 0.3040302 0.19759707 0.07894933 0.17427054 0.4068725 -0.2295191 -0.06940939
-0.022197157 -0.2814737 -0.011751784 -0.21579896 -0.12684971 -0.67435247 -0.26140028 -0.18969038
-0.41425708 -0.16599941 0.15785773 -0.4102385 0.083680026 -0.2007107 -0.42219767 0.060338687
-0.27793285 -0.25066337 -0.37562153 0.019694462 -0.38090456 -0.39792982 -0.3652817 0.0533823
0.1266675 0.190671 0.021280203 0.7040378 0.10297074 -0.029296195 -0.28956473 -0.048243497
-0.4149581 -0.4107744 0.39279684 -0.13983397 0.39004147 0.20363553 -0.0145981 0.116876304
0.26419374 0.62529194 0.088815026 -0.07588304 -0.028329268 -0.042413916 -0.17191847 0.6552626
-0.18578981 0.4750683 -0.40238655 0.096988566 -0.035164293 0.12531224 -0.12165176 -0.3023553

network_body._body_endoder.seq_layers.0.bias f4 [128]
00000000: 39ed 443c a65d e53b b621 d63b 4203 8e3c
00000010: ffd6 4d3b a78b 6f3c e197 443c 7638 b4bb
00000020: 0ef6 953c 9d16 463a 70fa 933c 2892 783c
00000030: 082d 2fbc 4055 e93c c2fc ab3c 22c5 44bb
00000040: b27b f53b 08ed 933c c67c 1e3d 578d bd3c
00000050: f5ff 553c d92f ed3b 1ae9 2cbb 6209 e43c
00000060: 37cc bd3c 9398 013c ab90 3a3b fbfc df3b
00000070: 4ae9 4a3c 7f64 813c 0f54 483c 6938 9dba
00000080: cde0 aa3b 722a 1d3b acd7 043d 6720 a0bc
00000090: 06aa 02ba ca94 583a a08f 92bc e5a1 3c3d
000000a0: a120 bdbb 9fbb 1c3d 2d1d 9a3c c387 f43b
000000b0: 7402 853c 7aa3 9c3c e497 c53c ae00 883c
000000c0: 92fe 6b3c 3fd5 723b a6cc 983b 9e45 bc3c
000000d0: 21e5 14ba def6 e73c 8675 1f3c 1a42 b83c
000000e0: e91a ce3c c03b 033d 0576 5b3b f804 343c
000000f0: 61cf f43c 75fa cdbc 21b0 d93c d5e7 453c
00000100: a547 b33c a25c 4e3c 7021 d8bb a3a2 963c
00000110: ab16 52bb bbe5 743a 2825 223b 3ea6 ac3b
00000120: ef8e 15bc ee9d a439 7277 853c d64e 683c
00000130: 4e52 043d 3739 8e3c 3d16 1b3c 4327 173a
00000140: d47f 403c a596 413b 5e66 ee3b bac6 4e3c
00000150: 5c26 303c 8e25 873c bbb6 05bc 5808 1e3c
00000160: 7ad4 6c3c 388b 663c 4699 773b a4f6 d2bb
00000170: 76e2 083d 9c21 603b a539 9d3c c44d 9cba
00000180: 75fa 433d 2132 123c f316 863c 1df8 fb3a
00000190: 34b8 d4bc 7340 3d3c 7559 8fbc dcb5 0ebd
000001a0: 20f9 ccbb 20fb 003d f580 5c3c f76c 3d3b
000001b0: bdb8 31bc cbed 923c 589c 463c 8fc6 d33b
000001c0: e14f 83bc 992f 8cbb e571 d53b 5bc5 a23c
000001d0: 14f7 b13c 270a 8ebc 2856 cf3c 132d 073d
000001e0: 5369 853c 2aa8 d33b d618 d53b 7389 a53c
000001f0: c451 b5b9 2e28 53bc 84b9 ad3c 1ca1 2d3b
0.012019449 0.006999689 0.0065347804 0.017335538 0.0031408665 0.014620698 0.011999101 -0.0054998947
0.018305805 0.000755647 0.018063754 0.015171565 -0.010691889 0.028483033 0.020994548 -0.0030024727
0.0074915523 0.018057361 0.038693212 0.023138685 0.013061513 0.00723837 -0.0026384057 0.027836505
0.023168666 0.007909912 0.0028467576 0.0068355775 0.012384722 0.01579499 0.012227072 -0.0011994961
0.0052147866 0.0023981598 0.032432243 -0.0195467 -0.0004984442 0.00082619174 -0.017890751 0.046052832
-0.005771712 0.038264867 0.01881274 0.007462473 0.016236521 0.01912092 0.024120279 0.016601887
0.014403956 0.0037053374 0.004663068 0.022982415 -0.0005679895 0.028315958 0.00973261 0.022492457
0.025159316 0.032039404 0.0033487093 0.010987513 0.029884042 -0.025143841 0.026573243 0.012079199
0.021884749 0.012595328 -0.006595783 0.018388098 -0.0032056968 0.0009342094 0.0024741385 0.005268841
-0.009128316 0.00031398184 0.016292308 0.014178952 0.032305054 0.017361267 0.009465751 0.00057660433
0.011749227 0.0029539254 0.0072753867 0.012620622 0.010751333 0.0164974 -0.008161242 0.009645544
0.014454955 0.014071278 0.0037780567 -0.0064380933 0.033419095 0.003419972 0.019192526 -0.0011925031
0.047846276 0.0089230845 0.016368365 0.0019223724 -0.025966741 0.01155101 -0.017498711 -0.034841403
-0.006255284 0.03148949 0.01345848 0.002890406 -0.010847268 0.017935654 0.012122236 0.006462879
-0.0160293 -0.004278135 0.0065138214 0.019869497 0.021724261 -0.017338825 0.025309637 0.03300197
0.016285574 0.0064592557 0.006503205 0.020207142 -0.0003458393 -0.012887998 0.021206625 0.0026493734

network_body._body_endoder.seq_layers.2.weight f4 [128, 128]
00000000: 5738 153d 93f0 1fbd e8e1 aebd 1b54 cc3d
00000010: c337 123e 1e6d d53d 78fd cfbd d092 eabd
00000020: 445d dfbd f4f5 703d 8a10 58bc f05b 0b3e
00000030: 7d39 46bd 6d6f 963d 1392 06bd 4443 d73d
00000040: e3c1 c83d ac45 6b3d 8b7b 24be 70c9 8fbd
00000050: 7b14 a3bc 53fb 55bd b185 d03d 838e 2b3d
00000060: af62 313d 4783 bb3d 3a89 e4bd 8d5c 823d
00000070: 4e6f 32be f9ea 543c 6572 89bd 6e1a ebbd
00000080: 6d07 93bd 87c4 933d 82b9 8abd 6ada 92bd
00000090: b006 3f3d c1ea d6bc e9a5 47bd bbea 02bd
000000a0: b86e 2b3d bd66 95bd fbbd 003c f518 743d
000000b0: 87ec d4bd f4ef 11be 7691 cf3d e1b0 993c
000000c0: 3401 1a3e e3c5 053e aab9 e53d 100f 8fbc
000000d0: 1168 8a3d 1804 bc3d d5a2 a63d d4b8 89bd
000000e0: a866 65bc 123c f6bd 4b44 653d 5577 ae3d
000000f0: 111a 84bd 1272 0cbe 2016 093e 0b78 fcbd
00000100: 09ea 37be b1eb 3fbd 29da 2dbc 286a 113c
00000110: 1346 a13d 7bdb e1bc 138c 10be 1a48 1ebe
00000120: fc0e bf3d df72 72bd af1f 813c 6f5a 4c3d
00000130: 3790 bc3d f06d d03d 75a7 903c cc1a 84bd
00000140: 6924 2dbd 8917 f13c 1ec4 3d3e b78a fdbd
00000150: eafb 0a3d 34ad a0bc 7bec b13e 8878 0c3d
00000160: 8d0f d33d a825 6f3e 50e1 b1bd 6a57 0fbe
00000170: 29a1 18bd 4bac 033e a423 a9bd da1c dc3d
00000180: 8551 b63c f5a7 c6bc c8a9 47bd 9c5b 2d3e
00000190: 553c 743d cfec 6ebc d266 8c3d 8634 79bc
000001a0: 8c2a 16be c90f 553e 9651 553d eccc babd
000001b0: abe5 2bbe a7a1 9dbd 1d5e 7bbd a2d6 bdbd
000001c0: 5838 ea3a 89a6 54bc 4a91 2ebc 4d51 efbc
000001d0: 172c f53c 1bdb 6bbd 63f3 20bb 1f0d 95bc
000001e0: e5d3 e53d f2d8 99bd 5534 d2bd fdb6 0d3e
000001f0: d683 e43d 0371 e73d e838 083e 4a91 30bc
00000200: 2d86 173c f643 b9bd 7cf3 c23b 92d6 073d
00000210: 23d1 9e3c af35 823d 4f7a 44bc cf40 13bb
00000220: ee38 8a3d 753d 4cbd aa49 5fbc 3593 cd3b
00000230: cd1c 38be 1873 c7bd de81 11bd 4260 ad3c
00000240: 970f 873e 73b4 efbd 55b8 023d 4c79 a53d
00000250: 4222 58be 2eb5 8dbd b3cc 1bbc cfa7 173e
00000260: 3257 773d 0fd5 2dbd 5c88 05bd 7b83 de3d
00000270: 0ebb 78bc 08b7 c3bd ce60 0b3e a26e 10bd
00000280: ac8c 6f3d 0eb1 053e 2c79 573d 94e1 9a3c
00000290: e9ab 363c 07ca b73d 16f8 8fbc e2e1 df3d
000002a0: 7a1e a73d aa74 2bbc 79cf 8cbd f17b 183c
000002b0: 6b18 5ebd 3779 e93d 5686 b63b fccc 92bd
000002c0: 0ba1 1fbd 3693 9bbd a8f5 fabd 9e29 b43d
000002d0: 6c0f 78bd a7d5 b2bd 9be3 eebd 4529 05be
000002e0: bcfe 3dbd 8b10 3b3e d7d3 08be d6df 89bc
000002f0: 5f11 073e a63a a5ba 23da 48bd 9d17 0bbd
00000300: 5989 203d 33ca 3b39 f54c 7bbd fe83 f8bd
00000310: d75e 9bbd 3916 983d 47b8 843b 1b2c 01bd
00000320: 934a 363c f03b 94be b348 e9bd f9f4 e33b
00000330: 310f e93d 5053 8cbd 9e0c 02be dae9 b1bc
00000340: 6275 873d 275b 3f3e f039 a0bc e2bb 2ab7
00000350: 9868 f9bd a728 e13d e66d dabb 09df 0f3c
00000360: f391 a03c ae47 953c 6ae7 943d 01da a33c
00000370: 88e5 e13c 3b4a 813d f308 933b 1f8a c9bc
00000380: d3fd 81bd e2c9 af3d ad09 143e 7205 c63d
00000390: 4b0f f3bd 2b3f ea3c a5e9 a63d 98d3 3ebd
000003a0: d2ce 063e d76a ed3d 0787 4c3d 0c69 d03d
000003b0: a5eb c8bd df9c 1fbe 302b 94bd 8f2b 033c
000003c0: 1e44 50bd c28b 1fbe 91a0 e3bc f294 c0bc
000003d0: 6d66 61bb a9da 513d d0f5 a6bd 5ea4 803c
000003e0: 58b6 043e 1730 20be e254 fbbd cf2a 863d
000003f0: 7512 40bc 92a0 aabc 6ede 8dbd 18e5 b83d
0.036430683 -0.03904779 -0.08539182 0.09976979 0.14279084 0.10421203 -0.10155767 -0.114537835
-0.10906461 0.05882831 -0.013187537 0.1360929 -0.04839467 0.073454715 -0.03285415 0.10510877
0.09802606 0.05743949 -0.16062753 -0.07020843 -0.019907227 -0.052241635 0.101817496 0.041883957
0.043307003 0.091558985 -0.111589864 0.06365309 -0.17425272 0.012995475 -0.06711272 -0.114796504
-0.07179151 0.07215219 -0.06773664 -0.071705654 0.046637237 -0.026234986 -0.04874221 -0.031962138
0.041853637 -0.072949864 0.007857795 0.059594113 -0.103966765 -0.14251691 0.10135166 0.0187611
0.15039521 0.13063769 0.11217053 -0.017463237 0.0675813 0.09180468 0.081365265 -0.06724706
-0.014001526 -0.12023176 0.055973332 0.085188545 -0.06450284 -0.1371539 0.13387346 -0.12327584
-0.17960371 -0.046855632 -0.0106110955 0.008875407 0.07874694 -0.027570477 -0.14115934 -0.15457192
0.0932903 -0.05919158 0.015762178 0.04989093 0.09207194 0.10177219 0.017657975 -0.064504236
-0.04227105 0.029430168 0.18531844 -0.123799734 0.03393165 -0.01961384 0.34750733 0.034294635
0.103057005 0.23354208 -0.08685553 -0.1399819 -0.03726307 0.12858693 -0.08258751 0.107476905
0.022255668 -0.02425001 -0.0487459 0.16929477 0.05962785 -0.014582827 0.06855549 -0.0152102765
-0.14664668 0.20806803 0.05207976 -0.09121117 -0.1678683 -0.07696848 -0.06136905 -0.092694536
0.0017869575 -0.012979158 -0.010654757 -0.029213572 0.02992825 -0.057582002 -0.0024559132 -0.018194733
0.11222056 -0.07512082 -0.10263888 0.13839336 0.11157958 0.11300852 0.13302958 -0.010776827
0.009248299 -0.09046166 0.0059494358 0.033163615 0.019386834 0.063578956 -0.011992051 -0.002246905
0.0674914 -0.049863297 -0.013628403 0.006273652 -0.17979737 -0.09738749 -0.03552424 0.021164063
0.26379082 -0.1170434 0.031914074 0.08079776 -0.21106818 -0.06919323 -0.009509253 0.14810108
0.06038589 -0.042439517 -0.032600746 0.10864922 -0.015181316 -0.09556395 0.13611147 -0.035261758
0.058483765 0.13055822 0.052605793 0.018906392 0.011149385 0.089740805 -0.017574351 0.109317556
0.0816011 -0.010464827 -0.0687551 0.009306894 -0.054222506 0.11400073 0.0055702133 -0.07168004
-0.038971942 -0.07596438 -0.122538865 0.08797 -0.060561582 -0.08732157 -0.11664506 -0.13004024
-0.04638551 0.1826803 -0.1336206 -0.016830366 0.1319022 -0.001260598 -0.049036156 -0.033958066
0.039193485 0.00017909035 -0.06135269 -0.121345505 -0.07586449 0.07426114 0.004050288 -0.031536203
0.011126178 -0.2895198 -0.113908194 0.0069566933 0.11379851 -0.06851828 -0.12700126 -0.021717954
0.06614186 0.18687116 -0.019558877 -1.01765345e-05 -0.12178153 0.10994082 -0.006665933 0.008781203
0.019600844 0.018222656 0.07270701 0.020001413 0.02757527 0.063129865 0.004487151 -0.024601994
-0.06347241 0.08583428 0.14456816 0.09669007 -0.11868151 0.028594574 0.08150033 -0.04658851
0.13164833 0.11592644 0.04993346 0.10176286 -0.098105706 -0.15587185 -0.072348 0.008005991
-0.05084621 -0.15580657 -0.027786525 -0.023508523 -0.0034393326 0.05123392 -0.08152354 0.015703376
0.12960184 -0.15643345 -0.122720495 0.06551134 -0.0117231505 -0.020828519 -0.06927191 0.09028071

network_body._body_endoder.seq_layers.2.bias f4 [128]
00000000: 325b 423c 3baa 603c 6596 3f3c 0e4f 263c
00000010: 8bae b13c ea80 033b 723b 603c 3184 093c
00000020: 8d77 513c f642 8e3c cbe8 933b 5eac bf3c
00000030: f9f6 ca3c 576c 583b 939e 6f3c 3cba 773c
00000040: 0a16 38bb e520 fd3b 4168 b43c 6538 f73b
00000050: 6c98 afbb 5775 b63c 722b 8db9 b068 db3b
00000060: fd0f 3c3c a868 df3c 1d32 d83c 1a8d 993c
00000070: f98a 483c 8b51 f23c 3f01 7a3c acc5 1e3c
00000080: 0fdd 263c 9e79 f13c 09be c93c 14f4 0e3d
00000090: 20f4 45bc ac1f 83ba ec8d 073c 5b20 b63b
000000a0: 0f42 463c 19b7 ee3b 2e17 713a 2b95 153c
000000b0: 6cdd 14bb 3fd2 2abc 4b9e 113b 1457 743c
000000c0: 2a11 3bbc 3f78 6d3c 40b2 2eb8 9033 473c
000000d0: e88d 013d 17e0 1c3b c042 aabb a4d3 043b
000000e0: 2922 d13c 08be 58bb 26e9 7c3c 8bbf 2abc
000000f0: c420 b13b b0e0 bf3c 8455 523c 0026 8a3c
00000100: a9da b7bb 84ba 8c3c 1674 18ba 577b 3d3b
00000110: 1438 a93c 97ef 06bb 31eb 0d3c beb6 ff3c
00000120: b5b3 893c f2a7 903c 1675 883c 8d7e 803c
00000130: 0c69 c4bb 935a 003d 8671 313c 6800 1a3d
00000140: 0ca3 fb3b 95ba 52bb 30fd 3b3c eaa6 c93b
00000150: f75e 0dba 81c7 253c 9b51 e2bb 8b11 3c3c
00000160: ebe9 dfbb 0b15 cfbb 0862 5f3b 9159 153c
00000170: 7e0f 1a3c 2b0c 863c d2cd 203c ce5a a73c
00000180: f61c 533c 276f 82ba b4cc 243c a35f 3d39
00000190: 1e16 a2bb 6bb8 9d3c 2ba1 0a3c f5ec 513b
000001a0: 3337 8c3c 18ec c03c 33de d93c b0a7 7c3a
000001b0: 25e3 3c3d 3e03 003c ebf2 4d3c 1f6d 3c3b
000001c0: f782 28bc 82c7 df3b c752 acba 52a1 323c
000001d0: 3744 853c 8788 a03b 37f3 3cb9 e009 0f3c
000001e0: 6fc7 3b3c eff0 0abc 1299 a93c 8bf8 963b
000001f0: fb88 103c 894d 4e3b 9c1e b4bb c4e9 983c
0.011862563 0.013712461 0.011693572 0.010150684 0.021689674 0.0020065852 0.013686048 0.008393333
0.012784851 0.017365914 0.004513835 0.02339762 0.024775969 0.003302356 0.014625209 0.015120085
-0.0028089308 0.0077248686 0.022022368 0.0075445645 -0.0053587463 0.022272749 -0.00026925985 0.0066958293
0.011478421 0.027271584 0.026391083 0.01874404 0.012240165 0.029579898 0.015259086 0.009690683
0.01018454 0.029476937 0.024626749 0.03490074 -0.01208213 -0.0010003946 0.008273583 0.0055580563
0.0121007105 0.0072850105 0.00091968745 0.009129803 -0.0022714986 -0.010426103 0.0022219594 0.014913339
-0.011417666 0.014494001 -4.165084e-05 0.01215829 0.031629473 0.002393728 -0.0051959455 0.002026775
0.025528984 -0.0033072252 0.015436446 -0.010421644 0.0054055173 0.023422569 0.012837771 0.016863823
-0.005610783 0.017178781 -0.0005815638 0.0028912628 0.020656623 -0.0020589584 0.008662031 0.031215068
0.016809324 0.017658208 0.016657393 0.015685344 -0.005993968 0.03133638 0.010830289 0.037598044
0.007679349 -0.0032154669 0.011473939 0.006153931 -0.0005392874 0.010118366 -0.006906701 0.011478792
-0.006833305 -0.006319647 0.003408553 0.009115593 0.009403108 0.016363224 0.009814696 0.020429041
0.012885323 -0.0009951339 0.010058571 0.00018060072 -0.004946484 0.019252976 0.008461277 0.0032032107
0.017116165 0.023550078 0.02659521 0.00096380245 0.04611506 0.007813273 0.012570123 0.0028751565
-0.010285131 0.006829203 -0.0013147228 0.01090272 0.016267879 0.004899088 -0.00018019682 0.008730382
0.011461123 -0.008480295 0.020702872 0.0046072653 0.008821721 0.003147932 -0.005496813 0.018666156

action_model._discrete_distribution.branches.0.weight f4 [3, 128]
00000000: 2f08 b8bb ce66 0abb 6040 053c 483f a4bc
00000010: 2a6e ae3b 438c 8b3b a30e baba 1f64 9cbb
00000020: e05a b0bc 2f7a 433b 4727 17bc e537 aa3b
00000030: 5e02 dabb 2807 823c a11c d8b8 9da4 98bc
00000040: 28bc e4bb 108d 083a 2585 c2bb 9300 7fbc
00000050: 2fbd 463b 2731 9dbb 76b2 803c fa77 ca3b
00000060: a7b5 8dbc cc6c 83bc 59c0 6dbc 632e 823b
00000070: e2bb acbc 5678 87bc 2db7 edbc da53 4f3c
00000080: 8e78 cebc c456 8abb e022 2dbc f2dc 7a3a
00000090: d4a6 963a 1115 4e3c 701b a2bb 4f6c 523b
000000a0: 1409 a9bc 84fa cdbb 5888 1b3c a7e0 50bc
000000b0: beeb ed3a 55a5 793b 1c93 863a f668 69bc
000000c0: 591e 93bb f999 45bb 90c4 17bc b7bc 35bc
000000d0: 60ce f6bb 7c39 10bc d9c4 a63c 4c20 6fbb
000000e0: d687 1bbc 308f 443b d864 94bc 94e1 3a3c
000000f0: f76a 83bc 907c ad3b 475e 85bc ddab a9bb
00000100: 4c6a f3bb 6d34 1ebc e8c3 193c 2b26 273c
00000110: f7eb 3cbc ad9b b63c e334 9f3c 53b3 1cbc
00000120: 2d2c 7ebc e3bc c7bb 85fe 62bb 74ac 1ebc
00000130: 05d3 a43b ea40 bcbb e161 54bc 6ee4 45bb
00000140: 9851 9b3b 0ebf d4bb 59ae a0ba 9003 08bb
00000150: 264e 823b 76c4 0e3b cf79 b0ba 6353 dfbb
00000160: 7b8f 6b3c 2e2c eb3b 5b33 fabb 7f7b 093b
00000170: 45a7 78bc cc35 10bc d82e f6b9 3431 c5bc
00000180: 1cea 7fbc 55ea 103c 2f55 d8bb 1b96 b6ba
00000190: e867 233c 7b91 0abb f422 03bc ca12 d1bb
000001a0: f350 a4bc 32ec 84bc 89b9 1ebc 2367 3ebc
000001b0: cce6 21bc 8edb 9d3a 75bb 3bbc 4671 db38
000001c0: b96d 08bc 8334 89bc 6f36 b33c e06e cf3a
000001d0: 4abf 8fbc f82a 2f3c 2954 bfbb 986a 133b
000001e0: e0ca 3bba 556b 073c 6be7 5a3b e649 4b3c
000001f0: bb56 bfbc 6874 e3bc 8195 8b3b 7de5 bebb
00000200: 45f8 cdbc 331e 803c cd10 84bc d0e2 90bc
00000210: 3b1e e7bc 2399 333c d82f 9ebc c9a4 fcbc
00000220: beaf 58bc 4751 823c 6ed8 46bb 4255 f93c
00000230: c2a1 e63c 6a97 96bc 8b4b df3c 6dc7 d03c
00000240: 5a45 cabc 1dc1 adbc 1b83 e3bc ebfd 5e3c
00000250: a871 cebc f28e b83c ad28 443c ed1e 803c
00000260: b09f 0b3d 9c93 eb3c 1688 173d 315e cc3c
00000270: 9f6b cbbb 3e2f 413d e384 8a3c 3015 233c
00000280: c8ec 0ebb 4a99 d83c 95c2 1b3d 3236 893d
00000290: 6b17 99bc a44b a8bc 5093 0fbd 176a 053c
000002a0: 177f 88bc 64c9 923c 8d60 cfbc 9df1 9cbc
000002b0: 5f0c 68bc 3c69 28bc 5e7f d0bc e3ac d03c
000002c0: 42fe 07bc ed9a d63c 94de 90bb 86e3 973c
000002d0: 98b2 303d e518 dd3b 146f a7bc ed80 b6bc
000002e0: 1f7c fe3c 967d b3bc 61b9 a63c 7742 7dbc
000002f0: 1a75 ba3c 82ec 233d 0cca 903c ae97 0e3d
00000300: 3dc3 babc 1a84 f03c 0552 dd3b 525f 78bc
00000310: 38f8 ae3c e237 bc3a 044b 1e3c 6b6a 343d
00000320: 0ced d93c 81c5 90bc cdc1 903c 749a d13c
00000330: 1980 99bc cfff 253d 25f6 05bd 1758 423d
00000340: 641b 353c 0a2e 83bb bf5f bf3c 24e0 5f3b
00000350: ce20 f9bc c8c7 d9bc e79d 3a3a 92b4 a63c
00000360: 4713 4bbc 3491 083b 3849 98bc 0182 723c
00000370: 9790 0c3c 803a ef3c 12d6 3dbd 86f0 013d
00000380: 714b b83c 5f38 0ebd 542e 6f3c c811 abbc
00000390: 85a6 54bc 9d57 c53c c3a1 33bb 898b 7f3c
000003a0: cb5a 833c f113 433d 5207 243d 1b55 d1bc
000003b0: fd0f 4d3d 1733 cabc ac2e dcbc 8329 863b
000003c0: d042 0cbc 4863 493c b082 b63b fd7d 493c
000003d0: 067a a83c 2402 cbbc 7655 1abc c903 e33c
000003e0: 98ad a73c 5244 1bbc 554f 143d 21e5 c0bc
000003f0: 2e3f fcbb b47e 503c 9801 143a 78cd 033d
-0.00561621 -0.0021118405 0.008133024 -0.020049706 0.005323191 0.004258664 -0.0014195036 -0.0047726776
-0.021527708 0.0029827466 -0.009225673 0.0051946514 -0.006653114 0.015872553 -0.00010305015 -0.018633181
-0.006980438 0.0005209008 -0.005936282 -0.015564102 0.0030325165 -0.004797119 0.015710097 0.006178853
-0.017298533 -0.01604309 -0.014511191 0.003972815 -0.021085683 -0.016536873 -0.02901801 0.012654269
-0.02520397 -0.004221769 -0.010567397 0.00095696666 0.001149381 0.012578265 -0.0049471185 0.0032108014
-0.020634212 -0.0062859673 0.009492956 -0.012748874 0.0018151922 0.003809293 0.0010267231 -0.014246216
-0.0044897017 -0.003015159 -0.009263173 -0.011092356 -0.007531926 -0.008802768 0.020357536 -0.0036487756
-0.009492835 0.0029992573 -0.018114492 0.011406321 -0.016042216 0.00529439 -0.016280307 -0.0051779584
-0.007428443 -0.009656054 0.009385087 0.010201971 -0.011530868 0.022291029 0.019434398 -0.009564239
-0.015513462 -0.006095515 -0.0034636569 -0.009684671 0.0050300383 -0.005745043 -0.012962789 -0.003019597
0.0047399513 -0.006492502 -0.0012258991 -0.0020754077 0.003976601 0.002178458 -0.0013464036 -0.0068153604
0.01437747 0.0071768975 -0.0076355166 0.002097815 -0.015176599 -0.008801889 -0.00046955678 -0.024071313
-0.015619781 0.008844932 -0.0066019516 -0.0013930233 0.009973504 -0.0021143842 -0.008003939 -0.0063804137
-0.02005813 -0.016225908 -0.00968779 -0.011621269 -0.009881686 0.0012043582 -0.011458267 0.000104638326
-0.008326941 -0.016748672 0.021876542 0.001582589 -0.017547268 0.010691397 -0.00583889 0.0022493955
-0.00071637146 0.008265336 0.0033402096 0.0124077555 -0.023356786 -0.027765468 0.0042597656 -0.005825697
-0.025142798 0.0156394 -0.016121292 -0.017686278 -0.028212657 0.010961804 -0.019309923 -0.030840294
-0.013225494 0.015907897 -0.0030341404 0.030436162 0.028153304 -0.018382747 0.027257701 0.025485719
-0.024691273 -0.021210248 -0.027772477 0.013610343 -0.02520068 0.0225291 0.0119725885 0.015639747
0.034087837 0.02875691 0.036995016 0.024947258 -0.006207898 0.047164194 0.016909068 0.009953782
-0.0021808613 0.026440281 0.038027365 0.0669979 -0.018687924 -0.02054388 -0.035052598 0.00814297
-0.016662164 0.017918296 -0.025314594 -0.019158179 -0.014163106 -0.010278996 -0.025451358 0.025473064
-0.008300366 0.026196921 -0.0044210646 0.018541109 0.04313907 0.0067473524 -0.020438708 -0.022278273
0.031065045 -0.02191047 0.020352067 -0.015457741 0.022760917 0.040020473 0.017674468 0.03481262
-0.022798175 0.029359866 0.0067541623 -0.015159445 0.021358594 0.0014359916 0.00966144 0.0440468
0.02660229 -0.017672302 0.017670536 0.025586344 -0.01873784 0.04052716 -0.032705445 0.04744729
0.011053894 -0.004003291 0.023361085 0.0034160698 -0.03041115 -0.026584521 0.0007118866 0.020349775
-0.012394733 0.00208385 -0.0185896 0.014801503 0.008579395 0.0292027 -0.04634673 0.03172352
0.02249691 -0.03472173 0.014598448 -0.020882502 -0.0129791545 0.024089629 -0.002740965 0.015597233
0.016034504 0.04762644 0.040046044 -0.025553277 0.050064076 -0.024682565 -0.026877724 0.004094304
-0.008560851 0.012291737 0.0055697784 0.012298104 0.020565998 -0.024781294 -0.00941979 0.027711766
0.020468518 -0.009476738 0.03620847 -0.023546757 -0.0076979613 0.012725521 0.00056459894 0.032178372

action_model._discrete_distribution.branches.0.bias f4 [3]
00000000: a85c afbb 2723 323c 56f7 cdbb
-0.0053516217 0.010872639 -0.0062855883

exp_avg f4 [128, 8]
00000000: 8fb1 64b9 f479 4439 2259 d034 7d89 9737
00000010: dd81 1eb7 0e9c b739 b272 8eb9 f71c 2239
00000020: e68c 0eb8 3d97 59b9 19f7 e434 626b 4e38
00000030: b197 04b9 ff41 98b9 a6be 6139 57b1 a5b9
00000040: 3ac4 90b8 1d9e bab8 d83b 2e35 534f 2338
00000050: 5eef 88b7 5c61 8eb9 ddb4 2039 bc0f c7b9
00000060: 34c2 d6b8 77f0 f638 44ee e034 cb5c c937
00000070: 6cc7 ba38 9ed7 5d39 8a5e e0b8 0cfc cc38
00000080: 8748 acb7 7eef a4b8 c5a1 db33 6a3f 3938
00000090: 7ec8 9538 6cb8 03b9 4037 8238 4da0 8eb8
000000a0: 55df 8138 b6a5 21b9 9223 6d33 a120 ec38
000000b0: d466 97b8 7141 aab9 ce33 8538 4dfd 25b9
000000c0: d3ef 75b9 5ee6 c3b8 2f43 8135 76ea aeb8
000000d0: eec6 e2b7 a8c6 6cb9 3bee 1638 4631 99b9
000000e0: ef46 bfb8 8363 a438 e2fb 8033 235d 40b8
000000f0: f7b2 bd38 1ef6 a639 4864 97b8 69b1 ff38
00000100: c671 8db8 cc81 48b8 f3ef 8135 9043 2135
00000110: 49ea 38b9 936e 2aba bd1f ccb7 5e4d 15ba
00000120: d3b3 3038 16d3 e0b7 f164 94b4 b4c2 9835
00000130: f2ce 80b7 91c1 4038 4c12 3ab8 8c67 4338
00000140: 1adb 7db7 c755 2237 8a3a f434 c120 89b8
00000150: 6fc6 8b38 00ec 3ab9 9acf b538 e7d6 83b9
00000160: 844a 44b8 89f6 6238 e329 a233 0128 f037
00000170: d6a5 1538 3d5c f838 904b efb8 af28 0c39
00000180: 5aad a5b8 4a2c 2e38 28d5 8434 bef7 11b8
00000190: 844a 0738 0039 a538 35ed 04b8 a915 fc37
000001a0: b293 4db7 f204 7638 7d58 7934 30f0 2538
000001b0: f37e 9f38 e840 2b38 2ef7 d6b7 8d49 40b8
000001c0: d157 adb7 7ca3 df38 c263 c0b3 8d03 8737
000001d0: 5aad 8c38 56bb ac39 e6ae cfb8 e97d e938
000001e0: 091b beb8 7399 d438 f29b c434 a9e0 10b9
000001f0: 9bbe 1a39 b93a 7839 4bef c1b8 752c 89b6
00000200: 48f3 0eb6 4934 92b6 db21 8b33 3f4e 7638
00000210: 7946 cd37 0328 41b7 27d5 4337 4687 c2b8
00000220: b8a6 d2b8 fad8 20b8 477a 1b35 536c ccb8
00000230: 063e 0eb7 05a1 86b9 b89b 6eb6 f9b0 46b9
00000240: a56e b0b7 3cb3 eeb8 07ab 4435 2de3 7e39
00000250: a890 1438 0d05 d8b9 ae99 9038 1729 e5b9
00000260: 97c9 b2b9 be98 47b9 9604 c735 1502 0939
00000270: c8ab 04b9 e215 ebb9 305c 4637 48f8 d6b9
00000280: 342f 41b8 a9b1 a1b6 7eac 4a34 03f3 0ab8
00000290: ae88 94b6 f233 d4b4 4aa9 34b8 3f05 bbb7
000002a0: 6a33 0137 55b9 5d34 e73d 8231 1752 9bb7
000002b0: dc43 e2b6 efd8 7fb7 811c 7537 2b1e edb7
000002c0: 015e 44b7 5c60 9038 7559 9bb3 8808 3038
000002d0: bec1 ddb5 0a4f 2039 3e77 83b8 7e8b 2838
000002e0: e947 4538 588e b3b7 19ea 6b35 dc62 b4b8
000002f0: 01cf 34b9 b58a 51ba 6943 8038 73ee 25ba
00000300: c3f4 63b9 8133 1db9 3ba4 9535 cd46 1139
00000310: d90e dfb8 43fa dab9 9f5f f338 3d0b d9b9
00000320: 8ba1 97b9 4f09 2739 5ad1 4435 0f18 90b7
00000330: e221 f137 6b17 b839 bfa9 7bb9 69e7 4a39
00000340: 5b40 bf37 fe05 f238 3a52 2bb4 aba0 ec36
00000350: 7952 0738 ec06 f838 4552 04b9 e43b df38
00000360: cd96 ddb7 1d17 0638 f307 1534 0fc9 a036
00000370: c351 2b36 21a5 8737 5488 5db7 d3e0 2237
00000380: c955 2c38 5d2b 3eb7 2811 7334 c14b 2538
00000390: e132 d1b8 2f1f c8b9 51a6 6238 f450 afb9
000003a0: c45f 9738 2070 9638 d695 c7b4 b92c ce38
000003b0: 0ac5 b437 ecab 4f39 47ab 27b8 a6c8 dc38
000003c0: ebfa 29b9 209a 9db9 9d2e 6635 b9e8 6039
000003d0: a666 39b9 9238 05ba e8a2 4f39 6a70 c5b9
000003e0: 4220 1c37 7631 22b7 a83b 0f33 8326 4f38
000003f0: fb1e ebb7 c60b 12b8 cc33 0138 6cb6 d8b7
-0.0002180992 0.00018737448 3.8807872e-07 1.8064626e-05 -9.44777e-06 0.0003502075 -0.00027169805 0.00015460314
-3.398666e-05 -0.00020751073 4.2648097e-07 4.9214235e-05 -0.0001264501 -0.0002904087 0.00021528694 -0.0003160338
-6.903005e-05 -8.898622e-05 6.4907135e-07 3.8936105e-05 -1.6323927e-05 -0.0002715689 0.00015326166 -0.0003796796
-0.00010240488 0.00011774984 4.1896612e-07 2.4004277e-05 8.906316e-05 0.00021156526 -0.000106987616 9.7744254e-05
-2.0537771e-05 -7.864738e-05 1.0227408e-07 4.4166496e-05 7.142218e-05 -0.00012561836 6.209174e-05 -6.800946e-05
6.192798e-05 -0.00015415889 5.5213214e-08 0.000112594345 -7.219394e-05 -0.00032473684 6.3515836e-05 -0.00015829988
-0.00023454362 -9.341234e-05 9.630802e-07 -8.340638e-05 -2.7033933e-05 -0.00022580719 3.5984656e-05 -0.00029219146
-9.120802e-05 7.838665e-05 6.006282e-08 -4.5863108e-05 9.045557e-05 0.0003184536 -7.21892e-05 0.00012192393
-6.744596e-05 -4.78046e-05 9.681083e-07 6.007549e-07 -0.00017634885 -0.0006501462 -2.4333474e-05 -0.00056954275
4.2129144e-05 -2.6801175e-05 -2.7640593e-07 1.1381549e-06 -1.5355155e-05 4.595664e-05 -4.4362896e-05 4.658806e-05
-1.5130989e-05 9.675924e-06 4.5491134e-07 -6.53877e-05 6.6649976e-05 -0.00017826259 8.6694214e-05 -0.00025146382
-4.679944e-05 5.4112203e-05 7.551332e-08 2.8628858e-05 3.5678815e-05 0.00011842742 -0.00011410483 0.00013366596
-7.900102e-05 4.152608e-05 2.4742008e-07 -3.4801422e-05 3.2255906e-05 7.87843e-05 -3.169217e-05 3.0050827e-05
-1.225334e-05 5.8655576e-05 2.3222124e-07 3.9562758e-05 7.605357e-05 4.0830026e-05 -2.562589e-05 -4.5844867e-05
-2.06641e-05 0.0001066392 -8.9588426e-08 1.6094908e-05 6.7080095e-05 0.00032945973 -9.9031065e-05 0.000111337584
-9.064942e-05 0.0001013753 3.662131e-07 -0.00013816603 0.0001475759 0.00023672999 -9.247529e-05 -4.0880936e-06
-2.1301257e-06 -4.357226e-06 6.47885e-08 5.8723843e-05 2.447072e-05 -1.1513012e-05 1.1672534e-05 -9.2758375e-05
-0.00010044634 -3.8349048e-05 5.7919937e-07 -9.747655e-05 -8.4783005e-06 -0.0002567844 -3.5555404e-06 -0.00018948679
-2.1032358e-05 -0.000113821094 7.326457e-07 0.00024307957 3.542067e-05 -0.00041202494 6.89508e-05 -0.00043708898
-0.00034101002 -0.0001903502 1.482799e-06 0.00013066114 -0.00012652494 -0.00044838997 1.1823184e-05 -0.00041002245
-4.6058747e-05 -4.8188563e-06 1.8875468e-07 -3.3128086e-05 -4.4266553e-06 -3.9525872e-07 -4.3073007e-05 -2.229458e-05
7.70097e-06 2.0649652e-07 3.7905354e-09 -1.8515666e-05 -6.7432247e-06 -1.5249693e-05 1.4609775e-05 -2.826665e-05
-1.1704397e-05 6.8844034e-05 -7.234022e-08 4.1969615e-05 -1.652217e-06 0.00015288233 -6.268777e-05 4.0184234e-05
4.703543e-05 -2.1404747e-05 8.788498e-07 -8.601483e-05 -0.00017243253 -0.0007993386 6.116072e-05 -0.0006329782
-0.00021739588 -0.00014991873 1.1149162e-06 0.00013854653 -0.00010636234 -0.0004176666 0.00011604954 -0.00041397839
-0.00028921323 0.00015929829 7.3320336e-07 -1.717734e-05 2.8745217e-05 0.00035112663 -0.0002400046 0.00019350428
2.2798942e-05 0.00011540575 -1.595553e-07 7.0520523e-06 3.2263317e-05 0.00011826851 -0.00012619149 0.00010644624
-2.6415475e-05 3.1969616e-05 1.3879598e-07 4.791778e-06 2.5528577e-06 1.6170148e-05 -1.3204368e-05 9.708298e-06
4.108789e-05 -1.1334979e-05 2.263738e-07 3.9409617e-05 -9.9753735e-05 -0.00038170206 5.4037493e-05 -0.00033438916
7.218079e-05 7.173442e-05 -3.7175658e-07 9.831176e-05 2.1549426e-05 0.00019805104 -3.9975417e-05 0.00010527791
-0.0001621057 -0.00030060206 8.574951e-07 0.00021449 -0.00017681214 -0.0005081977 0.00019801746 -0.00037658523
9.305835e-06 -9.6674685e-06 3.334904e-08 4.9388513e-05 -2.802861e-05 -3.4820077e-05 3.0804236e-05 -2.5834153e-05

exp_avg_sq f4 [128, 8]
00000000: ebf1 a533 2059 b633 726f 2d33 0ab2 ca33
00000010: e371 1833 fdd3 9e33 f2cc b633 7d00 bf33
00000020: b417 6733 78cc 6233 68a0 f532 c2e3 8b33
00000030: 4a56 0433 6ddf 8133 15c1 7033 2fde 8733
00000040: 50f9 5933 40a5 7d33 844a 0633 f1d5 a133
00000050: cf07 0033 083c 8833 9b63 6f33 e955 8e33
00000060: 14c5 bd33 a419 d433 d83d 3933 fb06 e733
00000070: f234 3433 df6f a833 3e95 e533 47f0 c333
00000080: df7e 5f32 e032 4a32 1139 1b32 46a1 8332
00000090: f30d ae31 a8e0 7832 a776 4132 71ee 4f32
000000a0: 14c6 d332 d648 d232 fb9a 8832 8208 f132
000000b0: a496 5232 4b38 f232 57e9 f032 ad12 dd32
000000c0: cd64 9d33 05c4 7133 cae3 1033 ed84 cc33
000000d0: 77eb ff32 ac9a 9433 53e0 6e33 fd27 9033
000000e0: e990 bc32 9d23 a532 38c6 6832 5b81 f432
000000f0: 64eb 5332 cd35 fe32 2337 d332 f8de e932
00000100: f220 4b34 d027 3a34 bb32 d333 2c69 9934
00000110: 144f d233 a710 8034 2d65 2e34 f69f 6134
00000120: 9225 c631 1b5a e331 f2d3 7d31 cc1d fa31
00000130: 5e6a 5c31 0d6f ee31 e382 0232 d515 b631
00000140: d437 0533 141e 2433 c27a c032 7b01 2833
00000150: 89d9 8c32 0e33 2033 23c0 2933 e14a 2333
00000160: 5064 9733 1cf0 9033 4183 2933 d5c3 7533
00000170: b5d3 e032 5a91 8833 4f46 6c33 39cc 8f33
00000180: f982 3432 09dc 3732 3e53 0c32 0ea1 3232
00000190: d105 b031 bab2 2932 5635 4132 3cb8 3732
000001a0: 6b00 1d32 b3bd 3832 865b b931 00f9 3832
000001b0: 193f 9531 f8c8 1732 44aa 3232 c6fc 1832
000001c0: 0c6a 3c33 e265 5333 274b d632 8727 5333
000001d0: 79fc 8f32 a0e9 3d33 23b6 3433 d5bd 2e33
000001e0: a5ae c132 e147 cd32 afa2 6732 e97d d632
000001f0: 3d68 3132 39a2 b832 5b17 d932 612c a232
00000200: 880b d931 1f86 2032 55bf 8631 797c 0332
00000210: bc46 4c31 6b7b f431 48e5 fe31 cbb2 fa31
00000220: 8958 3133 ab25 1d33 ac0c c332 a156 5733
00000230: e7f6 8532 0932 1e33 ce05 1d33 9a58 3533
00000240: e39a 7734 0d11 8834 c6a8 1834 30af a734
00000250: 4f2a dd33 e86a 8634 a3f6 8034 ccb1 8334
00000260: bd93 bf33 6c06 ae33 5135 2b33 f6e0 df33
00000270: 1de6 2533 1877 ed33 b8dc 8733 e414 9e33
00000280: 607f 6a31 a354 ad31 5d2d ea30 c254 9831
00000290: 913e c430 c73c 6331 2ecf 9731 edc5 5531
000002a0: 46fd 6931 a67a 3f31 cd48 1e31 fc56 5231
000002b0: 8865 aa30 7def 4631 bb6f 3d31 fd63 3d31
000002c0: 2437 0c32 78bb 3232 e54e 7831 7fda 5232
000002d0: 43e8 6531 5598 1432 0bc9 2332 c24d 0932
000002e0: 81c6 5a34 88ec 6534 70af 0034 eaf4 aa34
000002f0: ba7a f733 4c63 9334 c9f3 5634 7eb2 8734
00000300: 7225 bf33 1bc1 d233 eddc 5d33 725e ef33
00000310: 2ecd 2033 784c ee33 317a 9c33 86f3 b433
00000320: 4c45 db33 fd37 f333 efab 7c33 490b 0f34
00000330: 4c9b 3033 2438 bf33 c5c2 fa33 1053 f433
00000340: aab2 e032 1746 cb32 07c1 5732 ee00 2033
00000350: e386 6332 8489 ca32 d380 fa32 a44f 0733
00000360: df8a 3432 1365 5132 fdd4 d931 1563 3432
00000370: 9869 7231 6db6 0e32 0b1a 2132 f469 1c32
00000380: d74f 7a33 307f 5b33 ceb3 bc32 29d5 cc33
00000390: 48d4 0933 796a a833 c802 6933 bdc0 9133
000003a0: 1af6 1833 be0b 2e33 a832 a132 d2cb 5b33
000003b0: b656 8832 66d8 0633 73c7 0a33 76b5 2533
000003c0: 1945 bf33 a868 bc33 180a 4333 1d03 da33
000003d0: db0e 2b33 401d e433 cd75 9733 4451 ab33
000003e0: 3812 c631 6419 be31 68df 8731 6814 bf31
000003f0: 4d55 1b31 8805 d331 dc95 d231 933a b731
7.727416e-08 8.491247e-08 4.038106e-08 9.438743e-08 3.5493837e-08 7.396009e-08 8.512315e-08 8.8942194e-08
5.3805437e-08 5.280569e-08 2.8594698e-08 6.514121e-08 3.0812124e-08 6.0476715e-08 5.605496e-08 6.326842e-08
5.0750998e-08 5.9056447e-08 3.1267078e-08 7.5360624e-08 2.9809424e-08 6.343913e-08 5.5737114e-08 6.628017e-08
8.8368466e-08 9.876683e-08 4.3129916e-08 1.07580455e-07 4.195767e-08 7.843459e-08 1.06907905e-07 9.124101e-08
1.30091555e-08 1.1769515e-08 9.035163e-09 1.5323746e-08 5.0656523e-09 1.4486581e-08 1.1261057e-08 1.2103201e-08
2.4653708e-08 2.448034e-08 1.590296e-08 2.8059961e-08 1.22578605e-08 2.8198107e-08 2.8045788e-08 2.5736279e-08
7.329218e-08 5.6290464e-08 3.3734786e-08 9.523669e-08 2.9792984e-08 6.919922e-08 5.5617715e-08 6.7127964e-08
2.1951978e-08 1.9224723e-08 1.3549247e-08 2.8464163e-08 1.2335338e-08 2.9593958e-08 2.4588706e-08 2.7226164e-08
1.8917834e-07 1.7337084e-07 9.834681e-08 2.8574993e-07 9.793271e-08 2.3853974e-07 1.624182e-07 2.1012951e-07
5.7668297e-09 6.6168133e-09 3.6936822e-09 7.279345e-09 3.2074676e-09 6.9393367e-09 7.596756e-09 5.299379e-09
3.101725e-08 3.821158e-08 2.2407566e-08 3.9116895e-08 1.6397069e-08 3.7299337e-08 3.9523126e-08 3.8019497e-08
7.049732e-08 6.749198e-08 3.9467754e-08 5.7221616e-08 2.6173305e-08 6.359433e-08 5.5011977e-08 6.696104e-08
1.0507159e-08 1.0702032e-08 8.168e-09 1.0397583e-08 5.1229354e-09 9.877732e-09 1.1246206e-08 1.0693892e-08
9.138698e-09 1.0753342e-08 5.3946136e-09 1.0766826e-08 4.343644e-09 8.835052e-09 1.0399678e-08 8.9050385e-09
4.386861e-08 4.9219928e-08 2.4947054e-08 4.9163216e-08 1.6762202e-08 4.4217472e-08 4.207517e-08 4.0685183e-08
2.2547576e-08 2.3897828e-08 1.348296e-08 2.4970136e-08 1.0326457e-08 2.149419e-08 2.5272746e-08 1.8879463e-08
6.316842e-09 9.343721e-09 3.921665e-09 7.653505e-09 2.9726115e-09 7.1153656e-09 7.418439e-09 7.296284e-09
4.1291546e-08 3.658867e-08 2.270675e-08 5.0137377e-08 1.5595516e-08 3.683275e-08 3.655969e-08 4.222293e-08
2.3060015e-07 2.534438e-07 1.4217503e-07 3.123364e-07 1.029881e-07 2.503723e-07 2.402131e-07 2.4530016e-07
8.921004e-08 8.1036745e-08 3.986253e-08 1.0425167e-07 3.8626343e-08 1.10578355e-07 6.326576e-08 7.361248e-08
3.4123886e-09 5.0445847e-09 1.7038634e-09 4.433418e-09 1.4278659e-09 3.3067395e-09 4.418232e-09 3.1108087e-09
3.4049932e-09 2.7863876e-09 2.3033409e-09 3.0608467e-09 1.2397985e-09 2.8948925e-09 2.7566631e-09 2.7559957e-09
8.16161e-09 1.0403589e-08 3.6133596e-09 1.2273289e-08 3.3455911e-09 8.64937e-09 9.533561e-09 7.99213e-09
2.0375047e-07 2.1413337e-07 1.1984753e-07 3.1843166e-07 1.15241576e-07 2.7453132e-07 2.0018992e-07 2.527558e-07
8.900942e-08 9.814013e-08 5.1656503e-08 1.1146484e-07 3.7439513e-08 1.1096648e-07 7.2865426e-08 8.4262e-08
1.0210587e-07 1.13257535e-07 5.8829695e-08 1.3322018e-07 4.1119435e-08 8.9043425e-08 1.16769606e-07 1.13772444e-07
2.6158279e-08 2.3664184e-08 1.2558536e-08 3.725375e-08 1.3243809e-08 2.357843e-08 2.9162413e-08 3.150457e-08
1.0508955e-08 1.2188383e-08 6.339745e-09 1.0499908e-08 3.5275658e-09 8.306967e-09 9.377355e-09 9.104486e-09
5.8280275e-08 5.1105587e-08 2.1967846e-08 9.538264e-08 3.2090867e-08 7.842477e-08 5.425207e-08 6.7871476e-08
3.5614086e-08 4.052321e-08 1.8765903e-08 5.1175284e-08 1.5871915e-08 3.139612e-08 3.2312027e-08 3.8582094e-08
8.9066994e-08 8.773469e-08 4.5411156e-08 1.01519824e-07 3.982755e-08 1.0622398e-07 7.052913e-08 7.97759e-08
5.7646297e-09 5.5326144e-09 3.9544155e-09 5.5611515e-09 2.2603956e-09 6.141537e-09 6.1288414e-09 5.33266e-09

exp_avg f4 [128]
00000000: 4ce6 80b9 3e07 bfb8 8661 f5b8 c230 14b8
00000010: 8be4 acb6 8e59 2538 f412 84b9 ebc7 69b8
00000020: 066a 57b9 1714 8038 1a95 1637 8e3d 9fb8
00000030: 31b4 26b8 c54c b7b6 7e2e deb8 2b6f 31b8
00000040: 8c94 71b7 ebfe b5b8 c0a2 beb8 b1e7 b8b9
00000050: ae2d 39b8 f563 6ab7 e344 45b8 a323 90b8
00000060: 7698 73b9 8e7b 89b9 17be d137 427a 1ab8
00000070: c087 87b8 e328 f737 f4c3 6eb9 c983 fe36
00000080: d8ef e137 610c b639 6f3a 8db8 4e6f 2b39
00000090: 47df 2e38 edbb 1239 ccec 4238 ec19 68b9
000000a0: 3150 8c38 1539 55b9 0dac 9839 9542 3337
000000b0: 09ff eeb8 1d8d 08b9 2491 42b9 1469 7eb8
000000c0: 3af9 2a38 2d29 2139 033c 88b8 087c 3838
000000d0: 4fe4 3437 1020 23b8 ef36 5938 f721 2638
000000e0: 3605 bfb8 9d51 98b9 99d7 9938 4bcc b2b8
000000f0: c4d0 5cb9 8f0b 3338 375e 76b8 842d 77b8
00000100: 40ab e0b8 ae7e d0b8 7760 3038 539b 9738
00000110: 9f52 fb37 51ea 8137 76b4 a8b8 0ef9 04b9
00000120: 055b bfb7 8080 ca37 65b8 57b8 53bd c1b8
00000130: 3b60 1cb8 c335 0638 a286 d6b8 3aa2 0337
00000140: 68c5 8437 480a 8a37 87da 00b9 47d4 51b9
00000150: b74f 15b9 f967 feb8 1e0c 1239 63b7 88b8
00000160: a134 3cb8 5d3e e4b5 7990 1db7 ab17 f2b7
00000170: e5ae 70b9 f646 6d37 e412 cc37 c821 0638
00000180: 31c0 62b8 4669 2838 2454 9035 dfee 60b7
00000190: d89e 3738 fad6 4937 94a2 d538 a442 3d38
000001a0: 2014 8038 ff74 5539 c746 7338 08a5 26b8
000001b0: 5954 1237 e403 a6b8 05e0 2b38 de7e 8a36
000001c0: 35e2 06b7 4f0b 8538 83e8 4037 af34 63b8
000001d0: a3c6 8838 71e9 2b38 aa7f 7838 8846 6ab8
000001e0: 1819 39b7 23a4 c5b6 b78e acb7 70ee 0eb9
000001f0: 76e9 d838 d4ee 7537 c75e 04b8 f20e 3838
-0.00024585647 -9.108939e-05 -0.000117006755 -3.533136e-05 -5.1526054e-06 3.942247e-05 -0.00025191123 -5.5737717e-05
-0.00020543495 6.107258e-05 8.975412e-06 -7.593176e-05 -3.97453e-05 -5.462762e-06 -0.00010594445 -4.230362e-05
-1.4399306e-05 -8.678235e-05 -9.0902206e-05 -0.00035267838 -4.414998e-05 -1.397076e-05 -4.7032616e-05 -6.873093e-05
-0.00023231082 -0.00026222732 2.5003259e-05 -3.6830323e-05 -6.462587e-05 2.9463734e-05 -0.00022770447 7.5851317e-06
2.6933776e-05 0.00034722968 -6.734288e-05 0.00016349295 4.1692776e-05 0.00013993653 4.647374e-05 -0.00022134901
6.690657e-05 -0.00020334528 0.00029119887 1.0684734e-05 -0.000113962284 -0.0001302254 -0.00018555351 -6.065618e-05
4.076327e-05 0.00015369496 -6.4961634e-05 4.398453e-05 1.0781993e-05 -3.889209e-05 5.1787993e-05 3.9609116e-05
-9.10856e-05 -0.00029052506 7.335767e-05 -8.525754e-05 -0.00021058606 4.268769e-05 -5.8738715e-05 -5.893178e-05
-0.0001071305 -9.941809e-05 4.205151e-05 7.2291725e-05 2.9960005e-05 1.548711e-05 -8.044478e-05 -0.00012681281
-2.2811359e-05 2.4140114e-05 -5.1431725e-05 -9.2382215e-05 -3.728292e-05 3.199816e-05 -0.000102293925 7.84598e-06
1.582755e-05 1.645567e-05 -0.00012288439 -0.00020010873 -0.00014239443 -0.0001213103 0.00013928159 -6.519144e-05
-4.4871707e-05 -1.7005474e-06 -9.391567e-06 -2.885967e-05 -0.00022953337 1.4142823e-05 2.4327492e-05 3.197955e-05
-5.406159e-05 4.0152365e-05 1.0753324e-06 -1.3407057e-05 4.3778535e-05 1.2030587e-05 0.00010186914 4.5123175e-05
6.107264e-05 0.00020356847 5.800163e-05 -3.973118e-05 8.721917e-06 -7.9162215e-05 4.097821e-05 4.12749e-06
-8.03969e-06 6.3440406e-05 1.1498228e-05 -5.4170083e-05 6.521984e-05 4.0986986e-05 5.9246704e-05 -5.5855635e-05
-1.1032702e-05 -5.8901655e-06 -2.0570455e-05 -0.00013631 0.00010343168 1.46587445e-05 -3.155952e-05 4.3882937e-05

exp_avg_sq f4 [128]
00000000: 6003 9133 9522 5433 c310 7533 7459 a033
00000010: 7b25 5032 b048 b032 42d5 8333 9adf b132
00000020: 3e61 5634 ca4c c231 2d63 0433 88fd 5433
00000030: 4e2b 2e32 86a1 1832 fed6 1f33 88fa 9c32
00000040: 84d7 c731 e853 1033 dd6b 7134 21c3 ab33
00000050: a5b8 4a31 d520 4131 f4c7 0132 bdd6 6934
00000060: a9bd bc33 c7e7 b333 e53b bf32 ca2a 0b32
00000070: e390 8333 4a09 fc32 5ca1 a833 46e7 b731
00000080: dbfc 5233 0694 ad33 8644 3a34 bcf0 eb32
00000090: fd58 5232 72b8 4a33 66cf f431 1166 bb33
000000a0: 61bd 7e31 de3b 0934 4ae1 ac33 d601 3732
000000b0: 9fbe 2e33 014d 5133 c4b2 fa33 103f f833
000000c0: 04c3 3134 afc2 7e33 b3fa 0c32 5804 1d33
000000d0: fcd0 9531 2def 7132 aa3b 1f33 6ebe e933
000000e0: ed0a b133 4fc9 0a34 8090 8133 58b4 6d33
000000f0: 0e05 0634 5f90 9a32 823a 1e33 4dee 1233
00000100: 2c95 1b33 32c7 9433 6da7 d631 70db 1d34
00000110: 9c11 6e33 b73b 2c32 916b 1a32 4155 2133
00000120: ecfa 9b32 9f8b 3933 8d06 a433 eea4 b731
00000130: 70cb 6334 e5a6 b033 2857 9132 e1ea 9932
00000140: 960f 7d32 7608 f832 2d80 c433 5d76 1033
00000150: 9a9e ce33 89f0 e932 0872 5233 63f2 2633
00000160: aa98 0532 2e65 ce33 0adc 4732 efc9 1131
00000170: d559 1c34 7ba7 4833 ebcd 5033 70f7 7532
00000180: f387 9f32 664e f131 d67f bc32 cf2d 2832
00000190: 1a73 2d32 23d4 a331 fad5 6532 079b 3532
000001a0: fd3f 0d32 30f4 8534 106f 7a33 9efd 7532
000001b0: 1b37 6a32 dfbd ef31 236e e632 e30d 9e31
000001c0: 8934 ef31 b671 bb32 8967 3f33 ade5 6732
000001d0: 851b b533 b768 2f32 2861 6a33 395a 0e34
000001e0: 3729 0e33 37ab 9531 2297 6531 37b5 3033
000001f0: c716 1033 8c09 c231 58da b431 afdc 8932
6.7527026e-08 4.939155e-08 5.7058752e-08 7.466852e-08 1.21157155e-08 2.0522151e-08 6.138954e-08 2.0707194e-08
1.996568e-07 5.654873e-09 3.0823845e-08 4.9590682e-08 1.0137979e-08 8.884291e-09 3.7215607e-08 1.8274719e-08
5.8161636e-09 3.3603925e-08 2.2484114e-07 7.998302e-08 2.9499827e-09 2.810386e-09 7.554252e-09 2.1777937e-07
8.788931e-08 8.377497e-08 2.2262563e-08 8.100594e-09 6.1265176e-08 2.9340885e-08 7.852461e-08 5.3522937e-09
4.9124406e-08 8.0828656e-08 1.7347529e-07 2.7467074e-08 1.2243842e-08 4.7199542e-08 7.124913e-09 8.726432e-08
3.7069514e-09 1.2780899e-07 8.050354e-08 1.0652419e-08 4.06859e-08 4.873164e-08 1.16740495e-07 1.1559871e-07
1.6555356e-07 5.9316047e-08 8.206075e-09 3.655836e-08 4.3602295e-09 1.4082429e-08 3.7074336e-08 1.0884547e-07
8.244192e-08 1.2925487e-07 6.033315e-08 5.5344884e-08 1.2481561e-07 1.7993612e-08 3.6840454e-08 3.4210007e-08
3.622442e-08 6.9280205e-08 6.247254e-09 1.4701595e-07 5.542971e-08 1.0025295e-08 8.9884375e-09 3.756327e-08
1.8158481e-08 4.3200654e-08 7.638037e-08 5.3447513e-09 2.1215033e-07 8.2259966e-08 1.6919856e-08 1.7918355e-08
1.4730082e-08 2.8874847e-08 9.150276e-08 3.3635263e-08 9.621472e-08 2.7234153e-08 4.8998146e-08 3.8870336e-08
7.776331e-09 9.611027e-08 1.1633356e-08 2.1215063e-09 1.4561313e-07 4.671845e-08 4.8616055e-08 1.4317138e-08
1.8571859e-08 7.022936e-09 2.1944214e-08 9.789303e-09 1.0096096e-08 4.7680415e-09 1.3378207e-08 1.0570836e-08
8.221829e-09 2.495085e-07 5.830867e-08 1.4318543e-08 1.3633122e-08 6.9774013e-09 2.6825608e-08 4.599984e-09
6.961788e-09 2.1821375e-08 4.4564818e-08 1.3498192e-08 8.433475e-08 1.021015e-08 5.4570734e-08 1.3257603e-07
3.3099436e-08 4.3559356e-09 3.3409795e-09 4.1143007e-08 3.354833e-08 5.6472285e-09 5.2635123e-09 1.6049254e-08
