results/BTB_v2/Pong/Pong-400330.pt (torch, 447378 bytes, 41 tensors)

network_body.observation_encoder.processors.0.normalizer.running_mean f4 [8]
0.019405434 0.13932034 0.077345304 -0.024104774 0.34487185 -0.45307958 0.3569469 0.4999988
00000000: 25f8 9e3c fea9 0e3e 3767 9e3d 6077 c5bc
00000010: 0b93 b03e 0cfa e7be bec1 b63e d8ff ff3e

network_body.observation_encoder.processors.0.normalizer.running_variance f4 [8]
2.668338e+06 664262.25 9.375654e+06 8.373762e+06 2.7375718e+06 1.8378956e+07 863192.3 100083.75
00000000: c8dc 224a 642c 2249 a60f 0f4b 048c ff4a
00000010: 8f16 274a 6638 8c4b 85bd 5249 e079 c347

network_body.processors.0.normalizer.running_mean f4 [8]
0.019405434 0.13932034 0.077345304 -0.024104774 0.34487185 -0.45307958 0.3569469 0.4999988
00000000: 25f8 9e3c fea9 0e3e 3767 9e3d 6077 c5bc
00000010: 0b93 b03e 0cfa e7be bec1 b63e d8ff ff3e

network_body.processors.0.normalizer.running_variance f4 [8]
2.668338e+06 664262.25 9.375654e+06 8.373762e+06 2.7375718e+06 1.8378956e+07 863192.3 100083.75
00000000: c8dc 224a 642c 2249 a60f 0f4b 048c ff4a
00000010: 8f16 274a 6638 8c4b 85bd 5249 e079 c347

network_body._body_endoder.seq_layers.0.weight f4 [128, 8]
-0.122814104 -0.40852407 -0.1615809 -0.2785377 0.57226944 -0.6586646 -0.019212684 -0.35885936
-0.16925533 0.43492344 0.004661753 0.09336777 0.22285146 -0.47686812 -0.10181668 0.48412418
-0.030796578 0.3285931 0.059765976 0.18355364 0.058668684 -0.07700754 -0.16552739 0.01901892
-0.5090868 -0.76029646 0.10818813 -0.056103066 0.112456836 -0.08478099 -0.49545926 0.13916819
0.111509375 0.40469125 -0.28752 -0.5570125 -0.009052165 0.79502976 -0.0997814 -0.7862407
0.6328691 -0.007845902 -0.43404964 -0.2141851 -0.49286503 -0.40730867 0.059622236 0.116757415
-0.6088075 0.22750904 0.073627025 0.12392394 0.16040483 0.61245877 0.19557235 0.6658321
0.36372244 -0.5721849 0.20215905 -0.058947526 0.10030957 -0.31242883 -0.33197504 -0.1968241
0.19896929 0.23009928 0.4393193 0.8386824 -0.11660316 0.22646616 0.1316565 0.2086848
0.759539 0.0558684 0.10686074 0.027961409 -0.66084045 0.043362692 -0.8584664 -0.2616605
0.30941808 0.124874525 -0.4696064 0.12926666 -0.060136564 -0.36554703 0.14394797 -0.19552055
-0.88255996 -0.08454149 -0.6592766 0.33940673 0.1896681 -0.05011702 0.016788803 -0.62532574
-0.33524138 -0.20697667 0.9673967 0.2612561 0.07570397 -0.4048576 -0.74265 -0.20504831
-0.2474486 0.43510705 0.019630816 0.2858984 -0.3505973 -0.47416073 -0.4712421 -0.6508703
0.14952682 -0.3128894 0.24710001 -0.20496258 0.23173858 0.06208961 0.49617052 -0.8318032
0.77762276 -0.10573363 0.45279282 0.33920187 0.12553295 -0.37519023 -0.33644626 0.3064802
0.22046973 1.0093902 -0.4651124 -0.29903603 0.26498345 -0.24992847 -0.043043215 -0.51719767
-0.15162054 -0.114583485 -0.058502704 -0.029227443 -0.13814038 0.19374548 0.48800355 0.35438216
-0.23069869 0.52884465 -0.5062606 0.17647627 -0.80177325 0.1761755 0.0908964 -0.12285375
0.23553775 0.56650555 0.078934476 0.09345267 -0.10728535 0.656806 0.049826067 0.49003655
0.31725416 -0.19049872 -0.13418701 0.14277914 -0.15086235 -0.21372391 -0.2909968 0.06509735
-0.45743802 -0.2210693 -0.4091132 0.04364364 0.71043426 0.20824239 -0.12775865 0.67290336
0.7128373 0.041468468 0.025482202 -0.45112312 0.2107644 -0.41768333 -0.09995722 0.41840997
0.35531607 0.39415184 0.0642425 1.0067039 0.08374237 -0.13907489 0.4007685 0.00036166876
0.2196878 0.30460244 0.19664043 0.08636584 0.16084994 0.41416582 -0.23890215 -0.067479834
-0.020858165 -0.2832369 -0.010969097 -0.2278124 -0.11214696 -0.68628216 -0.25318033 -0.19149703
-0.4156398 -0.1654646 0.15978189 -0.42052013 0.10040413 -0.21156666 -0.41374218 0.06074075
-0.2825276 -0.2523499 -0.38097563 0.014445568 -0.3790994 -0.40014562 -0.36334217 0.049829412
0.1252192 0.18947415 0.020434259 0.711966 0.085878335 -0.020324768 -0.30023503 -0.04581323
-0.41793978 -0.4122588 0.39195487 -0.15073554 0.40687943 0.19556259 -0.004595942 0.11727455
0.261575 0.6280269 0.0822405 -0.066931345 -0.04119604 -0.03349672 -0.17756967 0.65612185
-0.192868 0.47140554 -0.40972248 0.10533534 -0.05409114 0.13272351 -0.13376814 -0.30545223
00000000: f685 fbbd 112a d1be 7775 25be 7e9c 8ebe
00000010: 4080 123f 3e9e 28bf eb63 9dbc 6abc b7be
00000020: 4551 2dbe 49ae de3e 9ec1 983b 9a37 bf3d
00000030: 2c33 643e 0f28 f4be 4385 d0bd 20df f73e
00000040: 1b49 fcbc 5b3d a83e 2bcd 743d 7cf5 3b3e
00000050: 934e 703d 21b6 9dbd 0380 29be 91cd 9b3c
00000060: 8353 02bf caa2 42bf bd91 dd3d 54cc 65bd
00000070: c54f e63d a8a1 adbd d6ac fdbe 1b82 0e3e
00000080: 075f e43d b133 cf3e d235 93be 5f98 0ebf
00000090: 884f 14bc 1287 4b3f 315a ccbd 1247 49bf
000000a0: b603 223f 198c 00bc c13b debe 5753 5bbe
000000b0: ce58 fcbe c38a d0be 7236 743d 831e ef3d
000000c0: cfda 1bbf 21f8 683e c4c9 963d d6cb fd3d
000000d0: 2a41 243e 19ca 1c3f 1e44 483e f973 2a3f
000000e0: d439 ba3e b67a 12bf c802 4f3e f672 71bd
000000f0: 1b6f cd3d acf6 9fbe a2f8 a9be 428c 49be
00000100: 9bbe 4b3e 259f 6b3e 76ee e03e e4b3 563f
00000110: a3cd eebd bfe6 673e f6d0 063e 78b1 553e
00000120: 2671 423f 43d6 643d ced9 da3d 530f e53c
00000130: d72c 29bf 149d 313d 74c4 5bbf 5df8 85be
00000140: 0c6c 9e3e 37be ff3d 4070 f0be 7b5e 043e
00000150: c251 76bd fb28 bbbe 1967 133e 8a36 48be
00000160: 73ef 61bf 1724 adbd 5ac6 28bf b8c6 ad3e
00000170: 5b38 423e 8147 4dbd ac88 893c 5915 20bf
00000180: c2a4 abbe b1f1 53be 4fa7 773f 5cc3 853e
00000190: af0a 9b3d 7f49 cfbe 4f1e 3ebf 2ff8 51be
000001a0: 2a63 7dbe 5ac6 de3e ced0 a03c 4661 923e
000001b0: 7d81 b3be 32c5 f2be a546 f1be 709f 26bf
000001c0: 8f1d 193e 0a33 a0be c907 7d3e b6e1 51be
000001d0: e14c 6d3e ad51 7e3d 100a fe3e 0ef1 54bf
000001e0: 4912 473f e08a d8bd 76d4 e73e deab ad3e
000001f0: b68b 003e ef18 c0be af42 acbe f9ea 9c3e
00000200: d1c2 613e b333 813f 3623 eebe 401b 99be
00000210: e9ab 873e 40ed 7fbe 154e 30bd 1167 04bf
00000220: 6a42 1bbe bfaa eabd 88a0 6fbd 646e efbc
00000230: ac74 0dbe 3765 463e 9adb f93e 9471 b53e
00000240: 473c 6cbe 5d62 073f 4b9a 01bf 32b6 343e
00000250: 0341 4dbf 5a67 343e e427 ba3d bf9a fbbd
00000260: cf30 713e 8206 113f 66a8 a13d 1d64 bf3d
00000270: 6cb8 dbbd 7024 283f 6b16 4c3d 12e6 fa3e
00000280: 236f a23e 1912 43be 5268 09be b234 123e
00000290: a97b 1abe 71da 5abe 88fd 94be c251 853d
000002a0: 5135 eabe fe5f 62be 4977 d1be acc3 323d
000002b0: 05df 353f 7e3d 553e 2ad3 02be 6543 2c3f
000002c0: 817c 363f d7da 293d 0dc0 d03c 9cf9 e6be
000002d0: 9fd2 573e 97da d5be 5fb6 ccbd d539 d63e
000002e0: fdeb b53e 45ce c93e 9291 833d acdb 803f
000002f0: 1f81 ab3d a669 0ebe 8731 cd3e 5c9e bd39
00000300: d7f5 603e daf4 9b3e 1c5c 493e 93e0 b03d
00000310: d9b5 243e 8b0d d43e c4a2 74be de32 8abd
00000320: bede aabc 6d04 91be bab7 33bc a747 69be
00000330: 4ead e5bd 30b0 2fbf daa0 81be cc17 44be
00000340: bdce d4be 8d6f 29be dd9d 233e 6a4e d7be
00000350: aea0 cd3d eea4 58be 04d6 d3be 4bcb 783d
00000360: 75a7 90be 0234 81be 3d0f c3be 1bad 6c3c
00000370: 5119 c2be e3df ccbe fc07 babe ed19 4c3d
00000380: 7639 003e 8305 423e bf65 a73c 6743 363f
00000390: fbe0 af3d 2180 a6bc 68b8 99be a7a6 3bbd
000003a0: 34fc d5be 9613 d3be 4fae c83e 6b5a 1abe
000003b0: 8052 d03e 8f41 483e 8e99 96bb a42d f03d
000003c0: 29ed 853e 5fc6 203f b56d a83d 4d13 89bd
000003d0: 2ebd 28bd db33 09bd d3d4 35be 9af7 273f
000003e0: 307f 45be 115c f13e 25c7 d1be 0eba d73d
000003f0: ac8e 5dbd ace8 073e 84fa 08be 3c64 9cbe

network_body._body_endoder.seq_layers.0.bias f4 [128]
0.02529793 0.0020040397 0.0065771895 0.015512381 0.004337585 0.014995824 0.014170165 -0.004541943
0.022151463 -0.0068607596 0.015397987 0.023012085 -0.013016054 0.036758274 0.03409127 -0.0002580356
0.014492113 0.015791843 0.043435488 0.027653335 0.02153405 0.011385267 0.009080453 0.027589891
0.027575629 0.01578714 0.0051445 0.016568225 0.018195476 0.021772055 0.01221547 0.005311418
0.0024261551 -2.53532e-06 0.033224028 -0.024331985 -0.0034331314 0.001827288 -0.023827141 0.0511284
-0.010222413 0.042732894 0.021038635 0.007389207 0.018221628 0.02269182 0.019509746 0.022324974
0.013445984 0.0024576634 0.013570052 0.02415591 0.0040863417 0.03244497 0.01653995 0.01819311
0.025656063 0.03829157 0.008386601 0.014568398 0.030610327 -0.035132498 0.034623817 0.009583048
0.022915583 0.017957987 0.0023856938 0.019463513 -0.007168931 0.0068453616 0.0023996048 0.008490748
-0.008925594 0.002564823 0.01439649 0.022316879 0.036690768 0.009871519 0.012545213 0.0036053902
0.022785414 0.0023346257 0.014251857 0.013601004 0.021137329 0.026944276 -0.012804436 0.0036448198
0.020992512 0.012568231 0.0017667229 0.004532365 0.039093304 0.003237117 0.022323908 -0.009578367
0.06285685 0.024851052 0.028439067 0.0075397305 -0.033107683 0.02456583 -0.020183146 -0.036409196
-0.0047538634 0.039166942 0.014366454 0.013211891 -0.008800164 0.022426426 0.015227777 0.015963383
-0.02052671 -0.0041431594 0.01437205 0.026634032 0.022298237 -0.027440552 0.040385436 0.040729772
0.014635527 0.01769742 0.009411019 0.031055918 -0.00028802612 -0.0069664544 0.028158493 -0.006066852
00000000: 9b3d cf3c 3556 033b 7785 d73b a427 7e3c
00000010: 4d22 8e3b 0bb1 753c fb29 683c 94d4 94bb
00000020: fc76 b53c 39d0 e0bb d747 7c3c d783 bc3c
00000030: 4a41 55bc d88f 163d 4aa3 0b3d f448 87b9
00000040: 5470 6d3c e55d 813c 69e9 313d 3f89 e23c
00000050: 2d68 b03c 4589 3a3c 2ec6 143c 3204 e23c
00000060: 49e6 e13c 0854 813c 3293 a83b 16ba 873c
00000070: ae0e 953c 4f5b b23c 6523 483c 670b ae3b
00000080: 2100 1f3b 7724 2ab6 eb15 083d df53 c7bc
00000090: 63fe 60bb 9c81 ef3a 2331 c3bc 036c 513d
000000a0: e87b 27bc b008 2f3d 3759 ac3c 2921 f23b
000000b0: 8645 953c 32e4 b93c e7d2 9f3c dde2 b63c
000000c0: 8b4c 5c3c c010 213b ec54 5e3c 9de2 c53c
000000d0: b8e6 853b 04e5 043d ca7e 873c b809 953c
000000e0: aa2c d23c 9fd7 1c3d f467 093c 4ab0 6e3c
000000f0: 82c2 fa3c 18e7 0fbd b4d1 0d3d 3702 1d3c
00000100: 76b9 bb3c a11c 933c 4d59 1c3b f271 9f3c
00000110: 5ae9 eabb 0e4f e03b b042 1d3b c71c 0b3c
00000120: a83c 12bc 9716 283b 41df 6b3c e3d1 b63c
00000130: 0f49 163d 27bc 213c 708a 4d3c 6948 6c3b
00000140: 7aa8 ba3c 8500 193b 9f80 693c bfd6 5e3c
00000150: 3128 ad3c 3eba dc3c b2c9 51bc eedd 6e3b
00000160: 7df8 ab3c fbea 4d3c 6291 e73a 3c84 943b
00000170: 4d20 203d d025 543b a1e0 b63c 95ee 1cbc
00000180: 18bb 803d 6f94 cb3c 0cf9 e83c d80f f73b
00000190: ec9b 07bd 483e c93c 2057 a5bc cf21 15bd
000001a0: 4cc6 9bbb 846d 203d 4761 6b3c b076 583c
000001b0: 902e 10bc a0b7 b73c ed7d 793c a4c5 823c
000001c0: a227 a8bc 57c3 87bb bf78 6b3c 9d2f da3c
000001d0: cbaa b63c 02cb e0bc 336b 253d 43d4 263d
000001e0: d9c9 6f3c 2efa 903c ad30 1a3c fb68 fe3c
000001f0: 3602 97b9 db46 e4bb a4ac e63c 71cc c6bb

network_body._body_endoder.seq_layers.2.weight f4 [128, 128]
0.051785916 -0.03412605 -0.09222188 0.09797024 0.14606073 0.109754466 -0.10282261 -0.111246474
-0.11657734 0.053050634 -0.0019144804 0.14508623 -0.050785765 0.06931956 -0.023573663 0.10951923
0.1078305 0.06220508 -0.1689889 -0.07873905 -0.02431339 -0.0495212 0.11260541 0.042422913
0.036927696 0.098603204 -0.1072845 0.060131434 -0.18431155 0.019372918 -0.06847049 -0.113562904
-0.06796341 0.07191776 -0.07109013 -0.07371564 0.04480671 -0.023627425 -0.054502297 -0.043944187
0.048162654 -0.0863909 0.009937039 0.065687165 -0.10811139 -0.15556818 0.10941176 0.009458905
0.15148327 0.1224018 0.12517206 -0.010418365 0.063524574 0.09124613 0.09149631 -0.060288705
-0.014921239 -0.1340062 0.056770395 0.086424366 -0.06203617 -0.13423015 0.14479406 -0.118035115
-0.17903423 -0.03946645 -0.0017895118 0.0233689 0.0702429 -0.037408832 -0.14533374 -0.15895969
0.09306107 -0.057100996 0.02780196 0.053708326 0.08663822 0.11296663 0.02003207 -0.07126233
-0.05446712 0.035343923 0.19802968 -0.12628743 0.045979396 -0.005026893 0.34114325 0.041287124
0.10029165 0.23294021 -0.08021188 -0.13423118 -0.04583836 0.11973523 -0.07272205 0.11480365
0.009458234 -0.011855339 -0.06217284 0.16819268 0.067615695 -0.0055950293 0.073242456 -0.020453552
-0.15289715 0.21478418 0.053237922 -0.079832695 -0.16702218 -0.0739171 -0.062696576 -0.096570134
0.0045833983 -0.0055622086 0.00020793975 -0.022676101 0.027250163 -0.048242915 0.009045439 -0.031038424
0.11466315 -0.06376314 -0.09410825 0.12886898 0.10711976 0.10360937 0.13360292 2.8869126e-06
-0.004992753 -0.091871 0.010381905 0.039563943 0.021743724 0.060132034 -0.009078388 -0.0060193003
0.07314526 -0.044461347 -0.018304909 0.009891837 -0.17317325 -0.09128892 -0.042561866 0.021950644
0.26249963 -0.11849968 0.041761532 0.08712534 -0.20784481 -0.06940476 -0.014583011 0.14942831
0.0652583 -0.04735879 -0.033196434 0.116381414 -0.009485524 -0.10059657 0.14031571 -0.029637696
0.056448087 0.13636138 0.055851586 0.024207238 0.012124347 0.09045898 -0.008765487 0.11724458
0.07662967 -0.0008973816 -0.06651057 0.0066975947 -0.050697 0.12306991 0.00316852 -0.06270078
-0.035474285 -0.06414326 -0.12670605 0.087212615 -0.05630773 -0.0870983 -0.12169806 -0.13081235
-0.044683207 0.1917301 -0.12970482 -0.01445987 0.13475592 -0.00023079729 -0.05037582 -0.03555957
0.042226274 -0.010284508 -0.068061255 -0.12799834 -0.066346094 0.084371276 0.009236986 -0.026385657
0.013109828 -0.28935575 -0.11660628 0.0073801302 0.12039411 -0.07243036 -0.12627438 -0.015341446
0.075915456 0.18689357 -0.028631167 0.0035511933 -0.13478176 0.09594919 0.0018219167 0.006710533
0.025799802 0.021681493 0.0725219 0.022958111 0.032985583 0.07273693 0.006441953 -0.028236374
-0.049167212 0.07687979 0.15476926 0.101579666 -0.122641414 0.024999283 0.07729869 -0.044162177
0.13616782 0.11256582 0.051806845 0.09179156 -0.09783156 -0.15802102 -0.067735404 0.015735386
-0.051795784 -0.16053641 -0.037423186 -0.022213878 0.002764245 0.046926882 -0.09364662 0.025100231
0.12861572 -0.16689152 -0.12799393 0.07639313 -0.0074203457 -0.014866217 -0.06665818 0.08418621
00000000: 781d 543d c2c7 0bbd d3de bcbd 9fa4 c83d
00000010: f290 153e f3c6 e03d a994 d2bd 31d5 e3bd
00000020: 1ac0 eebd 9f4b 593d 4def faba 7c91 143e
00000030: bc04 50bd 6af7 8d3d 8e1d c1bc 9e4b e03d
00000040: 3dd6 dc3d c1ca 7e3d 6d0b 2dbe f041 a1bd
00000050: e02c c7bc bed6 4abd aa9d e63d a6c3 2d3d
00000060: 7f41 173d 7af0 c93d fab7 dbbd 614c 763d
00000070: 2bbc 3cbe f4b3 9e3c 423a 8cbd ab93 e8bd
00000080: 6630 8bbd 9e49 933d b497 91bd 3af8 96bd
00000090: 3e87 373d 4d8e c1bc cd3d 5fbd d2fe 33bd
000000a0: 3446 453d b6ed b0bd f6ce 223c fe86 863d
000000b0: 8169 ddbd 444d 1fbe 4613 e03d 86f9 1a3c
000000c0: 6e1e 1b3e cbad fa3d 1b2d 003e cab1 2abc
000000d0: 2c19 823d 40df ba3d 6b62 bb3d 4af1 76bd
000000e0: 3678 74bc ec38 09be 1388 683d 42ff b03d
000000f0: a419 7ebd a173 09be e544 143e 65bc f1bd
00000100: c054 37be 93a7 21bd 0d8e eaba 2370 bf3c
00000110: 82db 8f3d 013a 19bd 5ed2 14be 54c6 22be
00000120: cd96 be3d bce2 69bd f0c0 e33c 43fd 5b3d
00000130: 616f b13d 0c5b e73d 4c1a a43c fcf1 91bd
00000140: ea18 5fbd cac4 103d 4bc8 4a3e 7e51 01be
00000150: e454 3c3d a3b8 a4bb 54aa ae3e b01c 293d
00000160: b565 cd3d e187 6e3e 2046 a4bd e673 09be
00000170: 01c1 3bbd bf37 f53d 4cef 94bd 2d1e eb3d
00000180: b5f6 1a3c e53c 42bc f3a8 7ebd b43a 2c3e
00000190: 197a 8a3d 8256 b7bb 2400 963d 358e a7bc
000001a0: 1291 1cbe 62f0 5b3e 0210 5a3d 537f a3bd
000001b0: dd07 2bbe d961 97bd 1067 80bd 90c6 c5bd
000001c0: 5530 963b 3043 b6bb 670a 5a39 3bc3 b9bc
000001d0: bc3b df3c 5d9a 45bd 5233 143c 4b44 febc
000001e0: 83d4 ea3d 4096 82bd d4bb c0bd 3bf6 033e
000001f0: 9b61 db3d 2631 d43d 34cf 083e c8bc 4136
00000200: 3f9a a3bb dd26 bcbd de18 2a3c cd0d 223d
00000210: e51f b23c 024d 763d 85bd 14bc 8d3d c5bb
00000220: 2fcd 953d 1a1d 36bd 2df4 95bc 5f11 223c
00000230: 5454 31be aff5 babd 5a55 2ebd d6d1 b33c
00000240: 5a66 863e f6af f2bd 240e 2b3d c56e b23d
00000250: 45d5 54be 1524 8ebd 95ed 6ebc bc03 193e
00000260: 25a6 853d 4afb 41bd fcf8 07bd 6159 ee3d
00000270: 2c69 1bbc 9305 cebd ecae 0f3e c1ca f2bc
00000280: 1c36 673d 51a2 0b3e a2c4 643d 424e c63c
00000290: 32a5 463c 8f42 b93d 1e9d 0fbc ed1d f03d
000002a0: 04f0 9c3d 423e 6bba b236 88bd 7f77 db3b
000002b0: a8a7 4fbd 140c fc3d f2a6 4f3b 4469 80bd
000002c0: 7c4d 11bd 8b5d 83bd 3bbf 01be 879c b23d
000002d0: efa2 66bd 9860 b2bd d53c f9bd acf3 05be
000002e0: bd05 37bd e554 443e 57d1 04be 17e9 6cbc
000002f0: 75fd 093e 2d02 72b9 e056 4ebd e9a6 11bd
00000300: 75f5 2c3d 5a80 28bc b363 8bbd ff11 03be
00000310: 76e0 87bd d9ca ac3d ba56 173c bc26 d8bc
00000320: 9bca 563c 7026 94be 46cf eebd 05d5 f13b
00000330: 3091 f63d 5e56 94bd 124e 01be b05a 7bbc
00000340: 9079 9b3d 0761 3f3e e98b eabc 23bb 683b
00000350: 3b04 0abe 0281 c43d 61cd ee3a 08e4 db3b
00000360: 1b5a d33c 639d b13c 5d86 943d a612 bc3c
00000370: e41b 073d 19f7 943d 0517 d33b f84f e7bc
00000380: 8f63 49bd 2773 9d3d d57b 1e3e 0009 d03d
00000390: 6c2b fbbd 4ccb cc3c c74e 9e3d 66e3 34bd
000003a0: 946f 0b3e e988 e63d 6a33 543d 37fd bb3d
000003b0: ea5b c8bd 43d0 21be dcb8 8abd 7fe7 803c
000003c0: d127 54bd a863 24be 0e49 19bd e1f9 b5bc
000003d0: 5628 353b 6736 403d cdc9 bfbd 009f cd3c
000003e0: d7b3 033e 9ce5 2abe d710 03be 0074 9c3d
000003f0: 5f26 f3bb 6f91 73bc 1584 88bd d269 ac3d

network_body._body_endoder.seq_layers.2.bias f4 [128]
0.018157639 0.018123984 0.01605426 0.02090399 0.029206004 0.0002731504 0.023700917 0.01481003
0.020578835 0.020163791 0.009974978 0.026740743 0.026025739 0.0043102377 0.01599014 0.012620277
2.4103085e-05 0.01052394 0.027650867 0.012140185 0.0010360325 0.027727535 -0.0035974407 0.0062228995
0.011132582 0.027846988 0.026996264 0.023105163 0.021583382 0.031029208 0.016504928 0.014374871
0.016955169 0.03058601 0.027250605 0.040593777 -0.011539432 -0.0031551062 0.014030804 0.0037088399
0.022210406 0.008164696 0.0065989336 0.015553493 0.0041521257 -0.010023965 0.0043282127 0.012744224
-0.009261981 0.0137166055 0.009687041 0.013035514 0.031941254 0.0028691348 -0.0070426525 0.0051629823
0.02457754 -0.005756259 0.013761829 -0.008999599 0.0041288524 0.022285732 0.014023393 0.01872613
0.0007473107 0.018217059 -0.004146903 0.006592891 0.020890657 -0.003498462 0.007049924 0.035952196
0.022235284 0.023668619 0.0147048 0.01736014 -0.0010028534 0.037776094 0.01695383 0.037871074
0.005666627 0.0011214787 0.014774779 0.009787196 0.0041201813 0.015372511 -0.0068782424 0.011959488
-0.0040887026 -0.005592627 0.01643436 0.008439071 0.014321551 0.018308042 0.01726672 0.020605167
0.012620731 0.0022081702 0.010007234 0.009049303 -0.000709872 0.02406677 0.007297111 0.0031153574
0.015813 0.02428012 0.030577201 0.00777564 0.052863922 0.015982205 0.022551514 0.006906966
-0.010847349 0.0065682493 -0.0026625039 0.018018367 0.015560335 0.013263669 0.007498933 0.010373236
0.012774354 -0.010279777 0.024093967 0.007551766 0.016428746 0.0049408004 -0.0059290323 0.021955
00000000: 54bf 943c c078 943c 3984 833c d83e ab3c
00000010: 6e41 ef3c a035 8f39 6d28 c23c c5a5 723c
00000020: f294 a83c 892e a53c 176e 233c 670f db3c
00000030: ee33 d53c e53c 8d3b c1fd 823c 47c5 4e3c
00000040: fb30 ca37 9b6c 2c3c 1284 e23c a0e7 463c
00000050: 7bcb 873a db24 e33c 0ac3 6bbb 77e9 cb3b
00000060: 6f65 363c 5e1f e43c 4527 dd3c 0a47 bd3c
00000070: a2cf b03c f730 fe3c 5835 873c 9484 6b3c
00000080: 91e5 8a3c 838f fa3c a93c df3c a945 263d
00000090: e30f 3dbc e6c5 4ebb 75e1 653c 0210 733b
000000a0: 99f2 b53c 38c5 053c de3b d83b 14d4 7e3c
000000b0: 8e0e 883b 8e3b 24bc aed3 8d3b 26cd 503c
000000c0: 90bf 17bc 9dbb 603c 65b6 1e3c e992 553c
000000d0: d5d4 023d 1808 3c3b 0dc6 e6bb 3c2e a93b
000000e0: d656 c93c 009f bcbb 4b79 613c 0e73 13bc
000000f0: 534b 873b 9190 b63c 60c2 653c 8a67 993c
00000100: 2ce7 433a f13b 953c bee2 87bb 2e09 d83b
00000110: e222 ab3c 7446 65bb 0d03 e73b 9c42 133d
00000120: c526 b63c b1e4 c13c 67ec 703c da36 8e3c
00000130: 2d72 83ba 1bbb 1a3d c2e2 8a3c b31e 1b3d
00000140: 1daf b93b 95fe 923a ea11 723c 7a5a 203c
00000150: 9602 873b fcdc 7b3c e162 e1bb baf1 433c
00000160: 86fa 85bb 5b42 b7bb 5aa1 863c 0744 0a3c
00000170: f0a4 6a3c bffa 953c f072 8d3c 2bcc a83c
00000180: 2fc7 4e3c f3b6 103b 62f5 233c 8743 143c
00000190: b416 3aba ad27 c53c 9b1c ef3b 062b 4c3b
000001a0: 448a 813c 1ae7 c63c 0a7d fa3c ccca fe3b
000001b0: d787 583d 1ded 823c f4bd b83c d553 e23b
000001c0: 14b9 31bc 783a d73b 677d 2ebb 419b 933c
000001d0: c6f0 7e3c dc4f 593c 9cb9 f53b 81f4 293c
000001e0: 864b 513c 836c 28bc b660 c53c ce74 f73b
000001f0: 9495 863c 70e6 a13b 5448 c2bb f9da b33c

action_model._discrete_distribution.branches.0.weight f4 [3, 128]
-0.0076886574 -0.0051504318 0.006658723 -0.022344803 0.001983372 0.0065882932 -0.002734233 -0.009359734
-0.025115542 0.0026935113 -0.012577427 0.006098995 -0.008971543 0.013898689 -8.8230205e-05 -0.019053038
-0.007598893 -0.00081285555 -0.007797528 -0.015538915 0.0027598692 -0.0057478673 0.015315611 0.0017490666
-0.01780898 -0.014640132 -0.013417741 0.0033957658 -0.02469144 -0.017763527 -0.03056294 0.011728805
-0.025608608 -0.007219816 -0.011029098 -0.0024602488 0.0010323954 0.011873125 -0.007995188 0.0011221202
-0.025232473 -0.0065026237 0.008188643 -0.015799392 -0.002650141 0.0035351845 -0.0023606261 -0.013869117
-0.0047268276 -0.0039736102 -0.009818817 -0.013777612 -0.008134045 -0.009952274 0.018578377 -0.003699378
-0.010773589 0.004693847 -0.016661815 0.012716142 -0.01390005 0.0056728045 -0.019895392 -0.007452786
-0.01385429 -0.010425828 0.011695161 0.007276108 -0.012522555 0.02534028 0.018795239 -0.011407634
-0.01659611 -0.00789989 -0.0043003354 -0.010200538 -0.00026855833 -0.0076792846 -0.012003357 -0.004359039
0.0014490053 -0.0102633815 -0.00057509 -0.0022650664 0.003496519 0.002483231 -0.0021653755 -0.006335161
0.0102704475 0.00904654 -0.012831709 0.0031044674 -0.017209444 -0.011875652 -0.003131875 -0.0242073
-0.017095491 0.009844194 -0.007714933 -0.003339007 0.0064320276 -0.0046486757 -0.0057674665 -0.0052249786
-0.019837864 -0.016304556 -0.011655154 -0.012686568 -0.011109544 0.0026480611 -0.016933175 -0.0006578524
-0.0056447387 -0.013701849 0.021645863 0.0012572138 -0.016769338 0.008171809 -0.0072101834 0.0052787666
-0.0056884135 0.0062777037 0.0030587022 0.010131575 -0.025915237 -0.027005836 0.0060647973 -0.010582222
-0.028168235 0.024962964 -0.017825706 -0.029011466 -0.034850106 0.010839175 -0.029620016 -0.03443147
-0.025811942 0.020530842 -0.0043899487 0.037939698 0.03396377 -0.018990804 0.030940004 0.022825236
-0.02526056 -0.021520345 -0.031122133 0.02334376 -0.03159718 0.03158754 0.010056105 0.023235876
0.03267143 0.031791802 0.037710536 0.032355014 -0.018158702 0.049887184 0.013330147 0.02220085
-0.012155053 0.032262187 0.042784948 0.0782104 -0.018478123 -0.021630272 -0.037243962 0.007090572
-0.025745824 0.019724062 -0.03297619 -0.026253626 -0.020169672 -0.009527124 -0.029705154 0.020228004
-0.010915596 0.029222738 -0.015282585 0.022222498 0.045242727 0.008193807 -0.017021196 -0.024337826
0.028910512 -0.019219508 0.017990489 -0.018750599 0.018323444 0.039944716 0.023673527 0.03925185
-0.029855512 0.029078582 0.008369014 -0.0151343625 0.021857582 0.0024073196 0.014061938 0.053001955
0.037190497 -0.019895818 0.018939676 0.030584017 -0.023565968 0.050195873 -0.03850692 0.05003053
0.0134751955 -0.0023914285 0.030672954 0.01261067 -0.034223273 -0.030834153 0.0057465434 0.014060583
-0.013873904 0.005307406 -0.035479456 0.017218681 0.0025365013 0.035366345 -0.054514226 0.031525865
0.020442247 -0.03905301 0.014542727 -0.027947823 -0.015612997 0.03355527 -0.006529445 0.0150371725
0.018456092 0.050119232 0.046931934 -0.032334004 0.059970107 -0.03481403 -0.038291767 0.013497737
-0.007666516 0.010222833 0.012953194 0.026431674 0.020435465 -0.035064846 -0.017274912 0.031438272
0.026077794 -0.0058458652 0.044559617 -0.024124721 -0.018554509 0.010019584 0.0020273712 0.04180927
00000000: 22f1 fbbb f4c4 a8bb 6b31 da3b 730c b7bc
00000010: 76fb 013b 9ce2 d73b d130 33bb 9259 19bc
00000020: 1cbf cdbc 9f85 303b 8d11 4ebc 14da c73b
00000030: 61fd 12bc 54b7 633c 3b08 b9b8 1e15 9cbc
00000040: 2200 f9bb d015 55ba 6882 ffbb ef96 7ebc
00000050: ecde 343b 9b58 bcbb 54ee 7a3c f040 e53a
00000060: 23e4 91bc 2add 6fbc 16d6 5bbc 7f8b 5e3b
00000070: b445 cabc d184 91bc 215f fabc 2c2a 403c
00000080: 25c9 d1bc 3594 ecbb 64b3 34bc 203c 21bb
00000090: 7151 873a 7f87 423c 40fe 02bc 1b14 933a
000000a0: 55b4 cebc f613 d5bb a829 063c ba6d 81bc
000000b0: fdad 2dbb 8eae 673b bcb4 1abb 4b3b 63bc
000000c0: 81e3 9abb 0f35 82bb 1adf 20bc 7ebb 61bc
000000d0: a844 05bc dd0e 23bc ae31 983c 4471 72bb
000000e0: b583 30bc d8ce 993b 5c7e 88bc 5e57 503c
000000f0: 09bd 63bc efe2 b93b a9fb a2bc 8036 f4bb
00000100: 1bfd 62bc 18d1 2abc 109d 3f3c 6b6c ee3b
00000110: 672b 4dbc 6b96 cf3c 79f8 993c 16e7 3abc
00000120: 91f4 87bc 8a6e 01bc d4e9 8cbb 2820 27bc
00000130: 4acd 8cb9 82a2 fbbb baa9 44bc 45d6 8ebb
00000140: 8dec bd3a be27 28bc a3c1 16ba 8271 14bb
00000150: db25 653b b4bd 223b f9e8 0dbb 2f97 cfbb
00000160: 6145 283c f037 143c 173c 52bc 5274 4b3b
00000170: d2fa 8cbc 1892 42bc 2540 4dbb 634e c6bc
00000180: d80b 8cbc 8b49 213c 8ccd fcbb 3ed3 5abb
00000190: c2c3 d23b eb53 98bb 04fd bcbb 4c36 abbb
000001a0: 0483 a2bc 2291 85bc 42f5 3ebc 53db 4fbc
000001b0: ce04 36bc 188b 2d3b 71b7 8abc ba73 2cba
000001c0: 80f7 b8bb b87d 60bc aa52 b13c 18c9 a43a
000001d0: da5f 89bc 0de3 053c 6743 ecbb 81f9 ac3b
000001e0: df65 babb 32b5 cd3b 8274 483b e8fe 253c
000001f0: 314c d4bc 583b ddbc 35bb c63b 0e61 2dbc
00000200: 12c1 e6bc 217f cc3c 3707 92bc 74a9 edbc
00000210: fcbe 0ebd cc96 313c ada5 f2bc 0308 0dbd
00000220: 9173 d3bc 4c30 a83c 8fd9 8fbb a866 1b3d
00000230: 981d 0b3d 9a92 9bbc e475 fd3c fdfb ba3c
00000240: 3cef cebc 6f4b b0bc d8f3 febc 6a3b bf3c
00000250: 0b6c 01bd f061 013d 5dc2 243c 2a59 be3c
00000260: 7ad2 053d 1f38 023d 5d76 1a3d b186 043d
00000270: 8fc1 94bc 8156 4c3d b066 5a3c 8fde b53c
00000280: fd25 47bc 5b25 043d 453f 2f3d c62c a03d
00000290: 6f5f 97bc f831 b1bc 208d 18bd 0758 e83b
000002a0: e8e8 d2bc 5b94 a13c 0b12 07bd d811 d7bc
000002b0: de3a a5bc a817 1cbc 3958 f3bc 33b5 a53c
000002c0: 54d7 32bc 8664 ef3c cf63 7abc f50b b63c
000002d0: 7050 393d 513f 063c 0970 8bbc 1f60 c7bc
000002e0: bdd5 ec3c 3b72 9dbc ca60 933c db9a 99bc
000002f0: 0c1b 963c 129d 233d fcee c13c 8cc6 203d
00000300: 8c93 f4bc 3536 ee3c 301e 093c 1ef6 77bc
00000310: ac0e b33c 1fc4 1d3b 0b64 663c 9418 593d
00000320: 1055 183d 8efc a2bc 6127 9b3c 558b fa3c
00000330: 6b0d c1bc 309a 4d3d 6fb9 1dbd d0ec 4c3d
00000340: 11c7 5c3c 83b9 1cbb d945 fb3c fc9c 4e3c
00000350: b42d 0cbd e897 fcbc 804d bc3b 5c5e 663c
00000360: 5f4f 63bc c0e9 ad3b e852 11bd 310e 8d3c
00000370: 6e3b 263b 4ddc 103d 4f4a 5fbd 4421 013d
00000380: 8076 a73c 0df6 1fbd 9e44 6e3c d5f2 e4bc
00000390: a8cd 7fbc 4071 093d f4f4 d5bb 795e 763c
000003a0: 3b31 973c d349 4d3d b33b 403d a970 04bd
000003b0: 37a3 753d 2899 0ebd d4d7 1cbd 9d25 5d3c
000003c0: 6637 fbbb ab7d 273c a239 543c 3d87 d83c
000003d0: 4768 a73c 28a0 0fbd 1e84 8dbc 6bc5 003d
000003e0: 19a1 d53c ac8e bfbb 2584 363d 35a1 c5bc
000003f0: a0ff 97bc 2e29 243c a5dd 043b 3240 2b3d

action_model._discrete_distribution.branches.0.bias f4 [3]
-0.008196026 0.010396851 -0.0028256488
00000000: a048 06bc 8e57 2a3c 852e 39bb

exp_avg f4 [128, 8]
-0.00030912686 -0.00014189848 0.0008775217 0.000530518 -0.00040309827 -0.00018835603 5.39088e-05 -0.0004567204
0.00015140795 0.00010535449 -0.0003957914 -0.00017882169 0.00018017442 -3.029365e-05 7.942021e-05 0.00024148682
6.800687e-05 -7.682241e-05 -0.00058194075 -0.000318536 0.00016005484 -0.00016261156 -7.830733e-05 0.00035295665
-0.0004992803 -0.00020568422 0.00011123567 0.00043782924 -0.00019678642 -0.00010564056 -0.00015550571 0.00017368763
1.4452496e-05 -6.456769e-05 -0.00012332074 -5.5428987e-05 -2.2493476e-05 -4.2618427e-05 -1.5324196e-05 5.2102067e-05
-3.8239148e-05 3.6133475e-05 -0.0002230037 -0.00020264485 0.00011953031 3.7840713e-05 2.4903653e-05 0.00017967704
0.00029889934 0.00024266055 -0.0004095834 -0.0004618673 0.00020966552 -0.00015463824 0.00020235078 0.00012714622
-5.996274e-05 2.0968158e-05 0.00031494934 0.00028494795 -0.00016651345 -0.00010206766 2.1800824e-05 -0.00016292311
-1.3726069e-05 -0.0002728184 -0.0008737114 -0.0006322603 0.00013821288 -0.00029483187 -0.00025716604 0.00053682644
-8.342406e-05 -4.3517615e-05 -8.5402375e-05 2.1557835e-05 -2.3446199e-05 6.025091e-05 -6.3945365e-05 7.909742e-05
1.8238368e-05 9.175554e-06 -0.00013032241 -9.692431e-05 8.05942e-05 -8.180471e-05 -1.0349781e-06 9.333501e-05
-0.0003654375 -0.00029567326 0.00032005148 0.0004203268 -0.00024190062 -4.7011446e-05 -0.00022109243 -7.775575e-05
-6.8425834e-05 4.676657e-05 5.5068558e-05 6.59915e-05 -9.463599e-06 -2.097176e-05 2.9260165e-05 -1.8893816e-05
6.943817e-05 -2.9258583e-05 -5.5205874e-05 -9.1150105e-05 8.680996e-05 -0.00011358333 -2.5334071e-05 0.00016119488
1.0216299e-05 0.00038554767 0.0006326417 0.00034995136 -3.9167247e-05 -0.00026890243 0.0004478814 -0.00037807898
-5.805011e-05 0.00017180694 0.0002789838 0.00023687806 -4.1481526e-05 -0.00019232968 0.00012581912 -0.00010712052
1.985157e-05 7.653575e-06 0.0001435399 5.923824e-05 -5.592055e-05 -7.177239e-05 -3.073845e-05 -5.1719908e-05
0.00013078409 0.000115231385 -0.00023993623 -0.00025709035 0.00011433588 -5.9864604e-05 6.861509e-05 9.714321e-05
0.00030641776 0.00024016273 -0.0007812066 -0.0010431738 0.00056321436 -0.00023934878 0.0002216144 0.0004996434
3.5640196e-07 -0.00016078484 -0.000581336 -0.00046868654 0.0001027299 -0.00028316042 -6.800646e-05 0.00032797968
-5.494854e-05 1.888349e-05 -2.6379545e-05 -3.634422e-06 2.2507451e-05 -1.0885665e-05 2.2224383e-05 1.22832635e-05
-3.3567827e-05 -5.2015017e-05 2.1394952e-05 6.3347594e-05 -4.2154647e-05 -1.9502007e-05 -3.922041e-05 -9.4995075e-06
-0.00010952912 9.730735e-05 0.0002697974 0.00022608155 -7.4909265e-05 -5.95366e-05 7.516973e-05 -0.00016681201
-0.00029115012 -0.00023779525 -0.0011436446 -0.0005291579 0.00021855679 -0.000362635 -0.00035359952 0.00093425537
1.6858068e-05 -0.00031556567 -0.00071972876 -0.0004927488 6.4538894e-05 -8.359154e-05 -0.00024845853 0.00037573362
-0.00045459054 -9.319565e-05 0.000579956 0.00047747185 -0.00033951172 -0.00022540896 -1.7851286e-05 -0.00021478692
-0.00029585397 -0.00010982731 0.0003094951 0.00025782888 -0.00017174937 -8.107491e-05 -0.00010434635 -4.7803474e-05
-6.1878156e-05 -1.510174e-05 -2.0844156e-05 2.2399456e-06 1.2254294e-05 -5.820687e-06 -1.0980983e-05 1.2100603e-05
0.00011500166 5.6406275e-06 -0.0005157158 -0.00053229136 0.0002603084 -0.0002196059 -1.639871e-05 0.00029303425
-0.0002991182 -5.1518036e-05 0.0003905472 0.0003635732 -0.00010868045 -4.2799256e-05 1.5974257e-06 -0.00011552831
-2.2791923e-05 -2.768458e-05 -0.0007338525 -0.00041257715 0.00022283249 -0.0001361326 7.860714e-05 0.000468654
4.3270244e-05 1.5749847e-05 -0.0001197925 -0.00013727893 6.827408e-05 4.24362e-06 8.954062e-06 9.750333e-05
00000000: 4e12 a2b9 95ca 14b9 7c09 663a 7612 0b3a
00000010: ef56 d3b9 7081 45b9 221c 6238 f973 efb9
00000020: 43c3 1e39 c3f1 dc38 3982 cfb9 1582 3bb9
00000030: 34ed 3c39 1e1f feb7 678e a638 a037 7d39
00000040: e99e 8e38 b81b a1b8 628d 18ba 2e01 a7b9
00000050: 65d4 2739 b582 2ab9 ed38 a4b8 0a0d b939
00000060: 22e2 02ba f0ac 57b9 3247 e938 728c e539
00000070: 7458 4eb9 588b ddb8 3f0f 23b9 eb1f 3639
00000080: ff78 7237 8468 87b8 a94f 01b9 6c7c 68b8
00000090: 5fb0 bcb7 30c1 32b8 768c 80b7 2b88 5a38
000000a0: f962 20b8 068e 1738 1ad6 69b9 107d 54b9
000000b0: 59ac fa38 28b7 1e38 30e8 d037 b067 3c39
000000c0: 97b5 9c39 b272 7e39 5abd d6b9 c826 f2b9
000000d0: a9d9 5b39 6326 22b9 202e 5439 8e52 0539
000000e0: 8080 7bb8 c7e4 af37 c91f a539 1165 9539
000000f0: 1d9a 2eb9 280d d6b8 eae0 b637 57d6 2ab9
00000100: 0449 66b7 1109 8fb9 c809 65ba 45be 25ba
00000110: 3ded 1039 aa93 9ab9 3ed4 86b9 d0b9 0c3a
00000120: f4f3 aeb8 af86 36b8 0d1a b3b8 19d7 b437
00000130: 54ae c4b7 ecb5 7c38 681a 86b8 1be1 a538
00000140: 99fe 9837 b4f0 1937 28a7 08b9 d843 cbb8
00000150: af04 a938 928e abb8 94e9 8ab5 dabc c338
00000160: 3198 bfb9 9804 9bb9 95cc a739 4f5f dc39
00000170: b4a6 7db9 282e 45b8 0cd5 67b9 cd10 a3b8
00000180: d77f 8fb8 3927 4438 6af9 6638 eb64 8a38
00000190: d9c5 1eb7 83ec afb7 ba73 f537 297e 9eb7
000001a0: 559f 9138 5470 f5b7 db8c 67b8 d727 bfb8
000001b0: be0d b638 9633 eeb8 8184 d4b7 6c06 2939
000001c0: ac66 2b37 5523 ca39 ded7 253a ad79 b739
000001d0: 8347 24b8 79fb 8cb9 a0d1 ea39 e738 c6b9
000001e0: d57a 73b8 1327 3439 9244 9239 7862 7839
000001f0: 73fc 2db8 1bac 49b9 50ee 0339 e4a5 e0b8
00000200: ec86 a637 db67 0037 3383 1639 9376 7838
00000210: 3c8c 6ab8 8284 96b8 29ed 00b8 d4ed 58b8
00000220: 1623 0939 61a8 f138 6497 7bb9 15ca 86b9
00000230: 9cc7 ef38 2117 7bb8 72e5 8f38 5db9 cb38
00000240: b2a6 a039 31d4 7b39 e3c9 4cba 1bbb 88ba
00000250: ada4 133a b3f9 7ab9 2a61 6839 80fa 023a
00000260: 8357 bf34 5a98 28b9 cc64 18ba 0bba f5b9
00000270: b270 d738 2675 94b9 b19e 8eb8 b0f4 ab39
00000280: 8c78 66b8 fc67 9e37 a449 ddb7 e5e6 73b6
00000290: 62ce bc37 93a1 36b7 806e ba37 3714 4e37
000002a0: 2ecb 0cb8 b32a 5ab8 4f79 b337 7bd9 8438
000002b0: 35cf 30b8 3e98 a3b7 9880 24b8 1360 1fb7
000002c0: 00b3 e5b8 7c11 cc38 9873 8d39 4e10 6d39
000002d0: 9b18 9db8 f0b6 79b8 71a4 9d38 42ea 2eb9
000002e0: 82a5 98b9 ad58 79b9 58e6 95ba 2fb7 0aba
000002f0: 642c 6539 0c20 beb9 5363 b9b9 d1e8 743a
00000300: 6d6a 8d37 8272 a5b9 2eac 3cba d02b 01ba
00000310: 0e59 8738 de4d afb8 8a43 82b9 1dfe c439
00000320: 1c56 eeb9 0972 c3b8 3008 183a 3055 fa39
00000330: 7e00 b2b9 c25b 6cb9 58bf 95b7 6d38 61b9
00000340: d91c 9bb9 1753 e6b8 bb43 a239 352d 8739
00000350: 9f17 34b9 c306 aab8 85d4 dab8 9780 48b8
00000360: 95c4 81b8 7b5d 7db7 7cda aeb7 f951 1636
00000370: cb97 4d37 524f c3b6 f63a 38b7 b203 4b37
00000380: 0c2d f138 9f44 bd36 1a31 07ba 7889 0bba
00000390: 017a 8839 0346 66b9 f68f 89b7 64a2 9939
000003a0: f7d2 9cb9 1215 58b8 5cc2 cc39 f89d be39
000003b0: 5feb e3b8 5a83 33b8 2167 d635 ca47 f2b8
000003c0: 4831 bfb7 2f3c e8b7 0260 40ba 2b4f d8b9
000003d0: 24a8 6939 d1be 0eb9 e3d9 a438 adb5 f539
000003e0: 127d 3538 8a1e 8437 1c39 fbb8 88f2 0fb9
000003f0: 5e2e 8f38 6b64 8e36 6739 1637 b47a cc38

exp_avg_sq f4 [128, 8]
6.1520285e-07 5.358504e-07 8.5839696e-07 3.8724178e-07 2.3449543e-07 5.5370737e-07 6.272636e-07 5.608767e-07
2.1501691e-07 1.6438855e-07 2.6526334e-07 1.2842705e-07 8.2290065e-08 1.8553479e-07 1.877274e-07 1.88877e-07
2.840542e-07 2.3001827e-07 3.780979e-07 1.6227973e-07 1.0376432e-07 2.53311e-07 2.540889e-07 2.493033e-07
3.4099273e-07 3.0916442e-07 3.976857e-07 2.2512063e-07 1.6690655e-07 3.1492746e-07 4.4343497e-07 3.0793487e-07
3.8085652e-08 2.9557542e-08 5.0162605e-08 2.2597586e-08 1.4328329e-08 4.0549693e-08 3.804354e-08 3.223078e-08
6.98308e-08 5.967574e-08 9.849256e-08 4.483557e-08 3.1055226e-08 6.386975e-08 8.0310905e-08 6.779344e-08
3.7065072e-07 2.1242771e-07 4.1121748e-07 2.018788e-07 1.0757363e-07 2.994336e-07 2.4611884e-07 2.6353388e-07
1.8996758e-07 1.3140132e-07 2.265867e-07 1.0459633e-07 9.033702e-08 1.4769577e-07 2.0277015e-07 1.6437943e-07
8.387904e-07 6.017419e-07 9.854754e-07 5.17677e-07 2.9693393e-07 7.104412e-07 6.998797e-07 6.7725983e-07
1.511564e-08 1.6631548e-08 1.9431827e-08 9.521451e-09 9.308035e-09 1.6404746e-08 2.6108394e-08 1.4471886e-08
7.521843e-08 7.421887e-08 9.6264074e-08 4.6462098e-08 2.9814753e-08 7.8241e-08 8.182201e-08 6.925322e-08
4.081807e-07 2.9458167e-07 4.7389682e-07 2.0645358e-07 1.2027995e-07 3.392623e-07 3.3649349e-07 3.2926022e-07
3.0163537e-08 2.7022567e-08 3.6718536e-08 1.6507828e-08 1.4625358e-08 2.5530806e-08 3.6185103e-08 2.7486857e-08
6.308021e-08 5.0742596e-08 8.283821e-08 3.6848082e-08 2.2807544e-08 5.912939e-08 5.4971466e-08 5.63869e-08
2.126412e-07 2.0136878e-07 2.7953106e-07 1.470599e-07 8.780406e-08 1.9268693e-07 2.3269914e-07 1.9715164e-07
1.3424581e-07 1.2081391e-07 1.4491484e-07 6.814655e-08 5.9942444e-08 9.912921e-08 1.6199989e-07 1.0282378e-07
2.6941976e-08 2.2652136e-08 3.0951348e-08 1.5119893e-08 8.006595e-09 2.4580174e-08 2.1423052e-08 2.042659e-08
1.14545394e-07 8.054867e-08 1.2976092e-07 7.969689e-08 3.8850185e-08 9.9604556e-08 9.668914e-08 9.548371e-08
1.4692723e-06 1.0925961e-06 2.1162298e-06 8.476303e-07 5.367047e-07 1.3402688e-06 1.433513e-06 1.2233126e-06
4.0111428e-07 2.9877765e-07 4.8071723e-07 2.2164949e-07 1.2865881e-07 3.6288853e-07 3.1169031e-07 3.1786814e-07
1.1963803e-08 1.3043183e-08 1.2098127e-08 8.407556e-09 4.3851145e-09 9.994552e-09 1.3410333e-08 1.0197995e-08
1.0505673e-08 8.278233e-09 9.724975e-09 5.770725e-09 3.5223235e-09 8.656743e-09 8.496274e-09 7.441875e-09
7.221427e-08 6.006638e-08 8.063923e-08 5.742054e-08 2.4381167e-08 5.7598903e-08 6.4337456e-08 6.141007e-08
8.8183606e-07 7.2728824e-07 1.1016976e-06 5.0546606e-07 2.9504793e-07 7.9374837e-07 7.5253087e-07 7.379015e-07
3.6568778e-07 2.9733042e-07 4.777993e-07 2.2842117e-07 1.2905566e-07 3.5067887e-07 3.277507e-07 3.0915655e-07
5.0900366e-07 4.821136e-07 6.434212e-07 3.781149e-07 2.1617379e-07 4.6447505e-07 5.8100034e-07 4.953716e-07
1.4085374e-07 1.0084216e-07 1.6034777e-07 9.228449e-08 5.6403174e-08 1.2013103e-07 1.427112e-07 1.2137019e-07
2.3751046e-08 2.1214053e-08 2.0999556e-08 1.5635022e-08 7.354023e-09 1.9553084e-08 1.964745e-08 1.8357577e-08
3.8179223e-07 2.7210706e-07 4.2661955e-07 2.653147e-07 1.539416e-07 3.2062704e-07 3.6957914e-07 3.1602082e-07
1.9057835e-07 1.6909684e-07 2.1272423e-07 1.383345e-07 7.629724e-08 1.7221936e-07 1.8863776e-07 1.6152387e-07
3.941368e-07 3.0986192e-07 5.097765e-07 2.2788105e-07 1.3949558e-07 3.3992004e-07 3.3026706e-07 3.4429422e-07
3.29965e-08 2.234932e-08 4.42927e-08 1.746241e-08 1.3645428e-08 3.02189e-08 3.719924e-08 2.9079771e-08
00000000: 6b24 2535 5cd7 0f35 976c 6635 1be6 cf34
00000010: 9dc9 7b34 7ba2 1435 3a61 2835 278f 1635
00000020: 66df 6634 c882 3034 8469 8e34 c2e5 0934
00000030: 71b7 b033 6a37 4734 1d92 4934 1dce 4a34
00000040: 1d80 9834 f1fa 7634 61fd ca34 1d3f 2e34
00000050: 0ad5 de33 ccfe 8734 b669 8834 fcd7 8534
00000060: af11 b734 3cfb a534 8281 d534 b0b8 7134
00000070: ec36 3334 4d13 a934 3d11 ee34 3f52 a534
00000080: 9e93 2333 b9e5 fd32 5e72 5733 9e1c c232
00000090: a828 7632 dc28 2e33 5165 2333 1e6e 0a33
000000a0: e3f5 9533 1627 8033 dc82 d333 3b91 4033
000000b0: 9561 0533 c428 8933 6377 ac33 d695 9133
000000c0: d9fd c634 af17 6434 4dc5 dc34 06c4 5834
000000d0: 3a03 e733 d7c1 a034 5122 8434 d27b 8d34
000000e0: e4f9 4b34 5217 0d34 ae4b 7334 719e e033
000000f0: 4dff c133 4e96 1e34 09b9 5934 4680 3034
00000100: 3d29 6135 6387 2135 ad44 8435 7ef6 0a35
00000110: 4a6a 9f34 26b5 3e35 5edf 3b35 f1cc 3535
00000120: a5d7 8132 29dd 8e32 0aeb a632 c993 2332
00000130: 2ce9 1f32 6bea 8c32 f744 e032 07a0 7832
00000140: c587 a133 4162 9f33 bcb9 ce33 9e8d 4733
00000150: ab0d 0033 7205 a833 20b6 af33 5cb8 9433
00000160: ee23 db34 ff26 9e34 e26b fe34 87ad 5d34
00000170: 4d26 0134 db23 b634 50a7 b434 2ec5 b034
00000180: 298d 0133 411f e832 75b4 1d33 19cd 8d32
00000190: 0143 7b32 d64e db32 f169 1b33 3d1c ec32
000001a0: b676 8733 13f0 5933 cae4 b133 e542 1e33
000001b0: 52ea c332 74f5 7d33 c419 6c33 0d2e 7233
000001c0: 5e52 6434 d437 5834 7512 9634 84e7 1d34
000001d0: cb8e bc33 61e5 4e34 dadb 7934 a1b0 5334
000001e0: 3525 1034 13b9 0134 e399 1b34 f657 9233
000001f0: b5b9 8033 dce0 d433 31f2 2d34 f9cf dc33
00000200: 086e e732 9394 c232 5eef 0433 ffe0 8132
00000210: 618d 0932 6024 d332 ca05 b832 8c76 af32
00000220: fffb f533 1afa ac33 6954 0b34 d425 ab33
00000230: 3bdc 2633 2fe6 d533 6ba3 cf33 ba0c cd33
00000240: d033 c535 51a5 9235 8d04 0e36 b688 6335
00000250: 1112 1035 49e3 b335 2267 c035 b330 a435
00000260: ba58 d734 b067 a034 a30a 0135 8cfe 6d34
00000270: 7725 0a34 05d3 c234 6456 a734 77a7 aa34
00000280: 5d89 4d32 8714 6032 20d8 4f32 d370 1032
00000290: e0ab 9631 81b4 2b32 4563 6632 4233 2f32
000002a0: 707c 3432 0e38 0e32 e412 2732 d547 c631
000002b0: 5f0d 7231 c2b8 1432 02f7 1132 6db3 ff31
000002c0: 3714 9b33 d7fd 8033 e32b ad33 8d9e 7633
000002d0: c16e d132 aa62 7733 e429 8a33 8be0 8333
000002e0: 50b7 6c35 de3a 4335 0bde 9335 5daf 0735
000002f0: 1467 9e34 f911 5535 8701 4a35 3414 4635
00000300: bf53 c434 c8a0 9f34 1e42 0035 ef43 7534
00000310: 8d92 0a34 f044 bc34 b7f5 af34 27fa a534
00000320: 77a2 0835 986a 0135 91b7 2c35 b7ff ca34
00000330: 661d 6834 f75c f934 0af6 1b35 adf9 0435
00000340: 953d 1734 908e d833 0f2c 2c34 ef2d c633
00000350: f23f 7233 5efd 0034 283c 1934 fc51 0234
00000360: 1a05 cc32 323a b632 8362 b432 c74d 8632
00000370: acae fc31 b0f5 a732 33c5 a832 bdb0 9d32
00000380: 20f9 cc34 1c16 9234 250a e534 9370 8e34
00000390: 254b 2534 a522 ac34 926a c634 92a9 a934
000003a0: c7a1 4c34 fc90 3534 3169 6434 1989 1434
000003b0: dad8 a333 4ceb 3834 5a8c 4a34 586f 2d34
000003c0: c099 d334 195b a634 93d7 0835 77af 7434
000003d0: 41c8 1534 417e b634 8f4f b134 70d7 b834
000003e0: 09b8 0d33 adfa bf32 573c 3e33 3f00 9632
000003f0: 3a6d 6a32 08ca 0133 ffc4 1f33 18cb f932

exp_avg f4 [128]
0.00021052954 -7.701281e-05 -0.00033334363 0.00019839226 -3.5764824e-05 -1.6215572e-05 -0.00023412833 0.00031629216
-0.0009549691 -2.6797566e-06 9.7098455e-06 0.00016633811 8.173408e-05 -0.00020057033 0.00028829684 0.00019321637
-1.5053347e-05 -0.00011570331 -0.00052941346 -0.00028019774 -3.699821e-05 -1.9669465e-05 -5.7147696e-05 -0.00081696926
-0.00039508851 0.0002657389 0.00015056234 6.829686e-06 -0.0006349238 0.0002715694 -0.00014354219 -8.030334e-05
-2.9262002e-05 5.7051526e-05 -0.0008637804 -2.1482474e-05 -3.7815767e-05 0.00016691837 3.0626677e-05 -0.00023955914
2.05113e-05 -0.0007210392 -0.00016350085 -8.7837536e-05 -0.00011236174 -0.00041396005 -0.00011641839 -0.00037096295
0.0004894546 5.0839077e-05 -1.5758025e-05 -0.00021378427 -6.8542584e-05 -9.129934e-05 0.00014546618 -0.00032436434
-0.00022375888 -0.000351708 0.00015698391 1.2588676e-05 -0.00039746342 2.0398431e-05 0.00015579138 -0.00014191733
-5.7184756e-05 0.00033828532 -4.9277987e-05 -2.4101682e-05 0.00020059833 -0.00062678976 -7.044339e-05 -0.0003605798
7.5824595e-05 1.9818239e-05 -8.728281e-05 3.6015314e-05 -0.00059539836 1.7559254e-05 -0.00011932419 -0.00035458404
-0.0001625629 -0.00022881066 4.91167e-05 -3.1413067e-05 0.00047200258 7.46298e-05 8.883929e-05 -7.434404e-05
-6.395209e-05 7.583958e-05 -3.807459e-05 -4.274847e-05 -0.00042263226 -7.621865e-06 -0.00014477674 -0.00010420624
-0.00026460172 3.235063e-05 -0.00041899757 0.00010947273 0.00012059259 0.00015069744 7.508667e-05 4.9788596e-05
-8.593327e-06 -0.00042046604 -0.00035333223 0.00010072552 0.00011065765 -4.6193472e-06 6.2954605e-05 -4.0112613e-05
0.00016891345 7.263741e-05 0.00019449949 0.00011325235 0.00034331428 -9.0302994e-05 0.00027030296 -0.0010305012
-0.00016982839 0.00011569455 3.4168548e-05 -0.00041714506 8.486879e-05 -0.00017394879 4.34621e-07 -2.1984473e-05
00000000: 98c1 5c39 f081 a1b8 a0c4 aeb9 8407 5039
00000010: 3002 16b8 ad06 88b7 5880 75b9 04d4 a539
00000020: e456 7aba ded5 33b6 78e7 2237 0c6b 2e39
00000030: a668 ab38 3050 52b9 8c26 9739 209a 4a39
00000040: a28d 7cb7 bea5 f2b8 56c8 0aba 81e7 92b9
00000050: 872e 1bb8 dbff a4b7 dfb1 6fb8 e129 56ba
00000060: e223 cfb9 df52 8b39 45e0 1d39 8e2a e536
00000070: 0471 26ba 6e61 8e39 d083 16b9 8768 a8b8
00000080: ac77 f5b7 9c4a 6f38 526f 62ba 4335 b4b7
00000090: 5f9c 1eb8 cf06 2f39 2575 0038 2b32 7bb9
000000a0: ae0f ac37 1f04 3dba 6d71 2bb9 6b35 b8b8
000000b0: c0a3 ebb8 c708 d9b9 a625 f4b8 ce7d c2b9
000000c0: be4e 003a 0b3c 5538 1a30 84b7 472b 60b9
000000d0: 85be 8fb8 f677 bfb8 4888 1839 720f aab9
000000e0: d1a0 6ab9 7365 b8b9 0c9c 2439 f433 5337
000000f0: a362 d0b9 4c1d ab37 ee5b 2339 a5cf 14b9
00000100: aad9 6fb8 e35b b139 d6af 4eb8 f82d cab7
00000110: b457 5239 264f 24ba 02bb 93b8 340c bdb9
00000120: 0504 9f38 583f a637 9a0b b7b8 260f 1738
00000130: 8214 1cba 364c 9337 b03d fab8 77e7 b9b9
00000140: a575 2ab9 e5ec 6fb9 a802 4e38 86c1 03b8
00000150: 1d77 f739 9282 9c38 3b4f ba38 27e9 9bb8
00000160: 041e 86b8 110c 9f38 48b2 1fb8 d24c 33b8
00000170: be94 ddb9 52bf ffb6 36cf 17b9 4d89 dab8
00000180: 3eba 8ab9 39b0 0738 e7ac dbb9 b994 e538
00000190: a7e6 fc38 8904 1e39 d977 9d38 19d4 5038
000001a0: 0f2c 10b7 ff71 dcb9 733f b9b9 9a3c d338
000001b0: e010 e838 e4ff 9ab6 7f06 8438 973e 28b8
000001c0: 5c1e 3139 ea54 9838 8ff2 4b39 e481 ed38
000001d0: ddfe b339 0d61 bdb8 73b7 8d39 e211 87ba
000001e0: f613 32b9 0aa1 f238 3350 0f38 43b4 dab9
000001f0: 96fb b138 0666 36b9 db55 e934 4c6b b8b7

exp_avg_sq f4 [128]
5.5654334e-07 1.7746133e-07 2.5050576e-07 2.908026e-07 3.3623408e-08 6.783576e-08 2.6430507e-07 1.6117501e-07
7.351984e-07 1.452875e-08 7.2179496e-08 2.942599e-07 2.6156336e-08 5.9781925e-08 2.0701671e-07 1.0289479e-07
2.2238712e-08 9.2316185e-08 1.318404e-06 3.448507e-07 1.1199067e-08 7.359115e-09 6.389718e-08 7.64833e-07
3.3483508e-07 4.5937531e-07 1.1043122e-07 2.0049601e-08 3.28317e-07 1.5042464e-07 3.293435e-07 2.9179613e-08
9.958186e-08 2.3156166e-07 8.129391e-07 7.9633395e-08 2.6457647e-08 2.0067674e-07 1.8908512e-08 4.942198e-07
6.310974e-09 6.518394e-07 3.4177614e-07 3.1199924e-08 2.2142234e-07 3.2180898e-07 3.5356945e-07 7.2006816e-07
5.9074847e-07 1.2128378e-07 1.05080495e-07 1.000668e-07 1.02443085e-08 4.297031e-08 2.1848612e-07 4.2816313e-07
2.6349747e-07 6.86364e-07 1.9441065e-07 2.7379497e-07 4.403375e-07 4.6860876e-08 2.0830055e-07 9.3205166e-08
2.0448365e-07 4.534174e-07 4.0101153e-08 2.5695417e-07 1.1778067e-07 1.3406728e-07 7.2629575e-08 1.8254019e-07
5.145871e-08 2.155235e-07 1.5483101e-07 1.566701e-08 1.1648192e-06 1.8427163e-07 4.9661157e-08 1.00569494e-07
1.7148095e-07 9.372529e-08 7.0724144e-07 1.5259883e-07 6.3182955e-07 1.7807237e-07 6.9709905e-08 1.1766462e-07
2.6637437e-08 3.7532266e-07 4.1147725e-08 7.698246e-09 6.12945e-07 6.233262e-08 1.4969596e-07 3.6867398e-08
1.8682364e-07 7.480158e-08 2.9203355e-07 4.707889e-08 1.53884e-08 4.8904276e-08 6.016462e-08 1.7233083e-08
2.4511603e-08 1.1108001e-06 2.0119704e-07 1.2285845e-07 6.8769836e-08 1.1362926e-08 1.16682756e-07 1.0493169e-08
3.289555e-08 6.407413e-08 3.0093815e-07 5.06368e-08 3.6971235e-07 2.7764433e-08 4.0695002e-07 7.272742e-07
1.0116662e-07 6.188994e-08 9.318401e-09 2.805389e-07 9.5453395e-08 2.4462617e-08 1.4205667e-08 2.5426e-08
00000000: 5e65 1535 338c 3e34 407d 8634 9b1f 9c34
00000010: 5469 1033 1aad 9133 d0e5 8d34 730f 2d34
00000020: 735a 4535 1e9a 7932 1901 9b33 c6fa 9d34
00000030: 64ae e032 7661 8033 5248 5e34 02f7 dc33
00000040: 7207 bf32 5c3f c633 04f4 b035 eb23 b934
00000050: 0466 4032 76db fc31 d937 8933 ec4e 4d35
00000060: 62c3 b334 10a0 f634 3526 ed33 8a39 ac32
00000070: 8b43 b034 6984 2134 a0d0 b034 a6a6 fa32
00000080: b5d9 d533 2fa3 7834 c038 5a35 ec02 ab33
00000090: fb44 e332 9a79 5734 426c a232 87aa 0435
000000a0: ead7 d831 10fa 2e35 5b7d b734 ae00 0633
000000b0: 1cc0 6d34 17c5 ac34 37d2 bd34 b54a 4135
000000c0: ed93 1e35 3b3a 0234 9da8 e133 4ee4 d633
000000d0: f2fe 2f32 5b8e 3833 0299 6a34 4bde e534
000000e0: d176 8d34 933e 3835 31bf 5034 18fe 9234
000000f0: 8667 ec34 1444 4933 38a9 5f34 1528 c833
00000100: 0a90 5b34 376d f334 af3b 2c33 83f3 8934
00000110: 9cee fc33 22f4 0f34 88f8 9b33 4400 4434
00000120: 7303 5d33 a66a 6734 a03f 2634 1f94 8632
00000130: e256 9c35 33dc 4534 054b 5533 aaf8 d733
00000140: 5320 3834 0646 c933 43d9 3d35 0cda 2334
00000150: ff9a 2935 2934 3f34 6db3 9533 cfae fc33
00000160: 58d0 e432 f47f c934 67ba 3033 3e41 0432
00000170: 4289 2435 b8db 8533 1dbc 2034 2258 1e33
00000180: b199 4834 9aa2 a033 c9c8 9c34 c933 4a33
00000190: 732f 8432 d20a 5233 da33 8133 f307 9432
000001a0: 968d d232 cd16 9535 9f08 5834 13eb 0334
000001b0: 9eae 9333 ad36 4332 0693 fa33 7245 3432
000001c0: 0a49 0d33 2099 8933 a090 a134 c07b 5933
000001d0: e17c c634 a27e ee32 c97a da34 e739 4335
000001e0: f040 d933 5be8 8433 c316 2032 f99c 9634
000001f0: 0ffc cc33 dd21 d232 2f0d 7432 5e68 da32
