results/myFirstRun/Pong.onnx (onnx, 76281 bytes, 7 tensors)

network_body._body_endoder.seq_layers.0.weight f4 [128, 8]
00000000: 00a7 fd3d c19e ee3d 9242 8a3e f6a4 61be
00000010: 5f70 123f 618a bcbd 6dbc 533d b784 3d3f
00000020: e177 da3e 79f9 76be f6bc 8bbe aaae 663e
00000030: 567d 19bf 2309 e13e 077a 4f3d 3f7f 353e
00000040: 8f26 263e a694 a13e eba1 543f 832b e6bd
00000050: f0c3 9e3c 11c2 c43d ffdd 0bbf f2e0 86be
00000060: a4cb d03d 921b 033f 7e28 1abe 6361 13bf
00000070: 3e87 e63e 8d90 b0bd 4317 1a3f 96e2 a23d
00000080: c20c 3d3c 6096 ec3e 3c68 793e 6673 11bf
00000090: ea5c 60be 165e 593d c997 04bf e67e 8cbe
000000a0: 613e f53e 5a75 c7bd 1917 95be 0086 1e3e
000000b0: 805b 253e 3b8d 5abe 8801 983e 07dd 723e
000000c0: e120 58be 8f1f 69bd 8b87 903e 48d9 f83e
000000d0: 8129 9ebc cfb5 ae3e aebd da3e 80a2 b5be
000000e0: 1cd2 2d3d 9c00 17be 941d 223e 7874 993e
000000f0: 816b 8d3e 3fa7 273f 1b07 24bc 7009 1abd
00000100: 997a 683d 0b86 05be 8c21 bd3c 7ef0 8a3e
00000110: 65ce 9e3e 0601 e4be c2e7 7fbd bdb6 f13d
00000120: 583a aa3d 86bb 19bf 08ac 063e 17e8 193e
00000130: f102 ae3e 309b 0dbe 02fe 1e3f 8599 9dbe
00000140: 6555 683c 21eb 1f3f dfec 56bd 92dc 893f
00000150: 05cb 17bf 9c0d eebe bb94 d23e bad3 9b3e
00000160: f104 27bf cb76 b93e 9cce 86be f37d 3f3d
00000170: 51c4 e1bd be42 b5be d0f5 223f 0d90 a7bc
00000180: 62d7 a7be 986c d8be 7cc1 82be fc0c 6abe
00000190: e5ca 5c3d 9b9b 823e b232 053f 0d05 163d
000001a0: 107f 7d3e 02fe 2fbe 74cd 5cbe a2b3 8fbe
000001b0: bbe5 7cbe 4cec 383f a895 fbbd 7382 c9bd
000001c0: 3982 0e3e d268 87be a1d4 e13e cb66 c7be
000001d0: 774b c13e 785c 09be 5c7e 97bd 7959 8f3e
000001e0: 28fc 713f e955 9bbe 62a9 90bd db4c fcbe
000001f0: f384 b9be 3809 18bd 661c 67bd 16fc 7bbe
00000200: c57d b5be ba96 6cbe 1a59 74be 24e5 f43e
00000210: 94f1 8b3d 4c5c aebe 2839 27be 9b3b d93e
00000220: 3cb9 b53c c215 b2be 908a 5c3e d850 ba3d
00000230: 91d2 023e e134 2b3b 2fdf 6cbd 71a2 093f
00000240: 908d 8fbe 8af4 803d 0322 f63e bb59 bd3d
00000250: 39b0 b8be dac6 81be 2c9c 5e3e 02c2 ac3d
00000260: 64e0 db3c e147 273f 842e 6b3e 5f94 bb3c
00000270: 5409 bdbe d90b a2bd 3a37 80be 63d4 d23e
00000280: ef6e 693b 4a13 84be d4cb 72ba 9f68 9e3e
00000290: 2378 c83d 918a 92be 1654 68bd cfeb 823e
000002a0: 3e75 b43d 9686 033e 0da0 39be 5253 6c3f
000002b0: 3d49 d5be a791 483d 82f7 df3e 589d be3e
000002c0: 553f a33e d098 97bd 01e2 14bf 521f 033d
000002d0: 1999 a9bc a3ae b13d 79f9 c03e de0f 523d
000002e0: 9a36 d83e 7041 a4be 266d 9a3f 2ea3 9dbd
000002f0: e9e0 4abc bf2f f2be 89c0 02be b9fd f1be
00000300: f75d 31bc 53a1 26be 45f9 95be f0c3 c63e
00000310: ac72 90be 29fd 1a3d 0bf2 ab3e d8dc e33d
00000320: 9b4d 063e 9b33 493b d114 193f caac 55bd
00000330: a6b3 2c3c 2851 03bf f67f ea3d 1b73 68be
00000340: 286b 1a3e b2cc 4d3e 3c3a aa3f 6a31 943e
00000350: 789f c83d d0e2 9cbd 77c6 97bd a729 003f
00000360: 1ba4 833e 28ba 05bf 0b25 dbbd 965f 9abd
00000370: 839a a83e f350 823e bff7 cebc 924c 693e
00000380: e6be f93e 25b6 d9bd d0cb 703e 71a6 9f3e
00000390: dbb3 7ebe 56bc a5bd f49a 883d f929 b13c
000003a0: 1c49 0bbf 0b6a 493e 9617 c13e 81c1 28be
000003b0: 0a4a 2dbe e1be 10be 8881 293b 203e 70be
000003c0: 10b8 f0be fb63 86bd 8625 55be 83dd 483f
000003d0: 3b9d 61bf 9c97 81bd 8763 fbbd 3dd1 5dbe
000003e0: f4f7 8dbf 5344 b83e 963b 643e 2ad4 cdbe
000003f0: 5f83 35be bff6 17bf 5928 a7be 2885 37be
0.12385368 0.11651374 0.27003914 -0.22035584 0.57202715 -0.09206081 0.05169337 0.7403063
0.42669585 -0.24118604 -0.27292603 0.22527567 -0.5995687 0.43952283 0.050653484 0.17724322
0.16225646 0.31558722 0.8305957 -0.11238768 0.01938054 0.09607328 -0.54635614 -0.26343495
0.10195091 0.51213944 -0.15054509 -0.57570475 0.45025057 -0.08621321 0.60191745 0.07953374
0.011538686 0.46208477 0.24356169 -0.5681671 -0.21910444 0.053068243 -0.51794106 -0.27440566
0.47899154 -0.0973918 -0.29119185 0.15480804 0.16148186 -0.21342938 0.29688668 0.23717128
-0.21106292 -0.056914862 0.2822841 0.48603272 -0.0193069 0.34123084 0.4272284 -0.3547554
0.042436704 -0.14746326 0.15831596 0.2997167 0.2762108 0.6548957 -0.01001146 -0.037606657
0.056757543 -0.13039415 0.023087285 0.27136606 0.31016842 -0.4453203 -0.06247688 0.11802433
0.083119094 -0.60051763 0.13151562 0.15029941 0.3398662 -0.1382873 0.62106335 -0.3078119
0.014180516 0.62468153 -0.05247199 1.0770438 -0.5929416 -0.46494758 0.41129097 0.30434972
-0.65241915 0.36223444 -0.26329505 0.046750974 -0.110237725 -0.35402483 0.6365633 -0.020454431
-0.32781512 -0.4227035 -0.25538242 -0.22856516 0.053904433 0.25509343 0.5203048 0.03662591
0.24755502 -0.1718674 -0.21562749 -0.28066736 -0.2469701 0.7223556 -0.12284404 -0.09839334
0.13916864 -0.2644716 0.44107535 -0.38945612 0.37752888 -0.1341418 -0.07397148 0.2799795
0.94525385 -0.30338982 -0.07063557 -0.49277386 -0.36234245 -0.037118167 -0.056423567 -0.24607882
-0.35447517 -0.23104373 -0.23862115 0.4783107 0.06833187 -0.34054792 -0.16330397 0.42428288
0.022183053 -0.34782225 0.21537232 0.09097451 0.12775637 0.0026124048 -0.057830032 0.5376349
-0.2803769 0.06296642 0.48072824 0.0924563 -0.36071947 -0.25347024 0.21739262 0.084354416
0.026840396 0.65344054 0.22966963 0.022897897 -0.3692118 -0.07912416 -0.25042135 0.41177663
0.00356191 -0.25795966 -0.000926194 0.30939195 0.09788539 -0.28621343 -0.056720816 0.25570533
0.08811425 0.12844309 -0.18127461 0.92314637 -0.4165744 0.04896703 0.4374352 0.3722942
0.31884256 -0.074021935 -0.58157355 0.03201229 -0.020702885 0.086758874 0.37690333 0.051284663
0.42229158 -0.32081175 1.206456 -0.0769714 -0.012382724 -0.47302052 -0.12768759 -0.47263888
-0.010825626 -0.16272478 -0.2929174 0.38821363 -0.28212488 0.03783909 0.33583102 0.11126107
0.13115542 0.0030700925 0.5979739 -0.052166738 0.010540878 -0.5129571 0.11450188 -0.22700159
0.1507994 0.20097616 1.3299022 0.2894395 0.09796041 -0.076604486 -0.07410901 0.50063556
0.2571114 -0.52237177 -0.10700425 -0.07537763 0.32930383 0.25452384 -0.025264619 0.22783116
0.48778456 -0.106304444 0.23515248 0.31181672 -0.24873297 -0.08092563 0.0667018 0.02162646
-0.5440843 0.19669358 0.37713307 -0.16480066 -0.16922775 -0.14135315 0.002586456 -0.23461199
-0.4701543 -0.065620385 -0.20815095 0.78463 -0.8813054 -0.06327745 -0.12274843 -0.2166185
-1.1091294 0.35989627 0.22288355 -0.4020093 -0.17725895 -0.5936088 -0.3264797 -0.17921889

network_body._body_endoder.seq_layers.0.bias f4 [128]
00000000: 0000 0000 0000 0000 0000 0000 0000 0000
00000010: 0000 0000 0000 0000 0000 0000 0000 0000
00000020: 0000 0000 0000 0000 0000 0000 0000 0000
00000030: 0000 0000 0000 0000 0000 0000 0000 0000
00000040: 0000 0000 0000 0000 0000 0000 0000 0000
00000050: 0000 0000 0000 0000 0000 0000 0000 0000
00000060: 0000 0000 0000 0000 0000 0000 0000 0000
00000070: 0000 0000 0000 0000 0000 0000 0000 0000
00000080: 0000 0000 0000 0000 0000 0000 0000 0000
00000090: 0000 0000 0000 0000 0000 0000 0000 0000
000000a0: 0000 0000 0000 0000 0000 0000 0000 0000
000000b0: 0000 0000 0000 0000 0000 0000 0000 0000
000000c0: 0000 0000 0000 0000 0000 0000 0000 0000
000000d0: 0000 0000 0000 0000 0000 0000 0000 0000
000000e0: 0000 0000 0000 0000 0000 0000 0000 0000
000000f0: 0000 0000 0000 0000 0000 0000 0000 0000
00000100: 0000 0000 0000 0000 0000 0000 0000 0000
00000110: 0000 0000 0000 0000 0000 0000 0000 0000
00000120: 0000 0000 0000 0000 0000 0000 0000 0000
00000130: 0000 0000 0000 0000 0000 0000 0000 0000
00000140: 0000 0000 0000 0000 0000 0000 0000 0000
00000150: 0000 0000 0000 0000 0000 0000 0000 0000
00000160: 0000 0000 0000 0000 0000 0000 0000 0000
00000170: 0000 0000 0000 0000 0000 0000 0000 0000
00000180: 0000 0000 0000 0000 0000 0000 0000 0000
00000190: 0000 0000 0000 0000 0000 0000 0000 0000
000001a0: 0000 0000 0000 0000 0000 0000 0000 0000
000001b0: 0000 0000 0000 0000 0000 0000 0000 0000
000001c0: 0000 0000 0000 0000 0000 0000 0000 0000
000001d0: 0000 0000 0000 0000 0000 0000 0000 0000
000001e0: 0000 0000 0000 0000 0000 0000 0000 0000
000001f0: 0000 0000 0000 0000 0000 0000 0000 0000
0.0 0.0 0.0 0.0 0.0 0.0 0.0 0.0
0.0 0.0 0.0 0.0 0.0 0.0 0.0 0.0
0.0 0.0 0.0 0.0 0.0 0.0 0.0 0.0
0.0 0.0 0.0 0.0 0.0 0.0 0.0 0.0
0.0 0.0 0.0 0.0 0.0 0.0 0.0 0.0
0.0 0.0 0.0 0.0 0.0 0.0 0.0 0.0
0.0 0.0 0.0 0.0 0.0 0.0 0.0 0.0
0.0 0.0 0.0 0.0 0.0 0.0 0.0 0.0
0.0 0.0 0.0 0.0 0.0 0.0 0.0 0.0
0.0 0.0 0.0 0.0 0.0 0.0 0.0 0.0
0.0 0.0 0.0 0.0 0.0 0.0 0.0 0.0
0.0 0.0 0.0 0.0 0.0 0.0 0.0 0.0
0.0 0.0 0.0 0.0 0.0 0.0 0.0 0.0
0.0 0.0 0.0 0.0 0.0 0.0 0.0 0.0
0.0 0.0 0.0 0.0 0.0 0.0 0.0 0.0
0.0 0.0 0.0 0.0 0.0 0.0 0.0 0.0

network_body._body_endoder.seq_layers.2.weight f4 [128, 128]
00000000: ec75 0cbd 0f7d 2fbc 7355 833d d32a b03d
00000010: b2c7 71be 4445 8abc 3f28 c2bc f44f cb3b
00000020: 3e38 123e 0d04 3e3c f59b ccbb d204 2cbe
00000030: a4b2 9abd 15ce 85bd 2de4 b5b9 e9c6 b2bd
00000040: 126f 283e 5b81 4c3c 6c32 b73c 6bd4 d93c
00000050: 86a4 1a3d daf8 b0bb 31ff 973d e2d3 863d
00000060: 8d8e d63d 9f8b b4bd 3847 643d 2279 bc3d
00000070: 6e1d 3a3d 718e 16bd bef4 1dbc def0 d7bd
00000080: 8e2f 0ebd 2d90 00bd 70f2 30be 35b7 c53d
00000090: 4b86 efbd 9210 29be 1965 173d c9e8 9e3d
000000a0: be08 643d 1984 64bc d976 ec3c 1922 65bc
000000b0: fd2e 61bd b8af 0c3d 8ba9 ecbd 959f 863d
000000c0: 6588 243d 3c41 c23d fe37 98bd 6777 a9bc
000000d0: 4485 00bd bd67 18bc f0f9 c0bd e007 273c
000000e0: c9e2 a5bd 13eb a63c cc77 0b3d 353e 723d
000000f0: 1083 c6bd 0324 df3c d41f 1fbd d5c0 6bbd
00000100: c30a 35bd 62f2 a7b9 8564 adbc dcee 11be
00000110: 0005 833d 0127 8ebd a4b3 0f3e fd38 763d
00000120: c70a 86bd 8b16 0f3e 2fd1 ccba f24c 14bd
00000130: 1732 943d 179c 4d3d d42f 6e3e d061 eebc
00000140: e1ae 1c3d e971 443e f3b1 e03d 0945 adbd
00000150: c10b c13c 8c1d 833c ad5f 073c b4bc a1bd
00000160: 1516 233d 21ee ee3c ee73 26be 48e3 6abc
00000170: 28d8 bebc adec 35be bd1e afbc f30e 543e
00000180: 807d 3b3d fbd0 443d 4592 8bbd efe8 883d
00000190: 8b1b 1abe 0bd6 2ebd 81f4 e1bc 94e5 15bd
000001a0: 5d57 3cbc bd9d 2cbd a121 bdbd 0c64 c63d
000001b0: f5a6 a13b 397c 83bd 307f e4bd 7180 523e
000001c0: 6d83 55bc 1770 13bb e83a 0dbe 4135 263d
000001d0: 14e8 40be 99f2 583d 9497 c0bd 8eb6 36be
000001e0: 0109 7f3d 5c39 273d b185 38bc c284 6a3c
000001f0: 1bfb 07be d07f d5bb 24f1 293c de13 c23c
00000200: f75e 91bd 575b 563e 7fe8 203d 10e0 19be
00000210: 475d 9abd aacb b9bd 6eae de3c 62bd bbbc
00000220: 2bc7 3abd e529 5abd 0699 e4bd 99dc b3bb
00000230: 99ed ac3c 30d9 373c c746 d2bd e4f1 f0bd
00000240: cb45 84bd a9ab 723d 51d8 67bd 8db3 bebc
00000250: 9812 b0bd d595 4fbd d424 29bd 9749 c83d
00000260: b161 4ebd 9435 5d3d 9396 c8bc 1d43 a03b
00000270: b255 57bd 75d3 d8bd b643 d03d c20e eabc
00000280: 0aa0 60be f057 aabd 8b92 b7bd b3f1 173d
00000290: 2f09 41be 75cf 44bd 6d62 ef3d 9f8c fc3c
000002a0: c73f 4fbe b702 eb3d e1a0 853d 10a6 c23d
000002b0: 07b3 923d 6403 c6bb 6056 23bd 7026 8a3d
000002c0: 5ef0 53bd 9141 b0bd 4c12 b03d 033e e5bd
000002d0: 9a66 2d3c 9cb7 f23d 3628 083c cd3e 84bd
000002e0: c197 3fbe 24a1 473e 9334 77bd 3f71 bf3a
000002f0: 7f77 fabd 9325 a13d c61b e4bc 9cef 9bbe
00000300: 1479 283d acb7 0d3e 6946 a73d c0b5 8fbd
00000310: 84fd c0bd ec57 033d 25e2 c8bc 097c 2cbd
00000320: 5600 c13d 7603 23bd fcba b7bc 0ac9 b33d
00000330: d414 243e bd83 85bd 4224 b93d e7c5 a9bc
00000340: 19ec 9abb 3516 ae3d 2af3 3fbc efff 063e
00000350: b0e2 09bd e81a ff3b bb9f 1cbd 5d2a 3fbd
00000360: 63a8 983d 39e8 94bd 1c08 ddbd 7260 cfbd
00000370: 99f1 cdbc b833 d0bc 328b 243d de13 413c
00000380: 7d2f 67bd dc24 b2bc 5156 823d 4a49 183e
00000390: a3f4 61bd 760a 7f3d 2254 903c 5585 153b
000003a0: 7728 113e f6b7 22be c64e 893d 28ba dcbd
000003b0: 4262 833b bfb3 64bd 9596 f4bc c825 e93c
000003c0: f74f 01be 8dbf ea3c 2ef6 61bb 4f6c 323d
000003d0: 3be0 9dbd 9bf6 6a3c 1e7d 033e 80e6 fabc
000003e0: 80b5 dabc 2684 b3bc 2c5d da3c 1636 e7bc
000003f0: bb23 4abd 541b cabb 3ceb 993d 9367 3c3d
-0.034292147 -0.010710969 0.064127825 0.08601918 -0.23611334 -0.016878732 -0.023700831 0.0062045995
0.14279267 0.0115976455 -0.0062441775 -0.16798714 -0.07553604 -0.06533448 -0.00034693014 -0.08729345
0.1644862 0.012482013 0.02236291 0.026590547 0.037754558 -0.005400759 0.07421721 0.06583382
0.10476408 -0.08815693 0.055731982 0.09202792 0.045438223 -0.036756936 -0.009640871 -0.10543989
-0.03471332 -0.031387497 -0.17279983 0.096540846 -0.11695536 -0.16510227 0.03696165 0.07759244
0.0556724 -0.01394751 0.028865265 -0.01398518 -0.054976452 0.034347266 -0.11555775 0.065734066
0.04016914 0.09485099 -0.07432555 -0.020686818 -0.031377092 -0.009302077 -0.09422672 0.010194749
-0.080998965 0.020375764 0.034049794 0.059141356 -0.09692967 0.027238851 -0.038848713 -0.057556946
-0.044199716 -0.0003203331 -0.021166096 -0.14251274 0.06397438 -0.06941033 0.14033371 0.060112942
-0.06545024 0.13973443 -0.0015626306 -0.036206193 0.072361164 0.050197687 0.23260432 -0.029099375
0.038252715 0.19184078 0.10971441 -0.08460433 0.023565175 0.0160053 0.008262557 -0.078973204
0.03981598 0.029166283 -0.16255161 -0.014336415 -0.02329643 -0.17766066 -0.021376962 0.20708828
0.045773983 0.04805086 -0.06815008 0.066850536 -0.1504957 -0.042684596 -0.027582409 -0.036595896
-0.011495438 -0.04214262 -0.0923493 0.09687051 0.004933233 -0.06420178 -0.111570716 0.20556809
-0.013031823 -0.002249723 -0.13792002 0.04057813 -0.18838531 0.052965734 -0.09403911 -0.17843077
0.062264446 0.040826187 -0.011262343 0.0143138785 -0.13279383 -0.0065154806 0.010372434 0.023691114
-0.07098191 0.20933281 0.039284226 -0.1502688 -0.075373225 -0.09072049 0.027182784 -0.022917453
-0.045600098 -0.05326261 -0.111619994 -0.005488944 0.02110939 0.011221215 -0.10267406 -0.11764887
-0.064586245 0.05924574 -0.05660278 -0.023278976 -0.085972965 -0.05068 -0.041294888 0.09779661
-0.050386135 0.054006174 -0.024485862 0.004890813 -0.05257196 -0.10587207 0.10169165 -0.02857149
-0.2193605 -0.08317554 -0.08963498 0.037095737 -0.1885116 -0.04804941 0.11688695 0.030828772
-0.20239173 0.11475127 0.06524826 0.0950433 0.07163053 -0.0060428847 -0.039877295 0.067456126
-0.051742904 -0.08606256 0.0859724 -0.111934684 0.010583544 0.11851427 0.008310368 -0.06457291
-0.18710233 0.19495064 -0.060352873 0.0014605894 -0.12229823 0.07868495 -0.027845275 -0.30456245
0.041131094 0.13839597 0.081677265 -0.07017088 -0.09423354 0.03206627 -0.024521897 -0.042110477
0.09423892 -0.039798222 -0.022428028 0.087785795 0.1602357 -0.06519268 0.09040119 -0.02072425
-0.004727852 0.085003294 -0.01171569 0.13183568 -0.03366345 0.00778519 -0.03823827 -0.04667126
0.07453992 -0.072708555 -0.10792562 -0.10125817 -0.025139617 -0.025415286 0.04017181 0.011784522
-0.056441773 -0.021746092 0.0636412 0.14871708 -0.055164944 0.062265836 0.017618243 0.0022815068
0.14175592 -0.15890488 0.06704478 -0.10777694 0.004009516 -0.05583548 -0.02985696 0.028460398
-0.1262816 0.028655792 -0.003447901 0.043560322 -0.07708784 0.014341022 0.12840697 -0.03062749
-0.026697874 -0.0219136 0.026655756 -0.028224032 -0.04935048 -0.0061678085 0.075155705 0.045997214

network_body._body_endoder.seq_layers.2.bias f4 [128]
00000000: 0000 0000 0000 0000 0000 0000 0000 0000
00000010: 0000 0000 0000 0000 0000 0000 0000 0000
00000020: 0000 0000 0000 0000 0000 0000 0000 0000
00000030: 0000 0000 0000 0000 0000 0000 0000 0000
00000040: 0000 0000 0000 0000 0000 0000 0000 0000
00000050: 0000 0000 0000 0000 0000 0000 0000 0000
00000060: 0000 0000 0000 0000 0000 0000 0000 0000
00000070: 0000 0000 0000 0000 0000 0000 0000 0000
00000080: 0000 0000 0000 0000 0000 0000 0000 0000
00000090: 0000 0000 0000 0000 0000 0000 0000 0000
000000a0: 0000 0000 0000 0000 0000 0000 0000 0000
000000b0: 0000 0000 0000 0000 0000 0000 0000 0000
000000c0: 0000 0000 0000 0000 0000 0000 0000 0000
000000d0: 0000 0000 0000 0000 0000 0000 0000 0000
000000e0: 0000 0000 0000 0000 0000 0000 0000 0000
000000f0: 0000 0000 0000 0000 0000 0000 0000 0000
00000100: 0000 0000 0000 0000 0000 0000 0000 0000
00000110: 0000 0000 0000 0000 0000 0000 0000 0000
00000120: 0000 0000 0000 0000 0000 0000 0000 0000
00000130: 0000 0000 0000 0000 0000 0000 0000 0000
00000140: 0000 0000 0000 0000 0000 0000 0000 0000
00000150: 0000 0000 0000 0000 0000 0000 0000 0000
00000160: 0000 0000 0000 0000 0000 0000 0000 0000
00000170: 0000 0000 0000 0000 0000 0000 0000 0000
00000180: 0000 0000 0000 0000 0000 0000 0000 0000
00000190: 0000 0000 0000 0000 0000 0000 0000 0000
000001a0: 0000 0000 0000 0000 0000 0000 0000 0000
000001b0: 0000 0000 0000 0000 0000 0000 0000 0000
000001c0: 0000 0000 0000 0000 0000 0000 0000 0000
000001d0: 0000 0000 0000 0000 0000 0000 0000 0000
000001e0: 0000 0000 0000 0000 0000 0000 0000 0000
000001f0: 0000 0000 0000 0000 0000 0000 0000 0000
0.0 0.0 0.0 0.0 0.0 0.0 0.0 0.0
0.0 0.0 0.0 0.0 0.0 0.0 0.0 0.0
0.0 0.0 0.0 0.0 0.0 0.0 0.0 0.0
0.0 0.0 0.0 0.0 0.0 0.0 0.0 0.0
0.0 0.0 0.0 0.0 0.0 0.0 0.0 0.0
0.0 0.0 0.0 0.0 0.0 0.0 0.0 0.0
0.0 0.0 0.0 0.0 0.0 0.0 0.0 0.0
0.0 0.0 0.0 0.0 0.0 0.0 0.0 0.0
0.0 0.0 0.0 0.0 0.0 0.0 0.0 0.0
0.0 0.0 0.0 0.0 0.0 0.0 0.0 0.0
0.0 0.0 0.0 0.0 0.0 0.0 0.0 0.0
0.0 0.0 0.0 0.0 0.0 0.0 0.0 0.0
0.0 0.0 0.0 0.0 0.0 0.0 0.0 0.0
0.0 0.0 0.0 0.0 0.0 0.0 0.0 0.0
0.0 0.0 0.0 0.0 0.0 0.0 0.0 0.0
0.0 0.0 0.0 0.0 0.0 0.0 0.0 0.0

action_model._continuous_distribution.mu.weight f4 [1, 128]
00000000: 9576 813c cf81 7dbb 59e7 27bc 7a26 8abc
00000010: 7fcf 79bc ce10 0abc ed98 e2bb a390 c0b9
00000020: 2d20 a3ba 7de4 fcbb b3f0 683b f76a 4abd
00000030: 4816 e83b 9c3e 04bc 532f eebb 03d8 4d3b
00000040: 1455 34ba ebc4 c53a a8d9 063d 5159 3bbc
00000050: 8843 e8ba 6fe7 323b a9b5 81bc 7395 f23c
00000060: 295b 93bc b58b e4b8 2b39 b3bc e36c 1d3d
00000070: d670 2b3d d38b 68bb ba10 b13b fb21 0b3c
00000080: 3302 823a bd97 59bc 7afa 8b3b 6e23 8e3c
00000090: 4ba0 03bc 97a1 b53c 9f3e 153d b191 0e3d
000000a0: 6a88 d53c e08a 683c 56f5 2b3d b808 773b
000000b0: f6cc 4abb e755 b6bb 1ed8 17bc 8ed3 8a3b
000000c0: 6a29 78bb f6d9 153d 599b a0bb 29ab 2a3d
000000d0: 8d24 52bb fb5b afbb 7068 fdbc f53a 74bb
000000e0: 1304 0ebd 6027 553b cfb8 7c3c 03d6 41bc
000000f0: e3ca d6bc 855f d3bc abbb 6cba 3a44 febb
00000100: 7b1f dabc bbf3 38bc 57d1 adbb 9a69 523b
00000110: 32d2 57bc b796 e4bc b346 133d 70ed 0f3b
00000120: 983b 133b 2b7c 7bbc c603 403c 0388 5cbb
00000130: fade 1bbc 3ed3 13bc 2f45 36bd 0a2a dc3b
00000140: 5ab1 32bb 0f22 82bc cb28 c6bc 832b 8bbc
00000150: b3db 593c fab6 4ebb ad0b c43c 2890 c73b
00000160: 1fe7 083d 37e1 49bc 1c1e 153d f32d 593c
00000170: cbe1 18bb e000 0dbd 2225 783c 0a67 8f3c
00000180: d5be ad3c 5a73 c1ba 676e 23bd efca 2dbc
00000190: 1a68 0bbc dbbe 0a3d 3249 96bb 7f1b 413b
000001a0: b83d 0dbd 2f80 073c 265f 273c d7e0 d0bc
000001b0: 88b7 123a 727b 0bbc 8b74 223b a305 6d3c
000001c0: 37e8 183c 92fd 163c f48e c5bc d3de d5bb
000001d0: d002 d5bc 3f89 2fbc d085 98ba 0ad1 f43c
000001e0: 17c4 b63b 8f95 42bc 6f1e e4ba 1887 cdbc
000001f0: 188a 14bc eb00 4e3c 9f47 1dbc 7d90 ea3b
0.015803615 -0.0038682108 -0.010248029 -0.01686405 -0.015247225 -0.008426858 -0.006915203 -0.00036728857
-0.0012445502 -0.0077176676 0.0035543859 -0.049418416 0.0070827343 -0.008071568 -0.007268825 0.003140927
-0.00068791327 0.0015088593 0.032922417 -0.011434869 -0.0017720321 0.002729859 -0.015833693 0.029612279
-0.017987804 -0.0001089791 -0.021877846 0.03843392 0.041855656 -0.0035483732 0.0054036053 0.008491988
0.0009918868 -0.013280806 0.0042718025 0.017350879 -0.008033822 0.022171779 0.036436673 0.03480691
0.026066024 0.014193267 0.041982017 0.0037694406 -0.003094492 -0.0055644396 -0.009267835 0.004236645
-0.0037866482 0.036584817 -0.0049013314 0.041667137 -0.0032065243 -0.005351541 -0.030933589 -0.0037266586
-0.034671854 0.003252469 0.015424921 -0.0118308095 -0.02621979 -0.025802383 -0.000903065 -0.007759598
-0.02662634 -0.011288579 -0.0053044963 0.00321064 -0.013172673 -0.027903898 0.035956096 0.0021961592
0.002246594 -0.015349428 0.01171965 -0.0033650405 -0.009513611 -0.009022532 -0.044499572 0.0067188786
-0.0027266354 -0.015885381 -0.024189373 -0.016988521 0.013297009 -0.0031542168 0.023931349 0.006090183
0.03342354 -0.012321762 0.036405668 0.013255584 -0.0023327942 -0.034424663 0.015145572 0.017505188
0.02120916 -0.0014759109 -0.03990021 -0.010607465 -0.008508706 0.03387342 -0.0045863623 0.0029465852
-0.034482688 0.008270307 0.010215556 -0.025497837 0.00055968063 -0.008513318 0.0024788703 0.014466676
0.009332708 0.009215729 -0.024116017 -0.006526807 -0.026002318 -0.010713874 -0.0011636559 0.029884834
0.005577575 -0.011876478 -0.001740409 -0.025088832 -0.009066127 0.012573461 -0.009599595 0.0071583376

action_model._discrete_distribution.branches.0.weight f4 [3, 128]
00000000: faa9 343c 6728 92ba 776b 01bb b36e 203c
00000010: 5e87 b63b e0bc bbbb a85e f03a c028 c53a
00000020: e73b 82bb fb1d fc3b 84c5 823c 0baf b23b
00000030: b7fb 523c 2f90 e33a a46e af3b 7a0e 5c3a
00000040: d7fe 5bbc d441 28bc db5c 933b 723c 64ba
00000050: 5c35 173b 5a85 6d3c 9ac0 9dbc 4106 09bb
00000060: 0f1d 683b 5b6e 1dbb 0bea e33b 941c 123a
00000070: 278b d6bc fe44 4a3b e187 bd3a f03b c33b
00000080: 5ee7 95bc 5ae0 533a ed5f 60bb e58b a73b
00000090: 1a85 a93b 5333 dabb 9aee 383c 2bd8 8a3b
000000a0: 99c7 1a3c 65a2 61b9 70d7 d43b 0788 203c
000000b0: 7397 7f3b 34cf 02bc 76c9 033c 37d1 283c
000000c0: 30ff 5a3a 4814 0bbc 9550 b3bc 3888 e73a
000000d0: ca5e 683b 5256 f53a 87f6 4abb 23e6 32bb
000000e0: 8246 69bb 3e90 44bb 6b03 c4ba 034e 893b
000000f0: bbc4 86ba 28dc 313c b081 f6bb 91e6 45ba
00000100: a9f2 a03a 53a6 48bb 9a6a a53a 224b 4cbc
00000110: 5d13 003b dd36 71bc e8a6 17bc 9ebc 9fbb
00000120: 9cf1 2f3c db6f 5e3b d7f1 2abc 7cd6 053c
00000130: 04bb b73a ea4f 053c c090 b7bb 1f90 453b
00000140: 92ad 07bb 2833 1e3b 9776 d8bb d0f4 8e3c
00000150: 3328 7ebc e766 95bc ff1f 39bb 1c80 c939
00000160: fc34 bebb bb09 043c 492a 313c 2747 b13b
00000170: cf3e d0ba 3c90 813b faa8 78bb 142a 1f3c
00000180: c5bd 6eba 5fcb 9abc d2c2 acbb fdfd 21bc
00000190: ba47 96bb 779b 013c 6316 a83a 1859 f83b
000001a0: 92af f9bb 0d74 f43a 4327 ae3b e666 cb3b
000001b0: de93 993b 139e 2abc 185d 583b f041 a9bc
000001c0: 7d63 3bb9 2f69 583b dfc0 b5bb 5684 173c
000001d0: 2059 fdbb 26c2 ae3b 7700 523c 3c9f 3dbc
000001e0: d2d2 823c c25a 693b 04e8 a43b 4b2d 2c3c
000001f0: 8658 c73b 07eb 423c 8350 93ba bc43 27bc
00000200: c3b3 a539 7bec 8f3c 6f3c 9ebc 47a6 0dbb
00000210: 8c25 2f3c b301 8339 8d69 7f3b dfd7 03bc
00000220: abeb 93bb c034 68bc 601e e13b b778 ec3b
00000230: cbb2 37bc a044 90bb 18b9 833b 9491 2dbc
00000240: 15c8 653c ca65 d1bb 1113 393c 2b0b 2eba
00000250: 179e a0bc f79c 973b 01a1 40bb 87eb b33b
00000260: 3fa2 10bc 2781 743c d001 f5bb a3d9 95bb
00000270: 43c5 aabb c340 85bc 7d4e d03b 97ba dd3b
00000280: cbf0 43bc 011d 963c 7c6a af3b 2d69 16bb
00000290: 7045 ebb9 8f89 10bb 9b59 8dbc 931f 4b3c
000002a0: 27dd 263c 99a1 80bc 754b 403c 84bd 48bb
000002b0: 54d0 0dbc 1814 d9bb 2dc4 efbc af45 d2bb
000002c0: 9d9e d03c d232 2abc 80e0 123b e582 8f3a
000002d0: 6c26 903c 7de7 b1bb c049 3dba ab1a 51bc
000002e0: cac8 f73b a485 163b 0e9a c33b 2cf9 9e3c
000002f0: f73c 1fbb bc58 8dbc b879 74bc 67f3 1f38
00000300: 5bda 513c ae07 1d3c 185b 0dbb 6e4b 893c
00000310: cfb0 16bb 07f3 913c 1ddb 32b9 e357 863a
00000320: 3f3f 2fbc 1f09 4c3c dd34 d2bb c690 1ebc
00000330: 9b29 df3b f378 183c 7b65 4d3c 4e91 ccbb
00000340: 890c 18ba f600 903c 53f5 fc3b f0a9 f53a
00000350: 0f77 0b3c b424 aabb a7be c0bb fd86 5cbc
00000360: 9c35 163c 21fa 35bc 7b52 6d3b 47d2 ac39
00000370: f126 87bb 87ed c1bb 5b40 d33c e9ae adbb
00000380: 26c0 95bb cd2e bcbc 7e9d c0bb 2eb7 1e3b
00000390: 1f7c 133c e9c7 1c3b d344 87bb b811 a2bb
000003a0: 3ab5 613b 992c 9fbb ebff 553c ab63 f6bb
000003b0: ec6a 3abb 5bf0 5fbb 1b50 0c3c ca75 233b
000003c0: 0e41 9a3c da42 6e3b f0ab 2fbc 1e75 243c
000003d0: 6ccd b23b 45b2 f03b 9429 053b 8556 ed3a
000003e0: f5b9 2f3c 1b1b ea3a b147 023c 07b8 f83b
000003f0: 9568 d9b9 9ef0 0fbb 561e 1fbc be0e 1e3c
0.011026854 -0.0011150957 -0.0019747892 0.009792018 0.0055703362 -0.0057293028 0.0018338757 0.0015042052
-0.003974426 0.0076940036 0.015963323 0.0054529957 0.012877396 0.0017361696 0.0053537656 0.0008394491
-0.013427458 -0.010269601 0.004497153 -0.0008706517 0.0023072576 0.0144971255 -0.019256879 -0.0020908269
0.003541771 -0.0024022076 0.0069553903 0.00055737165 -0.0261894 0.0030863876 0.0014460051 0.005958073
-0.018298801 0.0008082442 -0.0034236864 0.0051131123 0.0051733376 -0.0066589504 0.011287356 0.004237195
0.009447002 -0.00021518169 0.0064954087 0.009798056 0.0039000183 -0.007983971 0.0080436375 0.010303787
0.0008354066 -0.008488722 -0.02188901 0.0017664498 0.003545689 0.0018717742 -0.0030969696 -0.0027297817
-0.0035595004 -0.0029993202 -0.0014954632 0.004190208 -0.0010282019 0.010855712 -0.007522784 -0.00075493107
0.001227935 -0.0030616715 0.0012620271 -0.012469085 0.0019542791 -0.014722553 -0.009256102 -0.00487478
0.0107387565 0.0033941183 -0.010433636 0.008168813 0.0014017527 0.008136729 -0.0056019723 0.0030145717
-0.0020702821 0.0024139378 -0.006605934 0.01745072 -0.015512514 -0.018237544 -0.002824783 0.00038433156
-0.005804656 0.008058961 0.010813304 0.0054100933 -0.0015887859 0.0039539617 -0.0037942515 0.009714622
-0.00091072574 -0.018895803 -0.005272248 -0.009887216 -0.004586187 0.007910601 0.0012824055 0.00757898
-0.0076198066 0.0018650308 0.005314739 0.006207335 0.0046868166 -0.010413664 0.0033014473 -0.020661324
-0.00017870772 0.0033021679 -0.0055466737 0.00924786 -0.007731572 0.005333203 0.012817494 -0.011573609
0.015969668 0.0035607074 0.005032541 0.010508846 0.006083551 0.011896855 -0.0011239204 -0.01020902
0.00031605185 0.017568817 -0.019315926 -0.0021614002 0.010690104 0.00024987533 0.0038972825 -0.008047073
-0.004514178 -0.014172733 0.006870076 0.007216539 -0.011212061 -0.004402712 0.0040198676 -0.010593791
0.014024754 -0.006390308 0.01129605 -0.00066392374 -0.019606633 0.004626866 -0.002939284 0.0054907235
-0.008827745 0.01492337 -0.0074770227 -0.0045730635 -0.0052115037 -0.016266232 0.006357013 0.006766628
-0.011959265 0.018324377 0.00535327 -0.0022950873 -0.00044874428 -0.0022054648 -0.017254641 0.012397665
0.010184563 -0.015702056 0.01173674 -0.0030630538 -0.008655626 -0.00662471 -0.029268349 -0.0064169983
0.025466258 -0.010388093 0.0022411644 0.0010949044 0.017596446 -0.005429207 -0.00072207674 -0.012762706
0.0075617777 0.002296784 0.0059692925 0.019405924 -0.0024297812 -0.017254226 -0.014921598 3.813524e-05
0.012808408 0.0095843505 -0.0021569189 0.0167596 -0.002299357 0.01781608 -0.00017057029 0.0010249581
-0.010696231 0.0124533465 -0.006414993 -0.009678071 0.0068103797 0.00930618 0.012536402 -0.0062429076
-0.0005800208 0.017578583 0.0077196746 0.0018742662 0.0085122725 -0.0051923636 -0.0058821025 -0.013459918
0.009168055 -0.011106999 0.0036212492 0.00032963065 -0.004124515 -0.005918208 0.025787523 -0.005300392
-0.004570025 -0.022971535 -0.0058781495 0.002421807 0.009001761 0.0023922867 -0.0041280775 -0.00494596
0.0034440295 -0.0048576114 0.013061504 -0.0075192056 -0.0028445078 -0.0034170363 0.0085640205 0.0024942034
0.018829849 0.0036355765 -0.010722145 0.010037689 0.005456617 0.00734547 0.0020318972 0.001810745
0.010725488 0.0017860861 0.007951663 0.007590297 -0.00041467385 -0.0021963487 -0.0097118225 0.0096470695

action_model._discrete_distribution.branches.0.bias f4 [3]
00000000: 0000 0000 0000 0000 0000 0000
0.0 0.0 0.0
