Assets/Training Agent/Pong_v2.onnx (onnx, 75505 bytes, 8 tensors)

network_body.observation_encoder.processors.0.normalizer.running_mean f4 [8]
000000 f9 bc 6d 3d 6a d8 98 3d 91 4d 96 3d 97 1c cf bc
       0.058041546 0.07463153 0.07339013 -0.025282187
000010 fd 86 9a 3e e7 6e a1 be 3f 1a 9f 3e c6 ff ff 3e
       0.30181113 -0.31529924 0.31074712 0.49999827

network_body._body_endoder.seq_layers.0.weight f4 [128, 8]
000000 1a a9 f5 bd 4e dc d1 be e5 9a 23 be 77 0e 8c be
       -0.11995144 -0.40988392 -0.15977056 -0.27354786
000010 64 77 11 3f e1 4c 27 bf 47 65 bd bc 51 af b6 be
       0.568228 -0.6535168 -0.023119582 -0.3568063
000020 d8 0b 2d be b0 b2 de 3e cf 87 ad 3b 3b 40 b8 3d
       -0.1689905 0.43495703 0.0052957307 0.08996626
000030 15 72 67 3e 26 f2 f5 be a3 23 cc bd 59 52 f7 3e
       0.22602113 -0.48036307 -0.09967735 0.48305014
000040 1f f4 f4 bc 62 f2 a8 3e e8 47 76 3d cf 8c 37 3e
       -0.029901562 0.32997423 0.06012717 0.17924808
000050 5c d9 82 3d 2a d4 a5 bd 26 6c 25 be b2 64 90 3c
       0.06389114 -0.08097108 -0.16154537 0.01762614
000060 e8 4f 02 bf 70 8b 43 bf 96 81 df 3d a9 59 50 bd
       -0.5090318 -0.7638464 0.109133884 -0.050866757
000070 31 e1 da 3d ec 3c a0 bd 62 fe ff be c2 6d 0e 3e
       0.10687483 -0.0782412 -0.49998766 0.13909057
000080 78 3e e6 3d 1f a2 d0 3e e8 ef 92 be c5 44 0f bf
       0.11242384 0.4074869 -0.2869866 -0.5596431
000090 d1 09 8f bb d3 20 4b 3f c9 e2 c1 bd 54 93 49 bf
       -0.004365184 0.7934696 -0.09467084 -0.7874043
0000a0 c8 b7 21 3f ea 6a d8 bb c1 83 de be e6 fc 5e be
       0.6317105 -0.006604542 -0.43459895 -0.2177616
0000b0 02 2c fa be 71 46 d2 be 7b cd 80 3d 90 3a ee 3d
       -0.488617 -0.41069368 0.06289192 0.11632264
0000c0 1c 7b 1b bf 7b 7e 6b 3e b8 79 97 3d f6 90 f5 3d
       -0.60734725 0.22997467 0.07396263 0.1199054
0000d0 94 88 29 3e 83 c5 1b 3f a8 bf 4c 3e 80 ef 29 3f
       0.16556007 0.60848254 0.19994986 0.66381073
0000e0 22 4d ba 3e 25 79 13 bf 0e 66 4f 3e 5d be 5c bd
       0.36386973 -0.57606727 0.20253775 -0.053892482
0000f0 8d 0b bf 3d e3 5b 9d be 4b 9d ac be fc 8b 4a be
       0.09328375 -0.30734167 -0.33713755 -0.19779962
000100 b3 fb 4c 3e c0 d8 6d 3e 27 c4 e0 3e da 87 55 3f
       0.2001789 0.23227215 0.43899652 0.8341042
000110 95 11 e1 bd a8 bc 64 3e 08 78 0b 3e d9 1d 55 3e
       -0.10989682 0.22337592 0.13620007 0.20812167
000120 b0 09 42 3f 52 e3 57 3d a2 e7 d9 3d 52 b9 fd 3c
       0.7579603 0.052707024 0.106398836 0.030972157
000130 35 3c 2a bf 23 53 46 3d e7 ca 5c bf 7d 64 86 be
       -0.6649812 0.04841913 -0.86247104 -0.2624854
000140 aa 16 9e 3e 02 7d 00 3e 1e b1 f0 be dd 2f 01 3e
       0.30876666 0.12547687 -0.4701013 0.12615915
000150 20 10 69 bd b4 59 bc be a2 a2 16 3e 71 83 4a be
       -0.056900144 -0.36787188 0.14710477 -0.19776703
000160 a8 e9 60 bf 1c 03 b2 bd 3e 97 27 bf af b1 b0 3e
       -0.8785653 -0.08691999 -0.6546515 0.34510562
000170 be 5b 3e 3e 02 25 37 bd 41 e0 4c 3c b5 0d 1f bf
       0.18589684 -0.044713028 0.012504638 -0.6213029
000180 ef de ab be fb cd 56 be 07 c6 77 3f 30 4b 88 3e
       -0.33568522 -0.20977013 0.9678654 0.26619864
000190 ff 48 8e 3d 7f ce cc be d2 2f 3f bf c8 2e 54 be
       0.06947517 -0.40001294 -0.74682343 -0.2072097
0001a0 c6 74 7b be 87 d4 df 3e 1a a4 ab 3c f2 bf 90 3e
       -0.24556264 0.43716833 0.020952273 0.28271443
0001b0 4f c6 b0 be bd 84 f4 be ac 80 ef be 5a a4 26 bf
       -0.34526297 -0.4775752 -0.46777856 -0.6509453
0001c0 02 63 1c 3e 84 39 a1 be 61 6b 80 3e 6a 61 4d be
       0.15272143 -0.31489193 0.25081924 -0.20056692
0001d0 1c a1 67 3e 9b 57 89 3d 9c 35 fb 3e 4c d0 54 bf
       0.22620052 0.067061625 0.49064338 -0.83130336
0001e0 b9 28 47 3f ca b0 df bd 74 1e e8 3e 92 af af 3e
       0.7779651 -0.10922392 0.45335734 0.34313637
0001f0 33 98 f4 3d 02 ca bd be 21 6f ae be 94 ab 9b 3e
       0.11943092 -0.37068182 -0.3406916 0.3040434
000200 19 f8 64 3e e5 12 81 3f 81 b1 ec be 5e 1d 99 be
       0.22360267 1.0083891 -0.46229175 -0.29905218
000210 7c f2 87 3e 18 90 7c be f3 f5 30 bd 63 4c 04 bf
       0.26552188 -0.24664342 -0.043203305 -0.51679057
000220 e1 f5 1a be c8 87 e6 bd 3d 11 73 bd 1f 2a 09 bd
       -0.15132858 -0.11256367 -0.05934261 -0.033487435
000230 8f 78 08 be 08 45 42 3e 12 50 fc 3e df 29 b4 3e
       -0.1332724 0.18971646 0.4927984 0.35188195
000240 76 0b 6d be 04 05 08 3f 68 06 02 bf b4 68 2f 3e
       -0.23148903 0.53132653 -0.50791025 0.17129785
000250 1f c6 4b bf dc d9 2f 3e f9 4c c4 3d 1a 48 00 be
       -0.79599184 0.1717295 0.09584994 -0.12527505
000260 c2 a4 72 3e 70 70 11 3f 8f a3 a2 3d 0b b3 b7 3d
       0.23695663 0.5681219 0.079413526 0.089696966
000270 ae 45 cf bd 19 94 27 3f 02 6e 5f 3d 66 ed f9 3e
       -0.10120712 0.65460354 0.05454827 0.48813933
000280 f3 62 a1 3e fc ed 43 be ce a5 0b be f5 b7 13 3e
       0.31520805 -0.19133753 -0.13637468 0.14425643
000290 5a 99 1a be 79 ed 57 be 6d 8f 95 be 95 ae 7e 3d
       -0.15097561 -0.21086682 -0.29210988 0.062178213
0002a0 bb 9b e9 be cf 04 66 be f0 92 d0 be 9b 98 44 3d
       -0.45626625 -0.22462772 -0.40737104 0.0479971
0002b0 ec 22 34 3f f0 54 59 3e 0b 60 07 be 04 78 2c 3f
       0.70365787 0.21223807 -0.13220231 0.6737063
0002c0 01 22 36 3f c6 ec 26 3d 97 67 b0 3c 95 65 e5 be
       0.71145636 0.04075315 0.02153377 -0.44804063
0002d0 fc 77 53 3e 3f 5a d3 be 3d 59 d3 bd 6d 41 d5 3e
       0.20651239 -0.4127979 -0.10319755 0.41651478
0002e0 7d 06 b6 3e 41 4a ca 3e 00 7c 82 3d 58 63 80 3f
       0.35551825 0.39509776 0.063713074 1.0030317
0002f0 69 99 b5 3d c8 52 10 be 22 c2 ce 3e 9b f6 2d ba
       0.08867151 -0.14094079 0.40382487 -0.00066361733
000300 ef b3 61 3e 3b 2f 9d 3e 6f dc 48 3e 02 2d a8 3d
       0.22041295 0.30700096 0.19615339 0.082117096
000310 aa b2 2b 3e 8e 65 d2 3e 6a 45 6f be d8 fb 8b bd
       0.16767374 0.41093105 -0.23366323 -0.06835145
000320 09 40 97 bc 91 c7 91 be fd 44 1a bc 98 97 63 be
       -0.018463152 -0.2847257 -0.009415862 -0.22225797
000330 7d 9b ef bd 6c ff 2d bf 06 c9 83 be 34 94 43 be
       -0.11699579 -0.6796787 -0.25739306 -0.19099504
000340 84 a5 d4 be 33 3a 2c be 72 f7 24 3e e9 d5 d4 be
       -0.41532528 -0.16819076 0.16110018 -0.4156945
000350 56 e9 c2 3d da 77 51 be c5 31 d6 be ea 35 7e 3d
       0.095171615 -0.20455876 -0.41834846 0.062063135
000360 51 3e 8f be b9 4b 81 be 8d e8 c1 be 1f 27 8a 3c
       -0.2797723 -0.25253084 -0.37872735 0.016864358
000370 9c fc c1 be c8 31 cc be 8b 5e ba be 24 d4 50 3d
       -0.37888038 -0.3988173 -0.36400256 0.050983563
000380 c8 cc 00 3e 93 0b 46 3e dc 5a a3 3c b3 f3 34 3f
       0.12578118 0.19340353 0.019940786 0.70684355
000390 9d d6 bf 3d ca a3 cb bc 97 ed 96 be 57 3c 3e bd
       0.09367106 -0.024858374 -0.29478142 -0.046444263
0003a0 f7 30 d6 be bc a9 d4 be d1 4d c9 3e 5e cc 14 be
       -0.41834232 -0.41535747 0.39317182 -0.14531085
0003b0 3b 15 cd 3e f8 d8 4e 3e c9 a4 25 bc 80 a1 f1 3d
       0.4005526 0.20199955 -0.010110089 0.11798382
0003c0 08 67 86 3e f5 e2 20 3f a3 ab aa 3d 1c 83 90 bd
       0.26250482 0.6284631 0.08333518 -0.07056257
0003d0 57 08 15 bd da 51 17 bd 2a a6 32 be d8 cb 27 3f
       -0.036384907 -0.036943294 -0.17446199 0.65545416
0003e0 61 b6 44 be 9f 35 f3 3e 36 03 d2 be 66 0e ce 3d
       -0.19210197 0.47501847 -0.41018075 0.1006134
0003f0 89 c0 44 bd ab f4 02 3e 3a 29 04 be 23 df 9b be
       -0.04803518 0.12788646 -0.12906352 -0.30443677

network_body._body_endoder.seq_layers.0.bias f4 [128]
000000 e5 5a ac 3c 66 0e 79 3b 03 84 c8 3b 66 df 93 3c
       0.021039436 0.0038002967 0.0061192526 0.01805086
000010 02 e3 85 3b e8 aa 72 3c a1 90 50 3c 63 3a 45 bb
       0.0040858993 0.014811255 0.012729795 -0.0030094616
000020 1a 92 9e 3c 30 42 5a bb 72 d3 88 3c a6 2d a8 3c
       0.019356776 -0.003330361 0.016702387 0.02052958
000030 1b 5d 31 bc a8 07 10 3d 15 5c 01 3d 60 10 c3 3a
       -0.010825421 0.03516355 0.031581957 0.00148822
000040 26 77 3a 3c 1a 08 80 3c 24 32 2c 3d e5 9a d0 3c
       0.011380946 0.015628863 0.042040005 0.025464484
000050 75 ab a0 3c e2 b2 10 3c 2d 1a be 3b 69 69 e1 3c
       0.019613007 0.0088317115 0.0058014602 0.027516084
000060 f2 2e cd 3c 35 03 5d 3c d9 6c b0 3b ce 3e 47 3c
       0.0250468 0.013489534 0.0053840694 0.01216097
000070 67 83 71 3c e9 8b b1 3c 13 cb 41 3c 92 74 49 3b
       0.014740801 0.02167316 0.011828202 0.0030739647
000080 a5 5a 90 3b 5d 02 25 3b a2 05 07 3d 81 ae b5 bc
       0.004405337 0.002517841 0.032964356 -0.022177937
000090 b0 86 73 bb 25 39 50 3b 38 42 c3 bc 79 1e 4b 3d
       -0.0037159137 0.0031772342 -0.023835286 0.049589608
0000a0 98 6d 24 bc 1e 3c 26 3d 50 40 b0 3c a1 ce fc 3b
       -0.010035895 0.040584676 0.021515042 0.007715062
0000b0 f5 51 8d 3c 59 bb a8 3c 64 c4 aa 3c 82 fa a2 3c
       0.017250994 0.020597147 0.0208456 0.019894842
0000c0 9a eb 81 3c 8a 5a 77 3b 74 2f 27 3c 97 39 c3 3c
       0.015859414 0.0037743174 0.010204185 0.023831172
0000d0 d9 f8 92 3a 08 fe 08 3d 1f e1 76 3c 3d 5a a9 3c
       0.0011213078 0.033445388 0.0150683215 0.020672912
0000e0 c5 6c ce 3c 0b 19 11 3d e7 ae 1b 3c 16 8e 72 3c
       0.02519835 0.035424273 0.009502149 0.014804384
0000f0 6c 41 f7 3c 5a d4 06 bd 06 57 08 3d bb 6b 22 3c
       0.030182563 -0.032917358 0.033286117 0.00991338
000100 85 38 b7 3c 7e e5 91 3c c9 ed 1d ba 0b 96 9d 3c
       0.022365818 0.017809626 -0.00060245075 0.019236585
000110 e8 a4 8e bb 07 f3 d6 3a f5 2c 15 3b 07 d8 d5 3b
       -0.0043531545 0.0016399332 0.0022762392 0.0065259966
000120 29 b1 07 bc f3 ad 21 3b 24 19 78 3c 16 b4 aa 3c
       -0.008281984 0.0024670332 0.015142713 0.020837825
000130 0b 2a 12 3d 5a 1e 50 3c 6d 28 44 3c 08 90 db 3a
       0.035684627 0.012702549 0.011972529 0.0016751299
000140 69 bb 94 3c c9 ff 34 3b 9c b5 49 3c 9b 8a 48 3c
       0.01815577 0.002761828 0.012311365 0.012240077
000150 b3 b6 9c 3c f5 be bd 3c a9 72 2c bc 45 0f bf 3b
       0.019130087 0.023162344 -0.010525384 0.0058306777
000160 29 37 a1 3c e7 f8 77 3c 14 e3 4a 3b 91 22 00 ba
       0.019679623 0.015135027 0.0030958103 -0.00048879633
000170 ce 35 17 3d f4 c6 82 3b 93 72 b3 3c f6 b3 da bb
       0.036916547 0.003991002 0.02190522 -0.006674285
000180 00 37 6e 3d 5d be a8 3c 50 33 be 3c cd c7 e3 3b
       0.05815792 0.020598585 0.023217827 0.0069513083
000190 e4 e5 f7 bc dd 55 ad 3c d8 9d a3 bc 8f a8 19 bd
       -0.030260988 0.021159107 -0.019972727 -0.037514266
0001a0 ce d7 c5 bb e1 e4 1c 3d 8f 69 6f 3c fd 07 24 3c
       -0.006037689 0.038304213 0.0146125695 0.01001167
0001b0 b6 9c 06 bc 75 62 a9 3c 79 94 87 3c 45 2a 4d 3c
       -0.008216074 0.02067683 0.01655029 0.012522285
0001c0 2d bc a2 bc 53 d3 95 bb 3a 30 40 3c b8 6e c5 3c
       -0.01986512 -0.004572311 0.011730248 0.024100646
0001d0 d6 fa c5 3c f4 35 c6 bc 85 cf 15 3d 93 2c 1a 3d
       0.02416746 -0.024195649 0.03657486 0.037640166
0001e0 aa 73 78 3c 7e ad 79 3c d6 44 1e 3c fa b2 d9 3c
       0.015164295 0.015239118 0.009659966 0.0265746
0001f0 a4 d2 94 3a 93 e0 35 bc ef 1c dd 3c 96 10 65 bb
       0.001135428 -0.011100906 0.026991336 -0.0034952513

network_body._body_endoder.seq_layers.2.weight f4 [128, 128]
000000 2c 6d 3a 3d e8 e9 1c bd ff ac bc bd 74 9f ce 3d
       0.04551427 -0.038309008 -0.09212684 0.10089007
000010 fa 5a 15 3e 4b bf de 3d 36 56 cd bd d6 40 e0 bd
       0.14585486 0.1087633 -0.10026209 -0.109498665
000020 4f a5 e5 bd 20 71 6b 3d a7 0f cc bb ac 09 11 3e
       -0.11213171 0.05748093 -0.006227452 0.14163846
000030 3e 05 43 bd f9 cf 8e 3d df b7 d5 bc 0d cb e1 3d
       -0.04761242 0.069732614 -0.026088653 0.11025057
000040 f3 6f d3 3d 19 07 79 3d 35 f0 2c be eb 0e 9b bd
       0.10324087 0.060797784 -0.16888507 -0.07571205
000050 aa 6d aa bc aa 7d 49 bd 9f 77 e0 3d 85 f3 2c 3d
       -0.020804245 -0.04919211 0.10960316 0.042224426
000060 87 d3 27 3d fd 96 c3 3d a5 50 de bd cd 71 78 3d
       0.040973213 0.09550283 -0.108552255 0.060655404
000070 5a 64 37 be f5 28 a8 3c 2a 3a 8e bd 8f 79 ee bd
       -0.17909375 0.020527342 -0.06944688 -0.11644279
000080 a3 6c 8d bd c4 7f 99 3d 36 b4 91 bd 4f 62 93 bd
       -0.069054864 0.074950725 -0.07114451 -0.07196485
000090 43 f8 41 3d fe 4f b4 bc af fc 51 bd 0a 10 2e bd
       0.0473559 -0.0220108 -0.05126637 -0.042495765
0000a0 81 06 45 3d 09 cb a8 bd 47 62 34 3c d0 af 82 3d
       0.048101906 -0.08241851 0.011009759 0.0638119
0000b0 96 c0 d9 bd db 2b 1a be 0b c7 d8 3d 9a 08 45 3c
       -0.10632436 -0.15055792 0.105848394 0.012025977
0000c0 4a 6f 1d 3e 48 5f 03 3e 4d d1 f7 3d 53 33 49 bc
       0.15374485 0.12829316 0.12100468 -0.012280303
0000d0 bb f5 88 3d 25 f7 c0 3d 43 83 b4 3d df 54 85 bd
       0.06687494 0.09422139 0.08814099 -0.065103285
0000e0 e7 1c 6b bc bc c4 03 be 1a 62 71 3d 2c 6a b1 3d
       -0.014350153 -0.12868017 0.058931448 0.08662829
0000f0 7e 6b 82 bd 02 8e 0b be 2e 2a 11 3e 91 9c fb bd
       -0.06368159 -0.1362839 0.14176247 -0.12285722
000100 a3 03 39 be 8a cb 22 bd 7a 37 a9 bb c5 18 8f 3c
       -0.18067794 -0.03974489 -0.005164084 0.017467866
000110 54 a0 9d 3d d8 3a fc bc ae 42 15 be b3 63 21 be
       0.07696596 -0.030789778 -0.14576218 -0.15760688
000120 1a d6 c0 3d c4 88 6c bd 17 c9 b8 3c aa 8b 59 3d
       0.09415837 -0.057747617 0.022556825 0.05311171
000130 5e a5 b0 3d c4 25 dd 3d 14 0d ac 3c 7d b2 87 bd
       0.08625291 0.10798219 0.02100233 -0.06625841
000140 a8 f3 4c bd 7a 9a 02 3d 5a b7 46 3e 7d 54 00 be
       -0.050037056 0.0318856 0.1940588 -0.1253223
000150 b7 d1 31 3d 93 df 1e bc 62 79 b1 3e d4 3a 14 3d
       0.04341289 -0.009696859 0.3466292 0.036188915
000160 87 e8 d5 3d 57 aa 70 3e e4 86 aa bd 5a 46 0c be
       0.10444742 0.2350248 -0.083265096 -0.13698712
000170 9b fe 32 bd 71 f4 fd 3d fb a9 a1 bd e9 23 e1 3d
       -0.043699842 0.12400139 -0.07893749 0.109931774
000180 42 e0 68 3c 6a 77 83 bc 4c 7f 68 bd 2d df 2e 3e
       0.0142136235 -0.016048152 -0.056762025 0.17077322
000190 13 5c 85 3d 78 56 17 bc 3e 09 98 3d cb 06 83 bc
       0.065117024 -0.009236924 0.07423638 -0.01599445
0001a0 4c ad 19 be 51 26 5b 3e 92 c2 51 3d 7d 92 aa bd
       -0.15007514 0.21401335 0.051210947 -0.08328722
0001b0 3b e7 29 be a3 2b 95 bd dd ad 72 bd 21 fc c2 bd
       -0.16592114 -0.07283714 -0.05924784 -0.09520746
0001c0 5e 41 72 3b 60 43 e9 bb 7c 5c 8c bb a2 c3 d9 bc
       0.0036965231 -0.0071186274 -0.004283486 -0.026582543
0001d0 c3 73 01 3d 9e 17 5b bd 7c 1d b6 3b 00 dc cf bc
       0.03160454 -0.05348932 0.005557714 -0.025373459
0001e0 31 11 e6 3d b0 e8 88 bd 81 e8 c7 bd c2 2c 0a 3e
       0.11233748 -0.066850066 -0.097611435 0.13493636
0001f0 e4 06 e5 3d 07 da dc 3d a4 2c 0a 3e 14 2d bb bb
       0.11182955 0.10783773 0.13493592 -0.005712161
000200 99 0b c3 39 ea 7b b9 bd fc 36 15 3c 0a 2a 0f 3d
       0.0003720194 -0.09056838 0.009107348 0.0349522
000210 73 ac b0 3c 1f 87 77 3d 8f 1c 3a bc a4 27 f8 bb
       0.021566605 0.060431596 -0.011359348 -0.007573085
000220 0b 6c 8e 3d cf 4d 46 bd 81 db 86 bc a3 c6 1f 3c
       0.06954201 -0.048414048 -0.01646209 0.0097519485
000230 66 b5 35 be 92 bd bd bd 7a ac 24 bd 82 31 a6 3c
       -0.1774498 -0.09264673 -0.04020355 0.020287279
000240 39 33 87 3e 3b 46 f2 bd 4c cc 21 3d 36 80 ad 3d
       0.26406267 -0.11829802 0.039501473 0.0847172
000250 c5 ad 57 be 06 8b 8f bd 8d fd 55 bc 37 cd 17 3e
       -0.21062382 -0.070089385 -0.0130609395 0.14824377
000260 68 4d 81 3d 57 47 3a bd 69 cf 08 bd b8 bd ea 3d
       0.06313592 -0.04547819 -0.033400927 0.11461967
000270 3d 68 5a bc d3 3a d1 bd d1 7b 0e 3e d7 f2 f5 bc
       -0.013330516 -0.10216298 0.1391442 -0.030023022
000280 00 a7 69 3d 73 98 08 3e ad 11 60 3d e1 58 b5 3c
       0.05704403 0.13339405 0.054704357 0.022137107
000290 c8 e9 33 3c b7 b3 b4 3d c7 4a 42 bc 0c de eb 3d
       0.010981031 0.088233404 -0.011858649 0.115169615
0002a0 b1 ee 9d 3d f2 da a6 bb d1 34 8b bd 35 e7 ec 3b
       0.077115424 -0.0050920183 -0.06797183 0.0072297105
0002b0 f3 32 53 bd eb 72 f3 3d 7c 32 8e 3b 18 94 86 bd
       -0.05156226 0.11887153 0.0043395143 -0.065712154
0002c0 f0 e4 25 bd 71 f3 90 bd ad e7 ff bd dc 95 b2 3d
       -0.040501535 -0.07077683 -0.124953605 0.0871999
0002d0 75 a4 71 bd 0b 80 b6 bd d8 aa f3 bd 48 6c 04 be
       -0.05899473 -0.08911141 -0.1189782 -0.12931931
0002e0 7d a4 3c bd 53 8b 40 3e 8a 68 06 be e0 ce 79 bc
       -0.046055306 0.18803148 -0.13125816 -0.015247077
0002f0 66 3a 09 3e 94 82 2f 3a 9a 18 4c bd 9b 3c 0b bd
       0.13401183 0.0006695178 -0.04982815 -0.033993345
000300 b6 71 2d 3d a5 3f 19 bc e6 a1 85 bd 44 3a ff bd
       0.04234477 -0.009353553 -0.0652502 -0.12462285
000310 fb b2 95 bd 19 a6 9f 3d df 6c 10 3c 11 eb eb bc
       -0.073095284 0.077953525 0.008815019 -0.028798612
000320 38 07 46 3c 71 23 94 be b0 ff e9 bd 03 5b cc 3b
       0.012086682 -0.2893329 -0.11425722 0.0062364354
000330 65 71 f3 3d 33 af 8f bd ce d4 01 be 7e 47 9a bc
       0.11886863 -0.070158385 -0.12678835 -0.018832918
000340 04 1b 94 3d e3 be 3f 3e 33 f6 d5 bc 27 d0 1c 3b
       0.07231715 0.18725161 -0.026118373 0.002392778
000350 34 72 06 be 54 21 cc 3d 1c 16 62 bb 14 4e 10 3c
       -0.13129503 0.09967294 -0.0034498041 0.008807678
000360 24 dd b1 3c 9a ac 9b 3c 55 ac 95 3d b1 f7 bd 3c
       0.021711893 0.019003201 0.0730826 0.023189398
000370 a9 83 fb 3c 67 ce 8c 3d 07 32 0e 3c 3d 98 d3 bc
       0.030702429 0.068753056 0.00867892 -0.025829429
000380 2f 4f 5d bd 15 79 a5 3d af ef 19 3e 5b d9 c8 3d
       -0.054030593 0.08079735 0.15032838 0.09807082
000390 01 50 f7 bd 5a 32 e0 3c d5 66 9e 3d 02 60 3e bd
       -0.120758064 0.02736776 0.077344574 -0.04647828
0003a0 ca 9b 09 3e 49 b5 e7 3d 0d 86 53 3d b0 0d c2 3d
       0.13438335 0.11313874 0.051641513 0.09475267
0003b0 d0 83 cb bd 2a ce 22 be cf 60 92 bd 6c e5 64 3c
       -0.099372506 -0.15898958 -0.07147371 0.013970714
0003c0 49 75 50 bd a1 93 22 be 7a f3 08 bd 5c e6 ac bc
       -0.0508931 -0.15876628 -0.033435322 -0.021105938
0003d0 a4 a2 18 bb 29 21 48 3d 3e bd b6 bd dc 32 ab 3c
       -0.00232903 0.04885975 -0.08922814 0.020898275
0003e0 41 78 04 3e 0a 41 27 be 90 9f 00 be dc 32 90 3d
       0.12936498 -0.16333404 -0.12560868 0.07040951
0003f0 3d a0 21 bc 04 57 94 bc b2 73 8e bd 6d 37 b3 3d
       -0.009864864 -0.018107899 -0.06955661 0.08750806

network_body._body_endoder.seq_layers.2.bias f4 [128]
000000 1b 8d 92 3c 76 0c 83 3c 7a cc 88 3c 40 33 98 3c
       0.01788955 0.015997153 0.016699065 0.018579125
000010 c5 89 e2 3c 2f 51 f6 b7 e9 5e b5 3c 79 49 61 3c
       0.027653584 -2.936329e-05 0.022139983 0.013750427
000020 5a 98 95 3c ca 11 95 3c 8f 14 1b 3c 56 91 cf 3c
       0.018261123 0.018196959 0.009465351 0.025337856
000030 48 ee cd 3c 7d 42 a9 3b 8d ac 75 3c 0f 3e 59 3c
       0.025138035 0.0051653967 0.014994753 0.013259425
000040 83 51 7e 39 a0 ee 42 3c ee f2 e6 3c 6b b5 1d 3c
       0.00024253693 0.011897713 0.02819201 0.009625773
000050 08 67 09 ba db fb c6 3c 9f 4e 58 bb cf 12 ae 3b
       -0.0005241488 0.024290016 -0.0033005846 0.0053123008
000060 54 12 43 3c d3 21 e4 3c e5 bb db 3c 51 7e ab 3c
       0.011906225 0.02784816 0.026822994 0.020934256
000070 54 34 9c 3c 04 c4 fb 3c af e8 85 3c 70 59 29 3c
       0.01906792 0.030733116 0.016346304 0.010336265
000080 17 19 7d 3c 29 33 f8 3c f4 39 d8 3c bf c3 1e 3d
       0.015447876 0.030297833 0.026394822 0.038760897
000090 d9 45 36 bc 62 4c 79 bb 25 bc 62 3c d1 38 7b 3b
       -0.011125051 -0.0038039912 0.013838802 0.0038333426
0000a0 34 30 a5 3c fa 46 e8 3b d3 10 a4 3b 53 58 6f 3c
       0.020164587 0.007088539 0.0050068884 0.0146084605
0000b0 03 68 65 3b 41 01 15 bc 2a 1d a2 3b ec d9 5e 3c
       0.0035004623 -0.009094537 0.0049473243 0.013601761
0000c0 ba ff 1a bc 85 ee 60 3c 94 89 e4 3b 0e a2 49 3c
       -0.009460384 0.0137287425 0.0069744084 0.012306703
0000d0 9d 3f 04 3d 13 50 c5 3a 0b 8c e8 bb 0e 0b ce 3b
       0.03228723 0.0015053771 -0.0070967725 0.006287939
0000e0 2e 10 cf 3c 03 7c 89 bb 36 45 6d 3c 98 c9 2b bc
       0.02527627 -0.0041956916 0.014481833 -0.010485075
0000f0 3b 9a 9b 3b c1 47 bc 3c 08 a8 5e 3c 61 ad 93 3c
       0.0047486103 0.022983434 0.013589866 0.01802701
000100 c2 a0 8f ba 1c 83 97 3c 0c bb 17 bb 86 28 de 3b
       -0.0010957944 0.018495135 -0.002315226 0.006779733
000110 86 ec a6 3c 40 c5 a1 bb ba 69 e4 3b af 63 0b 3d
       0.020376455 -0.004936844 0.0069706114 0.034030613
000120 79 fc a1 3c ee 21 c7 3c 0a a8 6f 3c dc 95 8b 3c
       0.019773709 0.024308171 0.014627466 0.017039232
000130 85 a4 00 bb f4 04 11 3d 85 a5 88 3c 38 a0 1c 3d
       -0.0019629311 0.035405114 0.016680488 0.038238734
000140 28 ee a2 3b d5 02 fb 3a c3 ce 4d 3c 15 b4 c1 3b
       0.004972238 0.0019150624 0.012561503 0.00591136
000150 fb 4c 82 3b 85 0c 7d 3c 72 6b 0a bc 42 71 3f 3c
       0.003976462 0.015444879 -0.0084484685 0.011684718
000160 7d a2 8f bb ab 69 f2 bb 67 67 5b 3c ef a1 f2 3b
       -0.004383384 -0.0073978505 0.013391352 0.007404558
000170 e3 58 60 3c 83 f4 8d 3c db d3 81 3c 00 53 ad 3c
       0.013693067 0.017328506 0.01584809 0.021157742
000180 5c f4 50 3c 82 95 11 3b 2c 45 21 3c 63 5d d1 3b
       0.012753572 0.0022214358 0.009843152 0.0063893064
000190 0a 9a 99 ba 53 48 b4 3c c8 6e f9 3b 54 a8 48 3b
       -0.0011718881 0.022007143 0.007612083 0.003061791
0001a0 91 a1 85 3c f6 1f c3 3c dd 89 ef 3c 70 a8 c8 3b
       0.016312392 0.023818951 0.029240543 0.006123595
0001b0 3d f4 4f 3d 61 62 6e 3c fc 39 a6 3c 03 5f 4b 3b
       0.050770033 0.014549823 0.020291321 0.0031031973
0001c0 5c 6d 53 bc 7c f9 e6 3b d0 56 7b bb c0 ae 6f 3c
       -0.012904491 0.007048784 -0.0038351305 0.014629066
0001d0 34 d7 7b 3c 08 e1 3f 3c a9 60 b7 3b 97 1a 18 3c
       0.015371133 0.0117113665 0.0055962396 0.009283683
0001e0 07 0e 41 3c bb 1e 12 bc 98 ec b5 3c bd d0 05 3c
       0.01178313 -0.0089184595 0.022207543 0.008167443
0001f0 fd 1d 77 3c 4c 25 9b 3b 8d 0c ee bb ba fd a3 3c
       0.015082833 0.0047346707 -0.0072646798 0.020018447

action_model._discrete_distribution.branches.0.weight f4 [3, 128]
000000 08 e9 12 bc 75 8b 57 bb bd 01 8f 3b 23 ce b6 bc
       -0.008966692 -0.003288952 0.004364221 -0.02231509
000010 07 9b 0a 3b 71 c5 aa 3b 93 4c 9c bb 71 c1 f4 bb
       0.0021149532 0.005211525 -0.0047698705 -0.007469349
000020 0e 3b bf bc 86 dd 9d 3b a2 30 39 bc b9 74 0e 3c
       -0.02334359 0.0048176674 -0.011303099 0.008694821
000030 1a d3 0a bc 6f 8e 54 3c 98 7d b7 b7 50 f3 94 bc
       -0.008473182 0.012973412 -2.1873784e-05 -0.018182427
000040 be f1 0b bc c7 1d 13 bb 33 80 1c bc 0c 96 78 bc
       -0.008541523 -0.0022448169 -0.009552049 -0.015172493
000050 32 29 fb 3a b8 20 7b bb e4 e5 86 3c b7 22 34 3b
       0.0019162057 -0.0038319062 0.016467042 0.0027486512
000060 ff 4f 9b bc 52 8c 63 bc da a1 53 bc 80 7e ac 3b
       -0.018959044 -0.013888435 -0.012917006 0.0052641034
000070 ec 80 c2 bc 9b e9 85 bc e6 af f3 bc 48 b4 42 3c
       -0.023743115 -0.016346743 -0.02974696 0.011883803
000080 70 88 cf bc ca 26 b6 bb e3 a4 30 bc b0 16 2c ba
       -0.025333613 -0.0055588232 -0.0107815 -0.000656466
000090 a2 ac 6f 3b cc 8d 2b 3c 29 ba 07 bc 46 f5 97 3a
       0.0036571403 0.010470819 -0.00828413 0.0011593483
0000a0 21 2d c2 bc 0b 71 d3 bb af 50 fd 3b a9 3b 6b bc
       -0.02370316 -0.0064526848 0.0077305655 -0.014357486
0000b0 63 9b cb ba 28 ba a5 3a 0f 79 1e bb 6d ff 54 bc
       -0.001553398 0.001264398 -0.0024181043 -0.013000351
0000c0 8f bf 74 bb a8 5c 1d bb 6b 0d 29 bc 9c 29 36 bc
       -0.0037345623 -0.0024011526 -0.0103181405 -0.011118319
0000d0 19 58 f9 bb 1a d1 fe bb 7d 0b 88 3c b2 84 db bb
       -0.007609379 -0.0077763917 0.01660704 -0.006699168
0000e0 3a bc 21 bc aa 63 c5 3b 16 6a 8d bc e0 8a 27 3c
       -0.009871537 0.006023844 -0.0172625 0.0102259815
0000f0 a5 91 62 bc a1 ed b8 3b ff 27 91 bc 26 c8 99 bb
       -0.01382867 0.005643562 -0.017719267 -0.004693049
000100 a5 4a 37 bc 1e cf 2d bc e1 f7 4b 3c 0f 3c e8 3b
       -0.01118723 -0.010608463 0.012449236 0.0070872377
000110 68 ec 32 bc ab f4 ba 3c ac 8c a9 3c 8e 10 33 bc
       -0.010920621 0.022821745 0.02069696 -0.01092924
000120 c6 ef 83 bc cb e0 11 bc 15 d4 44 bb 9e 57 0e bc
       -0.016105544 -0.0089036925 -0.0030033637 -0.008687882
000130 e9 6d 4d 3a ff dc c7 bb 7d 7f 64 bc 8d b7 13 bb
       0.0007836507 -0.006099343 -0.013946411 -0.0022539825
000140 68 3c b1 39 c9 0c 2b bc 98 14 70 b9 f1 d8 7c bb
       0.00033805077 -0.01044006 -0.00022895855 -0.0038581456
000150 13 7c 46 3b e5 ae bb 3a b3 86 00 bb 64 ab a5 bb
       0.0030286356 0.001431909 -0.0019611537 -0.0050558317
000160 da 92 12 3c 80 e9 f6 3b f8 89 4a bc aa fe 9c 3b
       0.008946145 0.0075351596 -0.012361996 0.0047911005
000170 82 8b 8b bc ef 32 1d bc 3e 24 23 bb 06 84 ca bc
       -0.017034296 -0.009594663 -0.0024893428 -0.024721157
000180 c5 7f 7b bc 67 bb eb 3b 77 2c f1 bb cc 16 87 bb
       -0.015350287 0.007193971 -0.007360037 -0.0041225906
000190 ea f1 ec 3b 35 2a f8 ba 01 28 cd bb c2 37 b2 bb
       0.007230987 -0.0018933477 -0.0062608724 -0.0054387758
0001a0 52 c1 a5 bc 31 e6 7f bc 20 fb 35 bc 5a c9 6b bc
       -0.020233784 -0.015618847 -0.011107236 -0.014391268
0001b0 f6 89 1b bc d4 2b 76 3a d0 a4 75 bc c3 3b a8 39
       -0.009493342 0.0009390686 -0.014992908 0.00032087983
0001c0 20 8d 08 bc 83 a4 77 bc 0a 4f ab 3c 5f d7 19 3b
       -0.008334428 -0.015114906 0.020911712 0.0023474318
0001d0 39 7e 90 bc a5 eb f7 3b e8 b3 c8 bb 38 59 02 3c
       -0.017638313 0.007565933 -0.006124962 0.007955842
0001e0 1b 39 45 bb 2c 38 97 3b 74 9b 0c 3b 56 21 0b 3c
       -0.0030093852 0.0046148505 0.0021454962 0.008491835
0001f0 a6 99 cb bc 53 f6 db bc 2b 20 8f 3b 84 d8 21 bc
       -0.024853539 -0.026850855 0.0043678484 -0.0098782815
000200 e9 91 e7 bc 56 f0 af 3c 2f d6 91 bc 80 c8 cb bc
       -0.028267818 0.021476906 -0.017802326 -0.02487588
000210 5e f9 04 bd 73 7a 36 3c 3b e3 d2 bc 7a 15 09 bd
       -0.032464378 0.011137593 -0.025743118 -0.033467747
000220 2b ec af bc be 69 91 3c 50 ca 9e bb 27 70 0d 3d
       -0.021474918 0.017750617 -0.004845895 0.034530785
000230 a3 07 04 3d 6b b2 a2 bc 93 e3 ed 3c 51 5a bf 3c
       0.032233845 -0.019860467 0.02903918 0.023358496
000240 e7 b3 d1 bc 0e 6f ba bc 74 4d 00 bd 74 9d 93 3c
       -0.02559848 -0.022758033 -0.031323865 0.018019415
000250 73 9f ed bc e6 cb db 3c 58 88 1f 3c d4 07 ab 3c
       -0.029006695 0.026830625 0.009737097 0.020877756
000260 07 00 0b 3d 86 ce fc 3c b4 d2 19 3d 50 86 ec 3c
       0.033935573 0.030860197 0.037554458 0.028872639
000270 e8 17 5f bc e7 0c 48 3d 6f 92 7c 3c eb 30 8d 3c
       -0.01361654 0.04884043 0.015415772 0.01723524
000280 c1 75 14 bc 8d 48 fb 3c 4f c4 28 3d a7 50 99 3d
       -0.009061278 0.030674243 0.04120284 0.07486086
000290 bc da 9e bc 57 38 ac bc 6d 13 1a bd 06 ba fa 3b
       -0.01939141 -0.021022959 -0.037616182 0.0076515703
0002a0 42 dd bc bc f1 75 98 3c 5b 2f f7 bc d7 77 c2 bc
       -0.023054723 0.018610926 -0.030173948 -0.023738785
0002b0 b3 2e 98 bc ec 19 28 bc 30 2f ec bc ef ac b4 3c
       -0.018576955 -0.0102600865 -0.028831095 0.022055117
0002c0 cb ba 25 bc b2 80 e3 3c 1d 84 27 bc 27 d5 aa 3c
       -0.010115336 0.027771328 -0.010224369 0.020853592
0002d0 50 97 39 3d ff ad bf 3b 47 46 95 bc 43 ce c6 bc
       0.04531032 0.0058495994 -0.018221987 -0.024268275
0002e0 9f 00 f8 3c 93 fb ad bc 4f 72 9d 3c 96 f2 8b bc
       0.030273734 -0.021238124 0.019219546 -0.017083447
0002f0 1b dd a7 3c f8 28 26 3d 58 ee b9 3c cf 99 1a 3d
       0.020491173 0.040566415 0.022696659 0.03774434
000300 57 38 d5 bc c4 87 f5 3c a9 c5 07 3c 5e 23 80 bc
       -0.026027841 0.029971965 0.008286872 -0.015641864
000310 b6 d7 a9 3c d5 b0 f9 3a 0a 37 3b 3c fa df 4c 3d
       0.020732742 0.0019049892 0.011426697 0.05001829
000320 6e 03 08 3d 9a 66 aa bc c5 25 8f 3c 96 1a f0 3c
       0.033206396 -0.020800877 0.017474065 0.029309552
000330 b4 d1 b1 bc b4 85 3f 3d c0 3c 17 bd ec c1 4a 3d
       -0.02170644 0.04675837 -0.03692317 0.049501345
000340 90 2b 59 3c 92 78 90 bb 28 a7 dd 3c 46 5e 01 3c
       0.013255015 -0.0044089044 0.027057245 0.007896012
000350 7b 49 0b bd e2 de f5 bc 98 af 8c 3b 63 ad 82 3c
       -0.034005623 -0.030013505 0.0042933933 0.015951818
000360 2e b9 53 bc bc 8b 78 3b 62 ee ea bc c2 df 6e 3c
       -0.012922568 0.0037925085 -0.028678123 0.014579715
000370 35 16 9c 3b df 8a 07 3d d6 d6 54 bd ed 28 07 3d
       0.0047633895 0.033091422 -0.051962696 0.032998014
000380 bb 0d ac 3c bc d5 1e bd 79 07 61 3c 24 f9 bf bc
       0.021002641 -0.03877805 0.013734692 -0.02343423
000390 4d 79 6f bc 41 f8 f3 3c de c0 99 bb 2b df 79 3c
       -0.014616323 0.029781463 -0.004692181 0.015250961
0003a0 59 38 97 3c 30 ae 48 3d 6f 07 37 3d c6 0c ea bc
       0.018459486 0.048994243 0.044684824 -0.028570544
0003b0 b1 19 68 3d a5 c3 ff bc 8d 31 0d bd 47 e5 0e 3c
       0.056665126 -0.03122122 -0.034471083 0.008721656
0003c0 66 c4 fc bb 82 d7 3c 3c 34 13 2b 3c b3 64 aa 3c
       -0.007713842 0.01152599 0.01044159 0.02079997
0003d0 49 49 a1 3c f4 72 02 bd d3 55 6f bc 8a 1e ee 3c
       0.019688265 -0.03184791 -0.014607864 0.029067297
0003e0 7f b1 c1 3c cd 0c 08 bc 5b ab 2b 3d 29 ac ca bc
       0.023644207 -0.008303833 0.041911464 -0.024740295
0003f0 87 eb 6f bc 00 1f 3b 3c 70 e1 e8 3a 4d f3 1d 3d
       -0.014643556 0.011420965 0.0017767381 0.038562108

action_model._discrete_distribution.branches.0.bias f4 [3]
000000 a2 3a 04 bc 01 6e 28 3c a1 e9 39 bb
       -0.00807062 0.010280133 -0.0028368013

onnx::Div_52 f4 [8]
000000 43 13 25 40 0c 3b 9f 3f b2 5d 9e 40 9d 1f 96 40
       2.5793006 1.2439895 4.9489374 4.691359
000010 af 11 18 40 62 c5 d6 40 07 41 b8 3f 38 00 00 3f
       2.3760793 6.7115946 1.4394845 0.50000334
