results/hope/Pong.onnx (onnx, 76281 bytes, 7 tensors)

network_body._body_endoder.seq_layers.0.weight f4 [128, 8]
00000000: 600f 0f3f 8e99 89be 7801 46be 0ce2 99be
00000010: 98a3 d8be 649c 3abf f950 de3e eabb 5ebe
00000020: 33ab 54be 361e f7bd cb6c e03d 31e7 2bbe
00000030: a709 403f be72 cd3d d7c5 52be 7ec4 cbbe
00000040: 5c36 29bf 1075 983e c267 ddbd a355 4abd
00000050: 3fcb e73e 3648 48be a19d 97be 0789 96be
00000060: a1dc d33e 0841 cc3e 72a9 aa3d 21f6 253f
00000070: 314e b8be d02d 24bd cf72 d2bd a8f0 ae3e
00000080: c507 d9be 5c09 303f 9711 ddbe 20a0 393e
00000090: 208a 25bd 46f1 1c3e 59ee dcbe cb49 82be
000000a0: ba5b 163f 80eb 94be c4d5 c4be 4138 17be
000000b0: 06c1 c5bd c8f4 f8be 2296 7c3e e5e6 793e
000000c0: 972a 2ebf b80a 973e dae0 e1be 7eec a8be
000000d0: e2ce 5d3e 9d93 e5be 3a18 0b3f b855 4cbe
000000e0: d54b 003f 96a2 203e 6298 433e 4de9 943e
000000f0: 8c9a f13e bb39 cdbc 19e0 e6be c1a4 6ebe
00000100: 9b77 893d 563a 8fbe fa2e 783e 5fe4 bc3e
00000110: ee15 9a3d 2dc7 d3bd a5d6 373e 6f37 85be
00000120: 79fb b13e 2a8f c6bd 7760 c03d b81d 583d
00000130: 6d75 96be 3d9e 003e 9f20 19bf 17d0 42bd
00000140: 8dde b73d 7100 25be 3a6c dbbd 1e62 3bbe
00000150: 6143 f5bd 0ac0 a7be 5b40 f3be a624 02bf
00000160: dda7 823e 1ecc b1bd 4dae a53e 2030 76bf
00000170: d161 6fbf 62e3 8bbe 27f6 b43c 80c3 e6bd
00000180: 155f 613f bf8f b3b9 304f 993e fd52 6abe
00000190: eb0d f9bd 3cb4 54bd a0fb 893e ff35 06be
000001a0: dfa2 76be 0d56 9d3e 6ff0 0cbe 53a8 623f
000001b0: ca1f 8fbd 3455 433e 5ddf 283d 94a7 2ebf
000001c0: 5b3a 4abf f3ab 123e 36ea 5c3e cb34 193e
000001d0: e20d 333e a751 acbd 5d5a 13bf 353e fd3d
000001e0: 5dd7 0dbf 271c 24be 90d6 c83e 4f23 753e
000001f0: 0a84 efbd 862f 85be ffc5 1e3f 2a13 ee3e
00000200: d368 10be 2bf2 0b3e 4d12 233e 6e0b 87be
00000210: 76da 993d 9e97 133d f2b7 333f aec0 d83e
00000220: 60e4 033e 3f56 efbe 16ab 0dbe 3ba7 1a3f
00000230: 9008 edbe 8942 a63e 39eb acbe 5f3a af3e
00000240: 718a 803e a652 00bf e49b 773e 321e 343e
00000250: 943a 0cbd 5c4f bbbe 6a9b 2f3e 5881 28bf
00000260: d125 063e 3498 36bf d904 ddbe 3abe dfbe
00000270: 9945 51be 6dfe bf3d eb3a ff3e be13 b5be
00000280: b663 96bd 2408 12bf 1a53 923e 93db f2bd
00000290: 7fdc e9bc d85d 9a3e eb55 833e 407b d3be
000002a0: e92c 863d 33f5 b2bd a882 f0be db9d 7fbe
000002b0: f0f8 7bbe cdd1 34be b7fb d6be bc72 723d
000002c0: 1aba af3e 83d7 1bbf 1eee 68bf 946a de3e
000002d0: a504 a03d 0a53 0c3e 416e d83e 004d a0be
000002e0: 402f f2be 22bd e03e ffda 8fbe 26a9 3ebe
000002f0: c89f c13e f367 56bf a808 723e c381 29bf
00000300: d64e 42bd d1ba f03e a1a2 8e3e f67e 913d
00000310: ed7f 7b3e b315 153e 6eb3 4abd 8b89 7d3e
00000320: 835e 9cbd ba41 963e 06b6 1b3e 6b20 f23e
00000330: 07b8 3abe 8ffc 0f3f 009a 4a3e 039b 81be
00000340: c5fd 31be cf02 263e aeeb 153f 1c53 d9bd
00000350: 04f7 04bf 9864 5bbd 4a28 a9be 2f6c 203f
00000360: 5d16 cfba 71af 06be fe1c 413f a300 c63e
00000370: e3fb d93e 5c06 203e dc49 883e 9ecb 3bbf
00000380: 56cb 52be c5b3 1f3d a498 f13c 90fd 2e3f
00000390: 9ac9 b23d 3a66 70be 3c2c 90be f6bc 28be
000003a0: 870d 94bd ce9b 30be 886c d03e b180 b7be
000003b0: fea7 c33e 46e4 4a3e fc71 c63e 0ed5 25be
000003c0: eb01 65be 658b 98be 7c82 b2be b73e 673d
000003d0: 2a6d c23b 3653 8d3b 911b 143e 311a f33e
000003e0: 8c57 82be 785e 16be d492 323e 6157 32bd
000003f0: 6e24 4d3d 9055 bfbe 1a59 9ebe 3bfa 933e
0.55882835 -0.26874965 -0.19336498 -0.30055273 -0.42312312 -0.72894883 0.43421152 -0.21751371
-0.20768432 -0.12066309 0.109582506 -0.16787411 0.7501473 0.10031651 -0.20583282 -0.3979835
-0.6609857 0.29776812 -0.10810806 -0.049398076 0.45272252 -0.19558796 -0.2961245 -0.2940142
0.41379264 0.39893365 0.083331004 0.6482869 -0.35997155 -0.040082753 -0.10275804 0.3416798
-0.4238874 0.6876428 -0.43177482 0.18127489 -0.04041493 0.15326414 -0.43150595 -0.25446925
0.58733714 -0.29085922 -0.3844434 -0.14767553 -0.09655957 -0.48624253 0.24666646 0.24404486
-0.68033737 0.29500365 -0.4411686 -0.3299293 0.21660951 -0.44839182 0.5433384 -0.19954574
0.5011571 0.15687022 0.19101098 0.29084244 0.47188222 -0.025051942 -0.45092848 -0.23305036
0.06712266 -0.27974194 0.2423667 0.36892983 0.07523714 -0.10340724 0.17952974 -0.26018855
0.3476217 -0.09695275 0.09393399 0.052762717 -0.29386464 0.12560363 -0.598154 -0.04756173
0.08977995 -0.1611345 -0.10714002 -0.18299147 -0.11975742 -0.32763702 -0.47510037 -0.5083717
0.25518695 -0.086815104 0.32359543 -0.9616718 -0.9350863 -0.27321917 0.02209003 -0.112677574
0.8803571 -0.0003424864 0.29943228 -0.2288322 -0.12160858 -0.051929697 0.26949787 -0.13106535
-0.24085568 0.30729714 -0.13763593 0.8853809 -0.06988485 0.19075471 0.04122864 -0.68224454
-0.78995293 0.14323406 0.2157372 0.14961545 0.17485765 -0.084140114 -0.5755976 0.12365381
-0.55406743 -0.16026364 0.39226198 0.2393925 -0.11695106 -0.2601282 0.6202087 0.46498996
-0.14102487 0.13666598 0.1592495 -0.26375908 0.07512371 0.036033265 0.70202553 0.42334503
0.12880087 -0.46745488 -0.13834795 0.60411423 -0.46295595 0.32472637 -0.3377321 0.3422422
0.25105622 -0.5012611 0.24180561 0.17589644 -0.034235552 -0.36583984 0.1714913 -0.6582236
0.13100363 -0.71325994 -0.4316776 -0.4369982 -0.20436706 0.093747 0.49849638 -0.35366625
-0.07343237 -0.5704367 0.28579026 -0.11858287 -0.028547524 0.30149722 0.25651488 -0.4130497
0.06551535 -0.08738174 -0.46974683 -0.24962561 -0.24606681 -0.17658158 -0.41988918 0.05919145
0.34321672 -0.6087572 -0.9098834 0.43440688 0.07813386 0.13703552 0.42271617 -0.31308746
-0.47301674 0.43894297 -0.28096768 -0.18619213 0.37817216 -0.83752364 0.23636115 -0.66213626
-0.047438465 0.4701753 0.2785845 0.07104294 0.24560519 0.14559059 -0.049487524 0.247595
-0.07635214 0.2934702 0.15206155 0.47290358 -0.18234263 0.5624475 0.19785309 -0.25313577
-0.17381962 0.16212009 0.58562744 -0.10611555 -0.51939416 -0.05356273 -0.3303855 0.62665075
-0.0015799511 -0.13152863 0.75434864 0.3867236 0.42574987 0.15627426 0.2661885 -0.7335757
-0.20585379 0.0389898 0.02949173 0.68355656 0.08729859 -0.23476496 -0.28158748 -0.16478333
-0.07229143 -0.17246935 0.40707803 -0.3584037 0.38214105 0.19813642 0.38758838 -0.16194555
-0.22364013 -0.2979385 -0.34865177 0.056456294 0.0059334235 0.004312898 0.14463641 0.4748092
-0.25457418 -0.14684474 0.17438823 -0.043540362 0.05008357 -0.37369967 -0.30927354 0.28901848

network_body._body_endoder.seq_layers.0.bias f4 [128]
00000000: 9417 e5ba 1b60 e83a 378e dfba 2da3 8a39
00000010: 79d0 713a e2a8 333a 6dde e6ba f4e8 f6ba
00000020: a4b2 31ba c65e edb7 53dd 3539 aed6 e739
00000030: baa5 d03a 5803 5c3a c143 80ba d257 2c3a
00000040: 46cd 0e3a 6d58 a2ba 1a74 c13a ac3f bfba
00000050: 48eb 2536 db37 9b3a da10 75b9 bf56 06bb
00000060: 4246 413b a525 be39 b6e7 2cba 9329 6939
00000070: 5cde 2dba 9c0b 46ba 3522 513b 28ab 1339
00000080: 3887 453a b4ab 153a 5c88 f6b9 8db6 c33a
00000090: 42bb 1ab8 20e5 fdb9 55f3 c03a 7c5d 103b
000000a0: efe1 8639 0c3a 03b7 de5d 8739 0ca1 07bb
000000b0: 4747 ddb9 f94f 753a 19c8 98b9 9b63 9739
000000c0: 6494 bb39 b12a aeba 562f 2839 0a23 07b8
000000d0: 5fbe d0ba 6b61 aa3a 8d5d 2c39 c655 9037
000000e0: 9b38 8cba 7ac4 1f39 d244 da39 6045 bcba
000000f0: bb69 cb3a 0a57 e1ba 0e7f ef3a 8d67 3c3a
00000100: 0404 9d39 6694 2cba f75d 0cba f9cc 29ba
00000110: 7b37 bfba 795e e8b9 a6ac fdb9 06be c038
00000120: fb9b cbb9 95bd e0ba 0312 74ba 4e63 643a
00000130: b82d 433a 6dc5 183b a759 2bba c579 45ba
00000140: 1281 b5ba 9c29 2dba b8de 10b8 dfed 13bb
00000150: a728 a73a e274 2a3a 0f4f 143b 0cec 5fbb
00000160: 88ab 093b 5a06 f5ba affd 04ba cf60 b2ba
00000170: 7022 e239 b403 b539 373a b639 3b67 27ba
00000180: ab88 b3b9 9816 cfba b8de 70b8 83dd 303b
00000190: a16a abba 7518 8fb7 0a54 1c39 8cce 2aba
000001a0: b6b8 163a e94e 073a 48fb c93a 4132 31bb
000001b0: 27a1 f6ba 0bee 34b8 e829 203a 7554 0fb8
000001c0: 564a a039 6f03 30ba 99db 3dba 105e 5db9
000001d0: e0e4 2a38 eb16 c4b9 ccd9 b3ba a8f6 0fba
000001e0: 8ac0 9bb9 f536 c9b9 c3b6 723a e162 d5ba
000001f0: 890d 41b9 1328 2fba 8d5c 00bb 2ca0 3f3b
-0.001747834 0.0017728837 -0.0017055933 0.00026442987 0.0009224485 0.00068534736 -0.0017613895 -0.0018837736
-0.00067786337 -2.8296734e-05 0.00017343955 0.00044219702 0.0015918531 0.0008392832 -0.0009785817 0.00065743655
0.0005447458 -0.0012385972 0.0014759332 -0.0014591119 2.4723868e-06 0.0011842208 -0.00023371298 -0.0020498482
0.002949134 0.0003626767 -0.0006595807 0.00022236099 -0.00066325604 -0.00075548305 0.0031911258 0.00014082773
0.0007535103 0.00057094847 -0.00047022372 0.0014931724 -3.689086e-05 -0.00048426632 0.0014720956 0.0022028377
0.00025726805 -7.821724e-06 0.00025819143 -0.0020695357 -0.0004220551 0.0009357925 -0.00029140784 0.00028875176
0.0003577798 -0.001328787 0.00016039363 -3.221914e-05 -0.0015925876 0.0012999004 0.00016438049 1.7206079e-05
-0.0010698022 0.00015236615 0.00041631475 -0.0014363937 0.0015519181 -0.0017192077 0.0018272118 0.0007187061
0.00029948365 -0.00065833924 -0.0005354578 -0.00064773817 -0.0014588678 -0.00044320876 -0.00048384554 9.190668e-05
-0.00038835392 -0.0017146344 -0.0009310545 0.00087123073 0.00074454723 0.0023311034 -0.00065364916 -0.00075330987
-0.001384767 -0.00066056265 -3.45397e-05 -0.0022572202 0.0012753204 0.0006502402 0.002263013 -0.0034167795
0.0021006782 -0.001869391 -0.0005073202 -0.0013609173 0.00043131737 0.0003452577 0.0003475712 -0.0006385927
-0.00034243366 -0.001579958 -5.7427882e-05 0.00269875 -0.0013078043 -1.7058317e-05 0.00014908626 -0.0006515763
0.000574957 0.00051616 0.0015409971 -0.002703801 -0.0018816338 -4.313704e-05 0.000610976 -3.4172514e-05
0.00030572963 -0.0006714379 -0.00072425004 -0.00021111243 4.0744315e-05 -0.00037401108 -0.0013721525 -0.0005491772
-0.00029707357 -0.00038378654 0.0009258801 -0.0016280079 -0.00018410957 -0.0006681692 -0.0019586415 0.0029239757

network_body._body_endoder.seq_layers.2.weight f4 [128, 128]
00000000: dbd8 69be b0bc a3bd 2444 eb3c 2dd6 a43d
00000010: b25f f73c 9a57 0fbe b9ba de3c 60f5 ebbd
00000020: 4d24 023d d8aa a0bb 9b1a 813d e300 4cbd
00000030: 4faa 843d 63ca 4bbd 3943 d2bb db50 e93d
00000040: 08e8 6eba ecf4 8b3d 23a2 72bd a14e 273e
00000050: 948e 2e3e 3a3d 4bbc 87fe 8e3d 5de6 4e3e
00000060: aeba 463d 4385 ffbc 2477 06be db62 2f3e
00000070: 92c0 433e ce31 763c f862 303d 8191 a3bd
00000080: 509b f9bc 20b4 febd 248f 263d be5f a83d
00000090: 497b 383d 7b72 4a3e b48c e63c 326b a53d
000000a0: 7a92 ef3d cf57 9abd 999c aebd aaca 433c
000000b0: 78b2 733d 11bf 0fbc 8ae4 e1bc 83ea cd3d
000000c0: 8e18 d0bc ba10 be3d 3156 21bc a7b0 5bbe
000000d0: a7f1 823d 9685 813c 0980 b33c c7dc 843c
000000e0: e4ff a23d 9047 d2bc 12a4 fabc c55f fe3d
000000f0: a41e 863c 9c6e bb3d 6f14 abbd 6163 fb3d
00000100: 9fe7 2d3d d33b 9b3d 2386 ec3c 8ae1 d7bc
00000110: 2e1c 14be dfea 31be 8b02 7cbd 39a4 e6bc
00000120: b3a1 8ebc 1b1e 1d3c b8a0 5a3c 269a 5dbd
00000130: 85ad f5bc d2e7 6a3e 52c2 273d 65e8 06be
00000140: 3329 aebc 6deb 873d df40 553c c2cc b7bd
00000150: 1861 93bb 065c 623d 4da0 63bc 94a2 953a
00000160: a03c fbbc 0946 c1bc 70a5 afbd 29f8 073e
00000170: c1a9 8cbb cb45 11bd b123 cb3d 5e43 f2bc
00000180: 1eca 23bc 2110 a5bd b2f9 74bc 2845 25bd
00000190: 2bbd 0c3e 2441 55bd 0965 28bd 9881 fbbc
000001a0: c7ef 343d b78c f43d 2365 0f3d 596c 1b3c
000001b0: 02ec b33d d729 d7bc 0ade b93c 1b54 433d
000001c0: 6174 a53c 91f1 07be 9062 e73d 253e 2ebd
000001d0: d860 573d fee6 68bb cbb6 be3d af40 57bd
000001e0: d1b2 a13d d16d 51bd 40d6 7bbd 73b3 81bd
000001f0: f760 84bd 07ac c1bd 8f65 0c3e f8ed 42bd
00000200: 854a 24be 22d9 4ebd 0147 32bd 600e 56bd
00000210: 8bae cc3d e908 d23d cb67 e3bd c0e4 9bbd
00000220: 95a3 433e 1b05 123c 03aa 95bd 2b97 813c
00000230: 63cf 803d 8b66 65bd ed78 f53d 6181 523d
00000240: 2372 f63d a7da febd df27 e43c cf9e 9bbd
00000250: fcd7 46bc bb60 c6bd b3ef 543e a4b1 37bb
00000260: 8a06 2dbc eba0 b2bd f1cc e73c b999 9abd
00000270: 8c62 ac3d 07c4 f03d 3c2b c8bd 34cd 5abe
00000280: 28c4 bcbd 0f4c 56be ebfc 213c 2462 49bc
00000290: 3210 18bc 5574 b7bd e1eb 7e3d b149 a53d
000002a0: 437b c5bc a70a 99bd 3fcb b5bc 6bdf 253c
000002b0: 2679 82bd dec8 2a3c 8066 b2bb b5af c7bd
000002c0: 0f86 dbbd 9114 f1bd c39b b5bd 5a57 0abd
000002d0: b729 a73d 0070 3abc 89a8 d9bc 2948 7b3d
000002e0: 46d4 d5bd 3992 173c 3bec 8b3d c010 3cbd
000002f0: 1841 89bd f642 e83d b003 893d 05c3 04bd
00000300: 21fd 6b3e 2a70 003a 3296 283c 4935 883c
00000310: ab39 c2bc 4dca b1bd 9549 01be b925 19be
00000320: ead5 79bd eeaf c13d aa14 01be 7513 e7bd
00000330: f047 33bd 7ee2 35bc 8d45 3abb 2db3 3abd
00000340: ab3d 3dbc 75d0 94bd 1896 acbd 3030 823d
00000350: 0fba 553d 7260 48be dfac e4bd 5256 823d
00000360: 6a5d ea3d a98b c8bd b246 1d3d d394 54bd
00000370: a8a0 6c3d 5534 c73d e61d 4bbe f847 40bd
00000380: 1897 05bd c7dd 913b 116c 413d 6d5e d23d
00000390: be0b 6fbd a56e c03c c0b0 a53d 7d75 933d
000003a0: e8e3 00be 56bd 18bc c633 7ebd b345 bdbc
000003b0: 610f dcbd 341c 73bc 412a 71bd a6bd 123d
000003c0: 1c9b 21bd 57c6 e83d 42fb 80bd 9b04 4dbe
000003d0: bd56 aabc 6666 1b3e f7ac e43a b667 74bd
000003e0: b275 1e3e 63fe 1f3e 6b89 073d f777 813d
000003f0: 7be2 85bd 0f46 da3d 7c7a c5bd cdf4 2d3d
-0.2283663 -0.07994974 0.028719015 0.08048663 0.030196998 -0.13998261 0.027188646 -0.11521411
0.0317729 -0.0049031787 0.06303903 -0.049805533 0.06477796 -0.049753558 -0.006416705 0.11392375
-0.0009113555 0.068338245 -0.059236657 0.16338588 0.17046577 -0.012404734 0.06982141 0.20205064
0.048517875 -0.031191474 -0.13131386 0.17127554 0.19116428 0.015026523 0.043063134 -0.07986737
-0.030469567 -0.124367 0.040663853 0.082213864 0.04503945 0.19770233 0.028143264 0.080770865
0.1169786 -0.075362794 -0.085259624 0.011950174 0.059496373 -0.008773581 -0.027574796 0.10054495
-0.025402334 0.09280534 -0.00984721 -0.21454106 0.06393748 0.015810769 0.021911638 0.016218556
0.079589635 -0.02566889 -0.030595813 0.1242061 0.016372032 0.091519564 -0.08353507 0.122748144
0.04245722 0.0757977 0.028872555 -0.026352663 -0.14463875 -0.17374752 -0.061525863 -0.02815448
-0.017411089 0.009589697 0.013343982 -0.054102086 -0.029989967 0.22939995 0.040956803 -0.13174589
-0.02125988 0.06636701 0.013015955 -0.08974601 -0.0044976585 0.05526354 -0.013893199 0.001141625
-0.030668557 -0.023592966 -0.085764766 0.1327826 -0.004292697 -0.03546695 0.09918917 -0.029573139
-0.009996919 -0.08059717 -0.01495211 -0.040349156 0.13744037 -0.052064076 -0.04111198 -0.030701444
0.044173982 0.11940902 0.03500856 0.009486281 0.08785249 -0.026265068 0.022688884 0.04768763
0.020197095 -0.13275744 0.11298096 -0.042539734 0.05258259 -0.0035538073 0.09312209 -0.05255192
0.07895435 -0.05113012 -0.06148362 -0.06333055 -0.06463807 -0.0945664 0.13710617 -0.047590226
-0.16044052 -0.050500043 -0.043524746 -0.052259803 0.09994229 0.10255606 -0.11103781 -0.0761199
0.1910537 0.00891235 -0.07307818 0.015819153 0.06289556 -0.056005996 0.119859554 0.051392917
0.120334886 -0.124440484 0.027851043 -0.0759865 -0.012136456 -0.096864186 0.20794563 -0.0028029466
-0.010560641 -0.08722099 0.028295966 -0.075488515 0.08417234 0.11756139 -0.09773871 -0.21367341
-0.09217101 -0.20927452 0.0098869605 -0.012291465 -0.009281205 -0.089577354 0.06223667 0.08070696
-0.024106627 -0.07472735 -0.022191642 0.010124068 -0.063707635 0.010423867 -0.005444348 -0.0975031
-0.10718929 -0.11771501 -0.088676 -0.03377471 0.08162253 -0.011379242 -0.026569622 0.061348114
-0.104408786 0.009251171 0.06832167 -0.04591441 -0.06701869 0.11340897 0.066901565 -0.032412548
0.2304578 0.0004899526 0.010289716 0.01662697 -0.023709139 -0.08681164 -0.12625726 -0.14955796
-0.06099502 0.09457384 -0.12605539 -0.11283008 -0.043769777 -0.011101363 -0.0028422803 -0.04558103
-0.011550347 -0.072663225 -0.084270656 0.06356847 0.052179392 -0.19568041 -0.11165785 0.063641205
0.114435986 -0.09792263 0.0383975 -0.051899742 0.0577704 0.097267784 -0.19835624 -0.046943635
-0.032614797 0.0044514867 0.0472222 0.102719165 -0.058360808 0.02349026 0.08090353 0.072001435
-0.1258694 -0.009322485 -0.062061094 -0.023104524 -0.10745121 -0.014838267 -0.058878187 0.035825394
-0.039454564 0.11365955 -0.062979236 -0.20021288 -0.020793313 0.1517578 0.0017446567 -0.05966922
0.15474585 0.15624385 0.033090036 0.063217096 -0.06537338 0.10657894 -0.09642503 0.04246979

network_body._body_endoder.seq_layers.2.bias f4 [128]
00000000: 484b 323a 2f70 bfba 35a2 5d38 26d0 ad37
00000010: 3d3d 38b8 4274 993a ea51 3639 0440 96ba
00000020: 7e5f 25bb 6623 11ba 914a 80ba 3028 69b7
00000030: 992b 8839 7ea8 f3ba ec11 3739 8075 753a
00000040: 4dec f3ba a2d1 fab9 2b03 f039 1634 1d39
00000050: dbc3 29ba abd2 8aba 034a 3439 515e 393a
00000060: 22f6 95b8 cb7c 963a bd6b c2b9 8818 c439
00000070: bc54 83b9 8834 8bb8 8cc4 fbb9 3c5e 80ba
00000080: 24d4 a03a 2c6d 01ba c9c3 0c3a 2761 663b
00000090: b04e bc39 b625 da39 ac68 afb9 dc4a e6ba
000000a0: c44e 7339 81d4 e73a 3bf1 493a 35c7 a53a
000000b0: 49ce 843a 38a8 b039 51b1 093b ec41 da39
000000c0: 18c2 23ba c863 bcb9 15f0 463a d2a0 cf39
000000d0: 83b1 323a ed20 ddb8 2b92 6939 d214 7bba
000000e0: 03d1 5239 7ed9 99ba 8284 a5ba 71ad 81ba
000000f0: 64af 9539 0d6d 5b38 3e76 8739 d906 6cb9
00000100: 77de 2339 5398 a338 75d2 853a 1e77 1938
00000110: 2609 433b fad2 86ba a401 0dba c0cb bdb8
00000120: dcc4 2aba d940 f9b9 f7cf 3c3a c38b 703a
00000130: 5369 ec39 c265 2bb8 f542 baba 0bfe c6b9
00000140: 4125 66ba 5730 143a 3ce3 93ba e9d7 5f39
00000150: 7044 7f38 f611 8d39 c6ff 87ba 3b87 62b9
00000160: bead ff38 2e85 cbba 1d8f 8aba bdd7 14ba
00000170: 03c2 b0ba e921 a13a cfa5 453a d0ee 07ba
00000180: 582a 2c3a 4307 b4b9 11e0 98b9 8c64 ca38
00000190: 40d8 59b6 82be c8ba 5531 85b8 493c b139
000001a0: 95ff 4abb 5b61 08bb 2bc4 83ba 7bb2 9ab9
000001b0: d6d1 7d3a 8f73 943a 6e9f 6cb9 e3d6 033a
000001c0: 4f7c 0b3a 1295 17ba 1202 1fba 032c b83b
000001d0: d2a8 5eba 525c e53a 05ef 8e39 dea6 76ba
000001e0: ac3c ac39 8f18 14b8 4b66 88ba 15cd 72ba
000001f0: dd70 a939 acab 8cba d162 afba 5eaa c8b9
0.0006801379 -0.0014605577 5.2841573e-05 2.0720134e-05 -4.392605e-05 0.0011707621 0.00017387388 -0.001146317
-0.002523392 -0.0005536586 -0.0009787848 -1.3897239e-05 0.00025972424 -0.0018589643 0.00017458916 0.0009363517
-0.0018609852 -0.00047839904 0.00045778728 0.0001499209 -0.0006476023 -0.0010591348 0.00017193709 0.0007071244
-7.1507195e-05 0.0011481283 -0.00037082835 0.0003740231 -0.000250494 -6.637821e-05 -0.0004802089 -0.0009793709
0.0012270254 -0.00049372273 0.00053697504 0.0035153122 0.0003591678 0.00041608297 -0.00033456588 -0.0017569917
0.00023203628 0.0017687232 0.00077034876 0.0012647869 0.0010132279 0.0003369467 0.002101023 0.00041629316
-0.0006246879 -0.00035932497 0.00075888756 0.00039601937 0.00068166124 -0.00010544234 0.00022275063 -0.00095779926
0.00020105024 -0.0011737791 -0.0012627991 -0.0009893609 0.0002855017 5.231523e-05 0.00025837304 -0.00022509265
0.00015627766 7.800818e-05 0.0010209816 3.658898e-05 0.0029760092 -0.0010286265 -0.00053789676 -9.050174e-05
-0.00065143197 -0.00047541296 0.000720262 0.00091760996 0.000450919 -4.0864346e-05 -0.0014210629 -0.0003795478
-0.0008779355 0.0005652955 -0.0011282931 0.0002134737 6.0860475e-05 0.00026906998 -0.0010375909 -0.00021603417
0.000121917095 -0.0015527362 -0.0010571216 -0.00056778995 -0.0013485554 0.0012293431 0.0007539661 -0.0005185427
0.0006567589 -0.00034337686 -0.00029158642 9.650839e-05 -3.2461394e-06 -0.0015315565 -6.351123e-05 0.00033804987
-0.0030975093 -0.0020809982 -0.001005297 -0.00029506147 0.0009682452 0.0011325943 -0.00022566106 0.0005029274
0.00053209526 -0.0005782406 -0.0006065677 0.005620481 -0.0008493784 0.0017498827 0.00027262434 -0.00094090204
0.000328516 -3.530882e-05 -0.0010406462 -0.0009262127 0.00032318282 -0.0010732315 -0.001338089 -0.00038273906

action_model._continuous_distribution.mu.weight f4 [1, 128]
00000000: 90f9 06bc 7ee4 0fbc bd60 e93c 8430 f43c
00000010: f9c9 07bd 3668 f1bc c68b 7dba 5aec 4abc
00000020: 91a0 54bc 1134 b2bc 5dc2 acbb 3f1b 20bc
00000030: a0c4 cc3c 5991 9a3c b594 b7bc f61a ccbb
00000040: 2f02 143b e381 893b 10ab 3cbc b91a 843b
00000050: 6d1a cabb 94db 8c3c 701c e4bc 21f6 673c
00000060: 68fc 9bbb 70d0 dd3b 480d 57bc 6eb2 453c
00000070: 4d20 0f3c 1ae3 a33c 3ae7 3bbc 2b7b 22bd
00000080: a908 ce3b d40a 773a 8b6a 0cbc 5485 bc39
00000090: d24f 01bc 8b77 b9bc d8fa 3e3b 8c01 17b9
000000a0: 9444 a3bc bf52 04bc 9d0e 22bc fd40 323c
000000b0: a0ea 27bc 208d 9cbb b73a c03c a270 45bb
000000c0: f9ee 553a 192e 0dbd 4a49 043d ecf9 8c3c
000000d0: 7623 a83c 1fbb 833b 2177 cc3c 54e2 d9b9
000000e0: 0bcf c0bb 9b2f 773c 28bd b83b 6f50 043d
000000f0: 27d9 d2bb 9907 7c3b 4033 46bc f7da 923c
00000100: 70bb d43c eeae 0e3d 5586 bdbb ebff 1fbc
00000110: cb6a 04ba 8739 453c e0a3 a8bc 82b6 05bd
00000120: b5f9 58bc 5794 523c 5b35 133b 8e43 a03c
00000130: 56fd 903c 31dc 8d3c de07 1cbc 6aaf c23b
00000140: e021 8f3b 9816 efbb 2a3c c6bb aab2 9ebc
00000150: e56c ea3c 558e 1e3c ca3d 383c afaa e2bb
00000160: 7f76 25bc 5387 f93c d6a3 01bc 33f4 f939
00000170: 3a53 9c3c 5301 2abc 2885 03bb a842 89bb
00000180: 964d d93c b735 993c e1c6 e13a af74 4b3a
00000190: 5676 d53c d9f6 95bc 9b38 b23c 4dbe b33b
000001a0: 1132 833a 09ed ffbb 85a6 0bbd 302e c8bb
000001b0: 268c 6ebc 104c 2b3c a6ff c4bc e30b 3abc
000001c0: ba74 92bb 95b0 cfbc cbc3 623b 0005 da39
000001d0: b5b3 9a3b 26c7 853c 6ec1 cebc 16f9 853c
000001e0: d380 d23c 5b3a 04bd e5c0 a2bb 2a53 19bc
000001f0: f439 2f3b 1972 a1bb b490 d0bb 685e 03bb
-0.008238211 -0.008782504 0.028488511 0.02980829 -0.0331516 -0.029468637 -0.0009672012 -0.012385452
-0.012977735 -0.021753343 -0.0052721933 -0.009772121 0.024996102 0.018868135 -0.022409776 -0.0062288
0.002258431 0.004196392 -0.011515394 0.004031506 -0.006167701 0.017194547 -0.027845591 0.014157803
-0.004760314 0.0067692325 -0.013125725 0.012066467 0.008735728 0.020005751 -0.011468703 -0.039668243
0.0062876535 0.0009423916 -0.008570324 0.00035957491 -0.007892566 -0.02264001 0.0029141214 -0.00014401058
-0.019930162 -0.008076369 -0.009891179 0.010879752 -0.01024881 -0.0047775656 0.023465497 -0.003012695
0.0008160915 -0.03446779 0.032296456 0.017209016 0.020524722 0.0040201093 0.024959149 -0.00041558093
-0.0058840564 0.015087034 0.0056377836 0.03230327 -0.006434578 0.0038456677 -0.01209718 0.017926676
0.025968283 0.034834795 -0.005783836 -0.009765605 -0.0005051314 0.012037641 -0.020585954 -0.032644756
-0.013243129 0.01285275 0.0022462222 0.019563463 0.017698925 0.01731691 -0.00952336 0.005941321
0.004368052 -0.0072963946 -0.0060496526 -0.019372303 0.028616378 0.009677489 0.0112452 -0.0069173197
-0.010099052 0.030460035 -0.007912597 0.00047674924 0.019082654 -0.010376292 -0.002006838 -0.0041888542
0.026526254 0.018702371 0.0017225408 0.00077612227 0.026057404 -0.018306183 0.021755507 0.005485332
0.0010009428 -0.007810239 -0.034094352 -0.0061090216 -0.014559781 0.010455146 -0.024047684 -0.011355373
-0.0044694813 -0.025352756 0.0034601565 0.00041583925 0.00472113 0.016330313 -0.025238719 0.016354125
0.025696194 -0.032282215 -0.0049668425 -0.009358207 0.0026737424 -0.0049269316 -0.006364906 -0.0020045284

action_model._discrete_distribution.branches.0.weight f4 [3, 128]
00000000: b9d1 bfbb 244f 8e3b 6bab 083c aed1 2f3b
00000010: 44f8 d0ba fc9e 1b3c 405e 19bb 76c1 0dbc
00000020: 0937 46bc 960a 57bc 8aca dfbb f86f 0cb9
00000030: b21b 433b 39b5 b03b 6b51 e3bb c0ed 18bb
00000040: 18d9 2d3c 779d c03c 7171 49bc 9d32 d0bb
00000050: c6fc 93bb 4729 0b3b 4d5d efbb 69ec 613b
00000060: 53a6 473c bcf7 78bb f3bc 063b a0fc 0b3c
00000070: 7f8c 9ebb 395f 17bc 568a f03b 0e0c 493c
00000080: c785 d43a bfcc 353c 45d3 543b b6d3 2abb
00000090: 667a e8bb 0005 d3bb fc6e f1ba b119 53bb
000000a0: 3d23 cb3b 1e00 3039 5e9a 12b9 afb0 5ebc
000000b0: 376d 97ba 1d3f 47b9 5ee6 b0b9 6de8 9d3b
000000c0: 6bfb ac3b 4873 b03c 9d9f 81bb 76ef 81bc
000000d0: d2d2 573b 6312 243c 1df1 2ebc 48da 76b7
000000e0: a6a7 cc3b a576 1bbc 7811 bebb 3a4d b23b
000000f0: cc41 563c 3f90 353c 3444 ea3b 3e74 53bc
00000100: 06ac c6ba c45c 163c 8302 c0bb 7527 abbc
00000110: 8969 adbc 589d b138 6748 f9ba d892 983c
00000120: 35ca e238 b8f2 743a a722 683c a855 2fbb
00000130: 306b e8bb de01 e5b7 aff9 0f3c ad6f 18bc
00000140: 8855 2a3b ed2d b1bb bb0f 9a39 1b62 bc3b
00000150: 9323 263c bf60 663c 1aa5 58bc 4276 b437
00000160: 98d1 81bb 0800 32bb d0ff 46bc 6e91 933c
00000170: cd0d feba b189 463c 2f11 283c af23 a13b
00000180: 1394 9e3b 3fd1 76ba 0ca1 093b 5f67 213c
00000190: 7538 0cbc e1d8 313c 66fb 8c3b 838f 87bc
000001a0: 21fd cebb 2557 ba3b 3f9f 5fba a5f1 fbb9
000001b0: 55b3 b9bb eb14 3b3c 79f0 0a3c 7cba d3bb
000001c0: c7a8 6cbc 9d46 1a3c d651 2f3c abea 96bc
000001d0: 3d6c 6fbc 4707 8b3c 27b2 b8ba a663 093b
000001e0: ca9c 913b 356f b8bb 1cd2 233a cda3 b6bb
000001f0: 8b47 29bc a919 7d3c e759 94bb a0f4 59bc
00000200: b7fa 95bc 4cec 0f3b 759b abb9 eea1 8f3c
00000210: 6741 e0bb 22c9 0f3c 8894 14bc c228 72ba
00000220: 5fa2 853c ca57 a8bb 5ff1 56bc f447 183b
00000230: 6ec4 67bc 86d6 f63b 65a4 0e3b 43a6 a9bc
00000240: ffd7 1ebc 42aa 133c 74ad 15b7 86fa 8a3b
00000250: 4af1 b2bb 869a 2bbc a218 26bb 54bd 94bc
00000260: 6761 423c c357 663b e77e b1ba 7662 cb3b
00000270: 49f4 82bc 14af 96bb 0435 bdbb 17fe 3e3b
00000280: bd5d 063c aea0 6dbb f455 60bc a533 36bc
00000290: 9534 743c 1437 43bb 1926 e83b d0d6 5abb
000002a0: 8972 c4bb 8d05 26bc 54ee 2e3c d4a4 cbbc
000002b0: d1bd 853b f31c 1bbb 9d87 00bc bbab d7bb
000002c0: 6e64 b1ba 02af 0b3c a4b6 e33b 2b40 133b
000002d0: 0988 a73b 7d43 b4bb 7fa9 47bb c52f ae3a
000002e0: af0f 093c 1282 e9bb bebd 963b 059c 4bbc
000002f0: a796 2ebc 25e0 abbc f631 d8bb 2dd5 ccbb
00000300: ceee 2c3b 4d7a a33b 018e 85bb 4a9c 7fbc
00000310: fd1e a5bc df0c c93b 67ef a33b 6c88 c23b
00000320: a8a6 bdbb 9b65 32ba e83a 9abb 2fbc 46ba
00000330: 3cd0 a53b ba97 e73a abdd 143c 81c9 40bb
00000340: caeb bfbb 9c98 c9bb 8e01 9f3a 7763 bbbb
00000350: b6bb da3b 7cd6 983b eacc 763c d80f 56bc
00000360: e231 e2bb 0e70 da3b 4aaa 25bc 0367 4a3c
00000370: 68ff 453c c11b 89bc 81b5 67bc 4dae 6a3c
00000380: cecd 61bc f511 8d3c 4a0a cd3a b33b c7bb
00000390: 9d82 9e38 f050 aab8 e66c e33a 6c0c de3b
000003a0: 012f c3bb 71b6 a1bb 6fb2 51bc 8f63 7abc
000003b0: c788 c0bb 6b36 abbb 735c 8b3b b0a7 e63b
000003c0: a812 d83b 5d73 11bb dfb7 3c3c 5709 1ebb
000003d0: 5c0a 8e3b 8f8c 503c 1264 143c 21f4 d73b
000003e0: 89b3 f8bb c1c9 f33c c008 6b3b afca 13bc
000003f0: 6035 833b a0bf 403c 5d47 7abb 19a0 8dbb
-0.0058538583 0.0043429304 0.0083416505 0.002682786 -0.001594313 0.009498354 -0.0023402125 -0.008652082
-0.012098082 -0.0131250825 -0.0068295645 -0.00013393152 0.0029771146 0.005392697 -0.006937196 -0.002333507
0.010610841 0.023512585 -0.012295113 -0.00635369 -0.004516217 0.002123432 -0.0073048235 0.0034473187
0.012185651 -0.0037989458 0.00205594 0.008544117 -0.004838526 -0.009239011 0.0073407097 0.0122709405
0.0016214185 0.011096179 0.003247456 -0.002606613 -0.007094669 -0.006439805 -0.0018419917 -0.0032211358
0.006199269 0.00016784712 -0.00013981151 -0.013591929 -0.0011552934 -0.0001900163 -0.00033740973 0.004818967
0.005278995 0.021539345 -0.003955795 -0.015861254 0.0032932055 0.010014149 -0.010677603 -1.4713565e-05
0.006245571 -0.009488736 -0.0058004223 0.005441335 0.013077211 0.011081754 0.0071492437 -0.012906132
-0.0015157468 0.0091773905 -0.0058596744 -0.020892838 -0.021168487 8.469325e-05 -0.001901877 0.018624708
0.00010814184 0.0009344029 0.014168418 -0.0026753936 -0.007092856 -2.7299797e-05 0.008787557 -0.009303969
0.0025990922 -0.005407086 0.0002938489 0.005749 0.0101403175 0.014061152 -0.013222957 2.151274e-05
-0.003961753 -0.0027160663 -0.012145951 0.018013682 -0.0019382775 0.012117789 0.010258003 0.004917584
0.004839429 -0.00094153354 0.0021000532 0.009851306 -0.008558382 0.010854931 0.00430243 -0.016547924
-0.0063167964 0.005686658 -0.00085305044 -0.0004805449 -0.00566713 0.011418561 0.008480185 -0.0064614397
-0.0144445365 0.00941625 0.010700664 -0.018422445 -0.014613208 0.016971244 -0.001409118 0.0020963936
0.0044437395 -0.0056284913 0.0006249265 -0.005573726 -0.010331999 0.015448012 -0.0045273188 -0.013302952
-0.018308027 0.0021960912 -0.00032731486 0.017533269 -0.006843734 0.008775981 -0.009068616 -0.0009237641
0.016312776 -0.0051374184 -0.013119071 0.0023236247 -0.014145954 0.0075328974 0.0021765467 -0.020709163
-0.009695052 0.009012761 -8.921477e-06 0.0042412905 -0.005460893 -0.010473853 -0.0025344272 -0.018156685
0.011864043 0.0035147525 -0.0013541848 0.006206806 -0.015985625 -0.0045985077 -0.005774142 0.0029143149
0.00820106 -0.0036259103 -0.013692368 -0.011120711 0.014905115 -0.0029787468 0.0070846197 -0.0033392198
-0.005995099 -0.010133159 0.010676939 -0.02485887 0.004081466 -0.0023668378 -0.007844833 -0.006581751
-0.0013533959 0.008525612 0.0069492627 0.0022468667 0.005112652 -0.0055012093 -0.0030466018 0.0013289383
0.008365556 -0.0071261013 0.0046002558 -0.012427335 -0.0106560355 -0.020980904 -0.0065977527 -0.0062509985
0.0026387456 0.0049889446 -0.004075766 -0.015601227 -0.020156378 0.0061355676 0.005002904 0.005936673
-0.0057876892 -0.00068053015 -0.004706729 -0.0007581142 0.005060224 0.0017669119 0.009086053 -0.002941698
-0.0058569657 -0.0061522257 0.0012131201 -0.0057186442 0.006675209 0.0046642404 0.015063504 -0.013065301
-0.006902919 0.00666619 -0.010111401 0.0123536615 0.012084819 -0.016736867 -0.014142395 0.014323783
-0.013781978 0.017220477 0.0015643325 -0.0060801147 7.558356e-05 -8.1213075e-05 0.001735118 0.006776383
-0.005956531 -0.004935079 -0.01279889 -0.015282526 -0.00587568 -0.005224993 0.004252964 0.007039033
0.006594021 -0.0022194006 0.011518448 -0.0024114454 0.004334731 0.012728824 0.009057062 0.0065903817
-0.0075897616 0.02975929 0.003586337 -0.0090204915 0.0040041655 0.011764437 -0.0038189508 -0.0043220636

action_model._discrete_distribution.branches.0.bias f4 [3]
00000000: 0a05 b839 ecaa bdb9 1f7d 6c39
0.0003509897 -0.00036176236 0.00022553325
